custom_grid/data/zzppo-0.0/ppo_iter_1400.pth (torch, 21533 bytes, 6 tensors)

fc1.weight f4 [64, 2]
0	0xbdc67c09	-0.096916266
1	0xbee5db4b	-0.4489387
2	0x3d99a4cf	0.07502138
3	0x3ee963a6	0.45583838
4	0x3e339679	0.1753787
5	0x3e9993b2	0.29995495
6	0xbebd773f	-0.3700504
7	0x3ec8c11f	0.3920984
8	0x3f15e86a	0.5855776
9	0xbf0517f5	-0.5198968
10	0x3edcd66a	0.43132335
11	0x3d770a64	0.060312644
12	0xbb5d3251	-0.0033751915
13	0xbd184425	-0.037174363
14	0x3f17a02d	0.59228784
15	0xbeb5c9a7	-0.3550541
16	0x3ee39cd0	0.44455576
17	0x3d910040	0.07080126
18	0xbe7eb900	-0.2487526
19	0x3e44e9b9	0.19229783
20	0xbc591478	-0.013249509
21	0xbeb9f84c	-0.36322248
22	0x3c35581e	0.011068372
23	0x3d24627b	0.04013298
24	0xbe962069	-0.29321602
25	0xbf02a2e9	-0.5102983
26	0xbe69543c	-0.22786039
27	0xbd92c18c	-0.071658224
28	0x3e35c0e9	0.1774937
29	0xc0312f20	-2.7685013
30	0x3f69e4b7	0.91364616
31	0xbfc8fb9a	-1.5701783
32	0x39a5f90c	0.00031656807
33	0xbde45244	-0.111485034
34	0xbd6f1bca	-0.05837611
35	0x3ef972d7	0.48720428
36	0x3b2d1e27	0.0026415677
37	0xbe7a3d38	-0.24437416
38	0x3ce60c49	0.02808203
39	0xbf0f4ae2	-0.5597364
40	0x3ea5d546	0.32389277
41	0xbe412939	-0.18863381
42	0x3d117e8e	0.035521083
43	0x3ef5f24d	0.48036423
44	0x3f178bdc	0.59197783
45	0xbee34e6b	-0.44395766
46	0x3cd12f05	0.025535116
47	0xbd3166b6	-0.043310843
48	0x3f416c1c	0.75555587
49	0xbf83352c	-1.0250602
50	0xbe81df2d	-0.25365582
51	0x3e27de87	0.16393481
52	0xb9b4897b	-0.00034434706
53	0xbcf809fe	-0.030278202
54	0x3dc3ed92	0.09566797
55	0x3f01020e	0.5039376
56	0x3e85a345	0.26101127
57	0xbe2ac76f	-0.1667764
58	0x3d4c3e4c	0.0498641
59	0xbf584215	-0.84475833
60	0x3dd25433	0.10269966
61	0xbfdc1ffc	-1.7197261
62	0x3f125be9	0.57171494
63	0xbf04281d	-0.5162371
64	0x3eda2eef	0.42613932
65	0xbd3062c2	-0.043062933
66	0x3e6fec40	0.23429966
67	0xbe7d6e03	-0.24748997
68	0xbe6a612f	-0.22888635
69	0xc0294aef	-2.6451986
70	0x3f064aac	0.5245769
71	0x3e2907cc	0.1650688
72	0x3f10eaa6	0.56608045
73	0xbf5d100f	-0.8635263
74	0xbec3b11d	-0.38221064
75	0xbf5d9e1e	-0.8656939
76	0xbe8900b1	-0.2675834
77	0x3de8f4ae	0.11374794
78	0x37349394	1.0763197e-05
79	0xbca930d8	-0.020653173
80	0xbee0633d	-0.43825713
81	0xbf5660ff	-0.83741754
82	0x3f0f7458	0.560369
83	0xbf09003f	-0.53516
84	0x3f137d3d	0.57612973
85	0x3db62888	0.088944495
86	0x3f3d1e18	0.73874044
87	0xbf8193fe	-1.0123289
88	0x3c05fe4c	0.008178305
89	0xbe82209d	-0.25415507
90	0x3f09a44f	0.5376634
91	0xbee32270	-0.4436221
92	0x3e5ef9e2	0.2177501
93	0x3eae8bc5	0.3409101
94	0xbebe6c94	-0.37192214
95	0xbdb7f8a0	-0.08982968
96	0x3f1ff107	0.62477154
97	0x3c656fbb	0.014003689
98	0x3c85b1c5	0.016320119
99	0xbf7d0251	-0.9883166
100	0x3c054a12	0.0081353355
101	0xbf22e7e5	-0.6363509
102	0xbe9e8fa9	-0.3096898
103	0xbf8ac55b	-1.0841478
104	0x3dce2240	0.100651264
105	0xbfdc78e0	-1.7224388
106	0xbed35689	-0.4127696
107	0xbe9918b3	-0.29901657
108	0x3d09e538	0.033665866
109	0xbf14e296	-0.5815824
110	0x3b0395b5	0.0020078246
111	0xbd74a8a1	-0.05973113
112	0x3f3d78f0	0.7401266
113	0xc009fbd5	-2.1559956
114	0x3e697079	0.22796811
115	0xbf83ecca	-1.0306637
116	0x3f0a3bf6	0.53997743
117	0xbfcae7c7	-1.5851983
118	0xbf027349	-0.5095716
119	0xbf564c01	-0.8370972
120	0x3b006c39	0.0019595756
121	0xbe86b73b	-0.2631167
122	0x3dc72919	0.09724636
123	0xbfe8fdbb	-1.8202432
124	0xbe4beb98	-0.1991409
125	0xbe5d2291	-0.21595217
126	0xbd162c52	-0.03666336
127	0xbf389e67	-0.721167

fc1.bias f4 [64]
0	0xbba99c4b	-0.0051761023
1	0xc034b77d	-2.8236992
2	0x404c5996	3.192968
3	0xbfb3de1a	-1.4052155
4	0xbfc9d662	-1.576855
5	0x3fc856a3	1.565144
6	0xbd778015	-0.060424883
7	0xc062e2b8	-3.5450878
8	0xbf725cf5	-0.9467309
9	0xc02653c1	-2.598862
10	0x3ed80090	0.4218793
11	0xbfcfdb63	-1.6238827
12	0x3fb97453	1.4488624
13	0xc06b2ea8	-3.6747227
14	0xbdfb8d87	-0.122828536
15	0xbfa40c9c	-1.2816348
16	0xbb11d678	-0.0022253077
17	0xc0531b5f	-3.2985456
18	0xbc4a4c68	-0.012347318
19	0x401ac11e	2.418037
20	0x402a6a26	2.6627288
21	0xc089f827	-4.311542
22	0x3f6e24bb	0.93024796
23	0xbeda703d	-0.42663756
24	0xc0107b96	-2.257543
25	0xc051a92d	-3.2759507
26	0xbbd5083e	-0.0065012267
27	0xc075b827	-3.8393648
28	0x400d4117	2.2070978
29	0x3ed4702f	0.4149184
30	0xbe0be365	-0.13660963
31	0xc033e8b6	-2.8110785
32	0x40268b36	2.6022468
33	0xbff32bb4	-1.8997712
34	0xbe61cb2d	-0.22050162
35	0xc030a0e6	-2.7598205
36	0x3f959142	1.1684954
37	0xbf38cdd5	-0.72189075
38	0xbf3293c7	-0.6975674
39	0xbafc6557	-0.0019256276
40	0xbe6c7274	-0.23090535
41	0xc026d73b	-2.6068866
42	0xc05a9676	-3.4154334
43	0xc00cc857	-2.1997278
44	0xbc213c45	-0.0098410295
45	0xc046d465	-3.1067135
46	0xc0675363	-3.6144645
47	0xc0991bc3	-4.784639
48	0xc05807d0	-3.3754768
49	0xbd01cdae	-0.031690292
50	0xbc0dbcba	-0.008650953
51	0xbe849cf1	-0.25900987
52	0xbdf592ab	-0.11990865
53	0x3fadcd3a	1.3578255
54	0x3fe90e59	1.8207504
55	0xbec88000	-0.39160156
56	0x3f9e5dcf	1.2372378
57	0xbd531116	-0.051529966
58	0x3eed623a	0.46364003
59	0xbfd496f2	-1.6608565
60	0xbe3fbc91	-0.18724276
61	0xbde3b202	-0.11117937
62	0xc00620d0	-2.0957527
63	0xbeca2576	-0.39481705

fc2.weight f4 [64, 64]
0	0x3e4bf80a	0.19918838
1	0x3f6f5a28	0.9349694
2	0x3e98ee8a	0.2986949
3	0xbd9fb894	-0.07798877
4	0x3f35ff3c	0.7109258
5	0x3f03a8ca	0.51429427
6	0xbf8ce068	-1.1005983
7	0x3d286dec	0.041120455
8	0xc107762c	-8.466351
9	0xbd6c46b2	-0.057684608
10	0xbe85bbb2	-0.26119763
11	0x3ecd3873	0.4008213
12	0xbd8cab3c	-0.06868598
13	0xbfd78f21	-1.6840554
14	0x40842004	4.128908
15	0xbf5816a2	-0.84409535
16	0xc03da000	-2.9628906
17	0x3ed19e97	0.40941307
18	0x3e0c1936	0.13681492
19	0x3e33568f	0.17513488
20	0x3e2d27b7	0.16909681
21	0xc10fc357	-8.98519
22	0xbe95f522	-0.29288584
23	0xbe5d56e8	-0.21615183
24	0xbd94bcd8	-0.072625816
25	0xc0074c46	-2.1140304
26	0x3dd365ee	0.10322176
27	0xc02353a7	-2.5519807
28	0x3e1e74b4	0.15474206
29	0x3cb28795	0.021793166
30	0x3e536b14	0.20646316
31	0xbfb81afd	-1.4383236
32	0x3f3c7e61	0.7363034
33	0x3f1c119e	0.6096438
34	0x3e92a0c5	0.28638282
35	0xc06ef5eb	-3.7337596
36	0xbec5a60d	-0.3860325
37	0xbd26d7d7	-0.040733185
38	0xbe638893	-0.22220068
39	0x3df709ca	0.12062414
40	0x3e2c835a	0.16846982
41	0xbfa18ab7	-1.2620457
42	0x3e00067c	0.12502474
43	0x3e97460e	0.29545635
44	0x3dc65d43	0.09685757
45	0xbe0fbcf9	-0.14036931
46	0xbe90607d	-0.28198615
47	0xbf9eccbb	-1.2406229
48	0x3e9b1c87	0.30295202
49	0x3d2a3b47	0.041560438
50	0x3d20104d	0.039078046
51	0xbe149dd9	-0.14513339
52	0x3fc1d1cb	1.5142149
53	0xbeeeff7c	-0.46679294
54	0xbe90ee2a	-0.28306705
55	0xbfe1b7db	-1.7634233
56	0xbf3afbc5	-0.7304042
57	0xbe9efb66	-0.31051177
58	0xbfaa7642	-1.331734
59	0x3e9a3388	0.3011744
60	0xbcb4ac68	-0.022054866
61	0x3e8b0699	0.2715347
62	0x3e3c8e52	0.18413666
63	0xbdfbfd7c	-0.12304208
64	0x3f07f8f2	0.53114235
65	0xc01c04a8	-2.4377842
66	0x3de16711	0.110059865
67	0x3e0cfda7	0.13768636
68	0xc0737207	-3.8038347
69	0xbf485785	-0.78258544
70	0xbf73560c	-0.9505317
71	0xbd8cc4e9	-0.06873495
72	0xbeb8bb81	-0.36080554
73	0xbef8d531	-0.48600152
74	0xbef26acd	-0.47347108
75	0x3f61bf78	0.88182783
76	0xbf31f2ec	-0.69511294
77	0xbd5f29c4	-0.05448319
78	0xc1078a3d	-8.47125
79	0xc0e1e61e	-7.0593405
80	0xbfb4fbf5	-1.4139391
81	0x3fb88c96	1.4417903
82	0x3dabc8f9	0.08387942
83	0x3f1ff997	0.6249022
84	0xbeae951b	-0.34098133
85	0xc02b6c70	-2.6784935
86	0x3e4f16ba	0.20223513
87	0xc0040668	-2.062891
88	0xc06ac747	-3.668413
89	0xc0011820	-2.0170975
90	0x3b3a9f24	0.0028476203
91	0xc0482b2e	-3.1276355
92	0xbe335b7b	-0.17515366
93	0x3ddf0880	0.10890293
94	0xc08a4ffa	-4.322263
95	0x3dd20cc8	0.10256344
96	0xbda9678c	-0.08271703
97	0xbf65bb59	-0.89738995
98	0x3e69dc2d	0.22837897
99	0xbdbdd345	-0.09268812
100	0xbe9709bc	-0.29499614
101	0xbe485b7a	-0.19566146
102	0xbd8a93eb	-0.06766494
103	0xbcc6b64c	-0.024256848
104	0x3eb872c7	0.36025068
105	0xbb75e4a6	-0.0037520318
106	0xbd19f227	-0.03758445
107	0xc0c68c80	-6.204651
108	0xbc7086df	-0.014680593
109	0xbcd93400	-0.026514053
110	0xbe4758b7	-0.19467436
111	0x3e063302	0.13105395
112	0xbeb1d36c	-0.34731615
113	0x3ef96919	0.48712996
114	0xbe21c31a	-0.15797082
115	0x3f2530c6	0.6452755
116	0xc05fa0bb	-3.4941852
117	0xbffeb267	-1.9898194
118	0xbeefc149	-0.46827152
119	0xbeed481b	-0.46344075
120	0x3db355fc	0.087566346
121	0xbf0b5343	-0.5442392
122	0x3f137cd0	0.57612324
123	0x3e922941	0.285471
124	0x3daba0f4	0.08380309
125	0xbe716dde	-0.23577067
126	0xbfa12bbb	-1.259147
127	0x3bfca9f0	0.007710688
128	0xbdb5ba1c	-0.08873388
129	0xbd9fe3b6	-0.07807104
130	0xbba8d77f	-0.0051526423
131	0xbba6b31e	-0.0050872704
132	0xbda1fe76	-0.07909863
133	0x3ecbe621	0.39824012
134	0xc011bca5	-2.277139
135	0xbdfca404	-0.12335971
136	0xc0864511	-4.195931
137	0xbdac551f	-0.08414673
138	0x3d90ec9d	0.070763804
139	0xbc87948c	-0.016550325
140	0xbdfb0a2c	-0.122577995
141	0xbeb707bb	-0.35748085
142	0x3cfa7c42	0.030576829
143	0xbdbe6c62	-0.09298016
144	0xc03609e0	-2.8443527
145	0x3ce4b57d	0.027918572
146	0x3e1e3b26	0.15452251
147	0xbe8bd957	-0.27314255
148	0xbfa84c03	-1.3148197
149	0xbc103ee4	-0.008804057
150	0xbdb32715	-0.08747689
151	0x3e437082	0.19085887
152	0xbdcef07c	-0.101044625
153	0xbc68ccf2	-0.014209019
154	0x3d3a0c22	0.045421727
155	0x3cabdd4d	0.020979548
156	0xbfbcec8b	-1.4759687
157	0x3bac909b	0.0052662618
158	0x3b1c36a2	0.0023836275
159	0x3d8c43d0	0.06848872
160	0xbfe12326	-1.7588851
161	0x3d388f98	0.045058817
162	0xbe395d3c	-0.18101972
163	0x3ea80da3	0.32822904
164	0x3d513864	0.05107917
165	0xbbc3c7fa	-0.005974767
166	0xbe0d1249	-0.13776506
167	0x3e462412	0.19349697
168	0xbf0f6e7f	-0.5602798
169	0xbd91c090	-0.071168065
170	0xbde6cc50	-0.11269438
171	0x3bb6f620	0.0055835396
172	0xbd147a60	-0.03624952
173	0x3ce2acf0	0.027670354
174	0x3b20de90	0.002454672
175	0x3e7ea555	0.24867757
176	0xbdef133c	-0.116735905
177	0xbe21046b	-0.15724342
178	0xbd4ac2fd	-0.04950236
179	0x3da3e554	0.08002725
180	0xbdd521d1	-0.104068406
181	0x3d2d7f5d	0.04235779
182	0xbdf0cbcd	-0.11757622
183	0xc0123d5b	-2.2849948
184	0xbbd0d365	-0.0063728564
185	0x3da54d2a	0.080713585
186	0x3d95a4fa	0.073068574
187	0xbfa73dc9	-1.306573
188	0x3dab2a5e	0.0835769
189	0xbdfa3e9e	-0.122189745
190	0x3ddc9b41	0.107718
191	0x3d8cd509	0.06876571
192	0xbafe3fc8	-0.001939767
193	0x3debe0f3	0.11517515
194	0xbe128c0d	-0.14311238
195	0xbdac2fdf	-0.08407568
196	0x3d955010	0.07290661
197	0xbd0027c4	-0.031287923
198	0xbcc26453	-0.023729479
199	0xbd5b2a15	-0.05350693
200	0x3db3b717	0.08775156
201	0x3cf226c2	0.029559497
202	0x3b163f73	0.0022926002
203	0xbd8d671b	-0.069044314
204	0xbe0e92fc	-0.13923258
205	0xbc956ada	-0.018239427
206	0x3cfe31cd	0.031029606
207	0xbd6c6580	-0.057713985
208	0xbd077f81	-0.03308058
209	0x3da5f0fc	0.08102605
210	0x3bd1c6d2	0.006401875
211	0xbd02542d	-0.031818558
212	0xbd0646db	-0.032782417
213	0xbde4bc5f	-0.111687414
214	0xbdfd00e5	-0.12353686
215	0xbd6dbe6f	-0.05804294
216	0xbd82215a	-0.063540176
217	0x3beb84b2	0.0071874494
218	0xbd2a3991	-0.041558806
219	0xbd42ac5a	-0.04752765
220	0x3deb06b1	0.11475886
221	0x3d19bec1	0.037535433
222	0x3daa347c	0.08310792
223	0xbd77dda0	-0.060514092
224	0xbd55989b	-0.05214749
225	0x3d239602	0.03993798
226	0xbdf7e8a8	-0.121049225
227	0xbda40463	-0.08008649
228	0xbc454de8	-0.0120425
229	0xbd9eadea	-0.07748015
230	0xbe06d80b	-0.13168351
231	0x3d8f9c89	0.070122786
232	0x3d8086c6	0.06275706
233	0x3ca61de0	0.020277917
234	0xbcb5e978	-0.022206053
235	0xbded203a	-0.11578412
236	0xbdaaafc7	-0.08334308
237	0x3d02590c	0.031823203
238	0x3d780d2c	0.060559437
239	0xbd42cf1f	-0.047560807
240	0xbd4ee4f2	-0.050511308
241	0x3d029b60	0.03188646
242	0xbdd60482	-0.104500785
243	0x3d418206	0.04724314
244	0xbd5f3a54	-0.054498985
245	0xbd12dc0c	-0.035854384
246	0xbd7fcbc9	-0.062450204
247	0x3c8b6c24	0.017019339
248	0xbd33528b	-0.04377989
249	0x3d599b8c	0.053126857
250	0xbc17a0b7	-0.009254626
251	0x3d86c9ff	0.065814964
252	0x3df62396	0.12018506
253	0xbd89042f	-0.06690251
254	0xbdfbcc90	-0.122948766
255	0x3dcd63aa	0.10028775

fc2.bias f4 [64]
0	0x3f1ba420	0.6079731
1	0x3eb86e6e	0.3602175
2	0xbe77a32f	-0.24183343
3	0x3d3df28c	0.04637389
4	0x3e2f5c46	0.17125043
5	0xbe1ee7d4	-0.15518123
6	0xbcfe090e	-0.031010177
7	0x3de537ba	0.111922696
8	0x3cf5beb2	0.029998157
9	0xc008d744	-2.1381388
10	0xc070515b	-3.7549655
11	0xbdde0466	-0.10840683
12	0xbd400d92	-0.04688794
13	0x3f2a2123	0.6645681
14	0x3e879f3e	0.2648868
15	0xbe8a6489	-0.27029827
16	0x3f53c4bf	0.82722086
17	0xbe3c9241	-0.18415166
18	0xbd89147b	-0.066933595
19	0x3eedaadf	0.46419427
20	0xbf82903b	-1.0200266
21	0xbe198f33	-0.14996032
22	0xbfd1207c	-1.6338038
23	0xbe8ad6c9	-0.27116993
24	0xbda2d890	-0.07951462
25	0xbe953dca	-0.29148704
26	0xbe245ac1	-0.16050245
27	0x3e1418cc	0.14462584
28	0xbdb61101	-0.08889962
29	0x3ebf0c51	0.37314084
30	0xbda21273	-0.07913675
31	0xbdedc979	-0.116106935
32	0x3cabdd14	0.020979442
33	0xbf31ff71	-0.695304
34	0x3cc0cdce	0.023535635
35	0xbf8e03d2	-1.1094916
36	0xbe3f297e	-0.18668172
37	0x3f3bbd84	0.7333605
38	0xbd6df5c6	-0.058095716
39	0xbf4be518	-0.79646444
40	0xbffeb3d8	-1.9898634
41	0xbd9bed2d	-0.07613597
42	0xbf44ad2a	-0.7682673
43	0xbebe4c24	-0.37167466
44	0xbd4745dd	-0.04865061
45	0xbeed63a7	-0.4636509
46	0xbdd64a00	-0.10463333
47	0xbe295ad1	-0.1653855
48	0xbe269ea8	-0.1627146
49	0x3ec8d3d6	0.39224118
50	0xbdfdd70a	-0.12394531
51	0x3ee9b295	0.4564406
52	0x3c94ef55	0.018180529
53	0x3e8f6192	0.28004128
54	0x3f7b31cf	0.98122877
55	0xbe5f416e	-0.21802303
56	0x3ec2b945	0.38031974
57	0x3f87dcb2	1.0614226
58	0xbe5d4880	-0.21609688
59	0x3dfb5019	0.12271137
60	0x3f0a33b4	0.5398514
61	0xbd69e706	-0.057105087
62	0x3f422f8b	0.75853795
63	0xbf8f1b42	-1.1180193

fc3.weight f4 [4, 64]
0	0xbf11c3a9	-0.5693918
1	0x3ebe342f	0.37149188
2	0x3ca86bc2	0.020559195
3	0xbd77442a	-0.06036774
4	0xbede2284	-0.43385708
5	0x3e94d818	0.29071116
6	0xbe1c18a4	-0.15243775
7	0x3cc77cb9	0.024351465
8	0x3ee922ae	0.4553427
9	0x403fc859	2.9966033
10	0xc10c74af	-8.778487
11	0xbd03c693	-0.032171797
12	0x3d8c4c84	0.06850532
13	0xbd622ba8	-0.055217415
14	0xbf06bae6	-0.52628934
15	0x3d9bcd80	0.076075554
16	0x3ea8550f	0.32877395
17	0x3deb642b	0.11493715
18	0xbdb46be8	-0.08809644
19	0x3f2b8c8f	0.6701135
20	0xbf83568a	-1.0260785
21	0x3c481b08	0.012213476
22	0xc1127a10	-9.1548
23	0x3d4465d0	0.04794866
24	0x3ed9d13a	0.4254244
25	0x3dc3dbe1	0.09563423
26	0xbd80e8a1	-0.062943704
27	0xc1735c5b	-15.210048
28	0x3d4ca2ff	0.049960133
29	0xbfb5a598	-1.419116
30	0x3ef75281	0.48305133
31	0x3a9ca348	0.0011950517
32	0x3d33d888	0.043907672
33	0xbdadf7ae	-0.08494507
34	0xbd9b9ef8	-0.0759868
35	0x3f36a558	0.71346045
36	0xbddfd42c	-0.109291404
37	0xbe7caf3c	-0.24676222
38	0xbc71bd65	-0.014754628
39	0xbf41ac25	-0.75653297
40	0x3e652fac	0.22381467
41	0xbc40c343	-0.011765304
42	0xbd8468b4	-0.06465283
43	0xbc2732ca	-0.01020498
44	0xbc2a072f	-0.010377689
45	0x3d9743c9	0.07385976
46	0xbc1a1a3b	-0.009405668
47	0x3d4e5b50	0.05038005
48	0xbde0d5da	-0.10978289
49	0xbe535391	-0.20637347
50	0xbd9eda06	-0.077564284
51	0xbe9aec12	-0.30258232
52	0xbd4de5c2	-0.050267942
53	0x3f1005f6	0.56259096
54	0xbdbd3d86	-0.0924025
55	0x3f89135c	1.0709033
56	0xbf4a4cb5	-0.79023296
57	0x3ef1466a	0.47124034
58	0x3b3c2215	0.0028706838
59	0xc19545fa	-18.659168
60	0x3f52d193	0.82351035
61	0x3d8a2569	0.06745417
62	0x3df55f9c	0.11981127
63	0xc19c8f48	-19.569962
64	0x3f066595	0.5249875
65	0xbf27c5bb	-0.6553609
66	0xbc27cc89	-0.010241636
67	0xbd25e40b	-0.04050068
68	0xbe4f2cb3	-0.20231895
69	0xbebcb2b3	-0.36855087
70	0xbd6104de	-0.054936282
71	0x3e184f39	0.14873971
72	0xc2087cde	-34.12194
73	0xc012755e	-2.2884135
74	0x3ec3cc5e	0.38241857
75	0xbd8992db	-0.067174636
76	0x3e4e02b0	0.20118213
77	0x3e8d3ce8	0.2758553
78	0x3ed6fef0	0.41991377
79	0x3cb7e2ab	0.02244695
80	0xbe2db282	-0.16962627
81	0x3e0b0e41	0.13579656
82	0xbd83ba00	-0.06431961
83	0x3ea3d856	0.3200099
84	0xbc287566	-0.010281896
85	0xbd3fdf05	-0.046843547
86	0x3e923280	0.28554153
87	0x3d8e0cd1	0.06936038
88	0xbfdcc9dd	-1.7249104
89	0x3b9e9eed	0.004840723
90	0xbc16d7c2	-0.009206714
91	0x3e3a312d	0.18182822
92	0xbc4d9d67	-0.012549735
93	0x3f3b09f3	0.73062056
94	0xbe9c6f2d	-0.3055357
95	0x3dc998d6	0.09843604
96	0xbd955524	-0.0729163
97	0xbdb9856a	-0.0905865
98	0xbd7f2983	-0.062295448
99	0xc085ea90	-4.184883
100	0xbd88f309	-0.0668698
101	0xbe83761d	-0.2567605
102	0xbdb8ec5e	-0.090294585
103	0xbfe99200	-1.8247681
104	0x3e8dfbf3	0.27731284
105	0x3c2f5161	0.010700555
106	0x3e184c17	0.14872776
107	0x3df6889f	0.12037777
108	0x3d31e2d6	0.04342922
109	0x3dba603e	0.09100388
110	0xbd0702e7	-0.032961752
111	0x3d5d639a	0.054050066
112	0xbcdc3afc	-0.026883595
113	0xbdca7cf6	-0.09887116
114	0xbd2db474	-0.04240842
115	0xbdd31eaf	-0.10308587
116	0x3da9b656	0.08286731
117	0xbf763124	-0.9616873
118	0xbe1c3c85	-0.15257461
119	0x3e3300a1	0.17480709
120	0x3eb5b79b	0.35491642
121	0x3f0a1bd2	0.539487
122	0x3e408a7c	0.18802828
123	0x3f1636e0	0.5867748
124	0xbeaaa76d	-0.3333086
125	0x3ca289d3	0.01984111
126	0x3eaa0748	0.3320868
127	0x3e283683	0.16427045
128	0x3e82803c	0.2548846
129	0x3f0d49bf	0.5519065
130	0x3ce9d767	0.028545095
131	0x3db656a4	0.08903244
132	0x3f808b80	1.0042572
133	0x3d2f3a84	0.042780414
134	0x3c5783ab	0.013153951
135	0xbe8e43b3	-0.27786025
136	0x3cf71928	0.030163363
137	0x407e6df4	3.975461
138	0x3ed35548	0.41276002
139	0x3d1de377	0.038547006
140	0xc1f59a69	-30.700396
141	0xbeb261cc	-0.34840238
142	0x3df6329a	0.1202137
143	0xbd33c20d	-0.043886233
144	0xbeac4dfe	-0.33653253
145	0xc12ebaf5	-10.920644
146	0xbd84c6b9	-0.06483216
147	0xbf99b668	-1.2008791
148	0x3ed4be67	0.41551515
149	0xbcc23721	-0.023707928
150	0x3e6df086	0.23236284
151	0xbef2d652	-0.47429138
152	0x3f5d98ab	0.8656108
153	0xbc049b25	-0.00809363
154	0xbd352afa	-0.04423044
155	0x3d06fde9	0.03295699
156	0xbd8c8dd5	-0.0686299
157	0x3f4ada87	0.79239696
158	0xbd438241	-0.04773164
159	0x3d378575	0.04480501
160	0xbc12826b	-0.008942227
161	0xbdf49637	-0.11942714
162	0xbd6c5d29	-0.057706032
163	0x3f6150be	0.8801383
164	0xbd77293c	-0.06034206
165	0x3f8f5d97	1.1200436
166	0xbd4f9aea	-0.050684847
167	0x402d24ee	2.705379
168	0xc0ba95e1	-5.830796
169	0xbd32545c	-0.043537483
170	0xbef9b26a	-0.48768932
171	0xbef5069d	-0.47856608
172	0x3d0c69a7	0.034280445
173	0xbe71ced3	-0.23614053
174	0x3a932365	0.0011225758
175	0x3cad8e05	0.021185884
176	0xbdac3fac	-0.08410582
177	0x3e7191d1	0.23590781
178	0x3cbb2d40	0.022848725
179	0x3f0e7cba	0.5565907
180	0xbbd11da0	-0.0063817054
181	0x3f270899	0.65247494
182	0x3f7ff008	0.99975634
183	0xc0296f1f	-2.6474073
184	0x3e80b1df	0.25135705
185	0xbfdea59b	-1.7394289
186	0xc1b84fc3	-23.038946
187	0x3db766b9	0.0895514
188	0xbe74e441	-0.23915197
189	0xbccab383	-0.024743801
190	0xbf7600a2	-0.96094716
191	0x3e54e3f4	0.20790082
192	0xbe0ffcef	-0.1406133
193	0xbe162158	-0.14661157
194	0xbf951f8a	-1.165025
195	0xbd9fce2e	-0.078029975
196	0xbdd14c07	-0.10219579
197	0xbe0b8a5b	-0.13626997
198	0x3d8884ab	0.066659294
199	0xc084fb49	-4.1556745
200	0xbe44e78e	-0.19228956
201	0xbee72c66	-0.4515106
202	0xbdaa54c9	-0.08316953
203	0x3da16dff	0.07882308
204	0xbf7e9f7d	-0.9946211
205	0xbea7034b	-0.326197
206	0xbe615a52	-0.2200711
207	0xbe7d9c14	-0.2476657
208	0xbec773bf	-0.38955495
209	0xbe5c7c02	-0.2153168
210	0x3cceb592	0.025233064
211	0xbee9d668	-0.4567139
212	0xbe372363	-0.17884593
213	0x3cb73bd4	0.022367395
214	0xc00ff527	-2.249338
215	0xbeabad03	-0.33530435
216	0x3ca6512d	0.02030238
217	0xc09d6f02	-4.9198008
218	0x3da9dd02	0.08294107
219	0xbedefefc	-0.43553913
220	0x3d3e1969	0.04641095
221	0xbe9af81b	-0.30267414
222	0xbd896ac6	-0.067098185
223	0xbf6eb461	-0.93243986
224	0xbcc7c1fb	-0.02438449
225	0xc129a93f	-10.60382
226	0xbdb07f45	-0.08618025
227	0xc00d86a5	-2.211343
228	0xbd509d56	-0.050931297
229	0xbdaf2867	-0.08552628
230	0x3db5b5d8	0.088725746
231	0xbe3e7e4c	-0.18602866
232	0xc0db4222	-6.851823
233	0xbee5d4b5	-0.44888845
234	0xc08b2ed1	-4.349465
235	0xbe93d70c	-0.28875005
236	0xbde75788	-0.11295992
237	0xbfc489fd	-1.5354611
238	0x3d9f60b1	0.07782114
239	0x3ca05655	0.019572416
240	0xbdd63686	-0.10459618
241	0xc0877c30	-4.2339096
242	0xbcf9e74b	-0.030505797
243	0xc047d199	-3.1221678
244	0x3d1e4dec	0.03864853
245	0xbe0040cc	-0.12524718
246	0xbe177c64	-0.14793545
247	0xbe8f2b81	-0.27962878
248	0xc10244fe	-8.141844
249	0xbf95b95a	-1.169719
250	0xbdb22ca4	-0.08699921
251	0xbe9e9410	-0.30972338
252	0xbe4d1023	-0.20025687
253	0x3c2aa982	0.01041639
254	0xbef020eb	-0.46900114
255	0xbfac3719	-1.3454314

fc3.bias f4 [4]
0	0xbdb4fbdc	-0.08837101
1	0x3ddbf450	0.10739958
2	0xbd2526c5	-0.040320177
3	0xc19fedc6	-19.9911
