custom_grid/data/zzppo-0.0/ppo_iter_350.pth (torch, 21521 bytes, 6 tensors)

fc1.weight f4 [64, 2]
00000000: 290f e1bd bdc0 dabe 3f7c cf3d 0a19 dc3e
00000010: ec62 313e 6da7 9a3e 2e48 bdbe df5b ba3e
00000020: 57d7 143f ceff 06bf 5a74 d73e 70d6 843d
00000030: 6cfe 7cbb 2544 18bd da12 193f 1cba b1be
00000040: 1832 e53e a44f 823d fbe0 80be 0da7 463e
00000050: 841a 2bbc 51b2 b7be 1e58 353c 7b62 243d
00000060: bd82 93be f059 03bf af35 60be 8ab7 90bd
00000070: a88f 523e abe9 2bc0 2009 6c3f ff86 c7bf
00000080: 0cf9 a539 4452 e4bd 19d0 51bd 1744 fc3e
00000090: 271e 2d3b 383d 7abe f500 be3c 3141 06bf
000000a0: 903d a43e 2b82 3dbe 6d17 2a3d d13a f33e
000000b0: 36d9 133f 1f1b ecbe 052f d13c b666 31bd
000000c0: 1f2c 403f 2d3b 84bf 4a42 82be 6c6a 233e
000000d0: 7b89 b4b9 fe09 f8bc beca c13d 8ffd 033f
000000e0: fd95 883e 0143 1fbe 2494 7b3d 5af9 4bbf
000000f0: 3354 d23d fc1f dcbf 9de3 123f b6c7 03bf
00000100: 5c35 d63e b624 46bd 6218 6e3e de94 80be
00000110: 99b4 6bbe caaf 29c0 f64d 083f 0db4 253e
00000120: 60fc 113f 02ec 5bbf e295 c6be c02c 5cbf
00000130: 731f 86be 4a24 d33d 9493 3437 d830 a9bc
00000140: d222 dfbe ae8b 57bf 25e5 0f3f d9d6 08bf
00000150: 9dd5 183f e43a d33d c4a5 3b3f c3bc 82bf
00000160: 4cfe 053c 9d20 82be 0429 0a3f b08b e2be
00000170: 0993 583e 8fd8 ab3e af2c bebe a0f4 bdbd
00000180: 12fb 183f 3f68 bdbc c5b1 853c 5102 7dbf
00000190: 124a 053c e5e7 22bf 8df8 98be e09f 8dbf
000001a0: 4022 ce3d e078 dcbf fde2 cebe e3a2 9ebe
000001b0: 443d 343d 398a 13bf b595 033b a1a8 74bd
000001c0: 49da 403f c135 09c0 d26d 723e 024f 82bf
000001d0: 6b2e 123f c610 c7bf 954e 05bf 2186 52bf
000001e0: 396c 003b 3bb7 86be 1929 c73d bbfd e8bf
000001f0: e2b6 33be 4ba4 74be eb95 13bd 679e 38bf
-0.1098922 -0.42725173 0.1013112 0.42987853 0.17322892 0.3020586 -0.3696913 0.36398217
0.5814108 -0.52734077 0.42080957 0.06486213 -0.0038603796 -0.037174363 0.5979439 -0.34712303
0.4476478 0.063628465 -0.25171646 0.19399662 -0.010443334 -0.35878232 0.011068372 0.04013298
-0.28810683 -0.5130911 -0.21895479 -0.07066257 0.20562613 -2.686137 0.92201424 -1.5588073
0.00031656807 -0.111485034 -0.051223848 0.49270698 0.0026415677 -0.24437416 0.023193816 -0.52443224
0.32078218 -0.18506686 0.041526247 0.4750581 0.5775331 -0.46114442 0.025535116 -0.043310843
0.75067323 -1.0330559 -0.254412 0.15958565 -0.00034434706 -0.030278202 0.09462498 0.51558775
0.26676932 -0.15552904 0.061420575 -0.79677355 0.10269966 -1.7197261 0.5737856 -0.5147661
0.41837585 -0.048374854 0.23251489 -0.25113577 -0.23018111 -2.6513543 0.5324396 0.16181965
0.5702572 -0.85906994 -0.38786227 -0.86005783 -0.2619587 0.10309656 1.0763197e-05 -0.020653173
-0.43581253 -0.8419751 0.5620902 -0.5345283 0.5970095 0.10313967 0.73299813 -1.0213856
0.008178305 -0.25415507 0.53968835 -0.44247198 0.2114984 0.3356366 -0.37143466 -0.09275174
0.597581 -0.023120997 0.016320119 -0.9883166 0.0081353355 -0.6363509 -0.2987713 -1.1064415
0.100651264 -1.7224388 -0.40407553 -0.30983648 0.04400374 -0.57632786 0.0020078246 -0.05973113
0.75333077 -2.1439059 0.23674706 -1.0180361 0.5710208 -1.5551994 -0.5207303 -0.82235914
0.0019595756 -0.2631167 0.09724636 -1.8202432 -0.17550233 -0.23890798 -0.036031645 -0.721167

fc1.bias f4 [64]
00000000: 71ef 173b cafd 35c0 fa61 4c40 8f9d b7bf
00000010: 9287 cabf 160b c83f dd60 76bd 8e99 62c0
00000020: ec36 75bf f100 26c0 16d0 da3e 63db cfbf
00000030: 8098 b83f 9fa4 6bc0 786a cabd 0290 a3bf
00000040: 78d6 11bb 3785 52c0 684c 4abc f4cc 1b40
00000050: efec 2940 5215 8ac0 da38 6e3f 3d70 dabe
00000060: da6c 10c0 a494 51c0 3e08 d5bb 0be8 74c0
00000070: fc1a 0d40 9d0f d23e 65e3 0bbe 29d5 33c0
00000080: 7260 2540 84d6 f3bf c492 5dbe b3af 30c0
00000090: a237 953f dc4e 36bf 5ffd 35bf 5765 fcba
000000a0: 2644 6cbe f6c5 26c0 a18d 59c0 6fc5 0cc0
000000b0: 453c 21bc 1ebb 46c0 bac1 67c0 1f1d 99c0
000000c0: 9488 59c0 aecd 01bd babc 0dbc f321 85be
000000d0: ab92 f5bd ef6c ac3f 4dc1 e93f 0080 c8be
000000e0: 455d a03f 2acb 35bd 8848 fa3e 861b d3bf
000000f0: 91bc 3fbe 02b2 e3bd 84a3 07c0 6bb9 cabe
0.002318349 -2.843615 3.19348 -1.4344958 -1.5822623 1.5628383 -0.06015097 -3.5406222
-0.9578693 -2.5938075 0.42736882 -1.6238827 1.4421539 -3.6819227 -0.098835886 -1.2778323
-0.0022253077 -3.2893808 -0.012347318 2.4343843 2.6550863 -4.3151026 0.930555 -0.42663756
-2.2566438 -3.2746973 -0.0065012267 -3.8266628 2.204772 0.41027537 -0.13660963 -2.8098853
2.5840116 -1.904984 -0.21638018 -2.7607238 1.1657603 -0.7121408 -0.7108974 -0.0019256276
-0.23072872 -2.6058326 -3.3992693 -2.1995504 -0.0098410295 -3.1051707 -3.6211991 -4.784805
-3.398961 -0.031690292 -0.008650953 -0.26002464 -0.11990865 1.3470744 1.8262116 -0.39160156
1.2528464 -0.044383205 0.48883462 -1.6492774 -0.18724276 -0.11117937 -2.1193552 -0.39594588

fc2.weight f4 [64, 64]
00000000: 8a07 4a3e d5b0 6d3f 8790 953e db12 babd
00000010: 3cff 353f 1c70 033f 68e0 8cbf ec6d 283d
00000020: 83c3 07c1 6912 383e db7c 79be 7338 cd3e
00000030: 6250 76bd 218f d7bf 56e1 8440 a216 58bf
00000040: 00a0 3dc0 723c ce3e 3619 0c3e 2d75 3f3e
00000050: 6676 333e ddd0 0fc1 3532 8bbe e856 5dbe
00000060: d8bc 94bd 464c 07c0 ee65 d33d 1a99 23c0
00000070: 13f6 243e e66f 353d 146b 533e fd1a b8bf
00000080: 2f28 3d3f 9e11 1c3f b3b2 913e ebf5 6ec0
00000090: fe5e b9be 0996 4abd cf2e 6abe ca09 f73d
000000a0: 7124 263e b78a a1bf 7c06 003e 0e46 973e
000000b0: 435d c63d f9bc 0fbe 7d60 90be bbcc 9ebf
000000c0: 871c 9b3e 473b 2a3d 4d10 203d 8cd6 17be
000000d0: cbd1 c13f 7a67 edbe d7a7 88be dbb7 e1bf
000000e0: 976f 34bf 338a 92be 0bfa a6bf 97ee 963e
000000f0: 68ac b4bc 9906 8b3e 528e 3c3e 7cfd fbbd
00000100: f2f8 073f f64a 13c0 0954 7b3e 4ec9 8c3e
00000110: 0772 73c0 2ba4 26bf 0c56 73bf e9c4 8cbd
00000120: 81bb b8be bb8f b6be cd6a f2be 78bf 613f
00000130: ecf2 31bf c429 5fbd 3d8a 07c1 1ee6 e1c0
00000140: f5fb b4bf 7402 ca3f f9c8 ab3d b42d 203f
00000150: 9314 6ebe 706c 2bc0 66eb 4f3e 6806 04c0
00000160: 47c7 6ac0 2018 01c0 249f 3a3b 7437 43c0
00000170: b1e7 96bd 8008 df3d fa4f 8ac0 c80c d23d
00000180: eb79 4a3d 59bb 65bf 2ddc 693e 45d3 bdbd
00000190: bc09 97be 7a5b 48be de02 8e3d 4cb6 c6bc
000001a0: c772 b83e a6e4 75bb 27f2 19bd 808c c6c0
000001b0: df86 70bc 0034 d9bc b758 47be 0233 063e
000001c0: 6cd3 b1be 1969 f93e 1ac3 21be c630 253f
000001d0: bba0 5fc0 b4c3 eebf c258 efbe 1b48 edbe
000001e0: fc55 b33d 4353 0bbf d07c 133f 4129 923e
000001f0: f4a0 ab3d de6d 71be bb2b a1bf f0a9 fc3b
00000200: 1cba b5bd b6e3 9fbd 7fd7 a8bb 1eb3 a6bb
00000210: 76fe a1bd 21e6 cb3e a5bc 11c0 04a4 fcbd
00000220: 1145 86c0 1f55 acbd 9dec 903d 8c94 87bc
00000230: 2c0a fbbd bb07 b7be 427c fa3c 626c bebd
00000240: e009 36c0 7db5 e43c 263b 1e3e 57d9 8bbe
00000250: 034c a8bf e43e 10bc 1527 b3bd 8270 433e
00000260: 7cf0 cebd f2cc 68bc 220c 3a3d 4ddd ab3c
00000270: 8bec bcbf 9b90 ac3b a236 1c3b d043 8c3d
00000280: 2623 e1bf 988f 383d 3c5d 39be a30d a83e
00000290: 6438 513d fac7 c3bb 4912 0dbe 1224 463e
000002a0: 7f6e 0fbf 90c0 91bd 50cc e6bd 20f6 b63b
000002b0: 607a 14bd f0ac e23c 90de 203b 55a5 7e3e
000002c0: 3c13 efbd 6b04 21be fdc2 4abd 54e5 a33d
000002d0: d121 d5bd 5d7f 2d3d cdcb f0bd 5b3d 12c0
000002e0: 65d3 d0bb 2a4d a53d faa4 953d c93d a7bf
000002f0: 5e2a ab3d 9e3e fabd 419b dc3d 09d5 8c3d
00000300: c83f feba f3e0 eb3d 0d8c 12be df2f acbd
00000310: 1050 953d c427 00bd 5364 c2bc 152a 5bbd
00000320: 17b7 b33d c226 f23c 733f 163b 1b67 8dbd
00000330: fc92 0ebe da6a 95bc cd31 fe3c 8065 6cbd
00000340: 817f 07bd fcf0 a53d d2c6 d13b 2d54 02bd
00000350: db46 06bd 5fbc e4bd e500 fdbd 6fbe 6dbd
00000360: 5a21 82bd b284 eb3b 9139 2abd 5aac 42bd
00000370: b106 eb3d c1be 193d 7c34 aa3d a0dd 77bd
00000380: 9b98 55bd 0296 233d a8e8 f7bd 6304 a4bd
00000390: e84d 45bc eaad 9ebd 0bd8 06be 899c 8f3d
000003a0: c686 803d e01d a63c 78e9 b5bc 3a20 edbd
000003b0: c7af aabd 0c59 023d 2c0d 783d 1fcf 42bd
000003c0: f2e4 4ebd 609b 023d 8204 d6bd 0682 413d
000003d0: 543a 5fbd 0cdc 12bd c9cb 7fbd 246c 8b3c
000003e0: 8b52 33bd 8c9b 593d b7a0 17bc ffc9 863d
000003f0: 9623 f63d 2f04 89bd 90cc fbbd aa63 cd3d
0.19729438 0.9284795 0.29211828 -0.09085628 0.7109258 0.5134294 -1.1005983 0.041120455
-8.485232 0.17975773 -0.24364035 0.4008213 -0.060135253 -1.6840554 4.152507 -0.84409535
-2.9628906 0.4028049 0.13681492 0.18697043 0.17525634 -8.988492 -0.27186742 -0.21615183
-0.072625816 -2.1140304 0.10322176 -2.5562196 0.16109495 0.044296168 0.20646316 -1.4383236
0.7388944 0.6096438 0.2845665 -3.7337596 -0.36205286 -0.04945949 -0.22869419 0.12062414
0.16224839 -1.2620457 0.12502474 0.29545635 0.09685757 -0.14036931 -0.28198615 -1.2406229
0.30295202 0.041560438 0.039078046 -0.14827937 1.5142149 -0.4636801 -0.26690552 -1.7634233
-0.7048277 -0.28621063 -1.3045057 0.29478905 -0.022054866 0.2715347 0.18413666 -0.12304208
0.53114235 -2.3014503 0.24543776 0.27497333 -3.8038347 -0.6509425 -0.9505317 -0.06873495
-0.36080554 -0.35656533 -0.47347108 0.88182783 -0.69511294 -0.05448319 -8.47125 -7.0593405
-1.4139391 1.5781999 0.08387942 0.6256974 -0.23250036 -2.6784935 0.20304641 -2.062891
-3.668413 -2.0170975 0.0028476203 -3.0502596 -0.073684104 0.10890293 -4.322263 0.10256344
0.049432676 -0.89738995 0.22837897 -0.09268812 -0.29499614 -0.19566146 0.069341406 -0.024256848
0.36025068 -0.0037520318 -0.03758445 -6.204651 -0.014680593 -0.026514053 -0.19467436 0.13105395
-0.34731615 0.48712996 -0.15797082 0.6452755 -3.4941852 -1.8653474 -0.46747404 -0.46344075
0.087566346 -0.5442392 0.57612324 0.285471 0.08380309 -0.23577067 -1.259147 0.007710688
-0.08873388 -0.07807104 -0.0051526423 -0.0050872704 -0.07909863 0.39824012 -2.277139 -0.12335971
-4.195931 -0.08414673 0.070763804 -0.016550325 -0.122577995 -0.35748085 0.030576829 -0.09298016
-2.8443527 0.027918572 0.15452251 -0.27314255 -1.3148197 -0.008804057 -0.08747689 0.19085887
-0.101044625 -0.014209019 0.045421727 0.020979548 -1.4759687 0.0052662618 0.0023836275 0.06848872
-1.7588851 0.045058817 -0.18101972 0.32822904 0.05107917 -0.005974767 -0.13776506 0.19349697
-0.5602798 -0.071168065 -0.11269438 0.0055835396 -0.03624952 0.027670354 0.002454672 0.24867757
-0.116735905 -0.15724342 -0.04950236 0.08002725 -0.104068406 0.04235779 -0.11757622 -2.2849948
-0.0063728564 0.080713585 0.073068574 -1.306573 0.0835769 -0.122189745 0.107718 0.06876571
-0.001939767 0.11517515 -0.14311238 -0.08407568 0.07290661 -0.031287923 -0.023729479 -0.05350693
0.08775156 0.029559497 0.0022926002 -0.069044314 -0.13923258 -0.018239427 0.031029606 -0.057713985
-0.03308058 0.08102605 0.006401875 -0.031818558 -0.032782417 -0.111687414 -0.12353686 -0.05804294
-0.063540176 0.0071874494 -0.041558806 -0.04752765 0.11475886 0.037535433 0.08310792 -0.060514092
-0.05214749 0.03993798 -0.121049225 -0.08008649 -0.0120425 -0.07748015 -0.13168351 0.070122786
0.06275706 0.020277917 -0.022206053 -0.11578412 -0.08334308 0.031823203 0.060559437 -0.047560807
-0.050511308 0.03188646 -0.104500785 0.04724314 -0.054498985 -0.035854384 -0.062450204 0.017019339
-0.04377989 0.053126857 -0.009254626 0.065814964 0.12018506 -0.06690251 -0.122948766 0.10028775

fc2.bias f4 [64]
00000000: dd36 1b3f 946f fd3e 2fa3 77be 8cf2 3d3d
00000010: 665b 363e 2b99 0fbe 0e09 febc cc84 b53d
00000020: 4674 fb3b c904 09c0 0fc3 6fc0 6604 debd
00000030: 8770 2bbd 52fb 1e3f 6240 713e 8964 8abe
00000040: f1ee 523f 4192 3cbe 7b14 89bd 6852 e93e
00000050: 7b6c 83bf 338f 19be 7c20 d1bf c9d6 8abe
00000060: c9f7 cdbd ca3d 95be c15a 24be d71e 143e
00000070: 0111 b6bd a530 b83e b39b 42bd 79c9 edbd
00000080: 14dd ab3c 71ff 31bf cecd c03c 5b53 8ebf
00000090: 7e29 3fbe af75 7e3f c6f5 6dbd 18e5 4bbf
000000a0: 9f77 f9bf 2ded 9bbd 8f3c 47bf 244c bebe
000000b0: dd45 47bd a763 edbe 004a d6bd d15a 29be
000000c0: a89e 26be 11c4 d13e 0ad7 fdbd fe14 e33e
000000d0: 55ef 943c 183e 933e b9c2 803f bbed 69be
000000e0: 09a5 b63e 8fb9 7d3f a1c9 66be 660e 0b3d
000000f0: 1e07 123f 06e7 69bd d75f 393f dfb1 91bf
0.6063059 0.4949919 -0.24183343 0.04637389 0.17808303 -0.14023273 -0.031010177 0.088632196
0.007673773 -2.140917 -3.7462804 -0.10840683 -0.04185536 0.62102234 0.23559716 -0.27029827
0.82395846 -0.18415166 -0.066933595 0.45570683 -1.0267481 -0.14996032 -1.6338038 -0.27116993
-0.10057027 -0.29148704 -0.16050245 0.1446489 -0.08889962 0.35974613 -0.047511768 -0.116106935
0.020979442 -0.695304 0.023535635 -1.1119188 -0.18668172 0.9939832 -0.058095716 -0.79646444
-1.948963 -0.07613597 -0.7782678 -0.37167466 -0.04865061 -0.4636509 -0.10463333 -0.1653855
-0.1627146 0.409699 -0.12394531 0.44351953 0.018180529 0.2875831 1.0059425 -0.22844593
0.35672787 0.99111265 -0.22537853 0.03394928 0.5704211 -0.057105087 0.72411865 -1.1382407

fc3.weight f4 [4, 64]
00000000: 1c33 12bf f5e5 dd3e c26b a83c 2a44 77bd
00000010: 9b88 e9be 352f 9c3e a418 1cbe 8e62 a03d
00000020: b0bb 913e 2016 3d40 4082 0cc1 93c6 03bd
00000030: 8f8a 733d e471 66bc c6c9 f6be 80cd 9b3d
00000040: 7c80 b13e 2b64 eb3d e86b b4bd d74f 2d3f
00000050: 4268 78bf 081b 483c 107a 12c1 d065 443d
00000060: 3b1c de3e e1db c33d a1e8 80bd bf84 76c1
00000070: ffa2 4c3d 268c b8bf fd65 013f 48a3 9c3a
00000080: 88d8 333d aef7 adbd f89e 9bbd e88d 2d3f
00000090: 2cd4 dfbd 0af6 dfbe 65bd 71bc 25ac 41bf
000000a0: fcf7 7e3e 43c3 40bc 19fb 0abd ca32 27bc
000000b0: 2f07 2abc c943 973d 3b1a 1abc 505b 4e3d
000000c0: dad5 e0bd f01e 59be 06da 9ebd 5147 8ebe
000000d0: c2e5 4dbd 0bd2 143f 706a bebd e754 923f
000000e0: 90be 45bf f33d 013f 3aff 1a3c b870 94c1
000000f0: 6905 573f 6925 8a3d afdc 263e 62c4 9ac1
00000100: 4ec2 f63e 1db9 45bf 89cc 27bc 0be4 25bd
00000110: dfb8 55be 583c bebe de04 61bd b4b4 cc3d
00000120: ed73 08c2 f895 0fc0 9d86 cb3e db92 89bd
00000130: 3918 573e 727a 773e 8664 d43e abe2 b73c
00000140: 5253 42be 410e 0b3e 00ba 83bd fca6 9b3e
00000150: 79ec e5bb 05df 3fbd 8032 923e d10c 8e3d
00000160: a139 d8bf ed9e 9e3b c2d7 16bc 5f1f 113e
00000170: 679d 4dbc 2b90 3a3f 9a73 9cbe d698 c93d
00000180: 2455 95bd 6a85 b9bd 8329 7fbd e983 84c0
00000190: 09f3 88bd 181f a8be 5eec b8bd 0092 e9bf
000001a0: f858 813e 6151 2f3c 2810 fb3d 9f88 f63d
000001b0: d6e2 313d 3e60 ba3d e702 07bd 9a63 5d3d
000001c0: fc3a dcbc 2124 e7bd 74b4 2dbd c62d d8bd
000001d0: 56b6 a93d 29e6 72bf 7908 1fbe c26d ca3d
000001e0: fa65 983e ca2f 013f accb 393e a088 cf3e
000001f0: 5b84 b3be d389 a23c 2fe0 913e bfdd 2f3e
00000200: d3b0 9f3e 6b16 303f 67d7 e93c a456 b63d
00000210: bfd0 7f3f 0799 e83c ab83 573c 4716 89be
00000220: e467 9b3e 5054 7c40 1fc5 c43e 77e3 1d3d
00000230: 30b6 f5c1 6c92 b6be aedf ca3d 0dc2 33bd
00000240: 6b51 a9be f5ba 2ec1 b9c6 84bd f26d 99bf
00000250: 95ea d23e 2137 c2bc 86f0 6d3e 52d6 f2be
00000260: 6e12 513f 259b 04bc fa2a 35bd a0a5 953d
00000270: d58d 8cbd 06a0 483f f2d2 88bd 7585 373d
00000280: 6b82 12bc 3796 f4bd 295d 6cbd 4a42 553f
00000290: 3c29 77bd fb79 b13f ea9a 4fbd ee24 2d40
000002a0: 72ff bcc0 5c54 32bd 85ae f8be 9d06 f5be
000002b0: a769 0c3d d3ce 71be 6523 933a 058e ad3c
000002c0: ac3f acbd 1d5b 793e 402d bb3c fa5a 0a3f
000002d0: a01d d1bb 1ddc 203f ad22 853f 0017 25c0
000002e0: 3f5c 993e 4452 d4bf f04f b8c1 80a4 933e
000002f0: 962c 71be 83b3 cabc b876 72bf d1ae 4c3e
00000300: effc 0fbe 5821 16be 8a1f 95bf 2ece 9fbd
00000310: 074c d1bd d18b 0bbe ab84 883d 49fb 84c0
00000320: 8ee7 44be 662c e7be c954 aabd ff6d a13d
00000330: 7d9f 7ebf 4b03 a7be 525a 61be 149c 7dbe
00000340: bf73 c7be 027c 5cbe 92b5 ce3c 68d6 e9be
00000350: 6323 37be d43b b73c 27f5 0fc0 03ad abbe
00000360: 2d51 a63c 026f 9dc0 02dd a93d fcfe debe
00000370: 6919 3e3d 1bf8 9abe c66a 89bd 61b4 6ebf
00000380: fbc1 c7bc 3fa9 29c1 457f b0bd a586 0dc0
00000390: 569d 50bd 6728 afbd d8b5 b53d 4c7e 3ebe
000003a0: 2242 dbc0 b5d4 e5be d12e 8bc0 0cd7 93be
000003b0: 8857 e7bd fd89 c4bf b160 9f3d 5556 a03c
000003c0: 8636 d6bd 307c 87c0 4be7 f9bc 99d1 47c0
000003d0: ec4d 1e3d cc40 00be 647c 17be 812b 8fbe
000003e0: fe44 02c1 5ab9 95bf a42c b2bd 1094 9ebe
000003f0: 2310 4dbe 82a9 2a3c eb20 f0be 1937 acbf
-0.57109237 0.43339506 0.020559195 -0.06036774 -0.45612034 0.30504766 -0.15243775 0.07831298
0.28463507 2.9544754 -8.781799 -0.032171797 0.05945831 -0.01406524 -0.48200816 0.076075554
0.34668338 0.11493715 -0.08809644 0.6769995 -0.97034085 0.012213476 -9.1548 0.04794866
0.43380913 0.09563423 -0.062943704 -15.407409 0.049960133 -1.441777 0.50546247 0.0011950517
0.043907672 -0.08494507 -0.0759868 0.67794657 -0.109291404 -0.437424 -0.014754628 -0.75653297
0.24899286 -0.011765304 -0.03393087 -0.01020498 -0.010377689 0.07385976 -0.009405668 0.05038005
-0.10978289 -0.21203208 -0.077564284 -0.27788785 -0.050267942 0.58133 -0.09297645 1.143216
-0.772439 0.5048515 0.009460265 -18.555038 0.8399263 0.06745417 0.16295122 -19.34589
0.48195118 -0.77235585 -0.010241636 -0.04050068 -0.20871304 -0.37155414 -0.054936282 0.09995404
-34.11321 -2.2435284 0.3975114 -0.067174636 0.21005334 0.24167803 0.41482943 0.02244695
-0.18977097 0.13579656 -0.06431961 0.30400836 -0.007016715 -0.046843547 0.28554153 0.06936038
-1.6892587 0.004840723 -0.009206714 0.14172123 -0.012549735 0.7287623 -0.30556947 0.09843604
-0.0729163 -0.0905865 -0.062295448 -4.1411023 -0.0668698 -0.32836223 -0.090294585 -1.8247681
0.2526319 0.010700555 0.12258941 0.12037777 0.04342922 0.09100388 -0.032961752 0.054050066
-0.026883595 -0.11286188 -0.04240842 -0.105556056 0.08286731 -0.94882447 -0.15530576 0.09884216
0.29765302 0.50463545 0.18144101 0.40533924 -0.35061917 0.01984111 0.2849135 0.17174433
0.31189594 0.6878421 0.028545095 0.08903244 0.99927896 0.028393282 0.013153951 -0.2677481
0.303527 3.942646 0.3843164 0.038547006 -30.713959 -0.35658586 0.09905945 -0.043886233
-0.3306993 -10.920644 -0.06483216 -1.1986678 0.41194597 -0.023707928 0.23236284 -0.47429138
0.81668746 -0.00809363 -0.04423044 0.07306981 -0.0686299 0.78369176 -0.066808596 0.04480501
-0.008942227 -0.11942714 -0.057706032 0.83304274 -0.06034206 1.386535 -0.050684847 2.705379
-5.9061823 -0.043537483 -0.48570648 -0.47856608 0.034280445 -0.23614053 0.0011225758 0.021185884
-0.08410582 0.24351163 0.022848725 0.5404507 -0.0063817054 0.62835866 1.0401207 -2.5795288
0.2995319 -1.6587605 -23.039032 0.2883644 -0.23552164 -0.024743801 -0.947124 0.19988562
-0.1406133 -0.14661157 -1.165025 -0.078029975 -0.10219579 -0.13627554 0.066659294 -4.1556745
-0.19228956 -0.4515106 -0.08316953 0.07882308 -0.9946211 -0.326197 -0.2200711 -0.2476657
-0.38955495 -0.2153168 0.025233064 -0.4567139 -0.17884593 0.022367395 -2.249338 -0.33530435
0.02030238 -4.9198008 0.08294107 -0.43553913 0.04641095 -0.30267414 -0.067098185 -0.93243986
-0.02438449 -10.60382 -0.08618025 -2.211343 -0.050931297 -0.08552628 0.088725746 -0.18602866
-6.851823 -0.44888845 -4.349465 -0.28875005 -0.11295992 -1.5354611 0.07782114 0.019572416
-0.10459618 -4.2339096 -0.030505797 -3.1221678 0.03864853 -0.12524718 -0.14793545 -0.27962878
-8.141844 -1.169719 -0.08699921 -0.30972338 -0.20025687 0.01041639 -0.46900114 -1.3454314

fc3.bias f4 [4]
00000000: 7a1e 95bc 5e2c f13c 7b0f 2bbc c6ed 9fc1
-0.018203009 0.029440101 -0.010440703 -19.9911
