custom_grid/data/zzppo-0.0/ppo_iter_550.pth (torch, 21521 bytes, 6 tensors)

fc1.weight f4 [64, 2]
0	0xbddb97df	-0.107223265
1	0xbedbfabe	-0.4296474
2	0x3dc8cfeb	0.09805282
3	0x3ede694e	0.43439716
4	0x3e31a23f	0.17347048
5	0x3e9a2415	0.30105653
6	0xbebe1f3d	-0.37133208
7	0x3ebd5a78	0.36983085
8	0x3f15a307	0.58451885
9	0xbf06074b	-0.5235488
10	0x3ed7a90d	0.42121163
11	0x3d85ff50	0.065428376
12	0xbb5d3251	-0.0033751915
13	0xbd184425	-0.037174363
14	0x3f18b435	0.59649974
15	0xbeb2a981	-0.34894946
16	0x3ee54204	0.44776928
17	0x3d86de6c	0.06585392
18	0xbe80640a	-0.25076324
19	0x3e468f40	0.19390583
20	0xbc67473d	-0.014116106
21	0xbeb9354a	-0.3617347
22	0x3c35581e	0.011068372
23	0x3d24627b	0.04013298
24	0xbe940d44	-0.2891637
25	0xbf02fbf7	-0.5116572
26	0xbe63b2a0	-0.22236109
27	0xbd90b78a	-0.07066257
28	0x3e539115	0.20660813
29	0xc02f6926	-2.7407928
30	0x3f6abae5	0.9169143
31	0xbfc8305f	-1.5639762
32	0x39a5f90c	0.00031656807
33	0xbde45244	-0.111485034
34	0xbd54894e	-0.051888756
35	0x3efd1556	0.4943034
36	0x3b2d1e27	0.0026415677
37	0xbe7a3d38	-0.24437416
38	0x3ccb9749	0.024852412
39	0xbf071e26	-0.5278038
40	0x3ea3b6ef	0.31975505
41	0xbe403431	-0.1876991
42	0x3d292fc9	0.041305337
43	0x3ef4a275	0.47780195
44	0x3f14217e	0.57863605
45	0xbeeb21e9	-0.4592431
46	0x3cd12f05	0.025535116
47	0xbd3166b6	-0.043310843
48	0x3f407c6d	0.7518986
49	0xbf841515	-1.0318934
50	0xbe8244b0	-0.2544303
51	0x3e23cd53	0.15996294
52	0xb9b4897b	-0.00034434706
53	0xbcf809fe	-0.030278202
54	0x3dc1a8d2	0.09456028
55	0x3f042c72	0.5163032
56	0x3e876953	0.26447544
57	0xbe237739	-0.15963449
58	0x3d6b9d74	0.057523206
59	0xbf5611eb	-0.8362109
60	0x3dd25433	0.10269966
61	0xbfdc1ffc	-1.7197261
62	0x3f12cf4a	0.5734755
63	0xbf03ec89	-0.515328
64	0x3ed65679	0.41862848
65	0xbd4a1bdb	-0.04934297
66	0x3e693a8c	0.2277624
67	0xbe814142	-0.252451
68	0xbe68fcd7	-0.22752701
69	0xc029ecb2	-2.6550717
70	0x3f07a14c	0.52980494
71	0x3e255b03	0.16148
72	0x3f1180e1	0.5683728
73	0xbf5c8f75	-0.861564
74	0xbec614bd	-0.38687697
75	0xbf5c7a83	-0.8612444
76	0xbe8713ec	-0.26382387
77	0x3dd5acef	0.10433375
78	0x37349394	1.0763197e-05
79	0xbca930d8	-0.020653173
80	0xbeded531	-0.43522027
81	0xbf57c7f6	-0.8428949
82	0x3f0fe5b6	0.56209886
83	0xbf08dc37	-0.5346102
84	0x3f18ad07	0.5963902
85	0x3dd5f2df	0.104467146
86	0x3f3bfde8	0.73434305
87	0xbf829280	-1.0200958
88	0x3c05fe4c	0.008178305
89	0xbe82209d	-0.25415507
90	0x3f09e276	0.53861177
91	0xbee31ecc	-0.44359434
92	0x3e59cf63	0.21270518
93	0x3eac6f9a	0.33678895
94	0xbebe2085	-0.37134185
95	0xbdbe0c22	-0.09279658
96	0x3f19c2ea	0.6006304
97	0xbc98814f	-0.018616347
98	0x3c85b1c5	0.016320119
99	0xbf7d0251	-0.9883166
100	0x3c054a12	0.0081353355
101	0xbf22e7e5	-0.6363509
102	0xbe990cd8	-0.29892612
103	0xbf8d9a15	-1.1062647
104	0x3dce2240	0.100651264
105	0xbfdc78e0	-1.7224388
106	0xbed054f2	-0.40689808
107	0xbe9d4915	-0.3071982
108	0x3d31af9e	0.043380372
109	0xbf129726	-0.57261884
110	0x3b0395b5	0.0020078246
111	0xbd74a8a1	-0.05973113
112	0x3f40d32f	0.7532224
113	0xc00938cf	-2.1440923
114	0x3e678ebf	0.22613047
115	0xbf8548b0	-1.0412807
116	0x3f11c621	0.56942946
117	0xbfc74a30	-1.5569515
118	0xbf03ce55	-0.5148671
119	0xbf5459ef	-0.8294973
120	0x3b006c39	0.0019595756
121	0xbe86b73b	-0.2631167
122	0x3dc72919	0.09724636
123	0xbfe8fdbb	-1.8202432
124	0xbe38b4e3	-0.18037753
125	0xbe6fb78f	-0.23409866
126	0xbd171fbb	-0.036895495
127	0xbf389e67	-0.721167

fc1.bias f4 [64]
0	0xb99b65ea	-0.00029639836
1	0xc035cacb	-2.8405025
2	0x404c5893	3.1929061
3	0xbfb6cf53	-1.428202
4	0xbfca0f5c	-1.5785937
5	0x3fc88ead	1.5668541
6	0xbd778015	-0.060424883
7	0xc062ac71	-3.541775
8	0xbf74a5cc	-0.95565486
9	0xc0260f56	-2.594686
10	0x3ed979e6	0.42475814
11	0xbfcfdb63	-1.6238827
12	0x3fb8a6bd	1.4425884
13	0xc06b6d51	-3.6785471
14	0xbdc63956	-0.09678905
15	0xbfa43527	-1.2828721
16	0xbb11d678	-0.0022253077
17	0xc0527e58	-3.2889614
18	0xbc4a4c68	-0.012347318
19	0x401b9b4f	2.4313543
20	0x4029db02	2.6539922
21	0xc08a06f4	-4.313349
22	0x3f6e61c0	0.93117905
23	0xbeda703d	-0.42663756
24	0xc01068f0	-2.2564049
25	0xc05196ab	-3.274821
26	0xbbd5083e	-0.0065012267
27	0xc074f0d1	-3.8271983
28	0x400cece8	2.2019596
29	0x3ed37f10	0.41307878
30	0xbe0be365	-0.13660963
31	0xc033d0df	-2.8096235
32	0x40256d6e	2.584804
33	0xbff461dd	-1.9092366
34	0xbe5fac59	-0.21843089
35	0xc030d862	-2.763207
36	0x3f94f652	1.1637671
37	0xbf36a5d3	-0.7134678
38	0xbf358516	-0.709062
39	0xbafc6557	-0.0019256276
40	0xbe6c971f	-0.23104523
41	0xc026bddd	-2.6053383
42	0xc0597de8	-3.3983097
43	0xc00cbefa	-2.1991563
44	0xbc213c45	-0.0098410295
45	0xc046c9d5	-3.1060688
46	0xc067aa11	-3.619755
47	0xc0991dff	-4.7849116
48	0xc0595ced	-3.3962967
49	0xbd01cdae	-0.031690292
50	0xbc0dbcba	-0.008650953
51	0xbe853509	-0.26017025
52	0xbdf592ab	-0.11990865
53	0x3facd5c7	1.350274
54	0x3fe9d598	1.8268309
55	0xbec88000	-0.39160156
56	0x3fa00939	1.2502815
57	0xbd2dd664	-0.042440787
58	0x3ef9a2e8	0.487571
59	0xbfd3df00	-1.6552429
60	0xbe3fbc91	-0.18724276
61	0xbde3b202	-0.11117937
62	0xc00753ec	-2.1144972
63	0xbeca1501	-0.3946915

fc2.weight f4 [64, 64]
0	0x3e4e9964	0.20175701
1	0x3f6e8dc7	0.93185085
2	0x3e9940b2	0.2993217
3	0xbdafbe55	-0.08581225
4	0x3f35ff3c	0.7109258
5	0x3f052467	0.5200867
6	0xbf8ce068	-1.1005983
7	0x3d286dec	0.041120455
8	0xc107ae03	-8.479983
9	0x3e24aa98	0.16080701
10	0xbe76041f	-0.2402501
11	0x3ecd3873	0.4008213
12	0xbd657b7e	-0.056025974
13	0xbfd78f21	-1.6840554
14	0x4084f3ba	4.154752
15	0xbf5816a2	-0.84409535
16	0xc03da000	-2.9628906
17	0x3ecf7b3c	0.40523708
18	0x3e0c1936	0.13681492
19	0x3e43a34a	0.19105259
20	0x3e38a5d8	0.18032014
21	0xc10fcc73	-8.987414
22	0xbe8a8089	-0.2705119
23	0xbe5d56e8	-0.21615183
24	0xbd94bcd8	-0.072625816
25	0xc0074c46	-2.1140304
26	0x3dd365ee	0.10322176
27	0xc02372ba	-2.5538774
28	0x3e2a1e5f	0.16613148
29	0x3d3f0147	0.046632078
30	0x3e536b14	0.20646316
31	0xbfb81afd	-1.4383236
32	0x3f3ea919	0.7447677
33	0x3f1c119e	0.6096438
34	0x3e92e75e	0.28692144
35	0xc06ef5eb	-3.7337596
36	0xbeb8d3ac	-0.36098993
37	0xbd4174d3	-0.047230553
38	0xbe67cb52	-0.22636154
39	0x3df709ca	0.12062414
40	0x3e29e278	0.16590297
41	0xbfa18ab7	-1.2620457
42	0x3e00067c	0.12502474
43	0x3e97460e	0.29545635
44	0x3dc65d43	0.09685757
45	0xbe0fbcf9	-0.14036931
46	0xbe90607d	-0.28198615
47	0xbf9eccbb	-1.2406229
48	0x3e9b1c87	0.30295202
49	0x3d2a3b47	0.041560438
50	0x3d20104d	0.039078046
51	0xbe14e720	-0.14541292
52	0x3fc1d1cb	1.5142149
53	0xbeeb3768	-0.4594071
54	0xbe86be2e	-0.2631697
55	0xbfe1b7db	-1.7634233
56	0xbf34480b	-0.7042243
57	0xbe9169b7	-0.28400967
58	0xbfa6f308	-1.3042917
59	0x3e97f389	0.2967799
60	0xbcb4ac68	-0.022054866
61	0x3e8b0699	0.2715347
62	0x3e3c8e52	0.18413666
63	0xbdfbfd7c	-0.12304208
64	0x3f07f8f2	0.53114235
65	0xc014ba62	-2.323876
66	0x3e633c9e	0.22191092
67	0x3e7ec555	0.24879964
68	0xc0737207	-3.8038347
69	0xbf2b7427	-0.6697411
70	0xbf73560c	-0.9505317
71	0xbd8cc4e9	-0.06873495
72	0xbeb8bb81	-0.36080554
73	0xbebe44d1	-0.37161878
74	0xbef26acd	-0.47347108
75	0x3f61bf78	0.88182783
76	0xbf31f2ec	-0.69511294
77	0xbd5f29c4	-0.05448319
78	0xc1078a3d	-8.47125
79	0xc0e1e61e	-7.0593405
80	0xbfb4fbf5	-1.4139391
81	0x3fc6c501	1.5528871
82	0x3dabc8f9	0.08387942
83	0x3f1ff997	0.6249022
84	0xbe7bff56	-0.24609122
85	0xc02b6c70	-2.6784935
86	0x3e4f16ba	0.20223513
87	0xc0040668	-2.062891
88	0xc06ac747	-3.668413
89	0xc0011820	-2.0170975
90	0x3b3a9f24	0.0028476203
91	0xc044265f	-3.064842
92	0xbdb25b52	-0.08708824
93	0x3ddf0880	0.10890293
94	0xc08a4ffa	-4.322263
95	0x3dd20cc8	0.10256344
96	0x3cfaa5e6	0.030596685
97	0xbf65bb59	-0.89738995
98	0x3e69dc2d	0.22837897
99	0xbdbdd345	-0.09268812
100	0xbe9709bc	-0.29499614
101	0xbe485b7a	-0.19566146
102	0x3d2e7f17	0.04260167
103	0xbcc6b64c	-0.024256848
104	0x3eb872c7	0.36025068
105	0xbb75e4a6	-0.0037520318
106	0xbd19f227	-0.03758445
107	0xc0c68c80	-6.204651
108	0xbc7086df	-0.014680593
109	0xbcd93400	-0.026514053
110	0xbe4758b7	-0.19467436
111	0x3e063302	0.13105395
112	0xbeb1d36c	-0.34731615
113	0x3ef96919	0.48712996
114	0xbe21c31a	-0.15797082
115	0x3f2530c6	0.6452755
116	0xc05fa0bb	-3.4941852
117	0xbff1e173	-1.8896927
118	0xbeefc149	-0.46827152
119	0xbeed481b	-0.46344075
120	0x3db355fc	0.087566346
121	0xbf0b5343	-0.5442392
122	0x3f137cd0	0.57612324
123	0x3e922941	0.285471
124	0x3daba0f4	0.08380309
125	0xbe716dde	-0.23577067
126	0xbfa12bbb	-1.259147
127	0x3bfca9f0	0.007710688
128	0xbdb5ba1c	-0.08873388
129	0xbd9fe3b6	-0.07807104
130	0xbba8d77f	-0.0051526423
131	0xbba6b31e	-0.0050872704
132	0xbda1fe76	-0.07909863
133	0x3ecbe621	0.39824012
134	0xc011bca5	-2.277139
135	0xbdfca404	-0.12335971
136	0xc0864511	-4.195931
137	0xbdac551f	-0.08414673
138	0x3d90ec9d	0.070763804
139	0xbc87948c	-0.016550325
140	0xbdfb0a2c	-0.122577995
141	0xbeb707bb	-0.35748085
142	0x3cfa7c42	0.030576829
143	0xbdbe6c62	-0.09298016
144	0xc03609e0	-2.8443527
145	0x3ce4b57d	0.027918572
146	0x3e1e3b26	0.15452251
147	0xbe8bd957	-0.27314255
148	0xbfa84c03	-1.3148197
149	0xbc103ee4	-0.008804057
150	0xbdb32715	-0.08747689
151	0x3e437082	0.19085887
152	0xbdcef07c	-0.101044625
153	0xbc68ccf2	-0.014209019
154	0x3d3a0c22	0.045421727
155	0x3cabdd4d	0.020979548
156	0xbfbcec8b	-1.4759687
157	0x3bac909b	0.0052662618
158	0x3b1c36a2	0.0023836275
159	0x3d8c43d0	0.06848872
160	0xbfe12326	-1.7588851
161	0x3d388f98	0.045058817
162	0xbe395d3c	-0.18101972
163	0x3ea80da3	0.32822904
164	0x3d513864	0.05107917
165	0xbbc3c7fa	-0.005974767
166	0xbe0d1249	-0.13776506
167	0x3e462412	0.19349697
168	0xbf0f6e7f	-0.5602798
169	0xbd91c090	-0.071168065
170	0xbde6cc50	-0.11269438
171	0x3bb6f620	0.0055835396
172	0xbd147a60	-0.03624952
173	0x3ce2acf0	0.027670354
174	0x3b20de90	0.002454672
175	0x3e7ea555	0.24867757
176	0xbdef133c	-0.116735905
177	0xbe21046b	-0.15724342
178	0xbd4ac2fd	-0.04950236
179	0x3da3e554	0.08002725
180	0xbdd521d1	-0.104068406
181	0x3d2d7f5d	0.04235779
182	0xbdf0cbcd	-0.11757622
183	0xc0123d5b	-2.2849948
184	0xbbd0d365	-0.0063728564
185	0x3da54d2a	0.080713585
186	0x3d95a4fa	0.073068574
187	0xbfa73dc9	-1.306573
188	0x3dab2a5e	0.0835769
189	0xbdfa3e9e	-0.122189745
190	0x3ddc9b41	0.107718
191	0x3d8cd509	0.06876571
192	0xbafe3fc8	-0.001939767
193	0x3debe0f3	0.11517515
194	0xbe128c0d	-0.14311238
195	0xbdac2fdf	-0.08407568
196	0x3d955010	0.07290661
197	0xbd0027c4	-0.031287923
198	0xbcc26453	-0.023729479
199	0xbd5b2a15	-0.05350693
200	0x3db3b717	0.08775156
201	0x3cf226c2	0.029559497
202	0x3b163f73	0.0022926002
203	0xbd8d671b	-0.069044314
204	0xbe0e92fc	-0.13923258
205	0xbc956ada	-0.018239427
206	0x3cfe31cd	0.031029606
207	0xbd6c6580	-0.057713985
208	0xbd077f81	-0.03308058
209	0x3da5f0fc	0.08102605
210	0x3bd1c6d2	0.006401875
211	0xbd02542d	-0.031818558
212	0xbd0646db	-0.032782417
213	0xbde4bc5f	-0.111687414
214	0xbdfd00e5	-0.12353686
215	0xbd6dbe6f	-0.05804294
216	0xbd82215a	-0.063540176
217	0x3beb84b2	0.0071874494
218	0xbd2a3991	-0.041558806
219	0xbd42ac5a	-0.04752765
220	0x3deb06b1	0.11475886
221	0x3d19bec1	0.037535433
222	0x3daa347c	0.08310792
223	0xbd77dda0	-0.060514092
224	0xbd55989b	-0.05214749
225	0x3d239602	0.03993798
226	0xbdf7e8a8	-0.121049225
227	0xbda40463	-0.08008649
228	0xbc454de8	-0.0120425
229	0xbd9eadea	-0.07748015
230	0xbe06d80b	-0.13168351
231	0x3d8f9c89	0.070122786
232	0x3d8086c6	0.06275706
233	0x3ca61de0	0.020277917
234	0xbcb5e978	-0.022206053
235	0xbded203a	-0.11578412
236	0xbdaaafc7	-0.08334308
237	0x3d02590c	0.031823203
238	0x3d780d2c	0.060559437
239	0xbd42cf1f	-0.047560807
240	0xbd4ee4f2	-0.050511308
241	0x3d029b60	0.03188646
242	0xbdd60482	-0.104500785
243	0x3d418206	0.04724314
244	0xbd5f3a54	-0.054498985
245	0xbd12dc0c	-0.035854384
246	0xbd7fcbc9	-0.062450204
247	0x3c8b6c24	0.017019339
248	0xbd33528b	-0.04377989
249	0x3d599b8c	0.053126857
250	0xbc17a0b7	-0.009254626
251	0x3d86c9ff	0.065814964
252	0x3df62396	0.12018506
253	0xbd89042f	-0.06690251
254	0xbdfbcc90	-0.122948766
255	0x3dcd63aa	0.10028775

fc2.bias f4 [64]
0	0x3f1ccdc1	0.61251456
1	0x3ef1912f	0.4718108
2	0xbe77a32f	-0.24183343
3	0x3d3df28c	0.04637389
4	0x3e34fdaa	0.1767489
5	0xbe142bcb	-0.1446983
6	0xbcfe090e	-0.031010177
7	0x3dc1fde3	0.09472253
8	0x3c92965e	0.017893966
9	0xc008f72d	-2.1400864
10	0xc06fb546	-3.745439
11	0xbdde0466	-0.10840683
12	0xbd281f42	-0.041045435
13	0x3f22a7cf	0.63537306
14	0x3e7747d2	0.24148491
15	0xbe8a6489	-0.27029827
16	0x3f526321	0.8218251
17	0xbe3c9241	-0.18415166
18	0xbd89147b	-0.066933595
19	0x3ee8d2b3	0.4547325
20	0xbf830279	-1.023513
21	0xbe198f33	-0.14996032
22	0xbfd1207c	-1.6338038
23	0xbe8ad6c9	-0.27116993
24	0xbdbf9652	-0.09354843
25	0xbe953dca	-0.29148704
26	0xbe245ac1	-0.16050245
27	0x3e0fd435	0.14045794
28	0xbdb61101	-0.08889962
29	0x3ebc84de	0.3682012
30	0xbd6a0068	-0.057129294
31	0xbdedc979	-0.116106935
32	0x3cabdd14	0.020979442
33	0xbf31ff71	-0.695304
34	0x3cc0cdce	0.023535635
35	0xbf8e301b	-1.1108431
36	0xbe3f297e	-0.18668172
37	0x3f79fc48	0.97650576
38	0xbd6df5c6	-0.058095716
39	0xbf4be518	-0.79646444
40	0xbffa0b5b	-1.9534715
41	0xbd9bed2d	-0.07613597
42	0xbf46c04c	-0.7763717
43	0xbebe4c24	-0.37167466
44	0xbd4745dd	-0.04865061
45	0xbeed63a7	-0.4636509
46	0xbdd64a00	-0.10463333
47	0xbe295ad1	-0.1653855
48	0xbe269ea8	-0.1627146
49	0x3ecceb5c	0.40023315
50	0xbdfdd70a	-0.12394531
51	0x3ee3a1a4	0.4445926
52	0x3c94ef55	0.018180529
53	0x3e913000	0.28356934
54	0x3f7f57b6	0.9974321
55	0xbe6d18d5	-0.23154004
56	0x3eb83ad3	0.3598238
57	0x3f80de01	1.006775
58	0xbe613648	-0.21993363
59	0x3d3a4646	0.045477174
60	0x3f1110ac	0.56666064
61	0xbd69e706	-0.057105087
62	0x3f3bc2db	0.733442
63	0xbf910c24	-1.133183

fc3.weight f4 [4, 64]
0	0xbf13a4c6	-0.576733
1	0x3edec172	0.43506962
2	0x3ca86bc2	0.020559195
3	0xbd77442a	-0.06036774
4	0xbeed361b	-0.46330342
5	0x3e9c6cc1	0.30551723
6	0xbe1c18a4	-0.15243775
7	0x3d951f1e	0.07281326
8	0x3e9c9b93	0.30587444
9	0x403d7ddd	2.960807
10	0xc10c91ed	-8.785626
11	0xbd03c693	-0.032171797
12	0x3d6317e0	0.05544269
13	0xbccab759	-0.02474563
14	0xbefbae83	-0.4915658
15	0x3d9bcd80	0.076075554
16	0x3eaf428b	0.34230456
17	0x3deb642b	0.11493715
18	0xbdb46be8	-0.08809644
19	0x3f2b27b8	0.6685748
20	0xbf7b66f0	-0.98203945
21	0x3c481b08	0.012213476
22	0xc1127a10	-9.1548
23	0x3d4465d0	0.04794866
24	0x3eda294c	0.42609632
25	0x3dc3dbe1	0.09563423
26	0xbd80e8a1	-0.062943704
27	0xc175f0fe	-15.371336
28	0x3d4ca2ff	0.049960133
29	0xbfb97a50	-1.4490452
30	0x3efe008e	0.49609798
31	0x3a9ca348	0.0011950517
32	0x3d33d888	0.043907672
33	0xbdadf7ae	-0.08494507
34	0xbd9b9ef8	-0.0759868
35	0x3f2c7427	0.67364734
36	0xbddfd42c	-0.109291404
37	0xbed888aa	-0.42291766
38	0xbc71bd65	-0.014754628
39	0xbf41ac25	-0.75653297
40	0x3e755744	0.2395907
41	0xbc40c343	-0.011765304
42	0xbd21bcd9	-0.03948674
43	0xbc2732ca	-0.01020498
44	0xbc2a072f	-0.010377689
45	0x3d9743c9	0.07385976
46	0xbc1a1a3b	-0.009405668
47	0x3d4e5b50	0.05038005
48	0xbde0d5da	-0.10978289
49	0xbe5894dd	-0.21150537
50	0xbd9eda06	-0.077564284
51	0xbe93cbf0	-0.2886653
52	0xbd4de5c2	-0.050267942
53	0x3f1402e9	0.5781694
54	0xbdc04258	-0.09387654
55	0x3f9124d3	1.1339363
56	0xbf4633e3	-0.7742292
57	0x3efeb8bb	0.49750313
58	0x3bb05e6d	0.00538235
59	0xc1949c6b	-18.576376
60	0x3f565b94	0.8373349
61	0x3d8a2569	0.06745417
62	0x3e182daa	0.1486117
63	0xc19b4170	-19.406952
64	0x3efe87e7	0.4971306
65	0xbf3fa108	-0.7485509
66	0xbc27cc89	-0.010241636
67	0xbd25e40b	-0.04050068
68	0xbe50aef3	-0.20379238
69	0xbebd0df0	-0.36924696
70	0xbd6104de	-0.054936282
71	0x3ddd602c	0.10809359
72	0xc2087cfc	-34.122055
73	0xc010083e	-2.250503
74	0x3eccbc4e	0.39987415
75	0xbd8992db	-0.067174636
76	0x3e5b3538	0.2140702
77	0x3e80e057	0.25171158
78	0x3ed59cf4	0.41721308
79	0x3cb7e2ab	0.02244695
80	0xbe3c755d	-0.18404146
81	0x3e0b0e41	0.13579656
82	0xbd83ba00	-0.06431961
83	0x3e9e7aef	0.30953166
84	0xbc088148	-0.008331604
85	0xbd3fdf05	-0.046843547
86	0x3e923280	0.28554153
87	0x3d8e0cd1	0.06936038
88	0xbfd91628	-1.6959887
89	0x3b9e9eed	0.004840723
90	0xbc16d7c2	-0.009206714
91	0x3e172929	0.14761795
92	0xbc4d9d67	-0.012549735
93	0x3f3b077b	0.7305829
94	0xbe9bf73c	-0.30462062
95	0x3dc998d6	0.09843604
96	0xbd955524	-0.0729163
97	0xbdb9856a	-0.0905865
98	0xbd7f2983	-0.062295448
99	0xc084b3bb	-4.1469398
100	0xbd88f309	-0.0668698
101	0xbea6b7ff	-0.32562253
102	0xbdb8ec5e	-0.090294585
103	0xbfe99200	-1.8247681
104	0x3e8626ac	0.2620138
105	0x3c2f5161	0.010700555
106	0x3e0038b8	0.12521636
107	0x3df6889f	0.12037777
108	0x3d31e2d6	0.04342922
109	0x3dba603e	0.09100388
110	0xbd0702e7	-0.032961752
111	0x3d5d639a	0.054050066
112	0xbcdc3afc	-0.026883595
113	0xbdd5d9a9	-0.10441906
114	0xbd2db474	-0.04240842
115	0xbdd21ba0	-0.10259175
116	0x3da9b656	0.08286731
117	0xbf72b176	-0.94802034
118	0xbe1d2b71	-0.15348603
119	0x3ddf2771	0.10896195
120	0x3e9b682b	0.3035291
121	0x3f033230	0.51248455
122	0x3e3df869	0.18551792
123	0x3edc2ab4	0.4300133
124	0xbeb1144b	-0.34585795
125	0x3ca289d3	0.01984111
126	0x3e999038	0.29992843
127	0x3e2dd483	0.16975598
128	0x3e970954	0.29499304
129	0x3f2961ae	0.6616467
130	0x3ce9d767	0.028545095
131	0x3db656a4	0.08903244
132	0x3f80173e	1.0007093
133	0x3cd78f58	0.026313469
134	0x3c5783ab	0.013153951
135	0xbe8aeb6d	-0.2713274
136	0x3e908102	0.28223425
137	0x407c9847	3.9467943
138	0x3ec5b078	0.38611197
139	0x3d1de377	0.038547006
140	0xc1f592d9	-30.696703
141	0xbeb67479	-0.35635737
142	0x3dd4cdc0	0.10390806
143	0xbd33c20d	-0.043886233
144	0xbea9d22a	-0.33168155
145	0xc12ebaf5	-10.920644
146	0xbd84c6b9	-0.06483216
147	0xbf993288	-1.1968546
148	0x3ed3a551	0.41337064
149	0xbcc23721	-0.023707928
150	0x3e6df086	0.23236284
151	0xbef2d652	-0.47429138
152	0x3f5437c3	0.82897586
153	0xbc049b25	-0.00809363
154	0xbd352afa	-0.04423044
155	0x3d899254	0.06717363
156	0xbd8c8dd5	-0.0686299
157	0x3f499731	0.78746325
158	0xbd790efb	-0.060805302
159	0x3d378575	0.04480501
160	0xbc12826b	-0.008942227
161	0xbdf49637	-0.11942714
162	0xbd6c5d29	-0.057706032
163	0x3f5753d1	0.8411227
164	0xbd77293c	-0.06034206
165	0x3faef1d4	1.366755
166	0xbd4f9aea	-0.050684847
167	0x402d24ee	2.705379
168	0xc0bc86fe	-5.8914785
169	0xbd32545c	-0.043537483
170	0xbef898f1	-0.48554185
171	0xbef5069d	-0.47856608
172	0x3d0c69a7	0.034280445
173	0xbe71ced3	-0.23614053
174	0x3a932365	0.0011225758
175	0x3cad8e05	0.021185884
176	0xbdac3fac	-0.08410582
177	0x3e6f46fe	0.23366925
178	0x3cbb2d40	0.022848725
179	0x3f0b6e7d	0.54465467
180	0xbbd11da0	-0.0063817054
181	0x3f21484b	0.63000935
182	0x3f8200db	1.0156511
183	0xc025c7cc	-2.5903196
184	0x3e9720b8	0.2951715
185	0xbfd71c37	-1.6805485
186	0xc1b84fc3	-23.038946
187	0x3e879747	0.26482603
188	0xbe72944e	-0.23689386
189	0xbccab383	-0.024743801
190	0xbf736e28	-0.9508996
191	0x3e4ec00c	0.20190448
192	0xbe0ffcef	-0.1406133
193	0xbe162158	-0.14661157
194	0xbf951f8a	-1.165025
195	0xbd9fce2e	-0.078029975
196	0xbdd14c07	-0.10219579
197	0xbe0b8b5a	-0.13627377
198	0x3d8884ab	0.066659294
199	0xc084fb49	-4.1556745
200	0xbe44e78e	-0.19228956
201	0xbee72c66	-0.4515106
202	0xbdaa54c9	-0.08316953
203	0x3da16dff	0.07882308
204	0xbf7e9f7d	-0.9946211
205	0xbea7034b	-0.326197
206	0xbe615a52	-0.2200711
207	0xbe7d9c14	-0.2476657
208	0xbec773bf	-0.38955495
209	0xbe5c7c02	-0.2153168
210	0x3cceb592	0.025233064
211	0xbee9d668	-0.4567139
212	0xbe372363	-0.17884593
213	0x3cb73bd4	0.022367395
214	0xc00ff527	-2.249338
215	0xbeabad03	-0.33530435
216	0x3ca6512d	0.02030238
217	0xc09d6f02	-4.9198008
218	0x3da9dd02	0.08294107
219	0xbedefefc	-0.43553913
220	0x3d3e1969	0.04641095
221	0xbe9af81b	-0.30267414
222	0xbd896ac6	-0.067098185
223	0xbf6eb461	-0.93243986
224	0xbcc7c1fb	-0.02438449
225	0xc129a93f	-10.60382
226	0xbdb07f45	-0.08618025
227	0xc00d86a5	-2.211343
228	0xbd509d56	-0.050931297
229	0xbdaf2867	-0.08552628
230	0x3db5b5d8	0.088725746
231	0xbe3e7e4c	-0.18602866
232	0xc0db4222	-6.851823
233	0xbee5d4b5	-0.44888845
234	0xc08b2ed1	-4.349465
235	0xbe93d70c	-0.28875005
236	0xbde75788	-0.11295992
237	0xbfc489fd	-1.5354611
238	0x3d9f60b1	0.07782114
239	0x3ca05655	0.019572416
240	0xbdd63686	-0.10459618
241	0xc0877c30	-4.2339096
242	0xbcf9e74b	-0.030505797
243	0xc047d199	-3.1221678
244	0x3d1e4dec	0.03864853
245	0xbe0040cc	-0.12524718
246	0xbe177c64	-0.14793545
247	0xbe8f2b81	-0.27962878
248	0xc10244fe	-8.141844
249	0xbf95b95a	-1.169719
250	0xbdb22ca4	-0.08699921
251	0xbe9e9410	-0.30972338
252	0xbe4d1023	-0.20025687
253	0x3c2aa982	0.01041639
254	0xbef020eb	-0.46900114
255	0xbfac3719	-1.3454314

fc3.bias f4 [4]
0	0xbd0b6423	-0.034031045
1	0x3d34d9c4	0.04415299
2	0xbc55aeba	-0.013042146
3	0xc19fedc6	-19.9911
