data/ppo-0.0/ppo_final.pth (torch, 21084 bytes, 6 tensors)

fc1.weight f4 [64, 2]
00000000: 542b d5bd 1188 ddbe cc6e b73d 1284 dd3e
00000010: 1f16 363e c046 9d3e e24f bcbe 4adc c03e
00000020: 927a 143f 4807 07bf 9e0c df3e c1e7 863d
00000030: 0d59 65bb bb73 2cbd 6ff3 143f 3149 babe
00000040: 16f3 f03e dd7e a83d cc1a 83be 8989 4c3e
00000050: 3dc2 5bbb 8148 bcbe 1e58 353c 7b62 243d
00000060: b206 95be 6c4c 02bf 0be9 6abe 844a 8dbd
00000070: cf78 473e 28d7 28c0 373c 703f c206 c6bf
00000080: 0cf9 a539 4452 e4bd 3e55 84bd ae9c f83e
00000090: 271e 2d3b 383d 7abe 94d7 ae3c 2991 0abf
000000a0: 527e af3e d529 38be 5d71 273d 21dd f33e
000000b0: d74c 113f 89fd f4be 052f d13c b666 31bd
000000c0: 97c6 3c3f 46c2 85bf b1a2 85be d9b7 253e
000000d0: 9818 74b9 fe09 f8bc 0e5e b33d 4a8d 053f
000000e0: 2207 983e e130 12be e288 663d f3db 4cbf
000000f0: 3354 d23d fc1f dcbf d4fc 0f3f 4c8f 06bf
00000100: 32c4 e13e f6bc 54bd 3f82 743e 6fe1 7abe
00000110: b77c 6bbe 1877 29c0 843f 083f 4d8b 2b3e
00000120: 515b 103f f0d6 5cbf f24b dabe b6ad 51bf
00000130: b754 82be 5571 df3d 9493 3437 d830 a9bc
00000140: 9f0c d4be 9aca 5ebf 5bb4 0c3f 7ff3 0bbf
00000150: a89a 153f ef58 b63d e122 383f 694b 84bf
00000160: 4cfe 053c 9d20 82be d349 073f 2754 e8be
00000170: 6b43 643e bbfa ae3e dd49 c0be cf07 bfbd
00000180: 6e90 1a3f b78f 8cbc c5b1 853c 5102 7dbf
00000190: 124a 053c e5e7 22bf 22ec 95be 9ee4 8ebf
000001a0: 4022 ce3d e078 dcbf d300 cdbe fc21 a0be
000001b0: 2f20 073d 188e 12bf b595 033b a1a8 74bd
000001c0: 127e 3d3f 77fb 09c0 eddd 753e dc22 81bf
000001d0: d4a8 0d3f 65f6 c8bf 8e8b 0bbf 2da2 4abf
000001e0: 396c 003b 3bb7 86be 1929 c73d bbfd e8bf
000001f0: 656b 4cbe 92e7 47be 61a0 68bd 679e 38bf
-0.10408655 -0.43267873 0.0895668 0.43264824 0.17781876 0.3071804 -0.36779696 0.37668067
0.5799953 -0.52745485 0.43564314 0.06587172 -0.0034995705 -0.042102557 0.5818395 -0.36383966
0.4706046 0.08227322 -0.25606382 0.1997434 -0.0033532523 -0.36774066 0.011068372 0.04013298
-0.2910667 -0.5089786 -0.22940461 -0.06898978 0.19479679 -2.638132 0.9384188 -1.5470812
0.00031656807 -0.111485034 -0.06461571 0.48557037 0.0026415677 -0.24437416 0.02134303 -0.54127747
0.34276062 -0.17984708 0.040879596 0.47629645 0.56757873 -0.47849682 0.025535116 -0.043310843
0.73740524 -1.0449913 -0.26100686 0.16183414 -0.00023278815 -0.030278202 0.08758174 0.52168715
0.29692942 -0.14276458 0.056282885 -0.80023116 0.10269966 -1.7197261 0.5624516 -0.52562404
0.44094998 -0.05193802 0.2387781 -0.24500059 -0.22996794 -2.647894 0.5322192 0.16752358
0.5638934 -0.8626547 -0.42636067 -0.81905687 -0.25455257 0.10910288 1.0763197e-05 -0.020653173
-0.4141588 -0.87027895 0.549627 -0.5466842 0.5843911 0.089036815 0.7192822 -1.0335513
0.008178305 -0.25415507 0.5284702 -0.45376703 0.22291343 0.34175667 -0.37556353 -0.09327661
0.6037663 -0.017158372 0.016320119 -0.9883166 0.0081353355 -0.6363509 -0.29281718 -1.1163518
0.100651264 -1.7224388 -0.4003969 -0.31275928 0.032989677 -0.5724807 0.0020078246 -0.05973113
0.74020493 -2.1559732 0.24010439 -1.0088763 0.55335736 -1.5700194 -0.5450982 -0.7915371
0.0019595756 -0.2631167 0.09724636 -1.8202432 -0.19962843 -0.19521931 -0.056793574 -0.721167

fc1.bias f4 [64]
00000000: 7d82 7ebb a618 36c0 ac46 4c40 f812 b5bf
00000010: 8882 cabf 1a96 c93f e4f0 70bd 417f 63c0
00000020: a5b0 70bf eac9 25c0 6fb9 d13e 63db cfbf
00000030: 7cf3 b83f 49fc 6ac0 3c55 f1bd a7e4 a0bf
00000040: 78d6 11bb 7fa2 52c0 684c 4abc 8499 1a40
00000050: eac3 2a40 4005 8ac0 d319 6c3f 3d70 dabe
00000060: 4f55 11c0 2138 51c0 a302 d8bb 4bb2 74c0
00000070: a63a 0e40 e4f3 cc3e 65e3 0bbe a97a 34c0
00000080: d0d2 2540 6efa f2bf 48d2 59be 79ba 30c0
00000090: f1a5 943f 3fe8 2cbf 0e12 37bf 5765 fcba
000000a0: fdeb 80be ed80 27c0 fd30 5ac0 41bd 0dc0
000000b0: 453c 21bc fc5e 47c0 9642 67c0 9bf8 98c0
000000c0: af16 59c0 aecd 01bd babc 0dbc cc2a 89be
000000d0: ab92 f5bd 5361 ac3f 6283 ea3f 0080 c8be
000000e0: 978e 9e3f 14fc 35bd 9098 f23e 0a4f d0bf
000000f0: 91bc 3fbe 02b2 e3bd 5d1e 06c0 66c5 bfbe
-0.0038835101 -2.8452544 3.1918135 -1.4146414 -1.5821085 1.5748932 -0.05882348 -3.554642
-0.9401954 -2.5904489 0.40961787 -1.6238827 1.4449306 -3.6716483 -0.11783835 -1.2569779
-0.0022253077 -3.291168 -0.012347318 2.4156199 2.6682076 -4.313141 0.92226905 -0.42663756
-2.2708318 -3.2690508 -0.006592111 -3.8233821 2.2223296 0.40029824 -0.13660963 -2.8199866
2.590992 -1.8982675 -0.21271622 -2.7613814 1.1613141 -0.6754188 -0.71511924 -0.0019256276
-0.25180045 -2.617244 -3.40924 -2.2146761 -0.0098410295 -3.1151724 -3.613439 -4.7803473
-3.3920095 -0.031690292 -0.008650953 -0.26790464 -0.11990865 1.3467201 1.8321345 -0.39160156
1.2387265 -0.044429854 0.4738202 -1.6274121 -0.18724276 -0.11117937 -2.0956032 -0.3745529

fc2.weight f4 [64, 64]
00000000: 145c 4e3e ebfa 6f3f f076 a63e 65b2 9fbd
00000010: 3cff 353f cbd2 0c3f 3ff5 8cbf ec6d 283d
00000020: ac6d 07c1 8f2f 983d 7e37 7abe 7338 cd3e
00000030: 28ed 61bd 218f d7bf de6f 8340 6205 59bf
00000040: 00a0 3dc0 0e20 d33e 3619 0c3e 9683 473e
00000050: d1db 4c3e 62d1 0fc1 6b7e 8abe e856 5dbe
00000060: d8bc 94bd 464c 07c0 834b ce3d a175 23c0
00000070: 0994 3e3e 87f6 223d 146b 533e fd1a b8bf
00000080: 935f 453f 9e11 1c3f bdca 943e ebf5 6ec0
00000090: 4925 bfbe d356 4cbd 7d41 68be ca09 f73d
000000a0: 209b 293e b78a a1bf 7c06 003e 0e46 973e
000000b0: 435d c63d f9bc 0fbe 7d60 90be bbcc 9ebf
000000c0: 871c 9b3e 473b 2a3d 4d10 203d 6ed1 14be
000000d0: cbd1 c13f 4b0a ebbe 3db0 87be dbb7 e1bf
000000e0: 2e73 38bf c794 aabe 49fb a8bf ecca 943e
000000f0: 68ac b4bc 9906 8b3e 528e 3c3e eec9 05be
00000100: f2f8 073f d2cf 15c0 8c0f 4d3e a960 6f3e
00000110: 0772 73c0 b620 32bf 0c56 73bf e9c4 8cbd
00000120: 81bb b8be 7ba6 e5be cd6a f2be 78bf 613f
00000130: ecf2 31bf c429 5fbd 3d8a 07c1 1ee6 e1c0
00000140: f5fb b4bf 5dac c43f f9c8 ab3d 348d 1d3f
00000150: 271f 8dbe d64b 2bc0 3547 453e 6806 04c0
00000160: 47c7 6ac0 2018 01c0 249f 3a3b 339c 45c0
00000170: d376 eebd 8008 df3d fa4f 8ac0 c80c d23d
00000180: 0705 683b 59bb 65bf 2ddc 693e 45d3 bdbd
00000190: bc09 97be 7a5b 48be 0f3e d83c 4cb6 c6bc
000001a0: c772 b83e a6e4 75bb 27f2 19bd 808c c6c0
000001b0: df86 70bc 0034 d9bc b758 47be 0233 063e
000001c0: 6cd3 b1be 1969 f93e 1ac3 21be c630 253f
000001d0: bba0 5fc0 ec39 f3bf d596 f4be 1b48 edbe
000001e0: fc55 b33d 4353 0bbf d07c 133f 4129 923e
000001f0: f4a0 ab3d de6d 71be bb2b a1bf f0a9 fc3b
00000200: 1cba b5bd b6e3 9fbd 7fd7 a8bb 1eb3 a6bb
00000210: 76fe a1bd 21e6 cb3e a5bc 11c0 04a4 fcbd
00000220: 1145 86c0 1f55 acbd 9dec 903d 8c94 87bc
00000230: 2c0a fbbd bb07 b7be 427c fa3c 626c bebd
00000240: e009 36c0 7db5 e43c 263b 1e3e 57d9 8bbe
00000250: 034c a8bf e43e 10bc 1527 b3bd 8270 433e
00000260: 7cf0 cebd f2cc 68bc 220c 3a3d 4ddd ab3c
00000270: 8bec bcbf 9b90 ac3b a236 1c3b d043 8c3d
00000280: 2623 e1bf 988f 383d 3c5d 39be a30d a83e
00000290: 6438 513d fac7 c3bb 4912 0dbe 1224 463e
000002a0: 7f6e 0fbf 90c0 91bd 50cc e6bd 20f6 b63b
000002b0: 607a 14bd f0ac e23c 90de 203b 55a5 7e3e
000002c0: 3c13 efbd 6b04 21be fdc2 4abd 54e5 a33d
000002d0: d121 d5bd 5d7f 2d3d cdcb f0bd 5b3d 12c0
000002e0: 65d3 d0bb 2a4d a53d faa4 953d c93d a7bf
000002f0: 5e2a ab3d 9e3e fabd 419b dc3d 09d5 8c3d
00000300: c83f feba f3e0 eb3d 0d8c 12be df2f acbd
00000310: 1050 953d c427 00bd 5364 c2bc 152a 5bbd
00000320: 17b7 b33d c226 f23c 733f 163b 1b67 8dbd
00000330: fc92 0ebe da6a 95bc cd31 fe3c 8065 6cbd
00000340: 817f 07bd fcf0 a53d d2c6 d13b 2d54 02bd
00000350: db46 06bd 5fbc e4bd e500 fdbd 6fbe 6dbd
00000360: 5a21 82bd b284 eb3b 9139 2abd 5aac 42bd
00000370: b106 eb3d c1be 193d 7c34 aa3d a0dd 77bd
00000380: 9b98 55bd 0296 233d a8e8 f7bd 6304 a4bd
00000390: e84d 45bc eaad 9ebd 0bd8 06be 899c 8f3d
000003a0: c686 803d e01d a63c 78e9 b5bc 3a20 edbd
000003b0: c7af aabd 0c59 023d 2c0d 783d 1fcf 42bd
000003c0: f2e4 4ebd 609b 023d 8204 d6bd 0682 413d
000003d0: 543a 5fbd 0cdc 12bd c9cb 7fbd 246c 8b3c
000003e0: 8b52 33bd 8c9b 593d b7a0 17bc ffc9 863d
000003f0: 9623 f63d 2f04 89bd 90cc fbbd aa63 cd3d
0.20152313 0.93742245 0.32512617 -0.07797698 0.7109258 0.55009145 -1.1012343 0.041120455
-8.464275 0.07430946 -0.24435231 0.4008213 -0.05515781 -1.6840554 4.1074057 -0.8477384
-2.9628906 0.41235393 0.13681492 0.1948379 0.20005728 -8.988619 -0.27049574 -0.21615183
-0.072625816 -2.1140304 0.100729965 -2.5540545 0.18611158 0.039785888 0.20646316 -1.4383236
0.7709896 0.6096438 0.29060927 -3.7337596 -0.37333134 -0.04988749 -0.22681232 0.12062414
0.16563082 -1.2620457 0.12502474 0.29545635 0.09685757 -0.14036931 -0.28198615 -1.2406229
0.30295202 0.041560438 0.039078046 -0.14533016 1.5142149 -0.4590629 -0.26501647 -1.7634233
-0.7205075 -0.33316633 -1.3201686 0.29061067 -0.022054866 0.2715347 0.18413666 -0.13065311
0.53114235 -2.3408093 0.20025462 0.23376717 -3.8038347 -0.6958116 -0.9505317 -0.06873495
-0.36080554 -0.44853577 -0.47347108 0.88182783 -0.69511294 -0.05448319 -8.47125 -7.0593405
-1.4139391 1.5365101 0.08387942 0.61543584 -0.2756283 -2.6765037 0.19265445 -2.062891
-3.668413 -2.0170975 0.0028476203 -3.0876586 -0.11643758 0.10890293 -4.322263 0.10256344
0.0035403387 -0.89738995 0.22837897 -0.09268812 -0.29499614 -0.19566146 0.02639678 -0.024256848
0.36025068 -0.0037520318 -0.03758445 -6.204651 -0.014680593 -0.026514053 -0.19467436 0.13105395
-0.34731615 0.48712996 -0.15797082 0.6452755 -3.4941852 -1.9002051 -0.47771326 -0.46344075
0.087566346 -0.5442392 0.57612324 0.285471 0.08380309 -0.23577067 -1.259147 0.007710688
-0.08873388 -0.07807104 -0.0051526423 -0.0050872704 -0.07909863 0.39824012 -2.277139 -0.12335971
-4.195931 -0.08414673 0.070763804 -0.016550325 -0.122577995 -0.35748085 0.030576829 -0.09298016
-2.8443527 0.027918572 0.15452251 -0.27314255 -1.3148197 -0.008804057 -0.08747689 0.19085887
-0.101044625 -0.014209019 0.045421727 0.020979548 -1.4759687 0.0052662618 0.0023836275 0.06848872
-1.7588851 0.045058817 -0.18101972 0.32822904 0.05107917 -0.005974767 -0.13776506 0.19349697
-0.5602798 -0.071168065 -0.11269438 0.0055835396 -0.03624952 0.027670354 0.002454672 0.24867757
-0.116735905 -0.15724342 -0.04950236 0.08002725 -0.104068406 0.04235779 -0.11757622 -2.2849948
-0.0063728564 0.080713585 0.073068574 -1.306573 0.0835769 -0.122189745 0.107718 0.06876571
-0.001939767 0.11517515 -0.14311238 -0.08407568 0.07290661 -0.031287923 -0.023729479 -0.05350693
0.08775156 0.029559497 0.0022926002 -0.069044314 -0.13923258 -0.018239427 0.031029606 -0.057713985
-0.03308058 0.08102605 0.006401875 -0.031818558 -0.032782417 -0.111687414 -0.12353686 -0.05804294
-0.063540176 0.0071874494 -0.041558806 -0.04752765 0.11475886 0.037535433 0.08310792 -0.060514092
-0.05214749 0.03993798 -0.121049225 -0.08008649 -0.0120425 -0.07748015 -0.13168351 0.070122786
0.06275706 0.020277917 -0.022206053 -0.11578412 -0.08334308 0.031823203 0.060559437 -0.047560807
-0.050511308 0.03188646 -0.104500785 0.04724314 -0.054498985 -0.035854384 -0.062450204 0.017019339
-0.04377989 0.053126857 -0.009254626 0.065814964 0.12018506 -0.06690251 -0.122948766 0.10028775

fc2.bias f4 [64]
00000000: 8ad7 213f 179a e53e 2fa3 77be 8cf2 3d3d
00000010: 18fa 2d3e ae38 0ebe 0e09 febc a7a7 e33d
00000020: 9ccd 043d 6700 09c0 01eb 6fc0 6604 debd
00000030: 4453 07bd 4470 263f d021 853e 2312 8abe
00000040: 9993 553f 4192 3cbe 7b14 89bd 6d77 e73e
00000050: 7321 85bf 338f 19be 7c20 d1bf c9d6 8abe
00000060: a6ff a3bd ca3d 95be c15a 24be 9bfe 1f3e
00000070: 0111 b6bd 9687 be3e 92ab 93bd 79c9 edbd
00000080: 14dd ab3c 71ff 31bf cecd c03c 1939 8dbf
00000090: 7e29 3fbe f81e 2c3f c6f5 6dbd 18e5 4bbf
000000a0: 8d05 fbbf 2ded 9bbd 7256 3abf 244c bebe
000000b0: dd45 47bd a763 edbe 004a d6bd d15a 29be
000000c0: a89e 26be adb1 ce3e 0ad7 fdbd 4f8e ea3e
000000d0: 55ef 943c 95e5 913e 2ac8 763f 794f 6bbe
000000e0: bcbc ce3e b665 843f acbd 58be e505 e53d
000000f0: b32b 0d3f 06e7 69bd 075b 3f3f 0090 8dbf
0.6321951 0.44844124 -0.24183343 0.04637389 0.16989934 -0.13888809 -0.031010177 0.111159615
0.032422647 -2.1406496 -3.7487185 -0.10840683 -0.033038393 0.65015054 0.2600236 -0.26966962
0.8342834 -0.18415166 -0.066933595 0.45208302 -1.0400833 -0.14996032 -1.6338038 -0.27116993
-0.080077454 -0.29148704 -0.16050245 0.15624468 -0.08889962 0.3721282 -0.07210459 -0.116106935
0.020979442 -0.695304 0.023535635 -1.103305 -0.18668172 0.67234755 -0.058095716 -0.79646444
-1.9611069 -0.07613597 -0.72788155 -0.37167466 -0.04865061 -0.4636509 -0.10463333 -0.1653855
-0.1627146 0.4036993 -0.12394531 0.45811698 0.018180529 0.2849547 0.96399176 -0.22979535
0.40378368 1.034354 -0.21166104 0.11182765 0.55144805 -0.057105087 0.7474827 -1.105957

fc3.weight f4 [4, 64]
00000000: 0662 15bf 7e7c e23e c26b a83c 2a44 77bd
00000010: 9668 e5be 06ef 913e a418 1cbe cb92 143d
00000020: 1d65 033f 8dff 3e40 9172 0cc1 93c6 03bd
00000030: 64de 463d 1daf 3dbd 2220 04bf 19f8 a13d
00000040: 7c7f ab3e 2b64 eb3d e86b b4bd c225 2b3f
00000050: 760c 98bf 081b 483c 107a 12c1 d065 443d
00000060: 96f0 d03e e1db c33d a1e8 80bd 2553 71c1
00000070: ffa2 4c3d 587e b8bf dd76 f33e 48a3 9c3a
00000080: 88d8 333d aef7 adbd f89e 9bbd 013f 3a3f
00000090: 2cd4 dfbd f5bb 25be 65bd 71bc 25ac 41bf
000000a0: fc5a 753e 43c3 40bc 45ec 39bd ca32 27bc
000000b0: 2f07 2abc c943 973d 3b1a 1abc 505b 4e3d
000000c0: dad5 e0bd 587c 20be 06da 9ebd 35f0 a1be
000000d0: c2e5 4dbd ca66 133f 09bc d7bd d01c 923f
000000e0: a13e 47bf da4d fb3e 2cc9 c1bb 8169 95c1
000000f0: eb78 553f 6925 8a3d 7058 ee3d 0541 9cc1
00000100: 60f8 093f 43e6 3bbf 89cc 27bc 0be4 25bd
00000110: 0ed7 4dbe a75f c8be de04 61bd d66a 073e
00000120: 0b02 09c2 a9ef 11c0 5e9a c93e db92 89bd
00000130: 6145 623e 17f2 863e 8365 d23e 3737 9f3c
00000140: 8aa4 25be 410e 0b3e 00ba 83bd e6d2 aa3e
00000150: 374a bc3a 05df 3fbd 8032 923e d10c 8e3d
00000160: ef91 dbbf ed9e 9e3b c2d7 16bc c05a 353e
00000170: 679d 4dbc 1619 3d3f 2982 9ebe d698 c93d
00000180: 2455 95bd 6a85 b9bd 8329 7fbd dd06 86c0
00000190: 09f3 88bd 2b2a a2be 5eec b8bd 0092 e9bf
000001a0: a425 863e 6151 2f3c 8e0c 2a3e 9f88 f63d
000001b0: d6e2 313d 3e60 ba3d e702 07bd 9a63 5d3d
000001c0: fc3a dcbc 080e b7bd 74b4 2dbd d4e0 dfbd
000001d0: 56b6 a93d 978c 77bf 8830 0fbe 3095 cc3d
000001e0: ffb6 c03e edf5 043f 758a 493e 6fea 073f
000001f0: 1858 a8be d389 a23c ebff ad3e 3cb6 4d3e
00000200: aa48 823e b1f1 233f 67d7 e93c a456 b63d
00000210: d401 803f ad63 733d ab83 573c 4b65 8bbe
00000220: a961 abbd 53a4 7740 f449 c93e 77e3 1d3d
00000230: e9a0 f5c1 8c70 b0be 5ae1 f83d 0dc2 33bd
00000240: 8abd b1be f5ba 2ec1 b9c6 84bd 62c4 9bbf
00000250: 5480 dd3e 2137 c2bc 86f0 6d3e 52d6 f2be
00000260: 56db 5c3f 259b 04bc fa2a 35bd 5243 1a3d
00000270: d58d 8cbd f52b 483f 535f 3cbd 7585 373d
00000280: 6b82 12bc 3796 f4bd 295d 6cbd d661 593f
00000290: 3c29 77bd b6cc 8d3f ea9a 4fbd ee24 2d40
000002a0: 8c91 bcc0 5c54 32bd 26bf 07bf 9d06 f5be
000002b0: a769 0c3d d3ce 71be 6523 933a 058e ad3c
000002c0: ac3f acbd 0065 7a3e 402d bb3c ec0b 103f
000002d0: a01d d1bb 67a6 253f 0184 7e3f 83e7 24c0
000002e0: 9b8f 683e 61b8 dbbf f54f b8c1 0338 613e
000002f0: da57 7ebe 83b3 cabc 73b4 77bf 4e6c 393e
00000300: effc 0fbe 5821 16be 8a1f 95bf 2ece 9fbd
00000310: 074c d1bd 698b 0bbe ab84 883d 49fb 84c0
00000320: 8ee7 44be 662c e7be c954 aabd ff6d a13d
00000330: 7d9f 7ebf 4b03 a7be 525a 61be 149c 7dbe
00000340: bf73 c7be 027c 5cbe 92b5 ce3c 68d6 e9be
00000350: 6323 37be d43b b73c 27f5 0fc0 03ad abbe
00000360: 2d51 a63c 026f 9dc0 02dd a93d fcfe debe
00000370: 6919 3e3d 1bf8 9abe c66a 89bd 61b4 6ebf
00000380: fbc1 c7bc 3fa9 29c1 457f b0bd a586 0dc0
00000390: 569d 50bd 6728 afbd d8b5 b53d 4c7e 3ebe
000003a0: 2242 dbc0 b5d4 e5be d12e 8bc0 0cd7 93be
000003b0: 8857 e7bd fd89 c4bf b160 9f3d 5556 a03c
000003c0: 8636 d6bd 307c 87c0 4be7 f9bc 99d1 47c0
000003d0: ec4d 1e3d cc40 00be 647c 17be 812b 8fbe
000003e0: fe44 02c1 5ab9 95bf a42c b2bd 1094 9ebe
000003f0: 2310 4dbe 82a9 2a3c e820 f0be 1937 acbf
-0.58352697 0.44235605 0.020559195 -0.06036774 -0.44806355 0.28502673 -0.15243775 0.036272805
0.5132616 2.9843476 -8.77797 -0.032171797 0.048551932 -0.04630958 -0.5161153 0.07908649
0.334957 0.11493715 -0.08809644 0.6685449 -1.1878803 0.012213476 -9.1548 0.04794866
0.40808553 0.09563423 -0.062943704 -15.082799 0.049960133 -1.4413557 0.47551623 0.0011950517
0.043907672 -0.08494507 -0.0759868 0.72752386 -0.109291404 -0.16184981 -0.014754628 -0.75653297
0.23960489 -0.011765304 -0.04539134 -0.01020498 -0.010377689 0.07385976 -0.009405668 0.05038005
-0.10978289 -0.15672433 -0.077564284 -0.31628576 -0.050267942 0.5757872 -0.10533912 1.1415043
-0.7782994 0.49082834 -0.005913874 -18.676516 0.8338763 0.06745417 0.11637962 -19.531748
0.53894615 -0.73398226 -0.010241636 -0.04050068 -0.20101568 -0.39135477 -0.054936282 0.13224348
-34.251995 -2.2802527 0.39375585 -0.067174636 0.22096778 0.26356575 0.41093072 0.019435508
-0.16176048 0.13579656 -0.06431961 0.33364028 0.001436538 -0.046843547 0.28554153 0.06936038
-1.715391 0.004840723 -0.009206714 0.177104 -0.012549735 0.73866403 -0.3095868 0.09843604
-0.0729163 -0.0905865 -0.062295448 -4.188338 -0.0668698 -0.31672797 -0.090294585 -1.8247681
0.26200593 0.010700555 0.16606352 0.12037777 0.04342922 0.09100388 -0.032961752 0.054050066
-0.026883595 -0.08938223 -0.04240842 -0.109315544 0.08286731 -0.966989 -0.13983357 0.09989393
0.37639615 0.5193775 0.19681723 0.5309209 -0.3287971 0.01984111 0.33984312 0.20089048
0.25446063 0.64040667 0.028545095 0.08903244 1.0000558 0.05942123 0.013153951 -0.27225718
-0.083682366 3.8694046 0.39314234 0.038547006 -30.70357 -0.34460866 0.121523574 -0.043886233
-0.3471492 -10.920644 -0.06483216 -1.2169306 0.4326197 -0.023707928 0.23236284 -0.47429138
0.8627218 -0.00809363 -0.04423044 0.037661858 -0.0686299 0.78192073 -0.045989346 0.04480501
-0.008942227 -0.11942714 -0.057706032 0.8491491 -0.06034206 1.1078098 -0.050684847 2.705379
-5.892767 -0.043537483 -0.53026044 -0.47856608 0.034280445 -0.23614053 0.0011225758 0.021185884
-0.08410582 0.24452591 0.022848725 0.5626819 -0.0063817054 0.64707035 0.9942017 -2.5766304
0.22711031 -1.7165643 -23.039042 0.21994023 -0.248382 -0.024743801 -0.9675972 0.18107721
-0.1406133 -0.14661157 -1.165025 -0.078029975 -0.10219579 -0.136274 0.066659294 -4.1556745
-0.19228956 -0.4515106 -0.08316953 0.07882308 -0.9946211 -0.326197 -0.2200711 -0.2476657
-0.38955495 -0.2153168 0.025233064 -0.4567139 -0.17884593 0.022367395 -2.249338 -0.33530435
0.02030238 -4.9198008 0.08294107 -0.43553913 0.04641095 -0.30267414 -0.067098185 -0.93243986
-0.02438449 -10.60382 -0.08618025 -2.211343 -0.050931297 -0.08552628 0.088725746 -0.18602866
-6.851823 -0.44888845 -4.349465 -0.28875005 -0.11295992 -1.5354611 0.07782114 0.019572416
-0.10459618 -4.2339096 -0.030505797 -3.1221678 0.03864853 -0.12524718 -0.14793545 -0.27962878
-8.141844 -1.169719 -0.08699921 -0.30972338 -0.20025687 0.01041639 -0.46900105 -1.3454314

fc3.bias f4 [4]
00000000: 44d0 62bd d082 f63d 0d0a b8bd c6ed 9fc1
-0.0553744 0.12036669 -0.08986292 -19.9911
