data/ppo-0.0-rerun/ppo_iter_850.pth (torch, 21114 bytes, 6 tensors)

fc1.weight f4 [64, 2]
00000000: c430 fbbd 2a14 d5be bb1d 9c3d 534a e53e
00000010: 0ad4 333e 0fa5 993e e5e7 bbbe 56f8 bd3e
00000020: 4f06 153f ecb7 06bf 05ad d93e cd5b 773d
00000030: 8ab3 66bb 4070 26bd 8812 183f c730 b5be
00000040: b964 e53e 46ca 8d3d fd94 84be 57a2 583e
00000050: 6de7 6fbc 9fec b8be 1e58 353c 7b62 243d
00000060: 43c0 91be a42c 05bf 4e8e 6cbe 53e9 5ebd
00000070: d7ac 533e c576 2ec0 5407 6a3f b1b2 c8bf
00000080: 0cf9 a539 4452 e4bd 7b98 5bbd c59d fb3e
00000090: 271e 2d3b 383d 7abe 6a31 f53b f1cd 05bf
000000a0: 1f89 a43e c529 3dbe 3af6 2f3d 2c93 ef3e
000000b0: 6b1e 163f 54d0 e7be 052f d13c b666 31bd
000000c0: ad7f 403f 2b13 84bf 97ab 80be 0960 223e
000000d0: 051a 70b9 fe09 f8bc 3eb1 b63d 5724 053f
000000e0: 0485 873e a4f0 23be a993 773d 933f 4dbf
000000f0: 3354 d23d fc1f dcbf 0951 123f 435d 04bf
00000100: ffcf d73e 50de 49bd fcf5 653e 87a9 85be
00000110: ff29 74be 0451 29c0 11f5 063f eea5 253e
00000120: 2481 113f 1ecf 5cbf 70f3 c8be 817e 5abf
00000130: f232 8cbe 96c0 e43d 9493 3437 d830 a9bc
00000140: 2f21 f5be 7a91 4bbf 29b2 0f3f 6edb 08bf
00000150: 426b 173f 3d0e c93d 930f 3c3f 7c86 82bf
00000160: 4cfe 053c 9d20 82be 92de 083f fa9e e5be
00000170: bdc9 5d3e 0f5a ad3e 2116 bebe 741d b5bd
00000180: ab84 1b3f a4dc 3abc c5b1 853c 5102 7dbf
00000190: 124a 053c e5e7 22bf ef14 88be c39c 91bf
000001a0: 4022 ce3d e078 dcbf 4216 ccbe 8744 a0be
000001b0: f1ec 203d b5ed 14bf b595 033b a1a8 74bd
000001c0: 2864 3f3f 3f83 09c0 08a3 6b3e 01e5 85bf
000001d0: 2f3d 113f 796e c7bf 602a 06bf ddc6 51bf
000001e0: 396c 003b 3bb7 86be 1929 c73d bbfd e8bf
000001f0: 1484 24be 7920 80be 23e3 28bd 679e 38bf
-0.12265161 -0.41616946 0.07622858 0.44783267 0.17561355 0.30008742 -0.3670036 0.37103528
0.5821275 -0.5262439 0.42514816 0.060390282 -0.0035202228 -0.040634394 0.59403276 -0.35388777
0.44803408 0.06923346 -0.2589492 0.21155678 -0.014642579 -0.36118028 0.011068372 0.04013298
-0.28466997 -0.5202124 -0.2310116 -0.054421734 0.20671402 -2.725999 0.9141743 -1.5679532
0.00031656807 -0.111485034 -0.053612214 0.49143806 0.0026415677 -0.24437416 0.0074826973 -0.52267367
0.32135865 -0.18472965 0.04295943 0.4679197 0.58640164 -0.4527613 0.025535116 -0.043310843
0.7519482 -1.031835 -0.25130913 0.15856947 -0.00022897877 -0.030278202 0.08920525 0.52008575
0.2646867 -0.16009766 0.060443554 -0.8017513 0.10269966 -1.7197261 0.571549 -0.51704806
0.42150876 -0.04928428 0.22457117 -0.26105902 -0.23844145 -2.6455698 0.5271769 0.16176578
0.5683768 -0.86253536 -0.39248228 -0.8534928 -0.27382618 0.11169545 1.0763197e-05 -0.020653173
-0.4787688 -0.79518855 0.56131226 -0.53459823 0.5914804 0.09817169 0.73461264 -1.0197291
0.008178305 -0.25415507 0.53464615 -0.44847852 0.21658988 0.33857772 -0.37126258 -0.08843508
0.6074931 -0.011405144 0.016320119 -0.9883166 0.0081353355 -0.6363509 -0.2657847 -1.1375965
0.100651264 -1.7224388 -0.3986073 -0.31302282 0.039288465 -0.5817521 0.0020078246 -0.05973113
0.747622 -2.1486356 0.2301141 -1.0460511 0.56733984 -1.5580589 -0.5240841 -0.81944066
0.0019595756 -0.2631167 0.09724636 -1.8202432 -0.16066009 -0.25024775 -0.04123224 -0.721167

fc1.bias f4 [64]
00000000: ac5a 6f3c 77d7 34c0 ac59 4c40 9e27 b6bf
00000010: 8259 cabf af65 c83f e499 76bd 57bf 62c0
00000020: 3dfb 72bf 4b3c 25c0 e35e d53e 63db cfbf
00000030: d891 b83f a0e9 6ac0 6085 c3bd c34d a4bf
00000040: 78d6 11bb 31a1 52c0 684c 4abc 1d93 1b40
00000050: f02e 2a40 af5c 8ac0 fba6 6f3f 3d70 dabe
00000060: 3c6b 10c0 82fa 51c0 34a5 d3bb a184 74c0
00000070: c714 0d40 c23a d73e 65e3 0bbe 58ef 33c0
00000080: d2a0 2540 25e6 f4bf a8a3 4ebe a5f7 30c0
00000090: 52b0 933f 84bb 35bf 96bc 33bf 5765 fcba
000000a0: 59a7 40be 0cd7 26c0 58c3 59c0 cfbf 0cc0
000000b0: 453c 21bc ddfe 46c0 e16e 67c0 7c1f 99c0
000000c0: 90fc 58c0 aecd 01bd babc 0dbc eaef 95be
000000d0: ab92 f5bd e2fd ab3f ee93 e83f 0080 c8be
000000e0: 53e7 9e3f 3b76 08bd a882 fa3e c3bc d2bf
000000f0: 91bc 3fbe 02b2 e3bd 2495 08c0 2f3f c8be
0.01460902 -2.825651 3.1929731 -1.423084 -1.5808566 1.5656031 -0.060205355 -3.5429285
-0.9491461 -2.581805 0.41673955 -1.6238827 1.4419508 -3.6705093 -0.09546924 -1.2836231
-0.0022253077 -3.2910883 -0.012347318 2.430854 2.6591148 -4.323814 0.93614167 -0.42663756
-2.256545 -3.2809148 -0.0064589027 -3.820595 2.2043931 0.42037016 -0.13660963 -2.8114834
2.5879407 -1.9132735 -0.20179617 -2.765115 1.1538184 -0.7098925 -0.70209634 -0.0019256276
-0.18813838 -2.6068754 -3.4025478 -2.199207 -0.0098410295 -3.1093056 -3.6161425 -4.7850933
-3.3904152 -0.031690292 -0.008650953 -0.29284602 -0.11990865 1.3436854 1.8170145 -0.39160156
1.2414345 -0.03331588 0.48927808 -1.6463856 -0.18724276 -0.11117937 -2.1341028 -0.39110705

fc2.weight f4 [64, 64]
00000000: a987 573e a644 6e3f 9a13 993e b67a b7bd
00000010: 3cff 353f e602 063f 68e0 8cbf ec6d 283d
00000020: 63d2 07c1 5090 2a3e ccbd 71be 7338 cd3e
00000030: d720 56bd 218f d7bf 7c1d 8540 a216 58bf
00000040: 00a0 3dc0 c7c5 d13e 3619 0c3e 6488 493e
00000050: 8154 3d3e fdcd 0fc1 614c 89be e856 5dbe
00000060: d8bc 94bd 6d4c 07c0 834b ce3d efc0 23c0
00000070: 84b4 2e3e 3cb9 453d 146b 533e fd1a b8bf
00000080: 0d7f 3f3f 9e11 1c3f 2d03 983e ebf5 6ec0
00000090: 2748 b8be fbc8 10bd 42bb 6dbe ca09 f73d
000000a0: 22e3 333e b78a a1bf 7c06 003e 0e46 973e
000000b0: 435d c63d f9bc 0fbe 7d60 90be bbcc 9ebf
000000c0: 871c 9b3e 473b 2a3d 4d10 203d c4db 0abe
000000d0: cbd1 c13f 1011 ecbe 7fd8 83be dbb7 e1bf
000000e0: 124b 34bf 43af 8ebe 8ce9 a6bf 6b05 9c3e
000000f0: 68ac b4bc 9906 8b3e 528e 3c3e d603 02be
00000100: f2f8 073f 2f1a 16c0 dd5f 503e 9ba0 763e
00000110: 0772 73c0 c9ba 33bf 0c56 73bf e9c4 8cbd
00000120: 81bb b8be e2b3 bfbe cd6a f2be 78bf 613f
00000130: ecf2 31bf c429 5fbd 3d8a 07c1 1ee6 e1c0
00000140: f5fb b4bf aa75 c53f f9c8 ab3d 5258 1f3f
00000150: ff2e 92be 75d4 2bc0 7279 4c3e 6806 04c0
00000160: 47c7 6ac0 7d39 01c0 249f 3a3b 874a 46c0
00000170: 2e02 01be 8008 df3d fa4f 8ac0 c80c d23d
00000180: a3b9 7d3a 59bb 65bf 2ddc 693e 45d3 bdbd
00000190: bc09 97be 7a5b 48be d8fa 203d 4cb6 c6bc
000001a0: c772 b83e a6e4 75bb 27f2 19bd 808c c6c0
000001b0: df86 70bc 0034 d9bc b758 47be 0233 063e
000001c0: 6cd3 b1be 1969 f93e 1ac3 21be c630 253f
000001d0: bba0 5fc0 dd72 f0bf 53f7 f0be 1b48 edbe
000001e0: fc55 b33d 4353 0bbf d07c 133f 4129 923e
000001f0: f4a0 ab3d de6d 71be bb2b a1bf f0a9 fc3b
00000200: 1cba b5bd b6e3 9fbd 7fd7 a8bb 1eb3 a6bb
00000210: 76fe a1bd 21e6 cb3e a5bc 11c0 04a4 fcbd
00000220: 1145 86c0 1f55 acbd 9dec 903d 8c94 87bc
00000230: 2c0a fbbd bb07 b7be 427c fa3c 626c bebd
00000240: e009 36c0 7db5 e43c 263b 1e3e 57d9 8bbe
00000250: 034c a8bf e43e 10bc 1527 b3bd 8270 433e
00000260: 7cf0 cebd f2cc 68bc 220c 3a3d 4ddd ab3c
00000270: 8bec bcbf 9b90 ac3b a236 1c3b d043 8c3d
00000280: 2623 e1bf 988f 383d 3c5d 39be a30d a83e
00000290: 6438 513d fac7 c3bb 4912 0dbe 1224 463e
000002a0: 7f6e 0fbf 90c0 91bd 50cc e6bd 20f6 b63b
000002b0: 607a 14bd f0ac e23c 90de 203b 55a5 7e3e
000002c0: 3c13 efbd 6b04 21be fdc2 4abd 54e5 a33d
000002d0: d121 d5bd 5d7f 2d3d cdcb f0bd 5b3d 12c0
000002e0: 65d3 d0bb 2a4d a53d faa4 953d c93d a7bf
000002f0: 5e2a ab3d 9e3e fabd 419b dc3d 09d5 8c3d
00000300: c83f feba f3e0 eb3d 0d8c 12be df2f acbd
00000310: 1050 953d c427 00bd 5364 c2bc 152a 5bbd
00000320: 17b7 b33d c226 f23c 733f 163b 1b67 8dbd
00000330: fc92 0ebe da6a 95bc cd31 fe3c 8065 6cbd
00000340: 817f 07bd fcf0 a53d d2c6 d13b 2d54 02bd
00000350: db46 06bd 5fbc e4bd e500 fdbd 6fbe 6dbd
00000360: 5a21 82bd b284 eb3b 9139 2abd 5aac 42bd
00000370: b106 eb3d c1be 193d 7c34 aa3d a0dd 77bd
00000380: 9b98 55bd 0296 233d a8e8 f7bd 6304 a4bd
00000390: e84d 45bc eaad 9ebd 0bd8 06be 899c 8f3d
000003a0: c686 803d e01d a63c 78e9 b5bc 3a20 edbd
000003b0: c7af aabd 0c59 023d 2c0d 783d 1fcf 42bd
000003c0: f2e4 4ebd 609b 023d 8204 d6bd 0682 413d
000003d0: 543a 5fbd 0cdc 12bd c9cb 7fbd 246c 8b3c
000003e0: 8b52 33bd 8c9b 593d b7a0 17bc ffc9 863d
000003f0: 9623 f63d 2f04 89bd 90cc fbbd aa63 cd3d
0.21047844 0.930735 0.29897767 -0.08958952 0.7109258 0.5234817 -1.1005983 0.041120455
-8.488864 0.16656613 -0.23607558 0.4008213 -0.052277412 -1.6840554 4.159849 -0.84409535
-2.9628906 0.40971205 0.13681492 0.19680935 0.18489267 -8.98779 -0.26816085 -0.21615183
-0.072625816 -2.1140397 0.100729965 -2.5586507 0.17061049 0.048272356 0.20646316 -1.4383236
0.7480324 0.6096438 0.29689923 -3.7337596 -0.35992548 -0.03534792 -0.23215964 0.12062414
0.17567113 -1.2620457 0.12502474 0.29545635 0.09685757 -0.14036931 -0.28198615 -1.2406229
0.30295202 0.041560438 0.039078046 -0.13560396 1.5142149 -0.46106768 -0.2575111 -1.7634233
-0.7042705 -0.2786809 -1.3040023 0.30472884 -0.022054866 0.2715347 0.18413666 -0.12696776
0.53114235 -2.3453481 0.20349069 0.24084704 -3.8038347 -0.70206887 -0.9505317 -0.06873495
-0.36080554 -0.37441927 -0.47347108 0.88182783 -0.69511294 -0.05448319 -8.47125 -7.0593405
-1.4139391 1.5426533 0.08387942 0.6224414 -0.2855148 -2.6848423 0.19968203 -2.062891
-3.668413 -2.0191338 0.0028476203 -3.0982988 -0.12598488 0.10890293 -4.322263 0.10256344
0.0009678846 -0.89738995 0.22837897 -0.09268812 -0.29499614 -0.19566146 0.039301723 -0.024256848
0.36025068 -0.0037520318 -0.03758445 -6.204651 -0.014680593 -0.026514053 -0.19467436 0.13105395
-0.34731615 0.48712996 -0.15797082 0.6452755 -3.4941852 -1.8785053 -0.47063693 -0.46344075
0.087566346 -0.5442392 0.57612324 0.285471 0.08380309 -0.23577067 -1.259147 0.007710688
-0.08873388 -0.07807104 -0.0051526423 -0.0050872704 -0.07909863 0.39824012 -2.277139 -0.12335971
-4.195931 -0.08414673 0.070763804 -0.016550325 -0.122577995 -0.35748085 0.030576829 -0.09298016
-2.8443527 0.027918572 0.15452251 -0.27314255 -1.3148197 -0.008804057 -0.08747689 0.19085887
-0.101044625 -0.014209019 0.045421727 0.020979548 -1.4759687 0.0052662618 0.0023836275 0.06848872
-1.7588851 0.045058817 -0.18101972 0.32822904 0.05107917 -0.005974767 -0.13776506 0.19349697
-0.5602798 -0.071168065 -0.11269438 0.0055835396 -0.03624952 0.027670354 0.002454672 0.24867757
-0.116735905 -0.15724342 -0.04950236 0.08002725 -0.104068406 0.04235779 -0.11757622 -2.2849948
-0.0063728564 0.080713585 0.073068574 -1.306573 0.0835769 -0.122189745 0.107718 0.06876571
-0.001939767 0.11517515 -0.14311238 -0.08407568 0.07290661 -0.031287923 -0.023729479 -0.05350693
0.08775156 0.029559497 0.0022926002 -0.069044314 -0.13923258 -0.018239427 0.031029606 -0.057713985
-0.03308058 0.08102605 0.006401875 -0.031818558 -0.032782417 -0.111687414 -0.12353686 -0.05804294
-0.063540176 0.0071874494 -0.041558806 -0.04752765 0.11475886 0.037535433 0.08310792 -0.060514092
-0.05214749 0.03993798 -0.121049225 -0.08008649 -0.0120425 -0.07748015 -0.13168351 0.070122786
0.06275706 0.020277917 -0.022206053 -0.11578412 -0.08334308 0.031823203 0.060559437 -0.047560807
-0.050511308 0.03188646 -0.104500785 0.04724314 -0.054498985 -0.035854384 -0.062450204 0.017019339
-0.04377989 0.053126857 -0.009254626 0.065814964 0.12018506 -0.06690251 -0.122948766 0.10028775

fc2.bias f4 [64]
00000000: e8a3 1c3f 1b3d e83e 2fa3 77be 8cf2 3d3d
00000010: e986 2c3e dd05 09be 0e09 febc 8abf dc3d
00000020: 2092 c43c ea01 09c0 6ac4 6fc0 6604 debd
00000030: 8968 03bd bbc1 1e3f 6778 773e 453e 89be
00000040: 77df 513f 4192 3cbe 7b14 89bd 938a ed3e
00000050: db15 83bf 338f 19be 7c20 d1bf c9d6 8abe
00000060: a13a a3bd ca3d 95be c15a 24be 8648 183e
00000070: 0111 b6bd 1c83 b93e aa8d 83bd 79c9 edbd
00000080: 14dd ab3c 71ff 31bf cecd c03c 9cb6 8ebf
00000090: 7e29 3fbe 5dc1 6b3f c6f5 6dbd 18e5 4bbf
000000a0: e887 fabf 2ded 9bbd 11ee 45bf 244c bebe
000000b0: dd45 47bd a763 edbe 004a d6bd d15a 29be
000000c0: a89e 26be 05dc cc3e 0ad7 fdbd 87ce e03e
000000d0: 55ef 943c 9171 913e 9acd 7d3f 8477 65be
000000e0: 3caf be3e 641a 843f 65f0 5bbe a7fb c53d
000000f0: 0447 0c3f 06e7 69bd 5199 3c3f 2a03 91bf
0.611876 0.4535912 -0.24183343 0.04637389 0.16848339 -0.13381143 -0.031010177 0.10778721
0.02399546 -2.1407418 -3.7463632 -0.10840683 -0.032082114 0.6201436 0.24167024 -0.2680532
0.81981605 -0.18415166 -0.066933595 0.46394786 -1.0241045 -0.14996032 -1.6338038 -0.27116993
-0.07970167 -0.29148704 -0.16050245 0.14871415 -0.08889962 0.3623284 -0.06423505 -0.116106935
0.020979442 -0.695304 0.023535635 -1.1149478 -0.18668172 0.92091924 -0.058095716 -0.79646444
-1.9572725 -0.07613597 -0.77316386 -0.37167466 -0.04865061 -0.4636509 -0.10463333 -0.1653855
-0.1627146 0.40011612 -0.12394531 0.43907568 0.018180529 0.28406957 0.9914185 -0.22408873
0.37243068 1.0320554 -0.21478422 0.096671395 0.5479586 -0.057105087 0.7367144 -1.132909

fc3.weight f4 [4, 64]
00000000: a5c6 13bf 733a d63e c26b a83c 2a44 77bd
00000010: f269 eabe df7e 9f3e a418 1cbe 23bf 763d
00000020: f332 be3e 26cc 3e40 5e8c 0cc1 93c6 03bd
00000030: 27d2 4c3d 7bd4 24bc 4b8a febe 1789 a43d
00000040: 1bba a83e 2b64 eb3d e86b b4bd d90b 2c3f
00000050: 2677 7dbf 081b 483c 107a 12c1 d065 443d
00000060: de49 d93e e1db c33d a1e8 80bd df65 74c1
00000070: ffa2 4c3d a368 b8bf 4a46 fd3e 48a3 9c3a
00000080: 88d8 333d aef7 adbd f89e 9bbd 670c 2f3f
00000090: 2cd4 dfbd 2630 d1be 65bd 71bc 25ac 41bf
000000a0: 2775 6e3e 43c3 40bc dbed 27bd ca32 27bc
000000b0: 2f07 2abc c943 973d 3b1a 1abc 505b 4e3d
000000c0: dad5 e0bd fa09 4dbe 06da 9ebd 0346 96be
000000d0: c2e5 4dbd d08e 113f d398 b4bd dc19 903f
000000e0: f1ce 49bf 3b91 013f d93f b3bb e58d 95c1
000000f0: 6231 533f 6925 8a3d a5d0 2e3e b3fd 9ac1
00000100: 1b06 043f 6f84 3dbf 89cc 27bc 0be4 25bd
00000110: 16ca 4cbe 8720 c4be de04 61bd 9697 f33d
00000120: 7a99 08c2 0b3a 11c0 4ece cd3e db92 89bd
00000130: adc0 603e b56c 743e aa3a d53e 12f2 943c
00000140: 8846 32be 410e 0b3e 00ba 83bd 7674 9f3e
00000150: e2d6 08bc 05df 3fbd 8032 923e d10c 8e3d
00000160: 6bac dabf ed9e 9e3b c2d7 16bc 15de 1c3e
00000170: 679d 4dbc ed11 3b3f 0242 9bbe d698 c93d
00000180: 2455 95bd 6a85 b9bd 8329 7fbd 6fa1 84c0
00000190: 09f3 88bd 624d 9abe 5eec b8bd 0092 e9bf
000001a0: 3a97 893e 6151 2f3c b5d7 013e 9f88 f63d
000001b0: d6e2 313d 3e60 ba3d e702 07bd 9a63 5d3d
000001c0: fc3a dcbc 05ee e6bd 74b4 2dbd 13bd ccbd
000001d0: 56b6 a93d a10a 76bf da0d 20be eb53 f13d
000001e0: d1e4 a73e d56d 013f e215 493e 91e1 0f3f
000001f0: 5e71 acbe d389 a23c 212c 8f3e 1557 2d3e
00000200: 65b3 8b3e 093f 1b3f 67d7 e93c a456 b63d
00000210: c0a7 7e3f 23c7 113d ab83 573c 64d3 8fbe
00000220: f2e4 323e dda1 7b40 3e93 c33e 77e3 1d3d
00000230: 01cc f5c1 ed4e b6be 5dff da3d 0dc2 33bd
00000240: 4881 abbe f5ba 2ec1 b9c6 84bd 41aa 99bf
00000250: c8a6 d33e 2137 c2bc 86f0 6d3e 52d6 f2be
00000260: a59b 573f 259b 04bc fa2a 35bd 8742 7c3d
00000270: d58d 8cbd fc99 483f 0edd 7fbd 7585 373d
00000280: 6b82 12bc 3796 f4bd 295d 6cbd f17a 553f
00000290: 3c29 77bd 2965 a33f ea9a 4fbd ee24 2d40
000002a0: 2e8e bcc0 5c54 32bd e123 f9be 9d06 f5be
000002b0: a769 0c3d d3ce 71be 6523 933a 058e ad3c
000002c0: ac3f acbd 0120 6a3e 402d bb3c cc34 0b3f
000002d0: a01d d1bb 4cda 243f 4e67 733f 8f6b 26c0
000002e0: b42a 8d3e a98b dabf f74f b8c1 5e62 b03d
000002f0: 3fbd 73be 83b3 cabc a657 73bf 1596 4f3e
00000300: effc 0fbe 5821 16be 8a1f 95bf 2ece 9fbd
00000310: 074c d1bd cc8a 0bbe ab84 883d 49fb 84c0
00000320: 8ee7 44be 662c e7be c954 aabd ff6d a13d
00000330: 7d9f 7ebf 4b03 a7be 525a 61be 149c 7dbe
00000340: bf73 c7be 027c 5cbe 92b5 ce3c 68d6 e9be
00000350: 6323 37be d43b b73c 27f5 0fc0 03ad abbe
00000360: 2d51 a63c 026f 9dc0 02dd a93d fcfe debe
00000370: 6919 3e3d 1bf8 9abe c66a 89bd 61b4 6ebf
00000380: fbc1 c7bc 3fa9 29c1 457f b0bd a586 0dc0
00000390: 569d 50bd 6728 afbd d8b5 b53d 4c7e 3ebe
000003a0: 2242 dbc0 b5d4 e5be d12e 8bc0 0cd7 93be
000003b0: 8857 e7bd fd89 c4bf b160 9f3d 5556 a03c
000003c0: 8636 d6bd 307c 87c0 4be7 f9bc 99d1 47c0
000003d0: ec4d 1e3d cc40 00be 647c 17be 812b 8fbe
000003e0: fe44 02c1 5ab9 95bf a42c b2bd 1094 9ebe
000003f0: 2310 4dbe 82a9 2a3c 5221 f0be 1937 acbf
-0.5772498 0.41841468 0.020559195 -0.06036774 -0.45783955 0.31151482 -0.15243775 0.060240876
0.37148246 2.9812102 -8.784269 -0.032171797 0.050005104 -0.010060425 -0.49714884 0.0803396
0.32954487 0.11493715 -0.08809644 0.6720558 -0.9900993 0.012213476 -9.1548 0.04794866
0.4243917 0.09563423 -0.062943704 -15.274871 0.049960133 -1.4406933 0.4946769 0.0011950517
0.043907672 -0.08494507 -0.0759868 0.683783 -0.109291404 -0.40857047 -0.014754628 -0.75653297
0.23286878 -0.011765304 -0.04099832 -0.01020498 -0.010377689 0.07385976 -0.009405668 0.05038005
-0.10978289 -0.20023337 -0.077564284 -0.2935029 -0.050267942 0.5685854 -0.088182114 1.1257892
-0.7883139 0.5061223 -0.0054702577 -18.694284 0.8249723 0.06745417 0.17071779 -19.373877
0.51571816 -0.740302 -0.010241636 -0.04050068 -0.19998965 -0.38306066 -0.054936282 0.11894147
-34.14988 -2.2691677 0.4019646 -0.067174636 0.219485 0.23869593 0.4164632 0.018181834
-0.17409718 0.13579656 -0.06431961 0.3114354 -0.008352013 -0.046843547 0.28554153 0.06936038
-1.7083868 0.004840723 -0.009206714 0.15319093 -0.012549735 0.7307423 -0.30323797 0.09843604
-0.0729163 -0.0905865 -0.062295448 -4.1447062 -0.0668698 -0.30137163 -0.090294585 -1.8247681
0.2687319 0.010700555 0.12679942 0.12037777 0.04342922 0.09100388 -0.032961752 0.054050066
-0.026883595 -0.112758674 -0.04240842 -0.099970005 0.08286731 -0.9610997 -0.15630284 0.11783584
0.3279176 0.50558215 0.19637254 0.5620356 -0.33680242 0.01984111 0.27963355 0.1692775
0.27285305 0.6064306 0.028545095 0.08903244 0.99474716 0.035590302 0.013153951 -0.28090966
0.17470148 3.9317544 0.38198274 0.038547006 -30.724611 -0.3560709 0.10693238 -0.043886233
-0.3349707 -10.920644 -0.06483216 -1.2005082 0.41338181 -0.023707928 0.23236284 -0.47429138
0.8422187 -0.00809363 -0.04423044 0.061586883 -0.0686299 0.7835996 -0.062466674 0.04480501
-0.008942227 -0.11942714 -0.057706032 0.8339072 -0.06034206 1.2765247 -0.050684847 2.705379
-5.892356 -0.043537483 -0.48660186 -0.47856608 0.034280445 -0.23614053 0.0011225758 0.021185884
-0.08410582 0.22863771 0.022848725 0.54377437 -0.0063817054 0.64395595 0.95079505 -2.6003149
0.27571642 -1.7073871 -23.039045 0.08612512 -0.2380266 -0.024743801 -0.95055616 0.20272096
-0.1406133 -0.14661157 -1.165025 -0.078029975 -0.10219579 -0.13627166 0.066659294 -4.1556745
-0.19228956 -0.4515106 -0.08316953 0.07882308 -0.9946211 -0.326197 -0.2200711 -0.2476657
-0.38955495 -0.2153168 0.025233064 -0.4567139 -0.17884593 0.022367395 -2.249338 -0.33530435
0.02030238 -4.9198008 0.08294107 -0.43553913 0.04641095 -0.30267414 -0.067098185 -0.93243986
-0.02438449 -10.60382 -0.08618025 -2.211343 -0.050931297 -0.08552628 0.088725746 -0.18602866
-6.851823 -0.44888845 -4.349465 -0.28875005 -0.11295992 -1.5354611 0.07782114 0.019572416
-0.10459618 -4.2339096 -0.030505797 -3.1221678 0.03864853 -0.12524718 -0.14793545 -0.27962878
-8.141844 -1.169719 -0.08699921 -0.30972338 -0.20025687 0.01041639 -0.4690042 -1.3454314

fc3.bias f4 [4]
00000000: bf99 ecbc c9e6 493d 3787 cebc c6ed 9fc1
-0.028881906 0.04929236 -0.02521096 -19.9911
