data/ppo-0.0-rerun/ppo_iter_1150.pth (torch, 21124 bytes, 6 tensors)

fc1.weight f4 [64, 2]
000000 56 37 f6 bd 72 1b d6 be ad 55 95 3d 33 44 e8 3e
       -0.12022273 -0.41817814 0.07291732 0.45364532
000010 ed 39 39 3e 1c 62 9a 3e fc a0 b8 be 05 c2 c3 3e
       0.18088503 0.30152977 -0.3606032 0.38233963
000020 84 3f 14 3f de 9b 07 bf 0b b1 dc 3e 72 72 6b 3d
       0.5790942 -0.5297221 0.43103823 0.05748219
000030 5a b2 66 bb 40 70 26 bd 3c 2b 16 3f 3d fb b9 be
       -0.003520152 -0.040634394 0.5865972 -0.36324492
000040 14 b8 e5 3e 96 25 8f 3d 27 0b 88 be fa 56 5e 3e
       0.44867003 0.06989591 -0.2657101 0.21712866
000050 3c 9f 82 bc df 2e b8 be 1e 58 35 3c 7b 62 24 3d
       -0.01594507 -0.3597326 0.011068372 0.04013298
000060 f2 bd 91 be c1 d7 04 bf 85 3a 71 be 1b 9f 21 bd
       -0.2846523 -0.51891714 -0.2355748 -0.039458375
000070 f5 c7 46 3e 8b fc 2e c0 fc 8b 6c 3f 88 a5 c7 bf
       0.19412215 -2.734164 0.924011 -1.5597391
000080 0c f9 a5 39 44 52 e4 bd fd 40 5b bd 84 e4 f9 3e
       0.00031656807 -0.111485034 -0.053528775 0.48807156
000090 27 1e 2d 3b 38 3d 7a be 1a c7 19 3c cb cf 05 bf
       0.0026415677 -0.24437416 0.009385848 -0.5227019
0000a0 a7 33 a8 3e cf 48 3d be 0b a3 41 3d 05 e1 ec 3e
       0.32851908 -0.18484806 0.04727463 0.46265426
0000b0 9b ff 15 3f cf cb e7 be 05 2f d1 3c b6 66 31 bd
       0.5859315 -0.4527268 0.025535116 -0.043310843
0000c0 6e 94 41 3f ee 52 83 bf ff 73 80 be bf 24 20 3e
       0.7561711 -1.0259683 -0.25088498 0.15639018
0000d0 05 1a 70 b9 fe 09 f8 bc 1d 95 b3 3d cf 2a 04 3f
       -0.00022897877 -0.030278202 0.087686755 0.5162782
0000e0 70 4d 8b 3e b2 03 22 be d0 95 6a 3d dd 04 4d bf
       0.27207518 -0.15821722 0.05727178 -0.80085546
0000f0 33 54 d2 3d fc 1f dc bf 50 39 11 3f e9 83 05 bf
       0.10269966 -1.7197261 0.56728077 -0.52154404
000100 96 2a da 3e 4c ae 59 bd b5 c7 64 3e 33 b4 86 be
       0.42610615 -0.053144738 0.22341807 -0.26309356
000110 20 27 73 be dd 83 29 c0 11 b3 06 3f d1 5e 26 3e
       -0.23745394 -2.6486733 0.52616984 0.16247107
000120 1b a0 10 3f 6b 21 5e bf bc 1f cb be f7 6a 59 bf
       0.564943 -0.8676974 -0.3967265 -0.8492884
000130 58 f3 8e be 0e 35 f5 3d 94 93 34 37 d8 30 a9 bc
       -0.27920032 0.1197301 1.0763197e-05 -0.020653173
000140 0c 37 f9 be 4c cb 49 bf 88 b8 0e 3f 29 e0 09 bf
       -0.4867481 -0.7882583 0.5575032 -0.53857666
000150 df 30 17 3f 8f 4e cd 3d da f2 3c 3f 33 dc 81 bf
       0.59058946 0.100247495 0.7380806 -1.0145324
000160 4c fe 05 3c 9d 20 82 be 3c d9 07 3f e7 b8 e7 be
       0.008178305 -0.25415507 0.5306585 -0.45258257
000170 0a 47 5d 3e 33 61 ac 3e 77 5f c0 be 5e 85 b1 bd
       0.2160913 0.33667907 -0.37572834 -0.08668016
000180 9f 18 1c 3f ee cb bf bb c5 b1 85 3c 51 02 7d bf
       0.6097507 -0.0058531677 0.016320119 -0.9883166
000190 12 4a 05 3c e5 e7 22 bf f5 5b 89 be 2d 53 91 bf
       0.0081353355 -0.6363509 -0.2682797 -1.1353508
0001a0 40 22 ce 3d e0 78 dc bf ca 8c cc be 35 91 a0 be
       0.100651264 -1.7224388 -0.39951164 -0.31360784
0001b0 50 5d ed 3c 89 36 14 bf b5 95 03 3b a1 a8 74 bd
       0.028975159 -0.57895714 0.0020078246 -0.05973113
0001c0 2f de 3e 3f a7 9f 09 c0 46 f3 70 3e 76 f9 84 bf
       0.74557775 -2.1503694 0.23530301 -1.038863
0001d0 2f a9 10 3f 58 a6 c7 bf 34 e6 04 bf 2c 20 53 bf
       0.56508154 -1.5597639 -0.5191376 -0.82470965
0001e0 39 6c 00 3b 3b b7 86 be 19 29 c7 3d bb fd e8 bf
       0.0019595756 -0.2631167 0.09724636 -1.8202432
0001f0 92 ec 29 be 4f 05 7c be b9 08 1f bd 67 9e 38 bf
       -0.1659415 -0.246114 -0.038826678 -0.721167

fc1.bias f4 [64]
000000 0b da 54 3c 48 75 34 c0 b8 3c 4c 40 a1 b8 b4 bf
       0.012991439 -2.8196583 3.191206 -1.4118844
000010 0e 82 ca bf 1e 9e c8 3f e4 99 76 bd cd 2a 63 c0
       -1.582094 1.5673254 -0.060205355 -3.5494874
000020 2c 9d 72 bf 9d ba 24 c0 62 7e d7 3e 63 db cf bf
       -0.94771075 -2.57389 0.4208861 -1.6238827
000030 aa 03 b9 3f 67 a2 6a c0 e5 40 dc bd 58 e1 a2 bf
       1.4454243 -3.6661623 -0.10754565 -1.272502
000040 78 d6 11 bb 6a dd 52 c0 68 4c 4a bc 9a a0 1b 40
       -0.0022253077 -3.294764 -0.012347318 2.4316773
000050 57 4e 2a 40 56 88 8a c0 e0 49 6f 3f 3d 70 da be
       2.6610315 -4.3291426 0.934721 -0.42663756
000060 e7 4d 10 c0 34 01 52 c0 34 a5 d3 bb fd c8 74 c0
       -2.2547548 -3.2813234 -0.0064589027 -3.8247674
000070 1d 58 0d 40 f1 67 d5 3e 65 e3 0b be b1 2e 34 c0
       2.208503 0.41680863 -0.13660963 -2.8153498
000080 e7 8f 25 40 08 e7 f4 bf 86 7d 4f be 8f f6 30 c0
       2.586908 -1.9133005 -0.20262727 -2.7650487
000090 53 a4 93 3f 44 81 34 bf 77 00 32 bf 57 65 fc ba
       1.1534523 -0.70509744 -0.6953196 -0.0019256276
0000a0 8d 2c 3a be d3 0c 27 c0 9a cb 59 c0 d4 b1 0c c0
       -0.18181057 -2.6101577 -3.4030519 -2.1983538
0000b0 45 3c 21 bc e9 3a 47 c0 82 88 67 c0 23 fc 98 c0
       -0.0098410295 -3.1129706 -3.6177068 -4.7807784
0000c0 5a e7 58 c0 ae cd 01 bd ba bc 0d bc 2f 49 93 be
       -3.3891206 -0.031690292 -0.008650953 -0.28766772
0000d0 ab 92 f5 bd 0c 7f ac 3f 0c 27 e9 3f 00 80 c8 be
       -0.11990865 1.3476272 1.8215041 -0.39160156
0000e0 ee 89 9e 3f a1 a9 14 bd 5a 98 f8 3e a4 4e d3 bf
       1.2385843 -0.036294583 0.48553735 -1.6508374
0000f0 91 bc 3f be 02 b2 e3 bd a6 3e 08 c0 67 b3 c9 be
       -0.18724276 -0.11117937 -2.1288238 -0.39394686

fc2.weight f4 [64, 64]
000000 cf 07 54 3e 29 9b 6e 3f ca 34 9b 3e ec 42 a5 bd
       0.20706104 0.93205506 0.30313712 -0.08069405
000010 3c ff 35 3f 9b 66 06 3f 68 e0 8c bf ec 6d 28 3d
       0.7109258 0.52500314 -1.1005983 0.041120455
000020 c0 d3 07 c1 25 8f 29 3e b6 5b 79 be 73 38 cd 3e
       -8.489197 0.16558512 -0.24351391 0.4008213
000030 de e9 69 bd 21 8f d7 bf f5 bf 84 40 a2 16 58 bf
       -0.0571078 -1.6840554 4.1484323 -0.84409535
000040 00 a0 3d c0 02 ea d2 3e 36 19 0c 3e 7f dd 43 3e
       -2.9628906 0.4119416 0.13681492 0.19127463
000050 90 6d 3b 3e 66 d4 0f c1 cb 1c 8c be e8 56 5d be
       0.18303514 -8.989355 -0.27365717 -0.21615183
000060 d8 bc 94 bd fc 5f 07 c0 83 4b ce 3d d4 d8 23 c0
       -0.072625816 -2.1152334 0.100729965 -2.5601091
000070 b7 aa 2c 3e 81 9c 23 3d 14 6b 53 3e fd 1a b8 bf
       0.16861998 0.039944176 0.20646316 -1.4383236
000080 cd 81 3f 3f 9e 11 1c 3f c0 10 97 3e eb f5 6e c0
       0.74807435 0.6096438 0.29504967 -3.7337596
000090 d5 2c bc be cb 9f 1a bd 4b 27 68 be ca 09 f7 3d
       -0.36752954 -0.037750047 -0.22671239 0.12062414
0000a0 7b 54 2f 3e b7 8a a1 bf 7c 06 00 3e 0e 46 97 3e
       0.1712207 -1.2620457 0.12502474 0.29545635
0000b0 43 5d c6 3d f9 bc 0f be 7d 60 90 be bb cc 9e bf
       0.09685757 -0.14036931 -0.28198615 -1.2406229
0000c0 87 1c 9b 3e 47 3b 2a 3d 4d 10 20 3d fd cb 0c be
       0.30295202 0.041560438 0.039078046 -0.1374969
0000d0 cb d1 c1 3f 3c 2f ed be d3 ab 87 be db b7 e1 bf
       1.5142149 -0.463251 -0.2649828 -1.7634233
0000e0 2b 57 36 bf 33 b4 94 be 93 f3 a7 bf ad 1c 9b 3e
       -0.7122676 -0.2904373 -1.3121208 0.30295315
0000f0 68 ac b4 bc 99 06 8b 3e 52 8e 3c 3e 3d 0e 05 be
       -0.022054866 0.2715347 0.18413666 -0.12993713
000100 f2 f8 07 3f 84 e1 16 c0 57 66 44 3e af d6 6a 3e
       0.53114235 -2.3575144 0.19179665 0.22933458
000110 07 72 73 c0 86 b0 36 bf 0c 56 73 bf e9 c4 8c bd
       -3.8038347 -0.71363103 -0.9505317 -0.06873495
000120 81 bb b8 be 4d 87 c5 be cd 6a f2 be 78 bf 61 3f
       -0.36080554 -0.3857979 -0.47347108 0.88182783
000130 ec f2 31 bf c4 29 5f bd 3d 8a 07 c1 1e e6 e1 c0
       -0.69511294 -0.05448319 -8.47125 -7.0593405
000140 f5 fb b4 bf 2a f5 c3 3f f9 c8 ab 3d 52 58 1f 3f
       -1.4139391 1.5309193 0.08387942 0.6224414
000150 d9 6c 95 be 75 d4 2b c0 72 79 4c 3e 68 06 04 c0
       -0.29184607 -2.6848423 0.19968203 -2.062891
000160 47 c7 6a c0 7d 39 01 c0 24 9f 3a 3b 01 0c 47 c0
       -3.668413 -2.0191338 0.0028476203 -3.1101077
000170 30 38 07 be 80 08 df 3d fa 4f 8a c0 c8 0c d2 3d
       -0.13205028 0.10890293 -4.322263 0.10256344
000180 b6 39 2f bc 59 bb 65 bf 2d dc 69 3e 45 d3 bd bd
       -0.010694912 -0.89738995 0.22837897 -0.09268812
000190 bc 09 97 be 7a 5b 48 be ba f2 e4 3c 4c b6 c6 bc
       -0.29499614 -0.19566146 0.027947772 -0.024256848
0001a0 c7 72 b8 3e a6 e4 75 bb 27 f2 19 bd 80 8c c6 c0
       0.36025068 -0.0037520318 -0.03758445 -6.204651
0001b0 df 86 70 bc 00 34 d9 bc b7 58 47 be 02 33 06 3e
       -0.014680593 -0.026514053 -0.19467436 0.13105395
0001c0 6c d3 b1 be 19 69 f9 3e 1a c3 21 be c6 30 25 3f
       -0.34731615 0.48712996 -0.15797082 0.6452755
0001d0 bb a0 5f c0 62 c0 f1 bf 53 f7 f0 be 1b 48 ed be
       -3.4941852 -1.8886836 -0.47063693 -0.46344075
0001e0 fc 55 b3 3d 43 53 0b bf d0 7c 13 3f 41 29 92 3e
       0.087566346 -0.5442392 0.57612324 0.285471
0001f0 f4 a0 ab 3d de 6d 71 be bb 2b a1 bf f0 a9 fc 3b
       0.08380309 -0.23577067 -1.259147 0.007710688
000200 1c ba b5 bd b6 e3 9f bd 7f d7 a8 bb 1e b3 a6 bb
       -0.08873388 -0.07807104 -0.0051526423 -0.0050872704
000210 76 fe a1 bd 21 e6 cb 3e a5 bc 11 c0 04 a4 fc bd
       -0.07909863 0.39824012 -2.277139 -0.12335971
000220 11 45 86 c0 1f 55 ac bd 9d ec 90 3d 8c 94 87 bc
       -4.195931 -0.08414673 0.070763804 -0.016550325
000230 2c 0a fb bd bb 07 b7 be 42 7c fa 3c 62 6c be bd
       -0.122577995 -0.35748085 0.030576829 -0.09298016
000240 e0 09 36 c0 7d b5 e4 3c 26 3b 1e 3e 57 d9 8b be
       -2.8443527 0.027918572 0.15452251 -0.27314255
000250 03 4c a8 bf e4 3e 10 bc 15 27 b3 bd 82 70 43 3e
       -1.3148197 -0.008804057 -0.08747689 0.19085887
000260 7c f0 ce bd f2 cc 68 bc 22 0c 3a 3d 4d dd ab 3c
       -0.101044625 -0.014209019 0.045421727 0.020979548
000270 8b ec bc bf 9b 90 ac 3b a2 36 1c 3b d0 43 8c 3d
       -1.4759687 0.0052662618 0.0023836275 0.06848872
000280 26 23 e1 bf 98 8f 38 3d 3c 5d 39 be a3 0d a8 3e
       -1.7588851 0.045058817 -0.18101972 0.32822904
000290 64 38 51 3d fa c7 c3 bb 49 12 0d be 12 24 46 3e
       0.05107917 -0.005974767 -0.13776506 0.19349697
0002a0 7f 6e 0f bf 90 c0 91 bd 50 cc e6 bd 20 f6 b6 3b
       -0.5602798 -0.071168065 -0.11269438 0.0055835396
0002b0 60 7a 14 bd f0 ac e2 3c 90 de 20 3b 55 a5 7e 3e
       -0.03624952 0.027670354 0.002454672 0.24867757
0002c0 3c 13 ef bd 6b 04 21 be fd c2 4a bd 54 e5 a3 3d
       -0.116735905 -0.15724342 -0.04950236 0.08002725
0002d0 d1 21 d5 bd 5d 7f 2d 3d cd cb f0 bd 5b 3d 12 c0
       -0.104068406 0.04235779 -0.11757622 -2.2849948
0002e0 65 d3 d0 bb 2a 4d a5 3d fa a4 95 3d c9 3d a7 bf
       -0.0063728564 0.080713585 0.073068574 -1.306573
0002f0 5e 2a ab 3d 9e 3e fa bd 41 9b dc 3d 09 d5 8c 3d
       0.0835769 -0.122189745 0.107718 0.06876571
000300 c8 3f fe ba f3 e0 eb 3d 0d 8c 12 be df 2f ac bd
       -0.001939767 0.11517515 -0.14311238 -0.08407568
000310 10 50 95 3d c4 27 00 bd 53 64 c2 bc 15 2a 5b bd
       0.07290661 -0.031287923 -0.023729479 -0.05350693
000320 17 b7 b3 3d c2 26 f2 3c 73 3f 16 3b 1b 67 8d bd
       0.08775156 0.029559497 0.0022926002 -0.069044314
000330 fc 92 0e be da 6a 95 bc cd 31 fe 3c 80 65 6c bd
       -0.13923258 -0.018239427 0.031029606 -0.057713985
000340 81 7f 07 bd fc f0 a5 3d d2 c6 d1 3b 2d 54 02 bd
       -0.03308058 0.08102605 0.006401875 -0.031818558
000350 db 46 06 bd 5f bc e4 bd e5 00 fd bd 6f be 6d bd
       -0.032782417 -0.111687414 -0.12353686 -0.05804294
000360 5a 21 82 bd b2 84 eb 3b 91 39 2a bd 5a ac 42 bd
       -0.063540176 0.0071874494 -0.041558806 -0.04752765
000370 b1 06 eb 3d c1 be 19 3d 7c 34 aa 3d a0 dd 77 bd
       0.11475886 0.037535433 0.08310792 -0.060514092
000380 9b 98 55 bd 02 96 23 3d a8 e8 f7 bd 63 04 a4 bd
       -0.05214749 0.03993798 -0.121049225 -0.08008649
000390 e8 4d 45 bc ea ad 9e bd 0b d8 06 be 89 9c 8f 3d
       -0.0120425 -0.07748015 -0.13168351 0.070122786
0003a0 c6 86 80 3d e0 1d a6 3c 78 e9 b5 bc 3a 20 ed bd
       0.06275706 0.020277917 -0.022206053 -0.11578412
0003b0 c7 af aa bd 0c 59 02 3d 2c 0d 78 3d 1f cf 42 bd
       -0.08334308 0.031823203 0.060559437 -0.047560807
0003c0 f2 e4 4e bd 60 9b 02 3d 82 04 d6 bd 06 82 41 3d
       -0.050511308 0.03188646 -0.104500785 0.04724314
0003d0 54 3a 5f bd 0c dc 12 bd c9 cb 7f bd 24 6c 8b 3c
       -0.054498985 -0.035854384 -0.062450204 0.017019339
0003e0 8b 52 33 bd 8c 9b 59 3d b7 a0 17 bc ff c9 86 3d
       -0.04377989 0.053126857 -0.009254626 0.065814964
0003f0 96 23 f6 3d 2f 04 89 bd 90 cc fb bd aa 63 cd 3d
       0.12018506 -0.06690251 -0.122948766 0.10028775

fc2.bias f4 [64]
000000 d5 22 1d 3f 78 47 e2 3e 2f a3 77 be 8c f2 3d 3d
       0.61381274 0.4419515 -0.24183343 0.04637389
000010 9a 9e 27 3e a1 95 0c be 0e 09 fe bc 23 58 da 3d
       0.16369095 -0.13728954 -0.031010177 0.10661342
000020 5c fc bc 3c d5 bc 08 c0 6b c1 6f c0 66 04 de bd
       0.023069553 -2.1365254 -3.7461803 -0.10840683
000030 a2 63 12 bd 8a e7 1c 3f f0 16 7d 3e f6 77 8a be
       -0.03573955 0.612908 0.24715781 -0.27044648
000040 3e 35 52 3f 41 92 3c be 7b 14 89 bd cc cf eb 3e
       0.8211249 -0.18415166 -0.066933595 0.46056974
000050 ca f4 83 bf 33 8f 19 be 7c 20 d1 bf c9 d6 8a be
       -1.0309079 -0.14996032 -1.6338038 -0.27116993
000060 89 9c 98 bd ca 3d 95 be c1 5a 24 be 7f e2 15 3e
       -0.07451732 -0.29148704 -0.16050245 0.14637183
000070 01 11 b6 bd a6 37 bd 3e 15 53 90 bd 79 c9 ed bd
       -0.08889962 0.3695652 -0.07047097 -0.116106935
000080 14 dd ab 3c 71 ff 31 bf ce cd c0 3c 52 dd 8e bf
       0.020979442 -0.695304 0.023535635 -1.1161292
000090 7e 29 3f be 2a 9c 62 3f c6 f5 6d bd 18 e5 4b bf
       -0.18668172 0.8851954 -0.058095716 -0.79646444
0000a0 50 2d fc bf 2d ed 9b bd 5e a3 43 bf 24 4c be be
       -1.9701328 -0.07613597 -0.76421154 -0.37167466
0000b0 dd 45 47 bd a7 63 ed be 00 4a d6 bd d1 5a 29 be
       -0.04865061 -0.4636509 -0.10463333 -0.1653855
0000c0 a8 9e 26 be b1 cd cc 3e 0a d7 fd bd 9f bb e4 3e
       -0.1627146 0.4000068 -0.12394531 0.44674394
0000d0 55 ef 94 3c 7e f7 90 3e d0 39 7e 3f d4 23 66 be
       0.018180529 0.28313822 0.99306965 -0.22474605
0000e0 fd 14 c2 3e 3c 3d 86 3f 97 4e 5b be 6e 8f e4 3d
       0.37906638 1.0487437 -0.21416698 0.111601695
0000f0 c5 28 0a 3f 06 e7 69 bd af f0 3d 3f b0 5c 90 bf
       0.5396846 -0.057105087 0.7419538 -1.1278286

fc3.weight f4 [4, 64]
000000 80 0e 14 bf da 13 d2 3e c2 6b a8 3c 2a 44 77 bd
       -0.57834625 0.4103077 0.020559195 -0.06036774
000010 e4 bd eb be c0 f2 9d 3e a4 18 1c be 30 db 57 3d
       -0.46043313 0.30849266 -0.15243775 0.052699268
000020 8c 38 d1 3e ad e4 40 40 ba 8a 0c c1 93 c6 03 bd
       0.40863454 3.0139573 -8.783869 -0.032171797
000030 7f 2a 5d 3d 45 13 de bb 9d 4b 01 bf fb 21 a2 3d
       0.053995606 -0.0067771995 -0.50506 0.079166375
000040 06 30 a6 3e 2b 64 eb 3d e8 6b b4 bd fa 8c 2a 3f
       0.32458514 0.11493715 -0.08809644 0.66621363
000050 e8 72 7f bf 08 1b 48 3c 10 7a 12 c1 d0 65 44 3d
       -0.9978471 0.012213476 -9.1548 0.04794866
000060 26 0e d5 3e e1 db c3 3d a1 e8 80 bd d4 0a 74 c1
       0.41612357 0.09563423 -0.062943704 -15.252644
000070 ff a2 4c 3d 1d da b8 bf 42 09 f9 3e 48 a3 9c 3a
       0.049960133 -1.4441563 0.48639876 0.0011950517
000080 88 d8 33 3d ae f7 ad bd f8 9e 9b bd 9c ee 2e 3f
       0.043907672 -0.08494507 -0.0759868 0.6833284
000090 2c d4 df bd 92 1e c9 be 65 bd 71 bc 25 ac 41 bf
       -0.109291404 -0.39281136 -0.014754628 -0.75653297
0000a0 ea 2f 75 3e 43 c3 40 bc 47 7c 35 bd ca 32 27 bc
       0.23944059 -0.011765304 -0.044307973 -0.01020498
0000b0 2f 07 2a bc c9 43 97 3d 3b 1a 1a bc 50 5b 4e 3d
       -0.010377689 0.07385976 -0.009405668 0.05038005
0000c0 da d5 e0 bd 9c f6 4f be 06 da 9e bd 4d 29 9b be
       -0.10978289 -0.20308918 -0.077564284 -0.30304947
0000d0 c2 e5 4d bd 3e 8c 10 3f 20 cc b0 bd ce 29 8f 3f
       -0.050267942 0.5646399 -0.08632684 1.1184633
0000e0 3a d3 4a bf 8d 35 03 3f ce 75 17 b8 10 c1 95 c1
       -0.79228556 0.51253587 -3.611092e-05 -18.719269
0000f0 e5 06 52 3f 69 25 8a 3d 38 1a 35 3e 3c 5c 9b c1
       0.8204177 0.06745417 0.17685783 -19.420036
000100 e7 d8 06 3f b8 23 3b bf 89 cc 27 bc 0b e4 25 bd
       0.52674717 -0.7310138 -0.010241636 -0.04050068
000110 f4 28 4a be 8e 1d c6 be de 04 61 bd 13 db fe 3d
       -0.19742185 -0.38694423 -0.054936282 0.12444129
000120 08 a3 08 c2 27 a9 12 c0 fa 20 ca 3e db 92 89 bd
       -34.15921 -2.2915742 0.39478284 -0.067174636
000130 18 aa 5c 3e a1 a5 6c 3e b9 1e d4 3e cc 8e 9e 3c
       0.2154926 0.23110057 0.4142969 0.0193552
000140 77 66 2d be 41 0e 0b 3e 00 ba 83 bd cd 89 a2 3e
       -0.16933618 0.13579656 -0.06431961 0.3174576
000150 c9 26 1e bc 05 df 3f bd 80 32 92 3e d1 0c 8e 3d
       -0.009652802 -0.046843547 0.28554153 0.06936038
000160 0d d7 db bf ed 9e 9e 3b c2 d7 16 bc 8a b8 26 3e
       -1.7175003 0.004840723 -0.009206714 0.16281334
000170 67 9d 4d bc 6f 8d 3b 3f e4 4f 9c be d6 98 c9 3d
       -0.012549735 0.73262686 -0.30529702 0.09843604
000180 24 55 95 bd 6a 85 b9 bd 83 29 7f bd 84 e6 84 c0
       -0.0729163 -0.0905865 -0.062295448 -4.153139
000190 09 f3 88 bd d5 af 94 be 5e ec b8 bd 00 92 e9 bf
       -0.0668698 -0.290404 -0.090294585 -1.8247681
0001a0 54 31 86 3e 61 51 2f 3c e4 0f 04 3e 9f 88 f6 3d
       0.2620951 0.010700555 0.12896687 0.12037777
0001b0 d6 e2 31 3d 3e 60 ba 3d e7 02 07 bd 9a 63 5d 3d
       0.04342922 0.09100388 -0.032961752 0.054050066
0001c0 fc 3a dc bc 03 b7 d4 bd 74 b4 2d bd aa 9a d0 bd
       -0.026883595 -0.10386469 -0.04240842 -0.1018575
0001d0 56 b6 a9 3d d4 7b 77 bf 49 d9 21 be fe e7 fe 3d
       0.08286731 -0.9667332 -0.15805544 0.12446593
0001e0 2b 7c b2 3e c5 02 00 3f 0f 85 43 3e bc ab 1a 3f
       0.34860358 0.50004226 0.19093727 0.60418296
0001f0 c0 57 aa be d3 89 a2 3c 0d cd 8c 3e fd 6c 36 3e
       -0.33270073 0.01984111 0.2750019 0.17815013
000200 df 13 85 3e e9 08 12 3f 67 d7 e9 3c a4 56 b6 3d
       0.25991723 0.57044846 0.028545095 0.08903244
000210 be d7 7e 3f 7b 5a 2b 3d ab 83 57 3c a3 85 8e be
       0.99547946 0.041834336 0.013153951 -0.27836332
000220 cf fd fc 3d ee 3f 7a 40 55 cf cd 3e 77 e3 1d 3d
       0.12353098 3.910152 0.40197244 0.038547006
000230 ce d9 f5 c1 55 64 b2 be f2 0b ea 3d 0d c2 33 bd
       -30.73135 -0.34842172 0.1142806 -0.043886233
000240 4a 80 ac be f5 ba 2e c1 b9 c6 84 bd b3 d4 99 bf
       -0.33691627 -10.920644 -0.06483216 -1.2018036
000250 c1 70 d4 3e 21 37 c2 bc 86 f0 6d 3e 52 d6 f2 be
       0.41492274 -0.023707928 0.23236284 -0.47429138
000260 7c 90 5b 3f 25 9b 04 bc fa 2a 35 bd b1 d4 54 3d
       0.8576734 -0.00809363 -0.04423044 0.05196065
000270 d5 8d 8c bd b4 06 49 3f d8 d1 60 bd 75 85 37 3d
       -0.0686299 0.78525853 -0.054887623 0.04480501
000280 6b 82 12 bc 37 96 f4 bd 29 5d 6c bd 72 b7 57 3f
       -0.008942227 -0.11942714 -0.057706032 0.8426429
000290 3c 29 77 bd 82 77 9e 3f ea 9a 4f bd ee 24 2d 40
       -0.06034206 1.2380221 -0.050684847 2.705379
0002a0 61 fc bb c0 5c 54 32 bd ab 18 f7 be 9d 06 f5 be
       -5.874558 -0.043537483 -0.48261008 -0.47856608
0002b0 a7 69 0c 3d d3 ce 71 be 65 23 93 3a 05 8e ad 3c
       0.034280445 -0.23614053 0.0011225758 0.021185884
0002c0 ac 3f ac bd 42 ab 64 3e 40 2d bb 3c 09 2d 0d 3f
       -0.08410582 0.22330955 0.022848725 0.55146843
0002d0 a0 1d d1 bb 09 c2 26 3f 29 1c 6f 3f ea a1 26 c0
       -0.0063817054 0.65139824 0.93402344 -2.6036325
0002e0 48 66 83 3e 89 c4 dc bf f7 4f b8 c1 ab 03 26 3c
       0.25663972 -1.7247478 -23.039045 0.01013271
0002f0 b4 31 75 be 83 b3 ca bc 60 e2 73 bf 6b 1b 47 3e
       -0.23944741 -0.024743801 -0.95267296 0.19444053
000300 ef fc 0f be 58 21 16 be 8a 1f 95 bf 2e ce 9f bd
       -0.1406133 -0.14661157 -1.165025 -0.078029975
000310 07 4c d1 bd 0e 8a 0b be ab 84 88 3d 49 fb 84 c0
       -0.10219579 -0.13626882 0.066659294 -4.1556745
000320 8e e7 44 be 66 2c e7 be c9 54 aa bd ff 6d a1 3d
       -0.19228956 -0.4515106 -0.08316953 0.07882308
000330 7d 9f 7e bf 4b 03 a7 be 52 5a 61 be 14 9c 7d be
       -0.9946211 -0.326197 -0.2200711 -0.2476657
000340 bf 73 c7 be 02 7c 5c be 92 b5 ce 3c 68 d6 e9 be
       -0.38955495 -0.2153168 0.025233064 -0.4567139
000350 63 23 37 be d4 3b b7 3c 27 f5 0f c0 03 ad ab be
       -0.17884593 0.022367395 -2.249338 -0.33530435
000360 2d 51 a6 3c 02 6f 9d c0 02 dd a9 3d fc fe de be
       0.02030238 -4.9198008 0.08294107 -0.43553913
000370 69 19 3e 3d 1b f8 9a be c6 6a 89 bd 61 b4 6e bf
       0.04641095 -0.30267414 -0.067098185 -0.93243986
000380 fb c1 c7 bc 3f a9 29 c1 45 7f b0 bd a5 86 0d c0
       -0.02438449 -10.60382 -0.08618025 -2.211343
000390 56 9d 50 bd 67 28 af bd d8 b5 b5 3d 4c 7e 3e be
       -0.050931297 -0.08552628 0.088725746 -0.18602866
0003a0 22 42 db c0 b5 d4 e5 be d1 2e 8b c0 0c d7 93 be
       -6.851823 -0.44888845 -4.349465 -0.28875005
0003b0 88 57 e7 bd fd 89 c4 bf b1 60 9f 3d 55 56 a0 3c
       -0.11295992 -1.5354611 0.07782114 0.019572416
0003c0 86 36 d6 bd 30 7c 87 c0 4b e7 f9 bc 99 d1 47 c0
       -0.10459618 -4.2339096 -0.030505797 -3.1221678
0003d0 ec 4d 1e 3d cc 40 00 be 64 7c 17 be 81 2b 8f be
       0.03864853 -0.12524718 -0.14793545 -0.27962878
0003e0 fe 44 02 c1 5a b9 95 bf a4 2c b2 bd 10 94 9e be
       -8.141844 -1.169719 -0.08699921 -0.30972338
0003f0 23 10 4d be 82 a9 2a 3c 52 21 f0 be 19 37 ac bf
       -0.20025687 0.01041639 -0.4690042 -1.3454314

fc3.bias f4 [4]
000000 5a 36 bd bc cf d5 7f 3d 9d 5a 45 bd c6 ed 9f c1
       -0.023097206 0.062459763 -0.04818212 -19.9911
