data/ppo-0.0-rerun/ppo_iter_950.pth (torch, 21114 bytes, 6 tensors)

fc1.weight f4 [64, 2]
-0.12088749 -0.4171594 0.07367689 0.45007974 0.17649949 0.30118066 -0.36510822 0.3745858
0.583164 -0.52540106 0.42789376 0.059912164 -0.003520152 -0.040634394 0.59294003 -0.35554272
0.4509277 0.07108663 -0.2593201 0.211995 -0.015873851 -0.36164594 0.011068372 0.04013298
-0.28562257 -0.5194003 -0.23148389 -0.053823955 0.19981842 -2.72805 0.91700953 -1.5657467
0.00031656807 -0.111485034 -0.056311484 0.48900002 0.0026415677 -0.24437416 0.008052965 -0.5210762
0.32438374 -0.18520802 0.041828338 0.46404496 0.5853577 -0.45327345 0.025535116 -0.043310843
0.7510998 -1.0322719 -0.24934457 0.15721282 -0.00022897877 -0.030278202 0.086876065 0.5196395
0.2679775 -0.15976384 0.05829564 -0.80170995 0.10269966 -1.7197261 0.5706569 -0.51816314
0.42399624 -0.050128907 0.22589499 -0.25998753 -0.2401003 -2.644534 0.5291286 0.16345778
0.5702821 -0.8605655 -0.39219934 -0.8537636 -0.27427647 0.11462426 1.0763197e-05 -0.020653173
-0.48220906 -0.7917857 0.5605157 -0.53556925 0.5916746 0.09986377 0.7336825 -1.020249
0.008178305 -0.25415507 0.5339578 -0.44934872 0.21612 0.3381739 -0.3715309 -0.0886291
0.6072748 -0.009881039 0.016320119 -0.9883166 0.0081353355 -0.6363509 -0.2650168 -1.1383268
0.100651264 -1.7224388 -0.39608964 -0.31534806 0.035938747 -0.58183163 0.0020078246 -0.05973113
0.74693245 -2.1491807 0.23055978 -1.0450904 0.56658024 -1.5587164 -0.52429783 -0.8195385
0.0019595756 -0.2631167 0.09724636 -1.8202432 -0.16272937 -0.24720758 -0.04053203 -0.721167
00000000: dc93 f7bd eb95 d5be e9e3 963d da70 e63e
00000010: 48bc 343e 5a34 9a3e 77ef babe b6c9 bf3e
00000020: 3c4a 153f af80 06bf e414 db3e 7566 753d
00000030: 5ab2 66bb 4070 26bd ebca 173f b209 b6be
00000040: ffdf e63e de95 913d 9bc5 84be 3815 593e
00000050: e109 82bc a829 b9be 1e58 353c 7b62 243d
00000060: 1f3d 92be 6bf7 04bf 1d0a 6dbe 8276 5cbd
00000070: 339d 4c3e 5f98 2ec0 23c1 6a3f 636a c8bf
00000080: 0cf9 a539 4452 e4bd dfa6 66bd 365e fa3e
00000090: 271e 2d3b 383d 7abe 95f0 033c 4065 05bf
000000a0: a015 a63e 2ca7 3dbe 3154 2b3d 4d97 ed3e
000000b0: 01da 153f 7513 e8be 052f d13c b666 31bd
000000c0: 1448 403f 7c21 84bf 2f54 7fbe 66fc 203e
000000d0: 051a 70b9 fe09 f8bc 14ec b13d 1807 053f
000000e0: 5934 893e 2299 23be 69c7 6e3d dd3c 4dbf
000000f0: 3354 d23d fc1f dcbf 9216 123f 57a6 04bf
00000100: 0916 d93e f853 4dbd 0451 673e 161d 85be
00000110: dadc 75be 0c40 29c0 f974 073f 7a61 273e
00000120: 02fe 113f 054e 5cbf 5ace c8be 4090 5abf
00000130: f76d 8cbe 20c0 ea3d 9493 3437 d830 a9bc
00000140: 1be4 f6be 78b2 4abf f57d 0f3f 111b 09bf
00000150: fd77 173f 6085 cc3d 9ed2 3b3f 8597 82bf
00000160: 4cfe 053c 9d20 82be 75b1 083f 0911 e6be
00000170: 904e 5d3e 2125 ad3e 4c39 bebe 2c83 b5bd
00000180: 5c76 1b3f 15e4 21bc c5b1 853c 5102 7dbf
00000190: 124a 053c e5e7 22bf 48b0 87be b1b4 91bf
000001a0: 4022 ce3d e078 dcbf 43cc cabe 4d75 a1be
000001b0: 8234 133d ebf2 14bf b595 033b a1a8 74bd
000001c0: f736 3f3f 2d8c 09c0 dd17 6c3e 86c5 85bf
000001d0: 670b 113f 0584 c7bf 6238 06bf 46cd 51bf
000001e0: 396c 003b 3bb7 86be 1929 c73d bbfd e8bf
000001f0: 87a2 26be fc23 7dbe ea04 26bd 679e 38bf

fc1.bias f4 [64]
0.013692376 -2.823486 3.1939082 -1.4182305 -1.5792583 1.5662471 -0.060205355 -3.5435555
-0.9466932 -2.581092 0.41763118 -1.6238827 1.4451144 -3.6701057 -0.102484986 -1.2803749
-0.0022253077 -3.2934546 -0.012347318 2.4324353 2.6587372 -4.327932 0.9357138 -0.42663756
-2.2579615 -3.2827983 -0.0064589027 -3.8213549 2.2054448 0.41975325 -0.13660963 -2.8121724
2.5870464 -1.9116765 -0.2011077 -2.7630947 1.156848 -0.70961964 -0.69946694 -0.0019256276
-0.18548892 -2.6074948 -3.4014943 -2.2007363 -0.0098410295 -3.1098022 -3.6169105 -4.7849436
-3.3905444 -0.031690292 -0.008650953 -0.29177552 -0.11990865 1.3428011 1.8172758 -0.39160156
1.2402554 -0.037178993 0.48804027 -1.6458375 -0.18724276 -0.11117937 -2.132037 -0.3920852
00000000: fd55 603c ffb3 34c0 fe68 4c40 9488 b5bf
00000010: 2325 cabf c97a c83f e499 76bd 9dc9 62c0
00000020: 7c5a 72bf 9c30 25c0 c1d3 d53e 63db cfbf
00000030: 82f9 b83f 03e3 6ac0 a6e3 d1bd 53e3 a3bf
00000040: 78d6 11bb f6c7 52c0 684c 4abc 05ad 1b40
00000050: c028 2a40 6b7e 8ac0 f18a 6f3f 3d70 dabe
00000060: 7182 10c0 5e19 52c0 34a5 d3bb 1491 74c0
00000070: 0226 0d40 e6e9 d63e 65e3 0bbe a2fa 33c0
00000080: 2b92 2540 d1b1 f4bf 2def 4dbe 8bd6 30c0
00000090: 9813 943f a2a9 35bf 4410 33bf 5765 fcba
000000a0: cff0 3dbe 32e1 26c0 15b2 59c0 ddd8 0cc0
000000b0: 453c 21bc 0007 47c0 767b 67c0 421e 99c0
000000c0: aefe 58c0 aecd 01bd babc 0dbc 9a63 95be
000000d0: ab92 f5bd e8e0 ab3f 7e9c e83f 0080 c8be
000000e0: b0c0 9e3f 0049 18bd 6ae0 f93e ceaa d2bf
000000f0: 91bc 3fbe 02b2 e3bd 4b73 08c0 64bf c8be

fc2.weight f4 [64, 64]
0.20913158 0.9297649 0.30031946 -0.08515334 0.7109258 0.5228745 -1.1005983 0.041120455
-8.490184 0.16546035 -0.23988232 0.4008213 -0.0538818 -1.6840554 4.1532736 -0.84409535
-2.9628906 0.40941593 0.13681492 0.19451272 0.18338975 -8.98692 -0.27110395 -0.21615183
-0.072625816 -2.1146238 0.100729965 -2.5604568 0.16906127 0.043628715 0.20646316 -1.4383236
0.7470423 0.6096438 0.29641363 -3.7337596 -0.36348912 -0.03548067 -0.22883165 0.12062414
0.17432855 -1.2620457 0.12502474 0.29545635 0.09685757 -0.14036931 -0.28198615 -1.2406229
0.30295202 0.041560438 0.039078046 -0.13593037 1.5142149 -0.461345 -0.2607455 -1.7634233
-0.70804995 -0.2854135 -1.3079809 0.3054496 -0.022054866 0.2715347 0.18413666 -0.12770405
0.53114235 -2.3490045 0.19997056 0.23737988 -3.8038347 -0.70595235 -0.9505317 -0.06873495
-0.36080554 -0.37926733 -0.47347108 0.88182783 -0.69511294 -0.05448319 -8.47125 -7.0593405
-1.4139391 1.5391599 0.08387942 0.6224414 -0.28962284 -2.6848423 0.19968203 -2.062891
-3.668413 -2.0191338 0.0028476203 -3.1036208 -0.13006364 0.10890293 -4.322263 0.10256344
-0.002777114 -0.89738995 0.22837897 -0.09268812 -0.29499614 -0.19566146 0.035863984 -0.024256848
0.36025068 -0.0037520318 -0.03758445 -6.204651 -0.014680593 -0.026514053 -0.19467436 0.13105395
-0.34731615 0.48712996 -0.15797082 0.6452755 -3.4941852 -1.8833086 -0.47063693 -0.46344075
0.087566346 -0.5442392 0.57612324 0.285471 0.08380309 -0.23577067 -1.259147 0.007710688
-0.08873388 -0.07807104 -0.0051526423 -0.0050872704 -0.07909863 0.39824012 -2.277139 -0.12335971
-4.195931 -0.08414673 0.070763804 -0.016550325 -0.122577995 -0.35748085 0.030576829 -0.09298016
-2.8443527 0.027918572 0.15452251 -0.27314255 -1.3148197 -0.008804057 -0.08747689 0.19085887
-0.101044625 -0.014209019 0.045421727 0.020979548 -1.4759687 0.0052662618 0.0023836275 0.06848872
-1.7588851 0.045058817 -0.18101972 0.32822904 0.05107917 -0.005974767 -0.13776506 0.19349697
-0.5602798 -0.071168065 -0.11269438 0.0055835396 -0.03624952 0.027670354 0.002454672 0.24867757
-0.116735905 -0.15724342 -0.04950236 0.08002725 -0.104068406 0.04235779 -0.11757622 -2.2849948
-0.0063728564 0.080713585 0.073068574 -1.306573 0.0835769 -0.122189745 0.107718 0.06876571
-0.001939767 0.11517515 -0.14311238 -0.08407568 0.07290661 -0.031287923 -0.023729479 -0.05350693
0.08775156 0.029559497 0.0022926002 -0.069044314 -0.13923258 -0.018239427 0.031029606 -0.057713985
-0.03308058 0.08102605 0.006401875 -0.031818558 -0.032782417 -0.111687414 -0.12353686 -0.05804294
-0.063540176 0.0071874494 -0.041558806 -0.04752765 0.11475886 0.037535433 0.08310792 -0.060514092
-0.05214749 0.03993798 -0.121049225 -0.08008649 -0.0120425 -0.07748015 -0.13168351 0.070122786
0.06275706 0.020277917 -0.022206053 -0.11578412 -0.08334308 0.031823203 0.060559437 -0.047560807
-0.050511308 0.03188646 -0.104500785 0.04724314 -0.054498985 -0.035854384 -0.062450204 0.017019339
-0.04377989 0.053126857 -0.009254626 0.065814964 0.12018506 -0.06690251 -0.122948766 0.10028775
00000000: 9726 563e 1305 6e3f 79c3 993e e064 aebd
00000010: 3cff 353f 1adb 053f 68e0 8cbf ec6d 283d
00000020: cbd7 07c1 706e 293e b6a3 75be 7338 cd3e
00000030: 2ab3 5cbd 218f d7bf 9ee7 8440 a216 58bf
00000040: 00a0 3dc0 f79e d13e 3619 0c3e 582e 473e
00000050: 86ca 3b3e 6dca 0fc1 23ce 8abe e856 5dbe
00000060: d8bc 94bd ff55 07c0 834b ce3d 86de 23c0
00000070: 661e 2d3e 06b4 323d 146b 533e fd1a b8bf
00000080: 2a3e 3f3f 9e11 1c3f 87c3 973e ebf5 6ec0
00000090: 3f1b babe 2e54 11bd d852 6abe ca09 f73d
000000a0: 2f83 323e b78a a1bf 7c06 003e 0e46 973e
000000b0: 435d c63d f9bc 0fbe 7d60 90be bbcc 9ebf
000000c0: 871c 9b3e 473b 2a3d 4d10 203d 5531 0bbe
000000d0: cbd1 c13f 6935 ecbe 6f80 85be dbb7 e1bf
000000e0: c342 35bf b821 92be eb6b a7bf e463 9c3e
000000f0: 68ac b4bc 9906 8b3e 528e 3c3e dac4 02be
00000100: f2f8 073f 1756 16c0 15c5 4c3e b613 733e
00000110: 0772 73c0 4bb9 34bf 0c56 73bf e9c4 8cbd
00000120: 81bb b8be 542f c2be cd6a f2be 78bf 613f
00000130: ecf2 31bf c429 5fbd 3d8a 07c1 1ee6 e1c0
00000140: f5fb b4bf 3103 c53f f9c8 ab3d 5258 1f3f
00000150: 7249 94be 75d4 2bc0 7279 4c3e 6806 04c0
00000160: 47c7 6ac0 7d39 01c0 249f 3a3b b9a1 46c0
00000170: 672f 05be 8008 df3d fa4f 8ac0 c80c d23d
00000180: 3e00 36bb 59bb 65bf 2ddc 693e 45d3 bdbd
00000190: bc09 97be 7a5b 48be 1de6 123d 4cb6 c6bc
000001a0: c772 b83e a6e4 75bb 27f2 19bd 808c c6c0
000001b0: df86 70bc 0034 d9bc b758 47be 0233 063e
000001c0: 6cd3 b1be 1969 f93e 1ac3 21be c630 253f
000001d0: bba0 5fc0 4210 f1bf 53f7 f0be 1b48 edbe
000001e0: fc55 b33d 4353 0bbf d07c 133f 4129 923e
000001f0: f4a0 ab3d de6d 71be bb2b a1bf f0a9 fc3b
00000200: 1cba b5bd b6e3 9fbd 7fd7 a8bb 1eb3 a6bb
00000210: 76fe a1bd 21e6 cb3e a5bc 11c0 04a4 fcbd
00000220: 1145 86c0 1f55 acbd 9dec 903d 8c94 87bc
00000230: 2c0a fbbd bb07 b7be 427c fa3c 626c bebd
00000240: e009 36c0 7db5 e43c 263b 1e3e 57d9 8bbe
00000250: 034c a8bf e43e 10bc 1527 b3bd 8270 433e
00000260: 7cf0 cebd f2cc 68bc 220c 3a3d 4ddd ab3c
00000270: 8bec bcbf 9b90 ac3b a236 1c3b d043 8c3d
00000280: 2623 e1bf 988f 383d 3c5d 39be a30d a83e
00000290: 6438 513d fac7 c3bb 4912 0dbe 1224 463e
000002a0: 7f6e 0fbf 90c0 91bd 50cc e6bd 20f6 b63b
000002b0: 607a 14bd f0ac e23c 90de 203b 55a5 7e3e
000002c0: 3c13 efbd 6b04 21be fdc2 4abd 54e5 a33d
000002d0: d121 d5bd 5d7f 2d3d cdcb f0bd 5b3d 12c0
000002e0: 65d3 d0bb 2a4d a53d faa4 953d c93d a7bf
000002f0: 5e2a ab3d 9e3e fabd 419b dc3d 09d5 8c3d
00000300: c83f feba f3e0 eb3d 0d8c 12be df2f acbd
00000310: 1050 953d c427 00bd 5364 c2bc 152a 5bbd
00000320: 17b7 b33d c226 f23c 733f 163b 1b67 8dbd
00000330: fc92 0ebe da6a 95bc cd31 fe3c 8065 6cbd
00000340: 817f 07bd fcf0 a53d d2c6 d13b 2d54 02bd
00000350: db46 06bd 5fbc e4bd e500 fdbd 6fbe 6dbd
00000360: 5a21 82bd b284 eb3b 9139 2abd 5aac 42bd
00000370: b106 eb3d c1be 193d 7c34 aa3d a0dd 77bd
00000380: 9b98 55bd 0296 233d a8e8 f7bd 6304 a4bd
00000390: e84d 45bc eaad 9ebd 0bd8 06be 899c 8f3d
000003a0: c686 803d e01d a63c 78e9 b5bc 3a20 edbd
000003b0: c7af aabd 0c59 023d 2c0d 783d 1fcf 42bd
000003c0: f2e4 4ebd 609b 023d 8204 d6bd 0682 413d
000003d0: 543a 5fbd 0cdc 12bd c9cb 7fbd 246c 8b3c
000003e0: 8b52 33bd 8c9b 593d b7a0 17bc ffc9 863d
000003f0: 9623 f63d 2f04 89bd 90cc fbbd aa63 cd3d

fc2.bias f4 [64]
0.6125261 0.4500826 -0.24183343 0.04637389 0.1673965 -0.13816655 -0.031010177 0.10701122
0.023583326 -2.1407316 -3.746196 -0.10840683 -0.035649955 0.61708385 0.24460264 -0.2705202
0.8204053 -0.18415166 -0.066933595 0.46306995 -1.0224478 -0.14996032 -1.6338038 -0.27116993
-0.07844252 -0.29148704 -0.16050245 0.14659637 -0.08889962 0.36538994 -0.06904643 -0.116106935
0.020979442 -0.695304 0.023535635 -1.1147658 -0.18668172 0.9134034 -0.058095716 -0.79646444
-1.959713 -0.07613597 -0.77284396 -0.37167466 -0.04865061 -0.4636509 -0.10463333 -0.1653855
-0.1627146 0.39970222 -0.12394531 0.43998027 0.018180529 0.2832372 0.995593 -0.22334188
0.37848395 1.0361483 -0.21336281 0.10531532 0.54153574 -0.057105087 0.7372366 -1.1325499
00000000: 83ce 1c3f 3a71 e63e 2fa3 77be 8cf2 3d3d
00000010: fd69 2b3e 887b 0dbe 0e09 febc b328 db3d
00000020: d231 c13c bf01 09c0 adc1 6fc0 6604 debd
00000030: b005 12bd 35f9 1d3f 1d79 7a3e a081 8abe
00000040: 1506 523f 4192 3cbe 7b14 89bd 8117 ed3e
00000050: 92df 82bf 338f 19be 7c20 d1bf c9d6 8abe
00000060: 79a6 a0bd ca3d 95be c15a 24be 5c1d 163e
00000070: 0111 b6bd 6414 bb3e 3768 8dbd 79c9 edbd
00000080: 14dd ab3c 71ff 31bf cecd c03c a5b0 8ebf
00000090: 7e29 3fbe ced4 693f c6f5 6dbd 18e5 4bbf
000000a0: e0d7 fabf 2ded 9bbd 1ad9 45bf 244c bebe
000000b0: dd45 47bd a763 edbe 004a d6bd d15a 29be
000000c0: a89e 26be c5a5 cc3e 0ad7 fdbd 1845 e13e
000000d0: 55ef 943c 7704 913e 2fdf 7e3f bcb3 64be
000000e0: a6c8 c13e 82a0 843f c87b 5abe 8faf d73d
000000f0: 16a2 0a3f 06e7 69bd 8abb 3c3f 65f7 90bf

fc3.weight f4 [4, 64]
-0.57753825 0.4158944 0.020559195 -0.06036774 -0.4609176 0.31183344 -0.15243775 0.05852576
0.38334063 2.9957 -8.783736 -0.032171797 0.052592553 -0.0071883965 -0.5000851 0.07868443
0.32492566 0.11493715 -0.08809644 0.66761863 -0.99516404 0.012213476 -9.1548 0.04794866
0.42097571 0.09563423 -0.062943704 -15.267103 0.049960133 -1.4435142 0.4913125 0.0011950517
0.043907672 -0.08494507 -0.0759868 0.6809831 -0.109291404 -0.40606064 -0.014754628 -0.75653297
0.23381853 -0.011765304 -0.04337836 -0.01020498 -0.010377689 0.07385976 -0.009405668 0.05038005
-0.10978289 -0.20099165 -0.077564284 -0.29678532 -0.050267942 0.5639509 -0.08412986 1.1205721
-0.79326826 0.5082746 -0.005515735 -18.707191 0.8200916 0.06745417 0.17537624 -19.383698
0.51958406 -0.7372815 -0.010241636 -0.04050068 -0.19877808 -0.38107198 -0.054936282 0.12043828
-34.15414 -2.2826653 0.39870673 -0.067174636 0.21689734 0.23552953 0.41757712 0.019837165
-0.17116952 0.13579656 -0.06431961 0.31402883 -0.011068414 -0.046843547 0.28554153 0.06936038
-1.7117047 0.004840723 -0.009206714 0.15706809 -0.012549735 0.7318337 -0.30227292 0.09843604
-0.0729163 -0.0905865 -0.062295448 -4.147355 -0.0668698 -0.2923503 -0.090294585 -1.8247681
0.2677746 0.010700555 0.12712681 0.12037777 0.04342922 0.09100388 -0.032961752 0.054050066
-0.026883595 -0.10916182 -0.04240842 -0.098452054 0.08286731 -0.9629317 -0.16033174 0.12371138
0.3365854 0.50351685 0.19641776 0.5891279 -0.33462015 0.01984111 0.27526668 0.16836739
0.2681624 0.5947161 0.028545095 0.08903244 0.9956863 0.033423267 0.013153951 -0.28023624
0.1633571 3.9304225 0.39044055 0.038547006 -30.729057 -0.35487902 0.107726075 -0.043886233
-0.33579698 -10.920644 -0.06483216 -1.2000594 0.41613352 -0.023707928 0.23236284 -0.47429138
0.8479512 -0.00809363 -0.04423044 0.057711437 -0.0686299 0.78440213 -0.06121457 0.04480501
-0.008942227 -0.11942714 -0.057706032 0.8381331 -0.06034206 1.2644984 -0.050684847 2.705379
-5.888068 -0.043537483 -0.4836947 -0.47856608 0.034280445 -0.23614053 0.0011225758 0.021185884
-0.08410582 0.22616096 0.022848725 0.54433286 -0.0063817054 0.6479039 0.9425696 -2.6041815
0.26822695 -1.7117134 -23.039045 0.031704087 -0.23805419 -0.024743801 -0.950053 0.20374556
-0.1406133 -0.14661157 -1.165025 -0.078029975 -0.10219579 -0.13626882 0.066659294 -4.1556745
-0.19228956 -0.4515106 -0.08316953 0.07882308 -0.9946211 -0.326197 -0.2200711 -0.2476657
-0.38955495 -0.2153168 0.025233064 -0.4567139 -0.17884593 0.022367395 -2.249338 -0.33530435
0.02030238 -4.9198008 0.08294107 -0.43553913 0.04641095 -0.30267414 -0.067098185 -0.93243986
-0.02438449 -10.60382 -0.08618025 -2.211343 -0.050931297 -0.08552628 0.088725746 -0.18602866
-6.851823 -0.44888845 -4.349465 -0.28875005 -0.11295992 -1.5354611 0.07782114 0.019572416
-0.10459618 -4.2339096 -0.030505797 -3.1221678 0.03864853 -0.12524718 -0.14793545 -0.27962878
-8.141844 -1.169719 -0.08699921 -0.30972338 -0.20025687 0.01041639 -0.4690042 -1.3454314
00000000: 8cd9 13bf 1cf0 d43e c26b a83c 2a44 77bd
00000010: 64fd ebbe a2a8 9f3e a418 1cbe b5b8 6f3d
00000020: 3945 c43e 8cb9 3f40 2f8a 0cc1 93c6 03bd
00000030: 4a6b 573d a48c ebbb 9405 00bf 4d25 a13d
00000040: a85c a63e 2b64 eb3d e86b b4bd 0ee9 2a3f
00000050: 12c3 7ebf 081b 483c 107a 12c1 d065 443d
00000060: 218a d73e e1db c33d a1e8 80bd 0e46 74c1
00000070: ffa2 4c3d 13c5 b8bf 508d fb3e 48a3 9c3a
00000080: 88d8 333d aef7 adbd f89e 9bbd e954 2e3f
00000090: 2cd4 dfbd 2ee7 cfbe 65bd 71bc 25ac 41bf
000000a0: 206e 6f3e 43c3 40bc 82ad 31bd ca32 27bc
000000b0: 2f07 2abc c943 973d 3b1a 1abc 505b 4e3d
000000c0: dad5 e0bd c1d0 4dbe 06da 9ebd 3ff4 97be
000000d0: c2e5 4dbd 165f 103f 474c acbd e86e 8f3f
000000e0: a113 4bbf 491e 023f 57bd b4bb 54a8 95c1
000000f0: 86f1 513f 6925 8a3d d495 333e d011 9bc1
00000100: 7603 053f 7bbe 3cbf 89cc 27bc 0be4 25bd
00000110: 7b8c 4bbe de1b c3be de04 61bd 58a8 f63d
00000120: d79d 08c2 3017 12c0 4a23 cc3e db92 89bd
00000130: 561a 5e3e a72e 713e abcc d53e 8d81 a23c
00000140: 1047 2fbe 410e 0b3e 00ba 83bd 63c8 a03e
00000150: 4b58 35bc 05df 3fbd 8032 923e d10c 8e3d
00000160: 2419 dbbf ed9e 9e3b c2d7 16bc 75d6 203e
00000170: 679d 4dbc 7459 3b3f 84c3 9abe d698 c93d
00000180: 2455 95bd 6a85 b9bd 8329 7fbd 22b7 84c0
00000190: 09f3 88bd f0ae 95be 5eec b8bd 0092 e9bf
000001a0: c119 893e 6151 2f3c 882d 023e 9f88 f63d
000001b0: d6e2 313d 3e60 ba3d e702 07bd 9a63 5d3d
000001c0: fc3a dcbc 3b90 dfbd 74b4 2dbd 3ba1 c9bd
000001d0: 56b6 a93d b182 76bf 012e 24be 645c fd3d
000001e0: ec54 ac3e 7be6 003f bd21 493e 16d1 163f
000001f0: 5553 abbe d389 a23c c1ef 8c3e 8068 2c3e
00000200: 954c 893e 503f 183f 67d7 e93c a456 b63d
00000210: 4ce5 7e3f d6e6 083d ab83 573c 207b 8fbe
00000220: 1547 273e 0b8c 7b40 d3e7 c73e 77e3 1d3d
00000230: 1cd5 f5c1 b4b2 b5be 7d9f dc3d 0dc2 33bd
00000240: 95ed abbe f5ba 2ec1 b9c6 84bd 8c9b 99bf
00000250: 740f d53e 2137 c2bc 86f0 6d3e 52d6 f2be
00000260: 5413 593f 259b 04bc fa2a 35bd d462 6c3d
00000270: d58d 8cbd 94ce 483f 21bc 7abd 7585 373d
00000280: 6b82 12bc 3796 f4bd 295d 6cbd e48f 563f
00000290: 3c29 77bd 15db a13f ea9a 4fbd ee24 2d40
000002a0: 0e6b bcc0 5c54 32bd d5a6 f7be 9d06 f5be
000002b0: a769 0c3d d3ce 71be 6523 933a 058e ad3c
000002c0: ac3f acbd bd96 673e 402d bb3c 6659 0b3f
000002d0: a01d d1bb 08dd 253f 3e4c 713f e9aa 26c0
000002e0: 0b55 893e 6d19 dbbf f74f b8c1 25dc 013d
000002f0: 7ac4 73be 83b3 cabc ac36 73bf ada2 503e
00000300: effc 0fbe 5821 16be 8a1f 95bf 2ece 9fbd
00000310: 074c d1bd 0e8a 0bbe ab84 883d 49fb 84c0
00000320: 8ee7 44be 662c e7be c954 aabd ff6d a13d
00000330: 7d9f 7ebf 4b03 a7be 525a 61be 149c 7dbe
00000340: bf73 c7be 027c 5cbe 92b5 ce3c 68d6 e9be
00000350: 6323 37be d43b b73c 27f5 0fc0 03ad abbe
00000360: 2d51 a63c 026f 9dc0 02dd a93d fcfe debe
00000370: 6919 3e3d 1bf8 9abe c66a 89bd 61b4 6ebf
00000380: fbc1 c7bc 3fa9 29c1 457f b0bd a586 0dc0
00000390: 569d 50bd 6728 afbd d8b5 b53d 4c7e 3ebe
000003a0: 2242 dbc0 b5d4 e5be d12e 8bc0 0cd7 93be
000003b0: 8857 e7bd fd89 c4bf b160 9f3d 5556 a03c
000003c0: 8636 d6bd 307c 87c0 4be7 f9bc 99d1 47c0
000003d0: ec4d 1e3d cc40 00be 647c 17be 812b 8fbe
000003e0: fe44 02c1 5ab9 95bf a42c b2bd 1094 9ebe
000003f0: 2310 4dbe 82a9 2a3c 5221 f0be 1937 acbf

fc3.bias f4 [4]
-0.027233643 0.05361801 -0.03245757 -19.9911
00000000: 1719 dfbc 8f9e 5b3d 3bf2 04bd c6ed 9fc1
