data/ppo-0.0-rerun/ppo_iter_1250.pth (torch, 21124 bytes, 6 tensors)

fc1.weight f4 [64, 2]
00000000: 05c6 f4bd 00a8 d6be 7180 983d 6062 e83e
00000010: 4d8e 393e b922 9a3e 6833 babe 0869 c53e
00000020: ad26 143f 20c9 07bf 11eb dc3e 4467 663d
00000030: 5ab2 66bb 4070 26bd 716c 163f ae86 b9be
00000040: d1be e63e 193c 923d 3139 88be 408d 5f3e
00000050: 2749 66bc 0657 b7be 1e58 353c 7b62 243d
00000060: f334 91be 3a1a 05bf 5ec8 71be 8b8a 20bd
00000070: 0329 453e 41f5 2ec0 ae01 6d3f 4969 c7bf
00000080: 0cf9 a539 4452 e4bd d368 5dbd b196 f93e
00000090: 271e 2d3b 383d 7abe 46eb 223c 1161 06bf
000000a0: 2d8e a73e 58b1 40be eb3c 3d3d 2dfa ec3e
000000b0: e724 153f d130 e9be 052f d13c b666 31bd
000000c0: ca10 423f b213 83bf 8a89 80be 7a31 203e
000000d0: 051a 70b9 fe09 f8bc c9aa b93d f889 043f
000000e0: b187 8a3e bb8e 26be abda 6b3d 0ff6 4cbf
000000f0: 3354 d23d fc1f dcbf fea2 113f b50b 05bf
00000100: ac3c da3e 9477 5bbd 2231 673e 8e59 85be
00000110: e38b 72be 7d7b 29c0 fcd3 063f ce93 283e
00000120: 7a1f 113f 5f92 5dbf 6a65 cbbe e340 59bf
00000130: ddd5 8fbe fbc7 fa3d 9493 3437 d830 a9bc
00000140: b960 f9be b6dd 49bf 0c23 0f3f ba65 09bf
00000150: 0a39 173f 7ff5 cd3d a594 3d3f 0a88 81bf
00000160: 4cfe 053c 9d20 82be 6244 083f b3c1 e6be
00000170: 91f5 5c3e 487e ac3e feb0 c0be 1108 b1bd
00000180: 38b9 1b3f 8859 a1bb c5b1 853c 5102 7dbf
00000190: 124a 053c e5e7 22bf 1b1b 89be b262 91bf
000001a0: 4022 ce3d e078 dcbf 922f cdbe 53fe 9fbe
000001b0: f2f3 e63c f641 13bf b595 033b a1a8 74bd
000001c0: 0a96 3e3f fcb0 09c0 23fc 703e 7dfc 84bf
000001d0: dd8d 103f e4b1 c7bf b25d 04bf 26b3 53bf
000001e0: 396c 003b 3bb7 86be 1929 c73d bbfd e8bf
000001f0: 2789 2cbe 5c9a 78be f606 1fbd 679e 38bf
-0.11951832 -0.4192505 0.07446373 0.45387554 0.1812069 0.30104616 -0.36367345 0.38556695
0.57871515 -0.5304127 0.4314809 0.056250826 -0.003520152 -0.040634394 0.5875922 -0.36235565
0.45067456 0.07140369 -0.26606134 0.21831226 -0.014055527 -0.3580858 0.011068372 0.04013298
-0.2836071 -0.51993144 -0.2361159 -0.039194625 0.19253926 -2.733719 0.9258069 -1.5579005
0.00031656807 -0.111485034 -0.054055046 0.4874778 0.0026415677 -0.24437416 0.009943789 -0.5249186
0.3272566 -0.18817651 0.046200674 0.4628462 0.58259434 -0.45545056 0.025535116 -0.043310843
0.7580687 -1.0240386 -0.25104934 0.15643874 -0.00022897877 -0.030278202 0.09065778 0.51773024
0.2705665 -0.16265385 0.057581585 -0.80062956 0.10269966 -1.7197261 0.5688933 -0.5197099
0.42624414 -0.053580835 0.22577336 -0.26044887 -0.23686175 -2.6481621 0.5266721 0.16462633
0.56688654 -0.8655147 -0.3972581 -0.84864634 -0.28092852 0.122451745 1.0763197e-05 -0.020653173
-0.48706606 -0.7885393 0.5591285 -0.5367085 0.5907141 0.1005659 0.7405494 -1.0119641
0.008178305 -0.25415507 0.53229344 -0.45069656 0.21578051 0.33690095 -0.37635034 -0.08644117
0.60829496 -0.004924003 0.016320119 -0.9883166 0.0081353355 -0.6363509 -0.26778492 -1.1358244
0.100651264 -1.7224388 -0.40075356 -0.3124872 0.028192494 -0.57522523 0.0020078246 -0.05973113
0.7444769 -2.1514273 0.23533683 -1.0389553 0.56466466 -1.5601163 -0.5170547 -0.82695234
0.0019595756 -0.2631167 0.09724636 -1.8202432 -0.16849194 -0.24277633 -0.038824998 -0.721167

fc1.bias f4 [64]
00000000: 95f8 493c fa6d 34c0 ee2f 4c40 5c49 b4bf
00000010: 6a91 cabf 3ab5 c83f e499 76bd bc1d 63c0
00000020: 9590 72bf efa9 24c0 8271 d73e 63db cfbf
00000030: 16dc b83f 1a99 6ac0 7cdb dfbd 2ca6 a2bf
00000040: 78d6 11bb dfea 52c0 684c 4abc 8986 1b40
00000050: 6142 2a40 c48a 8ac0 d697 6e3f 3d70 dabe
00000060: d935 10c0 21fb 51c0 34a5 d3bb 15ac 74c0
00000070: a93d 0d40 54c7 d53e 65e3 0bbe e314 34c0
00000080: 82a2 2540 6599 f4bf b1aa 50be a0de 30c0
00000090: e4f7 933f ec58 34bf 3174 31bf 5765 fcba
000000a0: f4f8 39be 29f3 26c0 19c3 59c0 4090 0cc0
000000b0: 453c 21bc 1d21 47c0 628d 67c0 f4f5 98c0
000000c0: 3ff4 58c0 aecd 01bd babc 0dbc 1681 93be
000000d0: ab92 f5bd 02b0 ac3f a3a1 e93f 0080 c8be
000000e0: dd60 9e3f c83d 15bd 9842 f83e f890 d3bf
000000f0: 91bc 3fbe 02b2 e3bd 3315 08c0 9695 c9be
0.012327333 -2.8192124 3.1904254 -1.4084888 -1.5825627 1.5680306 -0.060205355 -3.5486898
-0.94751865 -2.572872 0.42078787 -1.6238827 1.4442165 -3.6655946 -0.10930535 -1.2706962
-0.0022253077 -3.2955854 -0.012347318 2.4300864 2.6603014 -4.329439 0.93200433 -0.42663756
-2.2532866 -3.2809527 -0.0064589027 -3.823003 2.2068884 0.41753638 -0.13660963 -2.8137748
2.5880437 -1.9109312 -0.20377614 -2.763588 1.1560025 -0.70448184 -0.6931792 -0.0019256276
-0.18161374 -2.6085913 -3.4025328 -2.1963043 -0.0098410295 -3.111396 -3.6180043 -4.7800236
-3.3899076 -0.031690292 -0.008650953 -0.28809422 -0.11990865 1.3491213 1.8252453 -0.39160156
1.237331 -0.036435872 0.48488307 -1.6528616 -0.18724276 -0.11117937 -2.126294 -0.39371938

fc2.weight f4 [64, 64]
00000000: 9b38 513e 15b8 6e3f 7278 9b3e 8a50 abbd
00000010: 3cff 353f cf62 073f 68e0 8cbf ec6d 283d
00000020: b7c9 07c1 dc62 283e 4c69 7bbe 7338 cd3e
00000030: e014 79bd 218f d7bf fbb2 8440 a216 58bf
00000040: 00a0 3dc0 0ec6 d23e 3619 0c3e c644 423e
00000050: 2b12 3d3e 82d4 0fc1 8968 8bbe e856 5dbe
00000060: d8bc 94bd 5860 07c0 834b ce3d 07d7 23c0
00000070: c247 2e3e 8153 1e3d 146b 533e fd1a b8bf
00000080: ee2f 403f 9e11 1c3f 6c43 963e ebf5 6ec0
00000090: 9e6e bcbe b34c 24bd 18df 6cbe ca09 f73d
000000a0: 2266 2b3e b78a a1bf 7c06 003e 0e46 973e
000000b0: 435d c63d f9bc 0fbe 7d60 90be bbcc 9ebf
000000c0: 871c 9b3e 473b 2a3d 4d10 203d 814f 0ebe
000000d0: cbd1 c13f 8d2c efbe 56cf 88be dbb7 e1bf
000000e0: 7e82 36bf e599 95be c4f8 a7bf 30ca 993e
000000f0: 68ac b4bc 9906 8b3e 528e 3c3e 3d0e 05be
00000100: f2f8 073f e8df 16c0 11b3 443e 7a72 6b3e
00000110: 0772 73c0 a00b 37bf 0c56 73bf e9c4 8cbd
00000120: 81bb b8be 5a9d c4be cd6a f2be 78bf 613f
00000130: ecf2 31bf c429 5fbd 3d8a 07c1 1ee6 e1c0
00000140: f5fb b4bf 1b05 c43f f9c8 ab3d 5258 1f3f
00000150: 4c17 97be 75d4 2bc0 7279 4c3e 6806 04c0
00000160: 47c7 6ac0 7d39 01c0 249f 3a3b 4c41 47c0
00000170: e582 0abe 8008 df3d fa4f 8ac0 c80c d23d
00000180: c2e1 3ebc 59bb 65bf 2ddc 693e 45d3 bdbd
00000190: bc09 97be 7a5b 48be ba45 eb3c 4cb6 c6bc
000001a0: c772 b83e a6e4 75bb 27f2 19bd 808c c6c0
000001b0: df86 70bc 0034 d9bc b758 47be 0233 063e
000001c0: 6cd3 b1be 1969 f93e 1ac3 21be c630 253f
000001d0: bba0 5fc0 b28e f1bf 53f7 f0be 1b48 edbe
000001e0: fc55 b33d 4353 0bbf d07c 133f 4129 923e
000001f0: f4a0 ab3d de6d 71be bb2b a1bf f0a9 fc3b
00000200: 1cba b5bd b6e3 9fbd 7fd7 a8bb 1eb3 a6bb
00000210: 76fe a1bd 21e6 cb3e a5bc 11c0 04a4 fcbd
00000220: 1145 86c0 1f55 acbd 9dec 903d 8c94 87bc
00000230: 2c0a fbbd bb07 b7be 427c fa3c 626c bebd
00000240: e009 36c0 7db5 e43c 263b 1e3e 57d9 8bbe
00000250: 034c a8bf e43e 10bc 1527 b3bd 8270 433e
00000260: 7cf0 cebd f2cc 68bc 220c 3a3d 4ddd ab3c
00000270: 8bec bcbf 9b90 ac3b a236 1c3b d043 8c3d
00000280: 2623 e1bf 988f 383d 3c5d 39be a30d a83e
00000290: 6438 513d fac7 c3bb 4912 0dbe 1224 463e
000002a0: 7f6e 0fbf 90c0 91bd 50cc e6bd 20f6 b63b
000002b0: 607a 14bd f0ac e23c 90de 203b 55a5 7e3e
000002c0: 3c13 efbd 6b04 21be fdc2 4abd 54e5 a33d
000002d0: d121 d5bd 5d7f 2d3d cdcb f0bd 5b3d 12c0
000002e0: 65d3 d0bb 2a4d a53d faa4 953d c93d a7bf
000002f0: 5e2a ab3d 9e3e fabd 419b dc3d 09d5 8c3d
00000300: c83f feba f3e0 eb3d 0d8c 12be df2f acbd
00000310: 1050 953d c427 00bd 5364 c2bc 152a 5bbd
00000320: 17b7 b33d c226 f23c 733f 163b 1b67 8dbd
00000330: fc92 0ebe da6a 95bc cd31 fe3c 8065 6cbd
00000340: 817f 07bd fcf0 a53d d2c6 d13b 2d54 02bd
00000350: db46 06bd 5fbc e4bd e500 fdbd 6fbe 6dbd
00000360: 5a21 82bd b284 eb3b 9139 2abd 5aac 42bd
00000370: b106 eb3d c1be 193d 7c34 aa3d a0dd 77bd
00000380: 9b98 55bd 0296 233d a8e8 f7bd 6304 a4bd
00000390: e84d 45bc eaad 9ebd 0bd8 06be 899c 8f3d
000003a0: c686 803d e01d a63c 78e9 b5bc 3a20 edbd
000003b0: c7af aabd 0c59 023d 2c0d 783d 1fcf 42bd
000003c0: f2e4 4ebd 609b 023d 8204 d6bd 0682 413d
000003d0: 543a 5fbd 0cdc 12bd c9cb 7fbd 246c 8b3c
000003e0: 8b52 33bd 8c9b 593d b7a0 17bc ffc9 863d
000003f0: 9623 f63d 2f04 89bd 90cc fbbd aa63 cd3d
0.2043175 0.93249637 0.3036533 -0.08364971 0.7109258 0.52885145 -1.1005983 0.041120455
-8.486747 0.16443962 -0.24551886 0.4008213 -0.060810924 -1.6840554 4.146848 -0.84409535
-2.9628906 0.4116673 0.13681492 0.18971547 0.18463962 -8.989382 -0.27228191 -0.21615183
-0.072625816 -2.1152554 0.100729965 -2.5599992 0.17019561 0.038653854 0.20646316 -1.4383236
0.75073135 0.6096438 0.29348314 -3.7337596 -0.36803144 -0.04011221 -0.23131979 0.12062414
0.1673818 -1.2620457 0.12502474 0.29545635 0.09685757 -0.14036931 -0.28198615 -1.2406229
0.30295202 0.041560438 0.039078046 -0.13897516 1.5142149 -0.46713677 -0.26720685 -1.7634233
-0.71292865 -0.29218975 -1.3122792 0.3003707 -0.022054866 0.2715347 0.18413666 -0.12993713
0.53114235 -2.3574162 0.19208933 0.22992888 -3.8038347 -0.71502113 -0.9505317 -0.06873495
-0.36080554 -0.384013 -0.47347108 0.88182783 -0.69511294 -0.05448319 -8.47125 -7.0593405
-1.4139391 1.5314058 0.08387942 0.6224414 -0.29509962 -2.6848423 0.19968203 -2.062891
-3.668413 -2.0191338 0.0028476203 -3.1133604 -0.13526495 0.10890293 -4.322263 0.10256344
-0.011650505 -0.89738995 0.22837897 -0.09268812 -0.29499614 -0.19566146 0.028719772 -0.024256848
0.36025068 -0.0037520318 -0.03758445 -6.204651 -0.014680593 -0.026514053 -0.19467436 0.13105395
-0.34731615 0.48712996 -0.15797082 0.6452755 -3.4941852 -1.8871672 -0.47063693 -0.46344075
0.087566346 -0.5442392 0.57612324 0.285471 0.08380309 -0.23577067 -1.259147 0.007710688
-0.08873388 -0.07807104 -0.0051526423 -0.0050872704 -0.07909863 0.39824012 -2.277139 -0.12335971
-4.195931 -0.08414673 0.070763804 -0.016550325 -0.122577995 -0.35748085 0.030576829 -0.09298016
-2.8443527 0.027918572 0.15452251 -0.27314255 -1.3148197 -0.008804057 -0.08747689 0.19085887
-0.101044625 -0.014209019 0.045421727 0.020979548 -1.4759687 0.0052662618 0.0023836275 0.06848872
-1.7588851 0.045058817 -0.18101972 0.32822904 0.05107917 -0.005974767 -0.13776506 0.19349697
-0.5602798 -0.071168065 -0.11269438 0.0055835396 -0.03624952 0.027670354 0.002454672 0.24867757
-0.116735905 -0.15724342 -0.04950236 0.08002725 -0.104068406 0.04235779 -0.11757622 -2.2849948
-0.0063728564 0.080713585 0.073068574 -1.306573 0.0835769 -0.122189745 0.107718 0.06876571
-0.001939767 0.11517515 -0.14311238 -0.08407568 0.07290661 -0.031287923 -0.023729479 -0.05350693
0.08775156 0.029559497 0.0022926002 -0.069044314 -0.13923258 -0.018239427 0.031029606 -0.057713985
-0.03308058 0.08102605 0.006401875 -0.031818558 -0.032782417 -0.111687414 -0.12353686 -0.05804294
-0.063540176 0.0071874494 -0.041558806 -0.04752765 0.11475886 0.037535433 0.08310792 -0.060514092
-0.05214749 0.03993798 -0.121049225 -0.08008649 -0.0120425 -0.07748015 -0.13168351 0.070122786
0.06275706 0.020277917 -0.022206053 -0.11578412 -0.08334308 0.031823203 0.060559437 -0.047560807
-0.050511308 0.03188646 -0.104500785 0.04724314 -0.054498985 -0.035854384 -0.062450204 0.017019339
-0.04377989 0.053126857 -0.009254626 0.065814964 0.12018506 -0.06690251 -0.122948766 0.10028775

fc2.bias f4 [64]
00000000: a902 1d3f 1177 e23e 2fa3 77be 8cf2 3d3d
00000010: f478 273e f76f 10be 0e09 febc 100e e23d
00000020: 626e ab3c c4ae 08c0 1afd 6fc0 6604 debd
00000030: 124d 09bd 628c 1d3f 573d 803e 6cfc 8abe
00000040: 8dd3 523f 4192 3cbe 7b14 89bd 5c2b ec3e
00000050: 10d1 83bf 338f 19be 7c20 d1bf c9d6 8abe
00000060: cb80 9cbd ca3d 95be c15a 24be 8b0b 193e
00000070: 0111 b6bd ef49 be3e 2e5c 99bd 79c9 edbd
00000080: 14dd ab3c 71ff 31bf cecd c03c b2ab 8ebf
00000090: 7e29 3fbe 7dd0 5e3f c6f5 6dbd 18e5 4bbf
000000a0: bd4c fcbf 2ded 9bbd 2231 42bf 244c bebe
000000b0: dd45 47bd a763 edbe 004a d6bd d15a 29be
000000c0: a89e 26be d5fe cd3e 0ad7 fdbd c77c e53e
000000d0: 55ef 943c 2494 8f3e 588d 7d3f fc08 69be
000000e0: c8f8 c23e 6694 873f 61ad 5bbe ecde f23d
000000f0: 75c7 093f 06e7 69bd 283d 3f3f 662a 90bf
0.61332184 0.44231465 -0.24183343 0.04637389 0.16354734 -0.14105211 -0.031010177 0.110378385
0.020926658 -2.1356668 -3.749823 -0.10840683 -0.033520766 0.6154233 0.250468 -0.27145708
0.8235405 -0.18415166 -0.066933595 0.4612683 -1.0298176 -0.14996032 -1.6338038 -0.27116993
-0.07641753 -0.29148704 -0.16050245 0.1494581 -0.08889962 0.37165782 -0.07488285 -0.116106935
0.020979442 -0.695304 0.023535635 -1.1146147 -0.18668172 0.8703688 -0.058095716 -0.79646444
-1.9710919 -0.07613597 -0.7585622 -0.37167466 -0.04865061 -0.4636509 -0.10463333 -0.1653855
-0.1627146 0.40233484 -0.12394531 0.4482176 0.018180529 0.2804271 0.990438 -0.22757334
0.3808043 1.0592163 -0.21452858 0.11858925 0.5381997 -0.057105087 0.7470269 -1.1262939

fc3.weight f4 [4, 64]
00000000: 680f 14bf beed d23e c26b a83c 2a44 77bd
00000010: a9b7 eabe 21ab 9b3e a418 1cbe 70f2 4d3d
00000020: be9c d93e 5346 4140 a27a 0cc1 93c6 03bd
00000030: 2801 5f3d ab5f 20bc 852c 02bf 5e1a a23d
00000040: 3981 a63e 2b64 eb3d e86b b4bd 8db6 293f
00000050: 0f15 80bf 081b 483c 107a 12c1 d065 443d
00000060: e0ad d33e e1db c33d a1e8 80bd d4ea 72c1
00000070: ffa2 4c3d 74d6 b8bf ae36 f73e 48a3 9c3a
00000080: 88d8 333d aef7 adbd f89e 9bbd 5aef 2e3f
00000090: 2cd4 dfbd 72bb c4be 65bd 71bc 25ac 41bf
000000a0: 2278 723e 43c3 40bc 375c 4abd ca32 27bc
000000b0: 2f07 2abc c943 973d 3b1a 1abc 505b 4e3d
000000c0: dad5 e0bd 8f09 53be 06da 9ebd 438a 9dbe
000000d0: c2e5 4dbd a519 113f ff4a b5bd 70cd 8e3f
000000e0: 889a 4abf 19cd 023f 2739 9e3a 76e1 95c1
000000f0: 245b 523f 6925 8a3d 33b7 343e 995a 9bc1
00000100: 6d53 083f c088 3bbf 89cc 27bc 0be4 25bd
00000110: 4fa1 4abe 86b8 c5be de04 61bd c730 043e
00000120: aba4 08c2 0c9f 12c0 ad39 c83e db92 89bd
00000130: 6834 5c3e 0e2e 6e3e c36e d43e 5aad 9e3c
00000140: f16b 2abe 410e 0b3e 00ba 83bd e40e a43e
00000150: d36a 31bc 05df 3fbd 8032 923e d10c 8e3d
00000160: 73bb dbbf ed9e 9e3b c2d7 16bc 3a7b 283e
00000170: 679d 4dbc 23a7 3b3f ef50 9bbe d698 c93d
00000180: 2455 95bd 6a85 b9bd 8329 7fbd b2f0 84c0
00000190: 09f3 88bd 411f 93be 5eec b8bd 0092 e9bf
000001a0: 138d 873e 6151 2f3c 216f 0a3e 9f88 f63d
000001b0: d6e2 313d 3e60 ba3d e702 07bd 9a63 5d3d
000001c0: fc3a dcbc c913 cbbd 74b4 2dbd 4a16 cebd
000001d0: 56b6 a93d 77c2 77bf c38d 1fbe 0357 023e
000001e0: 73a5 b53e 1db0 003f 4b3f 423e b79e 1f3f
000001f0: f36e a9be d389 a23c 6874 8d3e f51a 383e
00000200: c1c2 813e e0b1 0f3f 67d7 e93c a456 b63d
00000210: 33e9 7e3f 9b28 333d ab83 573c 8af3 8fbe
00000220: 8d3b d33d bb99 7940 142a d03e 77e3 1d3d
00000230: 2add f5c1 81a2 b1be 9f2d ec3d 0dc2 33bd
00000240: 5fcc adbe f5ba 2ec1 b9c6 84bd 39fd 99bf
00000250: 2d13 d53e 2137 c2bc 86f0 6d3e 52d6 f2be
00000260: 62d1 5b3f 259b 04bc fa2a 35bd 51c9 4d3d
00000270: d58d 8cbd 800a 493f 98e2 61bd 7585 373d
00000280: 6b82 12bc 3796 f4bd 295d 6cbd 4ab8 583f
00000290: 3c29 77bd 3c1b 9d3f ea9a 4fbd ee24 2d40
000002a0: 55eb bbc0 5c54 32bd 8567 f7be 9d06 f5be
000002b0: a769 0c3d d3ce 71be 6523 933a 058e ad3c
000002c0: ac3f acbd cd73 653e 402d bb3c 505f 0d3f
000002d0: a01d d1bb 5fd9 263f 752d 6e3f aabe 26c0
000002e0: 4669 803e 311d debf f74f b8c1 30c9 983b
000002f0: 7be5 76be 83b3 cabc fc7a 74bf 955f 453e
00000300: effc 0fbe 5821 16be 8a1f 95bf 2ece 9fbd
00000310: 074c d1bd a589 0bbe ab84 883d 49fb 84c0
00000320: 8ee7 44be 662c e7be c954 aabd ff6d a13d
00000330: 7d9f 7ebf 4b03 a7be 525a 61be 149c 7dbe
00000340: bf73 c7be 027c 5cbe 92b5 ce3c 68d6 e9be
00000350: 6323 37be d43b b73c 27f5 0fc0 03ad abbe
00000360: 2d51 a63c 026f 9dc0 02dd a93d fcfe debe
00000370: 6919 3e3d 1bf8 9abe c66a 89bd 61b4 6ebf
00000380: fbc1 c7bc 3fa9 29c1 457f b0bd a586 0dc0
00000390: 569d 50bd 6728 afbd d8b5 b53d 4c7e 3ebe
000003a0: 2242 dbc0 b5d4 e5be d12e 8bc0 0cd7 93be
000003b0: 8857 e7bd fd89 c4bf b160 9f3d 5556 a03c
000003c0: 8636 d6bd 307c 87c0 4be7 f9bc 99d1 47c0
000003d0: ec4d 1e3d cc40 00be 647c 17be 812b 8fbe
000003e0: fe44 02c1 5ab9 95bf a42c b2bd 1094 9ebe
000003f0: 2310 4dbe 82a9 2a3c 5221 f0be 1937 acbf
-0.5783601 0.41197008 0.020559195 -0.06036774 -0.45843247 0.30403998 -0.15243775 0.050280035
0.42502397 3.0199172 -8.77994 -0.032171797 0.054444462 -0.009788434 -0.5084918 0.079151854
0.32520464 0.11493715 -0.08809644 0.66294175 -1.0006427 0.012213476 -9.1548 0.04794866
0.41343594 0.09563423 -0.062943704 -15.182331 0.049960133 -1.4440446 0.48283905 0.0011950517
0.043907672 -0.08494507 -0.0759868 0.6833397 -0.109291404 -0.3842426 -0.014754628 -0.75653297
0.2367864 -0.011765304 -0.04940435 -0.01020498 -0.010377689 0.07385976 -0.009405668 0.05038005
-0.10978289 -0.20609115 -0.077564284 -0.30769548 -0.050267942 0.56679755 -0.08852195 1.1156445
-0.79142046 0.51094204 0.0012071476 -18.735088 0.8217032 0.06745417 0.1764801 -19.419237
0.532523 -0.7325554 -0.010241636 -0.04050068 -0.19788097 -0.38617343 -0.054936282 0.12909232
-34.16081 -2.2909575 0.39106503 -0.067174636 0.21504366 0.23259756 0.41490754 0.01936977
-0.16642739 0.13579656 -0.06431961 0.3204261 -0.010828692 -0.046843547 0.28554153 0.06936038
-1.716658 0.004840723 -0.009206714 0.16453257 -0.012549735 0.73301905 -0.30335185 0.09843604
-0.0729163 -0.0905865 -0.062295448 -4.1543818 -0.0668698 -0.28734782 -0.090294585 -1.8247681
0.2647482 0.010700555 0.13518955 0.12037777 0.04342922 0.09100388 -0.032961752 0.054050066
-0.026883595 -0.09915883 -0.04240842 -0.10062845 0.08286731 -0.96781105 -0.15581422 0.12728505
0.3547779 0.5026873 0.18969457 0.62351555 -0.3309246 0.01984111 0.27627873 0.17979033
0.25343898 0.5613079 0.028545095 0.08903244 0.99574584 0.043739896 0.013153951 -0.28115493
0.10314093 3.900008 0.40657103 0.038547006 -30.73299 -0.34694293 0.11532139 -0.043886233
-0.33944985 -10.920644 -0.06483216 -1.2030402 0.41616192 -0.023707928 0.23236284 -0.47429138
0.8586637 -0.00809363 -0.04423044 0.05024082 -0.0686299 0.78531647 -0.055147737 0.04480501
-0.008942227 -0.11942714 -0.057706032 0.846562 -0.06034206 1.2273936 -0.050684847 2.705379
-5.872477 -0.043537483 -0.48321167 -0.47856608 0.034280445 -0.23614053 0.0011225758 0.021185884
-0.08410582 0.22407456 0.022848725 0.5522356 -0.0063817054 0.6517543 0.9303811 -2.6053872
0.25080317 -1.7352659 -23.039045 0.0046626553 -0.24110977 -0.024743801 -0.9550016 0.19274743
-0.1406133 -0.14661157 -1.165025 -0.078029975 -0.10219579 -0.13626726 0.066659294 -4.1556745
-0.19228956 -0.4515106 -0.08316953 0.07882308 -0.9946211 -0.326197 -0.2200711 -0.2476657
-0.38955495 -0.2153168 0.025233064 -0.4567139 -0.17884593 0.022367395 -2.249338 -0.33530435
0.02030238 -4.9198008 0.08294107 -0.43553913 0.04641095 -0.30267414 -0.067098185 -0.93243986
-0.02438449 -10.60382 -0.08618025 -2.211343 -0.050931297 -0.08552628 0.088725746 -0.18602866
-6.851823 -0.44888845 -4.349465 -0.28875005 -0.11295992 -1.5354611 0.07782114 0.019572416
-0.10459618 -4.2339096 -0.030505797 -3.1221678 0.03864853 -0.12524718 -0.14793545 -0.27962878
-8.141844 -1.169719 -0.08699921 -0.30972338 -0.20025687 0.01041639 -0.4690042 -1.3454314

fc3.bias f4 [4]
00000000: 7bee cbbc 8f31 8f3d ce55 65bd c6ed 9fc1
-0.02489399 0.069918744 -0.055990033 -19.9911
