data/ppo-0.0-rerun/ppo_iter_100.pth (torch, 21114 bytes, 6 tensors)

fc1.weight f4 [64, 2]
000000 4d 26 f6 bd c1 ee d5 be 72 fd ca 3d 97 d8 dc 3e
       -0.12019024 -0.41783717 0.09911622 0.43133995
000010 a7 4d 2f 3e 45 25 9c 3e d7 98 bd be e1 09 b7 3e
       0.17119466 0.30497184 -0.3703067 0.35749725
000020 c4 bb 13 3f 94 39 08 bf 04 53 d7 3e a2 b5 7f 3d
       0.5770838 -0.5321286 0.42055523 0.062429078
000030 79 ee d0 bb a1 4f 1c bd a6 9e 19 3f ba 1a b0 be
       -0.0063760844 -0.038161878 0.60007703 -0.3439539
000040 bc 7b e6 3e 03 ad 82 3d d0 7c 82 be c1 47 4e 3e
       0.45016277 0.063806556 -0.2548585 0.2014456
000050 37 ec 9e bb a3 5f b5 be 1e 58 35 3c 7b 62 24 3d
       -0.0048499363 -0.35424528 0.011068372 0.04013298
000060 c8 c6 91 be be a7 04 bf 20 59 5f be 8a b7 90 bd
       -0.2847197 -0.51818454 -0.21811342 -0.07066257
000070 76 37 78 3e bc 47 27 c0 5b c5 6b 3f 82 aa c7 bf
       0.24239907 -2.6137533 0.92098016 -1.559891
000080 0c f9 a5 39 44 52 e4 bd f0 3d 4b bd 8a d1 fb 3e
       0.00031656807 -0.111485034 -0.049619615 0.49183303
000090 27 1e 2d 3b 38 3d 7a be c9 50 85 3c a5 52 02 bf
       0.0026415677 -0.24437416 0.016273873 -0.50907356
0000a0 42 ff a0 3e 78 7a 40 be 52 88 1f 3d db 32 f4 3e
       0.31444746 -0.18796718 0.038948365 0.4769505
0000b0 12 24 13 3f 52 2f ed be 05 2f d1 3c b6 66 31 bd
       0.57476914 -0.46325165 0.025535116 -0.043310843
0000c0 49 36 41 3f ae c9 83 bf 5a 79 7f be 95 c2 1e 3e
       0.7547346 -1.0295923 -0.24948636 0.15503915
0000d0 05 1a 70 b9 fe 09 f8 bc 54 ec bd 3d 99 aa 04 3f
       -0.00022897877 -0.030278202 0.09273592 0.5182281
0000e0 c7 8a 85 3e 59 a3 23 be 82 9a 8f 3d 26 45 48 bf
       0.2608244 -0.15980281 0.07011892 -0.7823051
0000f0 33 54 d2 3d fc 1f dc bf 8a a6 13 3f ed cb 02 bf
       0.10269966 -1.7197261 0.57675993 -0.51092416
000100 1c c8 d3 3e 7a 5e 4a bd b7 05 72 3e 4e ae 7c be
       0.4136361 -0.049406506 0.23634993 -0.24675867
000110 e1 78 72 be 6f 5b 29 c0 f0 91 09 3f 92 e6 28 3e
       -0.23678924 -2.6462057 0.5373831 0.16494206
000120 3d 8f 13 3f 85 12 5a bf 5a b6 c4 be b6 54 5d bf
       0.5764044 -0.8518451 -0.38420373 -0.86457384
000130 aa 8f 87 be 17 76 cf 3d 94 93 34 37 d8 30 a9 bc
       -0.26476794 0.10129946 1.0763197e-05 -0.020653173
000140 b6 77 e3 be 79 41 55 bf 9e a2 10 3f 79 ea 07 bf
       -0.4442727 -0.8330303 0.56498134 -0.5309215
000150 9b d4 19 3f 4d 9a d9 3d 5a cc 3c 3f 29 3c 82 bf
       0.60090035 0.10625134 0.73749316 -1.017461
000160 4c fe 05 3c 9d 20 82 be cd cb 0a 3f 1e 2a e1 be
       0.008178305 -0.25415507 0.54217225 -0.43977445
000170 79 e0 5a 3e 88 2f ac 3e 56 fe bc be 5b 02 bc bd
       0.21374692 0.33630013 -0.36912793 -0.09180137
000180 ce 78 17 3f 16 55 de bc c5 b1 85 3c 51 02 7d bf
       0.5916871 -0.027140182 0.016320119 -0.9883166
000190 12 4a 05 3c e5 e7 22 bf bc 16 8e be 3f 36 90 bf
       0.0081353355 -0.6363509 -0.2775172 -1.1266555
0001a0 40 22 ce 3d e0 78 dc bf 34 e5 c8 be 6e a6 a4 be
       0.100651264 -1.7224388 -0.39237368 -0.32158226
0001b0 58 6a 47 3d dd 7c 12 bf b5 95 03 3b a1 a8 74 bd
       0.0486854 -0.57221776 0.0020078246 -0.05973113
0001c0 4d bb 43 3f 7c 7c 08 c0 fc e8 7a 3e 7f 92 80 bf
       0.76457673 -2.132598 0.24502939 -1.0044707
0001d0 53 eb 14 3f 15 8e c5 bf a4 92 07 bf 70 2f 50 bf
       0.58171576 -1.5433985 -0.5295813 -0.81322384
0001e0 39 6c 00 3b 3b b7 86 be 19 29 c7 3d bb fd e8 bf
       0.0019595756 -0.2631167 0.09724636 -1.8202432
0001f0 9a 6c 22 be 93 bd 81 be 5c b2 38 bd 67 9e 38 bf
       -0.1586174 -0.25339946 -0.04509197 -0.721167

fc1.bias f4 [64]
000000 e0 d9 4f 3c 2f c9 35 c0 1f 93 4c 40 19 68 b8 bf
       0.012686223 -2.8404043 3.1964796 -1.4406768
000010 e0 e7 ca bf 5a 5d c7 3f 27 82 6b bd a8 7e 62 c0
       -1.5852013 1.5575364 -0.05749717 -3.5389805
000020 75 e7 74 bf 59 9c 25 c0 0d 1e de 3e 63 db cf bf
       -0.95665675 -2.5876677 0.43382302 -1.6238827
000030 64 d6 b7 3f 67 b2 6b c0 86 2b 48 bd 26 c4 a3 bf
       1.4362302 -3.6827638 -0.048869632 -1.2794235
000040 78 d6 11 bb 49 ab 52 c0 68 4c 4a bc aa ba 1c 40
       -0.0022253077 -3.2917044 -0.012347318 2.448893
000050 ac b9 29 40 64 f7 89 c0 5f 87 6e 3f 3d 70 da be
       2.6519575 -4.311449 0.9317531 -0.42663756
000060 44 12 10 c0 23 f0 51 c0 34 a5 d3 bb 5a 9c 74 c0
       -2.2511148 -3.2802818 -0.0064589027 -3.822043
000070 c9 c4 0c 40 0c 96 d1 3e 65 e3 0b be e8 b0 33 c0
       2.1995108 0.4093479 -0.13660963 -2.8076725
000080 11 56 25 40 cd 61 f3 bf 08 9f 54 be e8 58 30 c0
       2.583378 -1.9014221 -0.2076379 -2.7554264
000090 96 47 96 3f e0 1e 37 bf 7e d6 35 bf 57 65 fc ba
       1.1740596 -0.71531487 -0.71030414 -0.0019256276
0000a0 cc fd 62 be 14 a7 26 c0 d2 43 59 c0 78 63 0c c0
       -0.22167128 -2.6039476 -3.3947644 -2.193571
0000b0 45 3c 21 bc a4 93 46 c0 86 c9 67 c0 ee 2f 99 c0
       -0.0098410295 -3.1027613 -3.621675 -4.787101
0000c0 2f c0 59 c0 ae cd 01 bd ba bc 0d bc b5 07 8f be
       -3.402355 -0.031690292 -0.008650953 -0.27935567
0000d0 ab 92 f5 bd 26 b8 aa 3f 17 2a e9 3f 00 80 c8 be
       -0.11990865 1.3337448 1.821597 -0.39160156
0000e0 48 98 a1 3f 32 3e 3e bd eb 1f ff 3e 31 08 d2 bf
       1.2624598 -0.046446033 0.4982904 -1.640875
0000f0 91 bc 3f be 02 b2 e3 bd 5d b4 08 c0 17 6f c6 be
       -0.18724276 -0.11117937 -2.1360085 -0.3875663

fc2.weight f4 [64, 64]
000000 fd a5 52 3e b7 88 6c 3f ba 68 8d 3e 2d 98 e7 bd
       0.20571132 0.9239611 0.27618963 -0.11308322
000010 3c ff 35 3f 5b d7 01 3f 68 e0 8c bf ec 6d 28 3d
       0.7109258 0.5071923 -1.1005983 0.041120455
000020 86 d9 07 c1 4e 04 48 3e 13 a9 73 be 73 38 cd 3e
       -8.490606 0.19532892 -0.23794965 0.4008213
000030 11 51 6e bd 21 8f d7 bf 1f fe 85 40 a2 16 58 bf
       -0.05818278 -1.6840554 4.1872706 -0.84409535
000040 00 a0 3d c0 ec ea ce 3e 36 19 0c 3e 6b fc 42 3e
       -2.9628906 0.40413606 0.13681492 0.19041602
000050 ba 35 31 3e 7f c9 0f c1 86 76 8a be e8 56 5d be
       0.17305651 -8.986693 -0.2704355 -0.21615183
000060 d8 bc 94 bd 46 4c 07 c0 83 4b ce 3d e8 e5 23 c0
       -0.072625816 -2.1140304 0.100729965 -2.5609074
000070 5d ca 22 3e 5b 5a 44 3d 14 6b 53 3e fd 1a b8 bf
       0.15897508 0.047937732 0.20646316 -1.4383236
000080 18 bd 3b 3f 9e 11 1c 3f 61 75 95 3e eb f5 6e c0
       0.7333541 0.6096438 0.29191115 -3.7337596
000090 90 5b b8 be 9f 9d 27 bd 30 51 7f be ca 09 f7 3d
       -0.36007357 -0.040921804 -0.24933314 0.12062414
0000a0 8e 0d 30 3e b7 8a a1 bf 7c 06 00 3e 0e 46 97 3e
       0.1719267 -1.2620457 0.12502474 0.29545635
0000b0 43 5d c6 3d f9 bc 0f be 7d 60 90 be bb cc 9e bf
       0.09685757 -0.14036931 -0.28198615 -1.2406229
0000c0 87 1c 9b 3e 47 3b 2a 3d 4d 10 20 3d 4e 3b 10 be
       0.30295202 0.041560438 0.039078046 -0.14085123
0000d0 cb d1 c1 3f b2 79 f1 be 90 b1 85 be db b7 e1 bf
       1.5142149 -0.4716316 -0.26112032 -1.7634233
0000e0 00 f0 33 bf 2f 97 7f be 93 cc a6 bf 2d e5 99 3e
       -0.70288086 -0.24960016 -1.3031181 0.3005766
0000f0 68 ac b4 bc 99 06 8b 3e 52 8e 3c 3e 7c fd fb bd
       -0.022054866 0.2715347 0.18413666 -0.12304208
000100 f2 f8 07 3f fd f4 12 c0 28 09 82 3e 17 b8 91 3e
       0.53114235 -2.296203 0.2539761 0.28460762
000110 07 72 73 c0 0b 53 25 bf 0c 56 73 bf e9 c4 8c bd
       -3.8038347 -0.6457984 -0.9505317 -0.06873495
000120 81 bb b8 be 4d a2 b1 be cd 6a f2 be 78 bf 61 3f
       -0.36080554 -0.34694138 -0.47347108 0.88182783
000130 ec f2 31 bf c4 29 5f bd 3d 8a 07 c1 1e e6 e1 c0
       -0.69511294 -0.05448319 -8.47125 -7.0593405
000140 f5 fb b4 bf 96 05 cb 3f f9 c8 ab 3d 77 6a 20 3f
       -1.4139391 1.586108 0.08387942 0.6266245
000150 d9 e0 6a be 16 8c 2b c0 e7 cf 50 3e 68 06 04 c0
       -0.22937335 -2.6804252 0.20391808 -2.062891
000160 47 c7 6a c0 2e 44 01 c0 24 9f 3a 3b 85 11 43 c0
       -3.668413 -2.0197864 0.0028476203 -3.0479443
000170 db ab 90 bd 80 08 df 3d fa 4f 8a c0 c8 0c d2 3d
       -0.07064029 0.10890293 -4.322263 0.10256344
000180 2b 31 60 3d 59 bb 65 bf 2d dc 69 3e 45 d3 bd bd
       0.05473439 -0.89738995 0.22837897 -0.09268812
000190 bc 09 97 be 7a 5b 48 be fd 57 a3 3d 4c b6 c6 bc
       -0.29499614 -0.19566146 0.07975767 -0.024256848
0001a0 c7 72 b8 3e a6 e4 75 bb 27 f2 19 bd 80 8c c6 c0
       0.36025068 -0.0037520318 -0.03758445 -6.204651
0001b0 df 86 70 bc 00 34 d9 bc b7 58 47 be 02 33 06 3e
       -0.014680593 -0.026514053 -0.19467436 0.13105395
0001c0 6c d3 b1 be 19 69 f9 3e 1a c3 21 be c6 30 25 3f
       -0.34731615 0.48712996 -0.15797082 0.6452755
0001d0 bb a0 5f c0 19 94 ed bf 56 d5 ee be 1b 48 ed be
       -3.4941852 -1.8560821 -0.46647137 -0.46344075
0001e0 fc 55 b3 3d 43 53 0b bf d0 7c 13 3f 41 29 92 3e
       0.087566346 -0.5442392 0.57612324 0.285471
0001f0 f4 a0 ab 3d de 6d 71 be bb 2b a1 bf f0 a9 fc 3b
       0.08380309 -0.23577067 -1.259147 0.007710688
000200 1c ba b5 bd b6 e3 9f bd 7f d7 a8 bb 1e b3 a6 bb
       -0.08873388 -0.07807104 -0.0051526423 -0.0050872704
000210 76 fe a1 bd 21 e6 cb 3e a5 bc 11 c0 04 a4 fc bd
       -0.07909863 0.39824012 -2.277139 -0.12335971
000220 11 45 86 c0 1f 55 ac bd 9d ec 90 3d 8c 94 87 bc
       -4.195931 -0.08414673 0.070763804 -0.016550325
000230 2c 0a fb bd bb 07 b7 be 42 7c fa 3c 62 6c be bd
       -0.122577995 -0.35748085 0.030576829 -0.09298016
000240 e0 09 36 c0 7d b5 e4 3c 26 3b 1e 3e 57 d9 8b be
       -2.8443527 0.027918572 0.15452251 -0.27314255
000250 03 4c a8 bf e4 3e 10 bc 15 27 b3 bd 82 70 43 3e
       -1.3148197 -0.008804057 -0.08747689 0.19085887
000260 7c f0 ce bd f2 cc 68 bc 22 0c 3a 3d 4d dd ab 3c
       -0.101044625 -0.014209019 0.045421727 0.020979548
000270 8b ec bc bf 9b 90 ac 3b a2 36 1c 3b d0 43 8c 3d
       -1.4759687 0.0052662618 0.0023836275 0.06848872
000280 26 23 e1 bf 98 8f 38 3d 3c 5d 39 be a3 0d a8 3e
       -1.7588851 0.045058817 -0.18101972 0.32822904
000290 64 38 51 3d fa c7 c3 bb 49 12 0d be 12 24 46 3e
       0.05107917 -0.005974767 -0.13776506 0.19349697
0002a0 7f 6e 0f bf 90 c0 91 bd 50 cc e6 bd 20 f6 b6 3b
       -0.5602798 -0.071168065 -0.11269438 0.0055835396
0002b0 60 7a 14 bd f0 ac e2 3c 90 de 20 3b 55 a5 7e 3e
       -0.03624952 0.027670354 0.002454672 0.24867757
0002c0 3c 13 ef bd 6b 04 21 be fd c2 4a bd 54 e5 a3 3d
       -0.116735905 -0.15724342 -0.04950236 0.08002725
0002d0 d1 21 d5 bd 5d 7f 2d 3d cd cb f0 bd 5b 3d 12 c0
       -0.104068406 0.04235779 -0.11757622 -2.2849948
0002e0 65 d3 d0 bb 2a 4d a5 3d fa a4 95 3d c9 3d a7 bf
       -0.0063728564 0.080713585 0.073068574 -1.306573
0002f0 5e 2a ab 3d 9e 3e fa bd 41 9b dc 3d 09 d5 8c 3d
       0.0835769 -0.122189745 0.107718 0.06876571
000300 c8 3f fe ba f3 e0 eb 3d 0d 8c 12 be df 2f ac bd
       -0.001939767 0.11517515 -0.14311238 -0.08407568
000310 10 50 95 3d c4 27 00 bd 53 64 c2 bc 15 2a 5b bd
       0.07290661 -0.031287923 -0.023729479 -0.05350693
000320 17 b7 b3 3d c2 26 f2 3c 73 3f 16 3b 1b 67 8d bd
       0.08775156 0.029559497 0.0022926002 -0.069044314
000330 fc 92 0e be da 6a 95 bc cd 31 fe 3c 80 65 6c bd
       -0.13923258 -0.018239427 0.031029606 -0.057713985
000340 81 7f 07 bd fc f0 a5 3d d2 c6 d1 3b 2d 54 02 bd
       -0.03308058 0.08102605 0.006401875 -0.031818558
000350 db 46 06 bd 5f bc e4 bd e5 00 fd bd 6f be 6d bd
       -0.032782417 -0.111687414 -0.12353686 -0.05804294
000360 5a 21 82 bd b2 84 eb 3b 91 39 2a bd 5a ac 42 bd
       -0.063540176 0.0071874494 -0.041558806 -0.04752765
000370 b1 06 eb 3d c1 be 19 3d 7c 34 aa 3d a0 dd 77 bd
       0.11475886 0.037535433 0.08310792 -0.060514092
000380 9b 98 55 bd 02 96 23 3d a8 e8 f7 bd 63 04 a4 bd
       -0.05214749 0.03993798 -0.121049225 -0.08008649
000390 e8 4d 45 bc ea ad 9e bd 0b d8 06 be 89 9c 8f 3d
       -0.0120425 -0.07748015 -0.13168351 0.070122786
0003a0 c6 86 80 3d e0 1d a6 3c 78 e9 b5 bc 3a 20 ed bd
       0.06275706 0.020277917 -0.022206053 -0.11578412
0003b0 c7 af aa bd 0c 59 02 3d 2c 0d 78 3d 1f cf 42 bd
       -0.08334308 0.031823203 0.060559437 -0.047560807
0003c0 f2 e4 4e bd 60 9b 02 3d 82 04 d6 bd 06 82 41 3d
       -0.050511308 0.03188646 -0.104500785 0.04724314
0003d0 54 3a 5f bd 0c dc 12 bd c9 cb 7f bd 24 6c 8b 3c
       -0.054498985 -0.035854384 -0.062450204 0.017019339
0003e0 8b 52 33 bd 8c 9b 59 3d b7 a0 17 bc ff c9 86 3d
       -0.04377989 0.053126857 -0.009254626 0.065814964
0003f0 96 23 f6 3d 2f 04 89 bd 90 cc fb bd aa 63 cd 3d
       0.12018506 -0.06690251 -0.122948766 0.10028775

fc2.bias f4 [64]
000000 ba dc 17 3f a1 d9 00 3f 2f a3 77 be 8c f2 3d 3d
       0.59321177 0.50332075 -0.24183343 0.04637389
000010 ec 3c 3c 3e dc 8a 10 be 0e 09 fe bc d0 fe a1 3d
       0.18382615 -0.1411547 -0.031010177 0.0790993
000020 6d 4d 20 bb 14 4d 09 c0 43 aa 6f c0 66 04 de bd
       -0.0024460212 -2.1453295 -3.744767 -0.10840683
000030 9e c3 1f bd 3e 02 1a 3f 85 f8 64 3e 4b b2 89 be
       -0.039004914 0.6015967 0.22360428 -0.2689384
000040 5a 92 54 3f 41 92 3c be 7b 14 89 bd 76 ad e9 3e
       0.83035815 -0.18415166 -0.066933595 0.45640153
000050 19 e1 82 bf 33 8f 19 be 7c 20 d1 bf c9 d6 8a be
       -1.0224944 -0.14996032 -1.6338038 -0.27116993
000060 3b bb d7 bd ca 3d 95 be c1 5a 24 be ef 6c 18 3e
       -0.10533758 -0.29148704 -0.16050245 0.14885305
000070 01 11 b6 bd aa 2f b5 3e d5 a8 15 bd 79 c9 ed bd
       -0.08889962 0.35387927 -0.036537964 -0.116106935
000080 14 dd ab 3c 71 ff 31 bf ce cd c0 3c 61 0d 8f bf
       0.020979442 -0.695304 0.023535635 -1.1175958
000090 7e 29 3f be c8 16 7f 3f c6 f5 6d bd 18 e5 4b bf
       -0.18668172 0.99644136 -0.058095716 -0.79646444
0000a0 78 6f f7 bf 2d ed 9b bd 4e 41 48 bf 24 4c be be
       -1.9330893 -0.07613597 -0.7822465 -0.37167466
0000b0 dd 45 47 bd a7 63 ed be 00 4a d6 bd d1 5a 29 be
       -0.04865061 -0.4636509 -0.10463333 -0.1653855
0000c0 a8 9e 26 be b6 96 d5 3e 0a d7 fd bd 72 6b e2 3e
       -0.1627146 0.41716546 -0.12394531 0.442226
0000d0 55 ef 94 3c e1 7d 96 3e 69 ba 81 3f d3 4d 66 be
       0.018180529 0.29392913 1.0135013 -0.22490625
0000e0 46 e4 b3 3e 92 ba 7b 3f 20 bc 63 be 4b 5d b0 3c
       0.35135096 0.9833156 -0.22239733 0.02152886
0000f0 30 55 13 3f 06 e7 69 bd f2 13 35 3f af 9f 92 bf
       0.5755186 -0.057105087 0.7073356 -1.1454982

fc3.weight f4 [4, 64]
000000 94 76 10 bf d9 c7 d7 3e c2 6b a8 3c 2a 44 77 bd
       -0.56430936 0.4214466 0.020559195 -0.06036774
000010 52 57 ea be d8 dd 9b 3e a4 18 1c be 4c 17 c1 3d
       -0.45769745 0.3044269 -0.15243775 0.09428272
000020 36 c3 95 3e f4 62 3c 40 49 7b 0c c1 93 c6 03 bd
       0.29250497 2.9435396 -8.780099 -0.032171797
000030 90 eb 74 3d ae d9 97 3a 10 9b f3 be d9 32 9e 3d
       0.059794962 0.0011585259 -0.4757924 0.07724542
000040 30 9e b4 3e 2b 64 eb 3d e8 6b b4 bd 3a 3c 2e 3f
       0.35276937 0.11493715 -0.08809644 0.6806065
000050 0b 95 75 bf 08 1b 48 3c 10 7a 12 c1 d0 65 44 3d
       -0.95930547 0.012213476 -9.1548 0.04794866
000060 9e 4a e0 3e e1 db c3 3d a1 e8 80 bd 70 90 76 c1
       0.43806928 0.09563423 -0.062943704 -15.410263
000070 ff a2 4c 3d fa 29 b8 bf 12 26 03 3f 48 a3 9c 3a
       0.049960133 -1.438781 0.51229966 0.0011950517
000080 88 d8 33 3d ae f7 ad bd f8 9e 9b bd 2a cc 2a 3f
       0.043907672 -0.08494507 -0.0759868 0.6671778
000090 2c d4 df bd dc 11 dc be 65 bd 71 bc 25 ac 41 bf
       -0.109291404 -0.42982376 -0.014754628 -0.75653297
0000a0 a2 53 81 3e 43 c3 40 bc 21 1e 06 bd ca 32 27 bc
       0.2525912 -0.011765304 -0.032743577 -0.01020498
0000b0 2f 07 2a bc c9 43 97 3d 3b 1a 1a bc 50 5b 4e 3d
       -0.010377689 0.07385976 -0.009405668 0.05038005
0000c0 da d5 e0 bd ef 9c 5f be 06 da 9e bd e9 84 8a be
       -0.10978289 -0.21837209 -0.077564284 -0.27054527
0000d0 c2 e5 4d bd 14 f3 15 3f 5f 8d ac bd b6 84 93 3f
       -0.050267942 0.5857403 -0.08425402 1.1524875
0000e0 53 ab 44 bf 75 8f 03 3f 64 a4 8e 3b c8 61 94 c1
       -0.7682392 0.51390773 0.004353093 -18.547745
0000f0 2c 04 58 3f 69 25 8a 3d 4e fb 3a 3e 9c 8a 9a c1
       0.84381366 0.06745417 0.18259928 -19.31768
000100 3d 4a ef 3e 51 f5 47 bf 89 cc 27 bc 0b e4 25 bd
       0.46736327 -0.781087 -0.010241636 -0.04050068
000110 72 4d 59 be 35 29 bf be de 04 61 bd 4d b4 a8 3d
       -0.2122095 -0.37336126 -0.054936282 0.08237515
000120 5c 6b 08 c2 6e dc 0e c0 9c d2 cc 3e db 92 89 bd
       -34.104843 -2.232204 0.40004432 -0.067174636
000130 98 b5 56 3e 4e d4 69 3e 83 0a d1 3e 18 4d ae 3c
       0.2096771 0.22834894 0.40828332 0.021276996
000140 ce a7 45 be 41 0e 0b 3e 00 ba 83 bd 69 17 98 3e
       -0.19302294 0.13579656 -0.06431961 0.2970536
000150 e8 08 20 bc 05 df 3f bd 80 32 92 3e d1 0c 8e 3d
       -0.009767748 -0.046843547 0.28554153 0.06936038
000160 c2 a5 d7 bf ed 9e 9e 3b c2 d7 16 bc 39 c9 05 3e
       -1.684746 0.004840723 -0.009206714 0.13065042
000170 67 9d 4d bc 18 88 39 3f 1a 4c 9f be d6 98 c9 3d
       -0.012549735 0.7247329 -0.31112748 0.09843604
000180 24 55 95 bd 6a 85 b9 bd 83 29 7f bd 0d 00 84 c0
       -0.0729163 -0.0905865 -0.062295448 -4.125006
000190 09 f3 88 bd 8c 31 b2 be 5e ec b8 bd 00 92 e9 bf
       -0.0668698 -0.34803426 -0.090294585 -1.8247681
0001a0 30 09 7f 3e 61 51 2f 3c ac d7 f2 3d 9f 88 f6 3d
       0.24905849 0.010700555 0.118575424 0.12037777
0001b0 d6 e2 31 3d 3e 60 ba 3d e7 02 07 bd 9a 63 5d 3d
       0.04342922 0.09100388 -0.032961752 0.054050066
0001c0 fc 3a dc bc 32 ce ed bd 74 b4 2d bd 3a b4 e1 bd
       -0.026883595 -0.11611594 -0.04240842 -0.110207036
0001d0 56 b6 a9 3d 12 49 74 bf 09 87 26 be 5a d0 b6 3d
       0.08286731 -0.95423996 -0.1626245 0.08926459
0001e0 60 9e 98 3e 6a 09 fe 3e 95 06 3f 3e f6 da be 3e
       0.2980833 0.49616557 0.18654855 0.3727643
0001f0 4b 33 b4 be d3 89 a2 3c a8 ea 86 3e 90 55 2c 3e
       -0.35195383 0.01984111 0.26350904 0.16829515
000200 c9 cd a6 3e 39 4b 35 3f 67 d7 e9 3c a4 56 b6 3d
       0.32578877 0.70817906 0.028545095 0.08903244
000210 98 1b 80 3f 15 bd f9 3c ab 83 57 3c 49 5b 88 be
       1.0008421 0.03048567 0.013153951 -0.26632145
000220 61 df 97 3e 0d 32 7c 40 41 c8 c1 3e 77 e3 1d 3d
       0.29662612 3.9405549 0.37848094 0.038547006
000230 4d 92 f5 c1 3e 49 b6 be 9c 15 c9 3d 0d c2 33 bd
       -30.696436 -0.35602754 0.09818575 -0.043886233
000240 1e 2a aa be f5 ba 2e c1 b9 c6 84 bd 8e 37 99 bf
       -0.33235258 -10.920644 -0.06483216 -1.1970079
000250 c0 41 d4 3e 21 37 c2 bc 86 f0 6d 3e 52 d6 f2 be
       0.41456413 -0.023707928 0.23236284 -0.47429138
000260 4f 4e 4e 3f 25 9b 04 bc fa 2a 35 bd 22 4d ac 3d
       0.8058824 -0.00809363 -0.04423044 0.084131494
000270 d5 8d 8c bd 50 8a 48 3f 17 99 8e bd 75 85 37 3d
       -0.0686299 0.7833605 -0.06962793 0.04480501
000280 6b 82 12 bc 37 96 f4 bd 29 5d 6c bd 96 06 55 3f
       -0.008942227 -0.11942714 -0.057706032 0.83213174
000290 3c 29 77 bd e6 ec b1 3f ea 9a 4f bd ee 24 2d 40
       -0.06034206 1.3900421 -0.050684847 2.705379
0002a0 4f a9 bd c0 5c 54 32 bd be f0 f6 be 9d 06 f5 be
       -5.9269176 -0.043537483 -0.48230547 -0.47856608
0002b0 a7 69 0c 3d d3 ce 71 be 65 23 93 3a 05 8e ad 3c
       0.034280445 -0.23614053 0.0011225758 0.021185884
0002c0 ac 3f ac bd 75 44 81 3e 40 2d bb 3c 2e c0 09 3f
       -0.08410582 0.2524754 0.022848725 0.5380887
0002d0 a0 1d d1 bb cc d3 20 3f dc 11 86 3f 67 ac 24 c0
       -0.0063817054 0.62823176 1.04742 -2.5730226
0002e0 58 31 98 3e 54 ea d2 bf f7 4f b8 c1 11 5c a0 3e
       0.29725146 -1.6477761 -23.039045 0.3132024
0002f0 d8 10 72 be 83 b3 ca bc 7f 22 70 bf 27 36 50 3e
       -0.23639238 -0.024743801 -0.93802637 0.20333157
000300 ef fc 0f be 58 21 16 be 8a 1f 95 bf 2e ce 9f bd
       -0.1406133 -0.14661157 -1.165025 -0.078029975
000310 07 4c d1 bd e1 8b 0b be ab 84 88 3d 49 fb 84 c0
       -0.10219579 -0.13627578 0.066659294 -4.1556745
000320 8e e7 44 be 66 2c e7 be c9 54 aa bd ff 6d a1 3d
       -0.19228956 -0.4515106 -0.08316953 0.07882308
000330 7d 9f 7e bf 4b 03 a7 be 52 5a 61 be 14 9c 7d be
       -0.9946211 -0.326197 -0.2200711 -0.2476657
000340 bf 73 c7 be 02 7c 5c be 92 b5 ce 3c 68 d6 e9 be
       -0.38955495 -0.2153168 0.025233064 -0.4567139
000350 63 23 37 be d4 3b b7 3c 27 f5 0f c0 03 ad ab be
       -0.17884593 0.022367395 -2.249338 -0.33530435
000360 2d 51 a6 3c 02 6f 9d c0 02 dd a9 3d fc fe de be
       0.02030238 -4.9198008 0.08294107 -0.43553913
000370 69 19 3e 3d 1b f8 9a be c6 6a 89 bd 61 b4 6e bf
       0.04641095 -0.30267414 -0.067098185 -0.93243986
000380 fb c1 c7 bc 3f a9 29 c1 45 7f b0 bd a5 86 0d c0
       -0.02438449 -10.60382 -0.08618025 -2.211343
000390 56 9d 50 bd 67 28 af bd d8 b5 b5 3d 4c 7e 3e be
       -0.050931297 -0.08552628 0.088725746 -0.18602866
0003a0 22 42 db c0 b5 d4 e5 be d1 2e 8b c0 0c d7 93 be
       -6.851823 -0.44888845 -4.349465 -0.28875005
0003b0 88 57 e7 bd fd 89 c4 bf b1 60 9f 3d 55 56 a0 3c
       -0.11295992 -1.5354611 0.07782114 0.019572416
0003c0 86 36 d6 bd 30 7c 87 c0 4b e7 f9 bc 99 d1 47 c0
       -0.10459618 -4.2339096 -0.030505797 -3.1221678
0003d0 ec 4d 1e 3d cc 40 00 be 64 7c 17 be 81 2b 8f be
       0.03864853 -0.12524718 -0.14793545 -0.27962878
0003e0 fe 44 02 c1 5a b9 95 bf a4 2c b2 bd 10 94 9e be
       -8.141844 -1.169719 -0.08699921 -0.30972338
0003f0 23 10 4d be 82 a9 2a 3c 52 21 f0 be 19 37 ac bf
       -0.20025687 0.01041639 -0.4690042 -1.3454314

fc3.bias f4 [4]
000000 7d 32 1f bb 87 73 6c 3c f4 e5 e2 bb c6 ed 9f c1
       -0.0024291568 0.014431841 -0.006924385 -19.9911
