custom_grid/data/zzppo-0.05/ppo_iter_1450.pth (torch, 21533 bytes, 6 tensors)

fc1.weight f4 [64, 2]
000000 ce f8 fe bd e3 8c d4 be fb 03 93 3d 5c fd e5 3e
       -0.124497995 -0.41513738 0.071784936 0.4491986
000010 b5 b3 36 3e ea f5 9d 3e 83 61 b5 be 37 72 c0 3e
       0.1784199 0.3085168 -0.35425958 0.3758714
000020 1d af 16 3f e3 4e 04 bf 69 6f d7 3e 96 c0 1c 3d
       0.5886095 -0.5168287 0.42077187 0.0382696
000030 05 eb aa bb 25 44 18 bd d9 03 18 3f 2b a9 b9 be
       -0.005216005 -0.037174363 0.5938087 -0.36261877
000040 0a 68 d2 3e fe 27 6f 3d 37 b2 87 be 47 54 5f 3e
       0.41095 0.05838775 -0.26503155 0.21809493
000050 f9 b8 17 bc b3 a2 c5 be 1e 58 35 3c 7b 62 24 3d
       -0.0092604095 -0.38600692 0.011068372 0.04013298
000060 ea 03 8e be 84 fd 06 bf 20 59 5f be 8a b7 90 bd
       -0.2773736 -0.52730584 -0.21811342 -0.07066257
000070 b6 9e 34 3e 8c f5 29 c0 c6 10 61 3f 5a b1 cc bf
       0.17638668 -2.655612 0.8791622 -1.5991623
000080 b4 b3 31 b9 44 52 e4 bd 79 a4 4e bd e9 1f fc 3e
       -0.0001694698 -0.111485034 -0.050449822 0.49243096
000090 51 7b b5 3c 38 3d 7a be 17 61 3f 3c 2d 01 02 bf
       0.022153528 -0.24437416 0.011680863 -0.50783044
0000a0 07 c7 a3 3e fa 7c 38 be 58 7a 4e 3d f7 b3 ed 3e
       0.31987783 -0.18016425 0.050409645 0.46426365
0000b0 ce c7 19 3f 33 e4 df be 05 5d c7 3c b6 66 31 bd
       0.600705 -0.4372879 0.024336347 -0.043310843
0000c0 a2 9d 4d 3f 9f 5a 7c bf ea 01 81 be a4 26 20 3e
       0.80318654 -0.98575777 -0.25196773 0.1563974
0000d0 70 45 0f ba fe 09 f8 bc 8c e3 c6 3d 7a 30 04 3f
       -0.0005465364 -0.030278202 0.0971137 0.5163647
0000e0 89 8f 83 3e 8d 7c 1f be ac 02 25 3d 7b 54 50 bf
       0.25695446 -0.15574856 0.04028575 -0.81378907
0000f0 97 e8 6f 3d fc 1f dc bf a6 f2 15 3f 46 02 02 bf
       0.058571424 -1.7197261 0.5857338 -0.5078472
000100 3b c3 d5 3e 93 5d 57 bd d2 92 57 3e 97 23 89 be
       0.41750512 -0.052579474 0.21052101 -0.26784965
000110 48 59 65 be 48 50 29 c0 b0 39 03 3f 06 2d 29 3e
       -0.2239734 -2.645525 0.512599 0.16521081
000120 ea 5d 0e 3f 25 3e 5d bf 36 c8 d8 be 64 8c 52 bf
       0.5561205 -0.8642295 -0.4234025 -0.8224547
000130 87 b7 8c be 3a cc e8 3d 94 93 34 37 d8 30 a9 bc
       -0.2748377 0.11367078 1.0763197e-05 -0.020653173
000140 03 28 dc be b0 aa 59 bf c2 17 14 3f 04 b5 05 bf
       -0.42999277 -0.85026073 0.5784875 -0.5222933
000150 47 c3 15 3f 1e 45 c9 3d 2d 5d 49 3f 3a df 78 bf
       0.58501095 0.09827636 0.786578 -0.97215617
000160 f2 32 22 3d 4b 6a 6f be 15 7e 0e 3f 76 06 dc be
       0.039599366 -0.23380391 0.55661136 -0.4297368
000170 d4 cd 3f 3e 02 e5 a1 3e 5d 62 c0 be 73 83 bd bd
       0.18730861 0.31620032 -0.37575045 -0.092535876
000180 8b 27 21 3f 91 22 47 3c ed a0 ca 3c 51 02 7d bf
       0.6295096 0.012154237 0.024734939 -0.9883166
000190 a1 d1 24 3d e5 e7 22 bf 29 a3 95 be da 99 8d bf
       0.04023898 -0.6363509 -0.29226044 -1.1062577
0001a0 f6 15 6a 3d e0 78 dc bf 93 13 ce be 15 48 a6 be
       0.05714985 -1.7224388 -0.4024931 -0.3247687
0001b0 8a 04 a3 3d fc d7 0f bf b5 95 03 3b a1 a8 74 bd
       0.0795985 -0.5618894 0.0020078246 -0.05973113
0001c0 58 51 49 3f 9d 10 08 c0 0f 23 45 3e 64 9f 87 bf
       0.78639746 -2.126014 0.19251655 -1.0595517
0001d0 9b cc 16 3f 94 de c4 bf 0d f7 04 bf 99 01 52 bf
       0.58905953 -1.5380425 -0.5193947 -0.8203369
0001e0 39 6c 00 3b 3b b7 86 be 09 ed 24 3d bb fd e8 bf
       0.0019595756 -0.2631167 0.040265117 -1.8202432
0001f0 e5 61 25 be ed 8e 81 be 66 90 20 bd 67 9e 38 bf
       -0.16150625 -0.25304356 -0.03920021 -0.721167

fc1.bias f4 [64]
000000 c1 2f 81 3c 1b a7 34 c0 11 37 4c 40 33 e2 b7 bf
       0.015769841 -2.8226993 3.190861 -1.4365906
000010 c5 69 c9 bf de 7f c3 3f 0e 1c 71 bd a6 d9 62 c0
       -1.5735403 1.5273397 -0.058864646 -3.5445342
000020 f4 bc 72 bf a5 52 24 c0 5e 5a ce 3e 63 db cf bf
       -0.9481957 -2.5675442 0.4030332 -1.6238827
000030 dd 19 b9 3f 67 b2 6b c0 28 93 05 be 49 e0 a8 bf
       1.4461018 -3.6827638 -0.13044417 -1.3193446
000040 c9 95 27 bb a8 69 52 c0 95 9f 9d 3c 98 b2 1c 40
       -0.0025571457 -3.2876987 0.019241134 2.4484005
000050 a7 3c 2a 40 f3 68 8a c0 93 80 6e 3f d7 0a db be
       2.659952 -4.325311 0.9316494 -0.42781708
000060 e5 d2 0c c0 35 a3 51 c0 36 40 c9 bb bf 01 75 c0
       -2.200372 -3.2755864 -0.0061416877 -3.8282316
000070 3b cd 0c 40 d7 5a c7 3e 02 0f 3d be bf 15 33 c0
       2.2000263 0.38936493 -0.18462756 -2.7982023
000080 31 c1 24 40 6b 0c f7 bf 6f c7 57 be 86 24 30 c0
       2.5742915 -1.9300665 -0.21072172 -2.7522292
000090 a3 f4 94 3f bf 5f 2d bf 60 84 33 bf 57 65 fc ba
       1.1637157 -0.6772422 -0.70123863 -0.0019256276
0000a0 01 06 77 be 74 c5 25 c0 46 d7 59 c0 c4 19 09 c0
       -0.24123384 -2.5901766 -3.4037642 -2.1421976
0000b0 c6 39 d2 3c 7b 97 45 c0 92 51 69 c0 d3 f5 98 c0
       0.025662314 -3.0873706 -3.6456037 -4.780008
0000c0 cf 09 58 c0 c6 b4 c5 bb f1 d5 01 3d c8 38 86 be
       -3.3755987 -0.0060335128 0.03169817 -0.26215196
0000d0 6b e7 2a be a7 71 ab 3f f1 de eb 3f 00 80 c8 be
       -0.16689841 1.3394059 1.8427411 -0.39160156
0000e0 73 c1 a3 3f c1 98 ce bd 6d 85 02 3f 4f a0 d3 bf
       1.2793411 -0.10087729 0.5098484 -1.6533297
0000f0 91 bc 3f be 2f d8 2c be 24 88 08 c0 61 5d c9 be
       -0.18724276 -0.16879342 -2.1333094 -0.39329055

fc2.weight f4 [64, 64]
000000 56 21 45 3e ee be 70 3f 11 eb 85 3e 86 2d ee bd
       0.19250998 0.94041336 0.26155904 -0.11629777
000010 3c ff 35 3f 64 80 01 3f 68 e0 8c bf ec 6d 28 3d
       0.7109258 0.50586534 -1.1005983 0.041120455
000020 8b 73 08 c1 3a fd 17 3e da 98 88 be 73 38 cd 3e
       -8.528209 0.14842692 -0.26679116 0.4008213
000030 e2 44 f6 bd 21 8f d7 bf 7f 04 84 40 a1 51 7a bf
       -0.12024857 -1.6840554 4.125549 -0.97780806
000040 00 a0 3d c0 54 ed cd 3e 4c 29 f5 3d 67 44 0c 3e
       -2.9628906 0.4022013 0.119707674 0.13697968
000050 88 e6 14 3e d1 ae 0f c1 19 69 99 be e8 56 5d be
       0.14541066 -8.98018 -0.29962996 -0.21615183
000060 d8 bc 94 bd 1a c6 08 c0 83 4b ce 3d 56 aa 23 c0
       -0.072625816 -2.1370912 0.100729965 -2.5572715
000070 c9 d5 05 3e 25 19 c5 3c 81 64 53 3e fd 1a b8 bf
       0.13069834 0.024059841 0.20643808 -1.4383236
000080 3a 42 37 3f 9e 11 1c 3f 93 a8 96 3e eb f5 6e c0
       0.7158543 0.6096438 0.29425487 -3.7337596
000090 1a c3 c7 be 96 12 1b bd 5d 7a 89 be ca 09 f7 3d
       -0.39016038 -0.03785952 -0.26851168 0.12062414
0000a0 4c 70 1f 3e b7 8a a1 bf 7c 06 00 3e 0e 46 97 3e
       0.15570182 -1.2620457 0.12502474 0.29545635
0000b0 cf 6e a6 3d f9 bc 0f be 7d 60 90 be bb cc 9e bf
       0.08126604 -0.14036931 -0.28198615 -1.2406229
0000c0 87 1c 9b 3e 18 67 63 3c 75 f6 bf 3c 23 aa 0d be
       0.30295202 0.01387956 0.02343295 -0.13834433
0000d0 25 be c1 3f 2b 8f 07 bf 2b 13 9d be db b7 e1 bf
       1.5136153 -0.5295283 -0.30678686 -1.7634233
0000e0 bc 9b 39 bf 16 81 9e be 08 a3 a9 bf 20 2a 99 3e
       -0.72503257 -0.3095786 -1.3252878 0.2991495
0000f0 68 ac b4 bc 7b 02 8b 3e 52 8e 3c 3e 7c fd fb bd
       -0.022054866 0.2715033 0.18413666 -0.12304208
000100 f2 f8 07 3f a4 ad 13 c0 78 56 81 3e 0b 9b 97 3e
       0.53114235 -2.3074732 0.25261283 0.29610476
000110 07 72 73 c0 4c 37 32 bf 0c 56 73 bf e9 c4 8c bd
       -3.8038347 -0.69615626 -0.9505317 -0.06873495
000120 81 bb b8 be ce 49 9a be cd 6a f2 be 78 bf 61 3f
       -0.36080554 -0.30134434 -0.47347108 0.88182783
000130 ec f2 31 bf c4 29 5f bd 3d 8a 07 c1 1e e6 e1 c0
       -0.69511294 -0.05448319 -8.47125 -7.0593405
000140 f5 fb b4 bf 36 8b cb 3f f9 c8 ab 3d 02 62 20 3f
       -1.4139391 1.5901859 0.08387942 0.6264955
000150 ca 0c 90 be 8f 59 34 c0 e3 af 50 3e 68 06 04 c0
       -0.28134757 -2.8179662 0.20379595 -2.062891
000160 47 c7 6a c0 97 0c 01 c0 24 9f 3a 3b b6 e6 42 c0
       -3.668413 -2.0163934 0.0028476203 -3.0453315
000170 54 8b f7 bd 80 08 df 3d fa 4f 8a c0 c8 0c d2 3d
       -0.120871216 0.10890293 -4.322263 0.10256344
000180 73 8c a9 3c 59 bb 65 bf 2d dc 69 3e 45 d3 bd bd
       0.020696854 -0.89738995 0.22837897 -0.09268812
000190 bc 09 97 be 7a 5b 48 be 21 ad cc 3d 4c b6 c6 bc
       -0.29499614 -0.19566146 0.09993959 -0.024256848
0001a0 c7 72 b8 3e a6 e4 75 bb 27 f2 19 bd 80 8c c6 c0
       0.36025068 -0.0037520318 -0.03758445 -6.204651
0001b0 df 86 70 bc 00 34 d9 bc b7 58 47 be 02 33 06 3e
       -0.014680593 -0.026514053 -0.19467436 0.13105395
0001c0 6c d3 b1 be 19 69 f9 3e 1a c3 21 be c6 30 25 3f
       -0.34731615 0.48712996 -0.15797082 0.6452755
0001d0 bb a0 5f c0 43 38 e4 bf 73 e3 ee be 1b 48 ed be
       -3.4941852 -1.782967 -0.46657905 -0.46344075
0001e0 fc 55 b3 3d 43 53 0b bf d0 7c 13 3f 41 29 92 3e
       0.087566346 -0.5442392 0.57612324 0.285471
0001f0 f4 a0 ab 3d de 6d 71 be bb 2b a1 bf f0 a9 fc 3b
       0.08380309 -0.23577067 -1.259147 0.007710688
000200 1c ba b5 bd b6 e3 9f bd 7f d7 a8 bb 1e b3 a6 bb
       -0.08873388 -0.07807104 -0.0051526423 -0.0050872704
000210 76 fe a1 bd 21 e6 cb 3e a5 bc 11 c0 04 a4 fc bd
       -0.07909863 0.39824012 -2.277139 -0.12335971
000220 11 45 86 c0 1f 55 ac bd 9d ec 90 3d 8c 94 87 bc
       -4.195931 -0.08414673 0.070763804 -0.016550325
000230 2c 0a fb bd bb 07 b7 be 42 7c fa 3c 62 6c be bd
       -0.122577995 -0.35748085 0.030576829 -0.09298016
000240 e0 09 36 c0 7d b5 e4 3c 26 3b 1e 3e 57 d9 8b be
       -2.8443527 0.027918572 0.15452251 -0.27314255
000250 03 4c a8 bf e4 3e 10 bc 15 27 b3 bd 82 70 43 3e
       -1.3148197 -0.008804057 -0.08747689 0.19085887
000260 7c f0 ce bd f2 cc 68 bc 22 0c 3a 3d 4d dd ab 3c
       -0.101044625 -0.014209019 0.045421727 0.020979548
000270 8b ec bc bf 9b 90 ac 3b a2 36 1c 3b d0 43 8c 3d
       -1.4759687 0.0052662618 0.0023836275 0.06848872
000280 26 23 e1 bf 98 8f 38 3d 3c 5d 39 be a3 0d a8 3e
       -1.7588851 0.045058817 -0.18101972 0.32822904
000290 64 38 51 3d fa c7 c3 bb 49 12 0d be 12 24 46 3e
       0.05107917 -0.005974767 -0.13776506 0.19349697
0002a0 7f 6e 0f bf 90 c0 91 bd 50 cc e6 bd 20 f6 b6 3b
       -0.5602798 -0.071168065 -0.11269438 0.0055835396
0002b0 60 7a 14 bd f0 ac e2 3c 90 de 20 3b 55 a5 7e 3e
       -0.03624952 0.027670354 0.002454672 0.24867757
0002c0 3c 13 ef bd 6b 04 21 be fd c2 4a bd 54 e5 a3 3d
       -0.116735905 -0.15724342 -0.04950236 0.08002725
0002d0 d1 21 d5 bd 5d 7f 2d 3d cd cb f0 bd 5b 3d 12 c0
       -0.104068406 0.04235779 -0.11757622 -2.2849948
0002e0 65 d3 d0 bb 2a 4d a5 3d fa a4 95 3d c9 3d a7 bf
       -0.0063728564 0.080713585 0.073068574 -1.306573
0002f0 5e 2a ab 3d 9e 3e fa bd 41 9b dc 3d 09 d5 8c 3d
       0.0835769 -0.122189745 0.107718 0.06876571
000300 c8 3f fe ba f3 e0 eb 3d 0d 8c 12 be df 2f ac bd
       -0.001939767 0.11517515 -0.14311238 -0.08407568
000310 10 50 95 3d c4 27 00 bd 53 64 c2 bc 15 2a 5b bd
       0.07290661 -0.031287923 -0.023729479 -0.05350693
000320 17 b7 b3 3d c2 26 f2 3c 73 3f 16 3b 1b 67 8d bd
       0.08775156 0.029559497 0.0022926002 -0.069044314
000330 fc 92 0e be da 6a 95 bc cd 31 fe 3c 80 65 6c bd
       -0.13923258 -0.018239427 0.031029606 -0.057713985
000340 81 7f 07 bd fc f0 a5 3d d2 c6 d1 3b 2d 54 02 bd
       -0.03308058 0.08102605 0.006401875 -0.031818558
000350 db 46 06 bd 5f bc e4 bd e5 00 fd bd 6f be 6d bd
       -0.032782417 -0.111687414 -0.12353686 -0.05804294
000360 5a 21 82 bd b2 84 eb 3b 91 39 2a bd 5a ac 42 bd
       -0.063540176 0.0071874494 -0.041558806 -0.04752765
000370 b1 06 eb 3d c1 be 19 3d 7c 34 aa 3d a0 dd 77 bd
       0.11475886 0.037535433 0.08310792 -0.060514092
000380 9b 98 55 bd 02 96 23 3d a8 e8 f7 bd 63 04 a4 bd
       -0.05214749 0.03993798 -0.121049225 -0.08008649
000390 e8 4d 45 bc ea ad 9e bd 0b d8 06 be 89 9c 8f 3d
       -0.0120425 -0.07748015 -0.13168351 0.070122786
0003a0 c6 86 80 3d e0 1d a6 3c 78 e9 b5 bc 3a 20 ed bd
       0.06275706 0.020277917 -0.022206053 -0.11578412
0003b0 c7 af aa bd 0c 59 02 3d 2c 0d 78 3d 1f cf 42 bd
       -0.08334308 0.031823203 0.060559437 -0.047560807
0003c0 f2 e4 4e bd 60 9b 02 3d 82 04 d6 bd 06 82 41 3d
       -0.050511308 0.03188646 -0.104500785 0.04724314
0003d0 54 3a 5f bd 0c dc 12 bd c9 cb 7f bd 24 6c 8b 3c
       -0.054498985 -0.035854384 -0.062450204 0.017019339
0003e0 8b 52 33 bd 8c 9b 59 3d b7 a0 17 bc ff c9 86 3d
       -0.04377989 0.053126857 -0.009254626 0.065814964
0003f0 96 23 f6 3d 2f 04 89 bd 90 cc fb bd aa 63 cd 3d
       0.12018506 -0.06690251 -0.122948766 0.10028775

fc2.bias f4 [64]
000000 89 e7 10 3f c9 39 01 3f 2f a3 77 be 8c f2 3d 3d
       0.56603295 0.504788 -0.24183343 0.04637389
000010 f4 35 58 3e 7c 65 16 be 0e 09 fe bc ec 27 78 3d
       0.21114331 -0.1468715 -0.031010177 0.060584947
000020 44 db 72 3c 88 7c 08 c0 fd 5a 6f c0 66 04 de bd
       0.014822785 -2.1326008 -3.7399285 -0.10840683
000030 ff 08 43 bd ca 45 1a 3f d5 a5 69 3e 95 7e 8a be
       -0.047616 0.6026274 0.22817166 -0.270497
000040 44 3b 57 3f f2 b0 3d be 7b 14 89 bd 69 13 eb 3e
       0.8407481 -0.1852453 -0.066933595 0.45913246
000050 7d 3f 81 bf 33 8f 19 be 7c 20 d1 bf c9 d6 8a be
       -1.00975 -0.14996032 -1.6338038 -0.27116993
000060 fd a8 c6 bd ca 3d 95 be c1 5a 24 be 11 41 04 3e
       -0.09700201 -0.29148704 -0.16050245 0.12915446
000070 01 11 b6 bd 4f 1a b3 3e 6d 2c 42 bd 79 c9 ed bd
       -0.08889962 0.3498101 -0.04740565 -0.116106935
000080 14 dd ab 3c 71 ff 31 bf ce cd c0 3c 99 ca 8d bf
       0.020979442 -0.695304 0.023535635 -1.1077453
000090 7e 29 3f be af 6c 7c 3f c6 f5 6d bd 18 e5 4b bf
       -0.18668172 0.9860334 -0.058095716 -0.79646444
0000a0 33 f5 00 c0 2d ed 9b bd 44 e2 49 bf 24 4c be be
       -2.0149658 -0.07613597 -0.7886088 -0.37167466
0000b0 dd 45 47 bd a7 63 ed be 00 4a d6 bd d1 5a 29 be
       -0.04865061 -0.4636509 -0.10463333 -0.1653855
0000c0 a8 9e 26 be b6 5e cc 3e 0a d7 fd bd be 76 ef 3e
       -0.1627146 0.3991601 -0.12394531 0.4677028
0000d0 55 ef 94 3c 21 52 91 3e 52 98 80 3f 66 03 72 be
       0.018180529 0.28382972 1.0046484 -0.23634109
0000e0 3e 1d a7 3e 99 fb 81 3f 93 23 7f be cc f5 a6 3d
       0.32639498 1.0154907 -0.24915914 0.08152351
0000f0 ce c7 11 3f 06 e7 69 bd 3b 27 3e 3f b1 ac 91 bf
       0.569455 -0.057105087 0.7427861 -1.1380826

fc3.weight f4 [4, 64]
000000 6d ac 0f bf eb 54 e7 3e c2 6b a8 3c 2a 44 77 bd
       -0.56122476 0.45181975 0.020559195 -0.06036774
000010 4e 77 dc be 1e 1c 95 3e a4 18 1c be 87 bc c7 3c
       -0.43059772 0.29123014 -0.15243775 0.024381889
000020 f5 db 99 3e 32 08 41 40 f3 93 0c c1 93 c6 03 bd
       0.30050626 3.0161252 -8.78612 -0.032171797
000030 f2 28 e4 3d 61 d5 da bc ee 4f 07 bf 3f 4a 9b 3d
       0.11140622 -0.026713075 -0.5285634 0.07582521
000040 e2 8f b2 3e 51 89 fb 3d e8 6b b4 bd b1 9b 26 3f
       0.348754 0.122820504 -0.08809644 0.65081316
000050 9f 55 80 bf 08 1b 48 3c 10 7a 12 c1 d0 65 44 3d
       -1.002613 0.012213476 -9.1548 0.04794866
000060 22 7e cd 3e e1 db c3 3d a1 e8 80 bd 42 d4 75 c1
       0.40135294 0.09563423 -0.062943704 -15.364321
000070 ff a2 4c 3d 5f e5 b6 bf 10 fc fb 3e 48 a3 9c 3a
       0.049960133 -1.4288749 0.49215746 0.0011950517
000080 88 d8 33 3d ae f7 ad bd f8 9e 9b bd 44 c2 3d 3f
       0.043907672 -0.08494507 -0.0759868 0.7412455
000090 2c d4 df bd bb 35 d7 be 65 bd 71 bc 25 ac 41 bf
       -0.109291404 -0.4203318 -0.014754628 -0.75653297
0000a0 cb e1 6d 3e 43 c3 40 bc 39 3e 5a bd ca 32 27 bc
       0.23230664 -0.011765304 -0.053281996 -0.01020498
0000b0 2f 07 2a bc c9 43 97 3d 3b 1a 1a bc 50 5b 4e 3d
       -0.010377689 0.07385976 -0.009405668 0.05038005
0000c0 da d5 e0 bd 7b 62 8c be 06 da 9e bd 9b 62 a1 be
       -0.10978289 -0.27418885 -0.077564284 -0.31520543
0000d0 c2 e5 4d bd 1b 0a 14 3f 66 d7 54 bd 82 e6 8d 3f
       -0.050267942 0.5782792 -0.051963232 1.108597
0000e0 f9 d5 43 bf 9d f9 06 3f c3 b3 06 3d 68 73 94 c1
       -0.7649837 0.5272463 0.032886278 -18.55635
0000f0 ac 96 55 3f 69 25 8a 3d 22 18 3a 3e ba c0 9a c1
       0.8343303 0.06745417 0.18173268 -19.344105
000100 2a f4 f8 3e 88 d7 4a bf 89 cc 27 bc 0b e4 25 bd
       0.48623782 -0.79235125 -0.010241636 -0.04050068
000110 4c a2 6f be ef 3e c7 be de 04 61 bd 3b 91 fd 3d
       -0.23401755 -0.38915202 -0.054936282 0.12381216
000120 76 79 08 c2 43 2d 13 c0 2d 9f b9 3e db 92 89 bd
       -34.118614 -2.2996376 0.36254254 -0.067174636
000130 8f da 21 3e 03 54 6a 3e c0 db d5 3e 92 ef b9 3c
       0.1580603 0.2288361 0.41769218 0.022697244
000140 30 fa 35 be 0e 06 03 3e 00 ba 83 bd 75 26 b4 3e
       -0.1777122 0.12795278 -0.06431961 0.3518559
000150 32 91 b3 bc 05 df 3f bd 80 32 92 3e d1 0c 8e 3d
       -0.02191982 -0.046843547 0.28554153 0.06936038
000160 21 98 d7 bf ed 9e 9e 3b c2 d7 16 bc 60 cb e3 3d
       -1.6843301 0.004840723 -0.009206714 0.11122775
000170 67 9d 4d bc 7b c4 37 3f e7 1e 9a be d6 98 c9 3d
       -0.012549735 0.7178418 -0.30101702 0.09843604
000180 24 55 95 bd 6a 85 b9 bd 83 29 7f bd c9 75 85 c0
       -0.0729163 -0.0905865 -0.062295448 -4.170628
000190 09 f3 88 bd 62 0e b5 be 5e ec b8 bd 00 92 e9 bf
       -0.0668698 -0.35362536 -0.090294585 -1.8247681
0001a0 4d 2c 89 3e 61 51 2f 3c 55 0e db 3d 9f 88 f6 3d
       0.2679161 0.010700555 0.10696093 0.12037777
0001b0 d6 e2 31 3d 3e 60 ba 3d e7 02 07 bd 9a 63 5d 3d
       0.04342922 0.09100388 -0.032961752 0.054050066
0001c0 fc 3a dc bc 30 55 14 bd 74 b4 2d bd 8f 0a ce bd
       -0.026883595 -0.036214054 -0.04240842 -0.10060608
0001d0 56 b6 a9 3d a6 6f 7a bf 4d 5c 46 be c1 51 0d 3e
       0.08286731 -0.9782661 -0.19371147 0.13800718
0001e0 91 8b a7 3e 29 a8 f8 3e 0e cf 21 3e 88 4c 1f 3f
       0.32723668 0.48565796 0.15801641 0.6222615
0001f0 cb 06 a8 be d3 89 a2 3c fe 23 8c 3e 00 a9 26 3e
       -0.32817683 0.01984111 0.2737121 0.16275406
000200 5d 2c 98 3e e2 7a 2f 3f 67 d7 e9 3c a4 56 b6 3d
       0.29721346 0.6854688 0.028545095 0.08903244
000210 fc cb 80 3f 4f bc 79 3d ab 83 57 3c 88 ca 7e be
       1.0062251 0.0609706 0.013153951 -0.24881947
000220 3b 39 95 3e 5e e4 77 40 25 e0 df 3e 77 e3 1d 3d
       0.29145226 3.8733134 0.43725696 0.038547006
000230 1b 2f f6 c1 fe 5b a8 be 36 f3 04 3e 0d c2 33 bd
       -30.773 -0.32882684 0.12983403 -0.043886233
000240 17 1f ae be f5 ba 2e c1 b9 c6 84 bd c4 bc 9d bf
       -0.34008095 -10.920644 -0.06483216 -1.2323232
000250 65 0f db 3e 21 37 c2 bc 86 f0 6d 3e 52 d6 f2 be
       0.42785183 -0.023707928 0.23236284 -0.47429138
000260 e8 e8 58 3f 25 9b 04 bc fa 2a 35 bd 9c e8 d3 3d
       0.84730387 -0.00809363 -0.04423044 0.10347101
000270 d5 8d 8c bd c4 85 4a 3f 65 42 6e bd 75 85 37 3d
       -0.0686299 0.7911036 -0.058168788 0.04480501
000280 6b 82 12 bc 37 96 f4 bd 29 5d 6c bd 1a 1c 45 3f
       -0.008942227 -0.11942714 -0.057706032 0.76996005
000290 3c 29 77 bd 7b ad b0 3f ea 9a 4f bd ee 24 2d 40
       -0.06034206 1.3802942 -0.050684847 2.705379
0002a0 57 f6 b9 c0 5c 54 32 bd 2d 3c e9 be 9d 06 f5 be
       -5.811321 -0.043537483 -0.45553723 -0.47856608
0002b0 a7 69 0c 3d d3 ce 71 be 65 23 93 3a 05 8e ad 3c
       0.034280445 -0.23614053 0.0011225758 0.021185884
0002c0 ac 3f ac bd f7 d6 66 3e 40 2d bb 3c fd b6 0f 3f
       -0.08410582 0.2254294 0.022848725 0.5613859
0002d0 a0 1d d1 bb c6 45 26 3f dc 84 83 3f ca 2b 28 c0
       -0.0063817054 0.64950216 1.027492 -2.6276727
0002e0 6c c8 8a 3e ce ca d7 bf bb 1a b8 c1 1e a7 ef bd
       0.27106035 -1.6858766 -23.013052 -0.11701797
0002f0 cf 21 79 be 83 b3 ca bc 96 17 78 bf e5 4e 56 3e
       -0.24329303 -0.024743801 -0.9691099 0.20928533
000300 69 fc 0f be 58 21 16 be 8a 1f 95 bf 2e ce 9f bd
       -0.1406113 -0.14661157 -1.165025 -0.078029975
000310 07 4c d1 bd 03 c4 09 be ab 84 88 3d 49 fb 84 c0
       -0.10219579 -0.13453679 0.066659294 -4.1556745
000320 8e e7 44 be 66 2c e7 be c9 54 aa bd ff 6d a1 3d
       -0.19228956 -0.4515106 -0.08316953 0.07882308
000330 7d 9f 7e bf 24 f8 a6 be f9 59 61 be 14 9c 7d be
       -0.9946211 -0.3261119 -0.22006978 -0.2476657
000340 bf 73 c7 be 02 7c 5c be 92 b5 ce 3c 68 d6 e9 be
       -0.38955495 -0.2153168 0.025233064 -0.4567139
000350 63 23 37 be d4 3b b7 3c 27 f5 0f c0 03 ad ab be
       -0.17884593 0.022367395 -2.249338 -0.33530435
000360 2d 51 a6 3c 02 6f 9d c0 02 dd a9 3d fc fe de be
       0.02030238 -4.9198008 0.08294107 -0.43553913
000370 69 19 3e 3d 1b f8 9a be c6 6a 89 bd 61 b4 6e bf
       0.04641095 -0.30267414 -0.067098185 -0.93243986
000380 fb c1 c7 bc 3f a9 29 c1 45 7f b0 bd a5 86 0d c0
       -0.02438449 -10.60382 -0.08618025 -2.211343
000390 56 9d 50 bd 67 28 af bd d8 b5 b5 3d 4c 7e 3e be
       -0.050931297 -0.08552628 0.088725746 -0.18602866
0003a0 22 42 db c0 b5 d4 e5 be d1 2e 8b c0 0c d7 93 be
       -6.851823 -0.44888845 -4.349465 -0.28875005
0003b0 88 57 e7 bd fd 89 c4 bf b1 60 9f 3d 55 56 a0 3c
       -0.11295992 -1.5354611 0.07782114 0.019572416
0003c0 86 36 d6 bd 30 7c 87 c0 4b e7 f9 bc 99 d1 47 c0
       -0.10459618 -4.2339096 -0.030505797 -3.1221678
0003d0 ec 4d 1e 3d cc 40 00 be 31 79 17 be 81 2b 8f be
       0.03864853 -0.12524718 -0.14792325 -0.27962878
0003e0 fe 44 02 c1 5a b9 95 bf a3 2c b2 bd 10 94 9e be
       -8.141844 -1.169719 -0.0869992 -0.30972338
0003f0 23 10 4d be 82 a9 2a 3c e8 20 f0 be 19 37 ac bf
       -0.20025687 0.01041639 -0.46900105 -1.3454314

fc3.bias f4 [4]
000000 61 72 30 bd cb 28 79 3d 87 74 9a bc c6 ed 9f c1
       -0.04307783 0.06082992 -0.018854393 -19.9911
