custom_grid/data/ppo-0.5/ppo_iter_1000.pth (torch, 21533 bytes, 6 tensors)

fc1.weight f4 [64, 2]
00000000: 80f3 eabd 16b5 d9be 2baf d73d 384f df3e
00000010: fd46 313e 5b27 a03e 1b74 b6be fb4d bc3e
00000020: e939 193f caab 08bf a35e cf3e b18c 5f3d
00000030: b4aa 9cbb 2544 18bd 1e81 1b3f c01b b6be
00000040: 473e bd3e 022b fc3c 5f03 85be 137d 463e
00000050: 5c2b 28bc d98e c6be 1e58 353c 7b62 243d
00000060: 8ba3 96be c43f 01bf 2059 5fbe 8ab7 90bd
00000070: 1d8e 2e3e d49b 27c0 b642 583f 3dff cebf
00000080: 9cbb f638 4452 e4bd c0e7 fbbc f3b0 f73e
00000090: 6703 503d 2ca8 71be 5e29 4b3c f76d fabe
000000a0: 662f a83e 5981 3ebe f2e1 273d aa3b f43e
000000b0: 89e2 193f 97dc e0be e8ef d33c b666 31bd
000000c0: c8dd 563f 5c0c 77bf d31e 7dbe 4b44 213e
000000d0: f3fa 2bba fe09 f8bc 2a29 c33d 370f 063f
000000e0: e746 983e 573e 14be a8ad 2e3d 4831 4ebf
000000f0: d439 363d fc1f dcbf f4ff 1c3f e692 febe
00000100: 2c29 bf3e 87bf 50bd c24b 5b3e 4302 89be
00000110: 042f 6bbe d62c 29c0 3e1e 0a3f 3295 383e
00000120: 6de7 0e3f ae60 5fbf 0c1b c3be a07f 5ebf
00000130: a802 85be 160f cc3d 9493 3437 d830 a9bc
00000140: 515a f4be fa63 4cbf d080 1a3f f2bc 01bf
00000150: 58b6 1b3f ed84 b43d 226f 533f b82d 73bf
00000160: f6c0 983d aea9 81be d824 133f 2e3a dbbe
00000170: 76d1 703e 69f0 ae3e 80ee c2be 8e6f a2bd
00000180: c8ae 2e3f 2254 c53c b316 1b3b 5102 7dbf
00000190: c0dc a63d e5e7 22bf 8cc2 93be ea1c 8fbf
000001a0: d872 293d e078 dcbf e516 bcbe f78b b3be
000001b0: 970f d83d 5323 0dbf b595 033b a1a8 74bd
000001c0: 637f 503f a2ac 06c0 083d 303e 0bb5 8bbf
000001d0: 2dbd 103f e6be c7bf bda1 03bf 4007 54bf
000001e0: 396c 003b 3bb7 86be b7a5 283d bbfd e8bf
000001f0: cd9f 22be 0d07 83be 7dab 2dbd 679e 38bf
-0.11472225 -0.4252097 0.105314575 0.43615127 0.17312236 0.31280026 -0.35635456 0.36778244
0.5985399 -0.5338713 0.4050189 0.054577533 -0.0047810916 -0.037174363 0.6074389 -0.35568047
0.36961576 0.030782226 -0.25979134 0.1938365 -0.010264244 -0.3878086 0.011068372 0.04013298
-0.29421648 -0.50487924 -0.21811342 -0.07066257 0.170464 -2.618886 0.8447679 -1.6171643
0.00011765139 -0.111485034 -0.030750155 0.4837719 0.050784495 -0.23599309 0.012399999 -0.48912022
0.32848662 -0.1860403 0.040986963 0.4770177 0.6011129 -0.43918297 0.025871232 -0.043310843
0.8393216 -0.96503234 -0.2471879 0.15748708 -0.00065605267 -0.030278202 0.09529336 0.52366966
0.29741594 -0.14476906 0.04264608 -0.8054395 0.044488743 -1.7197261 0.61328053 -0.4972145
0.373361 -0.050963905 0.21415618 -0.26759538 -0.22967154 -2.6433616 0.53952396 0.18025663
0.5582188 -0.87256896 -0.38106573 -0.8691349 -0.2597859 0.09963815 1.0763197e-05 -0.020653173
-0.47725156 -0.7984005 0.603528 -0.5067893 0.6082511 0.08814416 0.8259145 -0.94991636
0.074586794 -0.25324768 0.57478094 -0.42817825 0.23517403 0.34167793 -0.38072586 -0.079314336
0.68235445 0.02408797 0.0023664653 -0.9883166 0.081475735 -0.6363509 -0.28859365 -1.1180699
0.04136929 -1.7224388 -0.36736217 -0.35067722 0.105498485 -0.55132025 0.0020078246 -0.05973113
0.81444377 -2.1042867 0.17210782 -1.0914625 0.5653866 -1.5605133 -0.5141867 -0.8282356
0.0019595756 -0.2631167 0.041173663 -1.8202432 -0.15881272 -0.25591317 -0.042399872 -0.721167

fc1.bias f4 [64]
00000000: 37dc 5a3c 162b 35c0 3b79 4c40 ef3e b8bf
00000010: bdd3 c6bf b883 c53f 1cd2 72bd bad1 61c0
00000020: 858f 77bf 31af 25c0 f628 c73e 63db cfbf
00000030: 91f8 bb3f 67b2 6bc0 d288 f7bd 17de afbf
00000040: d6d1 12bb 5ead 52c0 2d1d f63c 1020 1d40
00000050: e574 2640 a7ea 89c0 a49a 713f 8309 dabe
00000060: 3a8f 09c0 f6e5 51c0 341a c9bb a4f1 73c0
00000070: 2469 0a40 92b9 d33e 4f48 4abe 1c0a 31c0
00000080: 2502 2340 9d4f f6bf 79b9 5abe a646 2cc0
00000090: 85ff 933f 0fe9 34bf e973 39bf 5765 fcba
000000a0: dffd 4cbe 3f8b 24c0 471a 59c0 ba8f 05c0
000000b0: 81dd 503d e31e 44c0 e106 66c0 b7d3 98c0
000000c0: d8c3 54c0 1950 37bd f04b 353d 074a 85be
000000d0: e8a0 38be afe6 a63f 4843 ee3f 0080 c8be
000000e0: c0e6 a53f fad8 d6bd 2ff9 023f 24f4 d3bf
000000f0: 91bc 3fbe c4fd 2bbe b4b0 08c0 a0c0 c7be
0.013358167 -2.8307548 3.1948993 -1.4394206 -1.5533367 1.5430822 -0.059282407 -3.5284257
-0.9670337 -2.5888178 0.38898438 -1.6238827 1.4685231 -3.6827638 -0.12086643 -1.3739651
-0.0022402904 -3.2918315 0.030043209 2.455082 2.6008847 -4.309894 0.9437659 -0.42585382
-2.1493669 -3.2796607 -0.006137157 -3.8116236 2.1626673 0.41352516 -0.19754146 -2.766242
2.547006 -1.9243046 -0.21359815 -2.691812 1.1562353 -0.7066812 -0.7244249 -0.0019256276
-0.20018719 -2.570999 -3.3922288 -2.0868974 0.050992493 -3.0643852 -3.5941699 -4.775844
-3.3244534 -0.04475412 0.044261873 -0.2603304 -0.18030131 1.3039149 1.8614283 -0.39160156
1.2961044 -0.10490604 0.51161474 -1.6558881 -0.18724276 -0.16796023 -2.135785 -0.3901415

fc2.weight f4 [64, 64]
00000000: 5d45 303e d10b 613f 5fc8 783e 057f 1cbe
00000010: 3cff 353f 1798 f93e 68e0 8cbf ec6d 283d
00000020: 6343 07c1 4254 0e3e cab0 88be 7338 cd3e
00000030: 4696 a8bd 218f d7bf 8967 8340 e660 6dbf
00000040: 00a0 3dc0 20e0 a93e b8ae 0d3e 2404 2d3e
00000050: 6bdd 213e 130f 0fc1 a902 a0be e856 5dbe
00000060: d8bc 94bd 464c 07c0 834b ce3d d712 25c0
00000070: d602 143e ecba d73c a843 533e fd1a b8bf
00000080: 1890 363f 9e11 1c3f b9da 863e 1626 6bc0
00000090: b37a ccbe 2036 7cbd 9332 8fbe ca09 f73d
000000a0: 55b4 113e b78a a1bf 7c06 003e 0e46 973e
000000b0: 1e1c d73d f9bc 0fbe 7d60 90be bbcc 9ebf
000000c0: 871c 9b3e 473b 2a3d a336 3e3d 26c6 2ebe
000000d0: 3e83 c13f 4d56 f8be d672 94be dbb7 e1bf
000000e0: 6f19 3abf 4e59 a8be c579 a9bf 3ace 913e
000000f0: 68ac b4bc cdd7 8a3e 528e 3c3e 7cfd fbbd
00000100: f2f8 073f cb29 14c0 e5e1 793e 0254 8d3e
00000110: 0772 73c0 2f1c 2bbf 0c56 73bf e9c4 8cbd
00000120: 9b85 b3be adf1 bcbe cd6a f2be 78bf 613f
00000130: ecf2 31bf c429 5fbd 3d8a 07c1 1ee6 e1c0
00000140: f5fb b4bf a1f4 c83f f9c8 ab3d e2bf 1e3f
00000150: c2ec 84be a789 2dc0 e83a 513e 6806 04c0
00000160: 47c7 6ac0 b924 02c0 249f 3a3b f741 44c0
00000170: 3e0c cfbd 8008 df3d fa4f 8ac0 c80c d23d
00000180: 7d07 233d 59bb 65bf 2ddc 693e 45d3 bdbd
00000190: 6742 97be 7a5b 48be 7253 953d 4cb6 c6bc
000001a0: c772 b83e a6e4 75bb 27f2 19bd 808c c6c0
000001b0: df86 70bc 0034 d9bc b758 47be 0233 063e
000001c0: 6cd3 b1be 1969 f93e 1ac3 21be c630 253f
000001d0: bba0 5fc0 2524 ebbf a247 f1be 1b48 edbe
000001e0: fc55 b33d 4353 0bbf d07c 133f 4129 923e
000001f0: f4a0 ab3d de6d 71be bb2b a1bf f0a9 fc3b
00000200: 1cba b5bd b6e3 9fbd 7fd7 a8bb 1eb3 a6bb
00000210: 76fe a1bd 21e6 cb3e a5bc 11c0 04a4 fcbd
00000220: 1145 86c0 1f55 acbd 9dec 903d 8c94 87bc
00000230: 2c0a fbbd bb07 b7be 427c fa3c 626c bebd
00000240: e009 36c0 7db5 e43c 263b 1e3e 57d9 8bbe
00000250: 034c a8bf e43e 10bc 1527 b3bd 8270 433e
00000260: 7cf0 cebd f2cc 68bc 220c 3a3d 4ddd ab3c
00000270: 8bec bcbf 9b90 ac3b a236 1c3b d043 8c3d
00000280: 2623 e1bf 988f 383d 3c5d 39be a30d a83e
00000290: 6438 513d fac7 c3bb 4912 0dbe 1224 463e
000002a0: 7f6e 0fbf 90c0 91bd 50cc e6bd 20f6 b63b
000002b0: 607a 14bd f0ac e23c 90de 203b 55a5 7e3e
000002c0: 3c13 efbd 6b04 21be fdc2 4abd 54e5 a33d
000002d0: d121 d5bd 5d7f 2d3d cdcb f0bd 5b3d 12c0
000002e0: 65d3 d0bb 2a4d a53d faa4 953d c93d a7bf
000002f0: 5e2a ab3d 9e3e fabd 419b dc3d 09d5 8c3d
00000300: c83f feba f3e0 eb3d 0d8c 12be df2f acbd
00000310: 1050 953d c427 00bd 5364 c2bc 152a 5bbd
00000320: 17b7 b33d c226 f23c 733f 163b 1b67 8dbd
00000330: fc92 0ebe da6a 95bc cd31 fe3c 8065 6cbd
00000340: 817f 07bd fcf0 a53d d2c6 d13b 2d54 02bd
00000350: db46 06bd 5fbc e4bd e500 fdbd 6fbe 6dbd
00000360: 5a21 82bd b284 eb3b 9139 2abd 5aac 42bd
00000370: b106 eb3d c1be 193d 7c34 aa3d a0dd 77bd
00000380: 9b98 55bd 0296 233d a8e8 f7bd 6304 a4bd
00000390: e84d 45bc eaad 9ebd 0bd8 06be 899c 8f3d
000003a0: c686 803d e01d a63c 78e9 b5bc 3a20 edbd
000003b0: c7af aabd 0c59 023d 2c0d 783d 1fcf 42bd
000003c0: f2e4 4ebd 609b 023d 8204 d6bd 0682 413d
000003d0: 543a 5fbd 0cdc 12bd c9cb 7fbd 246c 8b3c
000003e0: 8b52 33bd 8c9b 593d b7a0 17bc ffc9 863d
000003f0: 9623 f63d 2f04 89bd 90cc fbbd aa63 cd3d
0.1721396 0.87908655 0.24295186 -0.15282829 0.7109258 0.48748848 -1.1005983 0.041120455
-8.453952 0.1389933 -0.2669738 0.4008213 -0.082317874 -1.6840554 4.1063886 -0.9272598
-2.9628906 0.33178806 0.13836181 0.16896111 0.1580712 -8.94118 -0.3125203 -0.21615183
-0.072625816 -2.1140304 0.100729965 -2.579275 0.14454207 0.026334248 0.20631278 -1.4383236
0.7131362 0.6096438 0.26338747 -3.6741996 -0.39937362 -0.061575055 -0.27968273 0.12062414
0.14228947 -1.2620457 0.12502474 0.29545635 0.1050341 -0.14036931 -0.28198615 -1.2406229
0.30295202 0.041560438 0.046438824 -0.17067775 1.5118177 -0.48503342 -0.28993863 -1.7634233
-0.7269506 -0.32880634 -1.3240286 0.2847765 -0.022054866 0.27117768 0.18413666 -0.12304208
0.53114235 -2.3150508 0.24402578 0.27603155 -3.8038347 -0.6683988 -0.9505317 -0.06873495
-0.3506287 -0.36903134 -0.47347108 0.88182783 -0.69511294 -0.05448319 -8.47125 -7.0593405
-1.4139391 1.5699655 0.08387942 0.6201154 -0.25961882 -2.7115266 0.20432627 -2.062891
-3.668413 -2.0334914 0.0028476203 -3.0665262 -0.10109757 0.10890293 -4.322263 0.10256344
0.039802063 -0.89738995 0.22837897 -0.09268812 -0.29542848 -0.19566146 0.072913066 -0.024256848
0.36025068 -0.0037520318 -0.03758445 -6.204651 -0.014680593 -0.026514053 -0.19467436 0.13105395
-0.34731615 0.48712996 -0.15797082 0.6452755 -3.4941852 -1.8370405 -0.47124964 -0.46344075
0.087566346 -0.5442392 0.57612324 0.285471 0.08380309 -0.23577067 -1.259147 0.007710688
-0.08873388 -0.07807104 -0.0051526423 -0.0050872704 -0.07909863 0.39824012 -2.277139 -0.12335971
-4.195931 -0.08414673 0.070763804 -0.016550325 -0.122577995 -0.35748085 0.030576829 -0.09298016
-2.8443527 0.027918572 0.15452251 -0.27314255 -1.3148197 -0.008804057 -0.08747689 0.19085887
-0.101044625 -0.014209019 0.045421727 0.020979548 -1.4759687 0.0052662618 0.0023836275 0.06848872
-1.7588851 0.045058817 -0.18101972 0.32822904 0.05107917 -0.005974767 -0.13776506 0.19349697
-0.5602798 -0.071168065 -0.11269438 0.0055835396 -0.03624952 0.027670354 0.002454672 0.24867757
-0.116735905 -0.15724342 -0.04950236 0.08002725 -0.104068406 0.04235779 -0.11757622 -2.2849948
-0.0063728564 0.080713585 0.073068574 -1.306573 0.0835769 -0.122189745 0.107718 0.06876571
-0.001939767 0.11517515 -0.14311238 -0.08407568 0.07290661 -0.031287923 -0.023729479 -0.05350693
0.08775156 0.029559497 0.0022926002 -0.069044314 -0.13923258 -0.018239427 0.031029606 -0.057713985
-0.03308058 0.08102605 0.006401875 -0.031818558 -0.032782417 -0.111687414 -0.12353686 -0.05804294
-0.063540176 0.0071874494 -0.041558806 -0.04752765 0.11475886 0.037535433 0.08310792 -0.060514092
-0.05214749 0.03993798 -0.121049225 -0.08008649 -0.0120425 -0.07748015 -0.13168351 0.070122786
0.06275706 0.020277917 -0.022206053 -0.11578412 -0.08334308 0.031823203 0.060559437 -0.047560807
-0.050511308 0.03188646 -0.104500785 0.04724314 -0.054498985 -0.035854384 -0.062450204 0.017019339
-0.04377989 0.053126857 -0.009254626 0.065814964 0.12018506 -0.06690251 -0.122948766 0.10028775

fc2.bias f4 [64]
00000000: 996b 103f f151 fd3e 2fa3 77be 8cf2 3d3d
00000010: 5ca7 353e 267d 19be 0e09 febc 7be7 753d
00000020: e789 d73b 03d9 08c0 bb85 71c0 6604 debd
00000030: 5d1c 7ebd ab78 123f d051 453e 9417 8abe
00000040: db23 4f3f 7200 29be 7b14 89bd 7588 d63e
00000050: f2fa 82bf 338f 19be 7c20 d1bf c9d6 8abe
00000060: 0fca dabd ca3d 95be c15a 24be 2f6e fc3d
00000070: 0111 b6bd 0841 9d3e 619a 64bd 79c9 edbd
00000080: 14dd ab3c 71ff 31bf cecd c03c 3edf 91bf
00000090: 7e29 3fbe b50c 813f c6f5 6dbd 18e5 4bbf
000000a0: dd3a 02c0 2ded 9bbd cc08 49bf 244c bebe
000000b0: dd45 47bd a763 edbe 004a d6bd d15a 29be
000000c0: a89e 26be 6713 c53e 0ad7 fdbd 5220 e33e
000000d0: 55ef 943c bd7a 883e c971 823f 02ac 76be
000000e0: de0e 9b3e 5845 783f a35b 71be 2bcd 16bc
000000f0: f47c 0c3f 06e7 69bd 0a4f 313f 5e61 94bf
0.5641418 0.4947658 -0.24183343 0.04637389 0.17739624 -0.14989147 -0.031010177 0.06003521
0.0065777185 -2.1382453 -3.7737873 -0.10840683 -0.062038768 0.57215375 0.1926949 -0.26971114
0.80914086 -0.16504076 -0.066933595 0.41900983 -1.0232832 -0.14996032 -1.6338038 -0.27116993
-0.10683071 -0.29148704 -0.16050245 0.12325703 -0.08889962 0.30713677 -0.05581129 -0.116106935
0.020979442 -0.695304 0.023535635 -1.1396253 -0.18668172 1.0082003 -0.058095716 -0.79646444
-2.0348427 -0.07613597 -0.7852905 -0.37167466 -0.04865061 -0.4636509 -0.10463333 -0.1653855
-0.1627146 0.38491365 -0.12394531 0.44360596 0.018180529 0.26656142 1.0190974 -0.24089053
0.3028478 0.9698081 -0.23570113 -0.009204189 0.54878163 -0.057105087 0.6926123 -1.1592214

fc3.weight f4 [4, 64]
00000000: 2b05 04bf 19a5 e93e c26b a83c 2a44 77bd
00000010: 8d63 efbe ada3 b23e a418 1cbe c28d 033e
00000020: d9a5 713e 0f47 3d40 9fb0 0bc1 93c6 03bd
00000030: e943 da3d 8842 513d a235 cabe 300f 9d3d
00000040: 315f 9e3e fb46 0d3e e86b b4bd d662 263f
00000050: fe14 62bf 081b 483c 107a 12c1 d065 443d
00000060: c172 983e e1db c33d a1e8 80bd fce6 75c1
00000070: ffa2 4c3d 9710 b7bf 5006 da3e 48a3 9c3a
00000080: 88d8 333d aef7 adbd f89e 9bbd 7766 223f
00000090: 2cd4 dfbd 76a6 dcbe 65bd 71bc 25ac 41bf
000000a0: 2ed4 783e 43c3 40bc c66b 8fbd ca32 27bc
000000b0: 2f07 2abc c943 973d 3b1a 1abc 505b 4e3d
000000c0: dad5 e0bd 18f6 57be 06da 9ebd 699d 74be
000000d0: c2e5 4dbd cc5c 0a3f 8633 91bd 6692 943f
000000e0: c9c0 40bf 4965 f93e 2db6 b93c c2b9 93c1
000000f0: 4195 503f 6925 8a3d 5100 283e 6340 9ac1
00000100: 72a2 d73e 9ccf 4abf 89cc 27bc 0be4 25bd
00000110: 2c21 4abe 5d2c d9be de04 61bd 1201 0c3d
00000120: d961 08c2 11e9 11c0 9e57 b53e db92 89bd
00000130: 64c4 263e 8dd5 3b3e ba77 ae3e e9db b23c
00000140: fb31 37be 5efe e63d 00ba 83bd ea81 8d3e
00000150: c6d2 83bc 05df 3fbd 8032 923e d10c 8e3d
00000160: 5fb8 d3bf ed9e 9e3b c2d7 16bc 1c5f 223e
00000170: 679d 4dbc f66d 383f fff9 54be d698 c93d
00000180: 2455 95bd 6a85 b9bd 8329 7fbd 2889 82c0
00000190: 09f3 88bd c0fe b7be 5eec b8bd 0092 e9bf
000001a0: de56 823e 6151 2f3c 5468 a43d 9f88 f63d
000001b0: d6e2 313d 3e60 ba3d e702 07bd 9a63 5d3d
000001c0: fc3a dcbc 9c79 9cbd 74b4 2dbd 149c d4bd
000001d0: 56b6 a93d 5edd 66bf 9da6 37be 1f28 883d
000001e0: b32f 933e b871 043f 8245 2c3e 6e9c bc3e
000001f0: c2ea afbe d389 a23c 95d0 8d3e b3e8 323e
00000200: 04ab a83e f55e 2e3f 67d7 e93c a456 b63d
00000210: f600 7f3f 2852 223d ab83 573c 0a8a 79be
00000220: 9457 b53e 2cf8 7c40 0056 d73e 77e3 1d3d
00000230: 2dfb f4c1 64a4 b8be 5d9a b33d 0dc2 33bd
00000240: efc2 9abe f5ba 2ec1 b9c6 84bd fde8 91bf
00000250: 46d9 cd3e 2137 c2bc 86f0 6d3e 52d6 f2be
00000260: cbc3 763f 259b 04bc fa2a 35bd 0d69 593d
00000270: d58d 8cbd 691c 483f f1a5 a2bd 7585 373d
00000280: 6b82 12bc 3796 f4bd 295d 6cbd 1dd6 5b3f
00000290: 3c29 77bd 3360 b33f ea9a 4fbd ee24 2d40
000002a0: 1590 b9c0 5c54 32bd 9a12 dbbe 9d06 f5be
000002b0: a769 0c3d d3ce 71be 6523 933a 058e ad3c
000002c0: ac3f acbd 92ed 463e 402d bb3c 02de ff3e
000002d0: a01d d1bb f744 1f3f 084e 873f f44e 20c0
000002e0: 6dd5 973e 2225 d0bf f24d b8c1 c1bd a23e
000002f0: 286f 5fbe 83b3 cabc 90e9 6bbf d03c 493e
00000300: e609 0fbe 5821 16be 8a1f 95bf 2ece 9fbd
00000310: 034c d1bd 6330 f7bd ab84 883d 49fb 84c0
00000320: 8ee7 44be 662c e7be c954 aabd ff6d a13d
00000330: 999d 7ebf 79a1 a3be ba4a 5abe 149c 7dbe
00000340: 8870 c5be 9970 5cbe 92b5 ce3c 68d6 e9be
00000350: bd07 37be d43b b73c 27f5 0fc0 03ad abbe
00000360: 2d51 a63c 026f 9dc0 02dd a93d fcfe debe
00000370: 6919 3e3d 1bf8 9abe 2769 89bd 61b4 6ebf
00000380: fbc1 c7bc 3fa9 29c1 457f b0bd a586 0dc0
00000390: 569d 50bd 6728 afbd d8b5 b53d 4c7e 3ebe
000003a0: 2242 dbc0 b5d4 e5be d12e 8bc0 0cd7 93be
000003b0: 8857 e7bd fd89 c4bf b160 9f3d 5556 a03c
000003c0: 8636 d6bd 307c 87c0 4be7 f9bc 99d1 47c0
000003d0: ec4d 1e3d cc40 00be 9a1e 17be 812b 8fbe
000003e0: fe44 02c1 0493 95bf b90c b2bd 1094 9ebe
000003f0: 03f9 4cbe 82a9 2a3c 25c9 efbe 5732 acbf
-0.51570386 0.45633772 0.020559195 -0.06036774 -0.4675564 0.348905 -0.15243775 0.12847045
0.23598422 2.957462 -8.73062 -0.032171797 0.10657484 0.05108884 -0.39494044 0.076689124
0.30932 0.13796608 -0.08809644 0.6499456 -0.8831328 0.012213476 -9.1548 0.04794866
0.2977505 0.09563423 -0.062943704 -15.368893 0.049960133 -1.4301938 0.4258294 0.0011950517
0.043907672 -0.08494507 -0.0759868 0.634376 -0.109291404 -0.4309575 -0.014754628 -0.75653297
0.2429969 -0.011765304 -0.07002978 -0.01020498 -0.010377689 0.07385976 -0.009405668 0.05038005
-0.10978289 -0.21089971 -0.077564284 -0.23888172 -0.050267942 0.54047847 -0.070899054 1.1607177
-0.75294167 0.48710087 0.022669876 -18.465702 0.81477743 0.06745417 0.1640637 -19.281439
0.42116123 -0.79223037 -0.010241636 -0.04050068 -0.19739217 -0.4241666 -0.054936282 0.03418071
-34.095554 -2.2798502 0.3541841 -0.067174636 0.16285855 0.18343182 0.3407572 0.021833377
-0.1789016 0.112789854 -0.06431961 0.2763818 -0.016091716 -0.046843547 0.28554153 0.06936038
-1.654064 0.004840723 -0.009206714 0.15856594 -0.012549735 0.7204279 -0.20798491 0.09843604
-0.0729163 -0.0905865 -0.062295448 -4.0792427 -0.0668698 -0.35936546 -0.090294585 -1.8247681
0.254569 0.010700555 0.080277115 0.12037777 0.04342922 0.09100388 -0.032961752 0.054050066
-0.026883595 -0.07640383 -0.04240842 -0.10381332 0.08286731 -0.9018153 -0.17934652 0.066482775
0.2874733 0.5173602 0.1682339 0.36838096 -0.34358793 0.01984111 0.27698198 0.1747158
0.32942975 0.6811364 0.028545095 0.08903244 0.9961084 0.03962913 0.013153951 -0.24369064
0.3541838 3.9526472 0.420578 0.038547006 -30.622644 -0.3606292 0.08769677 -0.043886233
-0.30226848 -10.920644 -0.06483216 -1.1399227 0.4020483 -0.023707928 0.23236284 -0.47429138
0.96392506 -0.00809363 -0.04423044 0.0530787 -0.0686299 0.7816835 -0.07941807 0.04480501
-0.008942227 -0.11942714 -0.057706032 0.85873586 -0.06034206 1.4013733 -0.050684847 2.705379
-5.798838 -0.043537483 -0.4278763 -0.47856608 0.034280445 -0.23614053 0.0011225758 0.021185884
-0.08410582 0.19426563 0.022848725 0.49974066 -0.0063817054 0.62214607 1.0570688 -2.504819
0.29655018 -1.6261332 -23.03806 0.31785396 -0.21819746 -0.024743801 -0.92153263 0.19652104
-0.1396862 -0.14661157 -1.165025 -0.078029975 -0.10219576 -0.12069776 0.066659294 -4.1556745
-0.19228956 -0.4515106 -0.08316953 0.07882308 -0.99459225 -0.3195913 -0.21317568 -0.2476657
-0.38562417 -0.21527328 0.025233064 -0.4567139 -0.17874046 0.022367395 -2.249338 -0.33530435
0.02030238 -4.9198008 0.08294107 -0.43553913 0.04641095 -0.30267414 -0.06709509 -0.93243986
-0.02438449 -10.60382 -0.08618025 -2.211343 -0.050931297 -0.08552628 0.088725746 -0.18602866
-6.851823 -0.44888845 -4.349465 -0.28875005 -0.11295992 -1.5354611 0.07782114 0.019572416
-0.10459618 -4.2339096 -0.030505797 -3.1221678 0.03864853 -0.12524718 -0.14757767 -0.27962878
-8.141844 -1.1685491 -0.08693833 -0.30972338 -0.20016865 0.01041639 -0.4683315 -1.3452863

fc3.bias f4 [4]
00000000: 008a 103c ed82 ce39 acd7 623a d559 9cc1
0.008821964 0.0003938893 0.00086533534 -19.543863
