custom_grid/data/ppo-0.5/ppo_iter_700.pth (torch, 21521 bytes, 6 tensors)

fc1.weight f4 [64, 2]
0	0xbdf35f95	-0.11883465
1	0xbed7cce6	-0.42148513
2	0x3dd76c50	0.10518706
3	0x3edf8b3b	0.43660912
4	0x3e316bd3	0.17326288
5	0x3e9fd807	0.31219503
6	0xbeb64d08	-0.35605645
7	0x3ebc64a3	0.3679553
8	0x3f18d2ed	0.5969685
9	0xbf07b115	-0.5300458
10	0x3ecef730	0.40422964
11	0x3d5f52d6	0.054522358
12	0xbb9caab4	-0.0047810916
13	0xbd184425	-0.037174363
14	0x3f1b0ad6	0.6056341
15	0xbeb4aaeb	-0.3528665
16	0x3ebbebbc	0.3670329
17	0x3cf92ca3	0.030416792
18	0xbe84bfea	-0.2592767
19	0x3e46c080	0.1940937
20	0xbcafbbf9	-0.021451937
21	0xbec174d0	-0.37784433
22	0x3c35581e	0.011068372
23	0x3d24627b	0.04013298
24	0xbe978480	-0.29593277
25	0xbf01f707	-0.5076756
26	0xbe5f5920	-0.21811342
27	0xbd90b78a	-0.07066257
28	0x3e445dbd	0.19176383
29	0xc0279bd4	-2.618886
30	0x3f5cd1ff	0.8625793
31	0xbfce157a	-1.6100304
32	0x38f6bb9c	0.00011765139
33	0xbde45244	-0.111485034
34	0xbd00168f	-0.031271514
35	0x3ef7b711	0.48381856
36	0x3cbf23f5	0.023332575
37	0xbe7a3d38	-0.24437416
38	0x3c754670	0.014970407
39	0xbefcdf5d	-0.49389163
40	0x3ea385b9	0.3193796
41	0xbe380100	-0.17969131
42	0x3d2964ef	0.041356023
43	0x3ef4881c	0.47760093
44	0x3f1b16be	0.60581577
45	0xbedfb16e	-0.43690056
46	0x3cc56671	0.0240967
47	0xbd3166b6	-0.043310843
48	0x3f56fa32	0.8397552
49	0xbf73ff99	-0.95311886
50	0xbe7dccaf	-0.24785112
51	0x3e22b68a	0.15889946
52	0xba2bfaf3	-0.00065605267
53	0xbcf809fe	-0.030278202
54	0x3dc3e455	0.09565035
55	0x3f061dd7	0.5238928
56	0x3e9259c3	0.28584108
57	0xbe10429d	-0.14087911
58	0x3d398e5f	0.04530179
59	0xbf4e3148	-0.8054395
60	0x3d88183e	0.06645249
61	0xbfdc1ffc	-1.7197261
62	0x3f1bfcea	0.6093279
63	0xbefdb50a	-0.49552184
64	0x3ebfc84c	0.37457502
65	0xbd61d9fe	-0.055139534
66	0x3e5762df	0.2103381
67	0xbe890243	-0.26759538
68	0xbe653fc9	-0.22387613
69	0xc0292cd6	-2.6433616
70	0x3f0719c1	0.5277367
71	0x3e3b5583	0.18294339
72	0x3f0ed267	0.557898
73	0xbf5f21e0	-0.87161064
74	0xbec5f53a	-0.38663656
75	0xbf5d4564	-0.86434007
76	0xbe85d333	-0.26137695
77	0x3dcdb3ed	0.10044084
78	0x37349394	1.0763197e-05
79	0xbca930d8	-0.020653173
80	0xbeec2c56	-0.46127576
81	0xbf50a29e	-0.81498134
82	0x3f1ca592	0.6119014
83	0xbefee9b7	-0.49787685
84	0x3f19e497	0.60114425
85	0x3db85ec5	0.09002451
86	0x3f532c8c	0.8248985
87	0xbf704c9b	-0.9386689
88	0x3d1e3907	0.038628604
89	0xbe82209d	-0.25415507
90	0x3f12ba30	0.5731535
91	0xbed97535	-0.42472234
92	0x3e6d7fbb	0.23193257
93	0x3eadf5ab	0.33976492
94	0xbec226e4	-0.37920296
95	0xbda67ef2	-0.08129682
96	0x3f2db16d	0.67848855
97	0x3ce65bca	0.02811994
98	0x3c1960fd	0.009361503
99	0xbf7d0251	-0.9883166
100	0x3d33be3c	0.043882594
101	0xbf22e7e5	-0.6363509
102	0xbe93dcfb	-0.28879532
103	0xbf8f9e85	-1.1220251
104	0x3d73254b	0.059361737
105	0xbfdc78e0	-1.7224388
106	0xbebe31c4	-0.37147343
107	0xbeb257be	-0.34832567
108	0x3dd14831	0.102188475
109	0xbf0b773a	-0.544788
110	0x3b0395b5	0.0020078246
111	0xbd74a8a1	-0.05973113
112	0x3f4da715	0.8033307
113	0xc006996e	-2.1031146
114	0x3e4e27c0	0.20132351
115	0xbf8a2ac9	-1.0794307
116	0x3f11916d	0.5686253
117	0xbfc76a63	-1.5579342
118	0xbf04250f	-0.51619047
119	0xbf53766b	-0.82602566
120	0x3b006c39	0.0019595756
121	0xbe86b73b	-0.2631167
122	0x3d673e58	0.05645594
123	0xbfe8fdbb	-1.8202432
124	0xbe229fcd	-0.15881272
125	0xbe83070d	-0.25591317
126	0xbd2dab7d	-0.042399872
127	0xbf389e67	-0.721167

fc1.bias f4 [64]
0	0x3c82be7f	0.015959976
1	0xc0352b50	-2.8307686
2	0x404c828d	3.1954682
3	0xbfb862d0	-1.4405155
4	0xbfc763b0	-1.5577297
5	0x3fc5a07b	1.54396
6	0xbd72d21c	-0.059282407
7	0xc0620e6a	-3.5321298
8	0xbf785c50	-0.9701586
9	0xc025b472	-2.5891385
10	0x3ec94625	0.3931133
11	0xbfcfdb63	-1.6238827
12	0x3fb9b730	1.4509029
13	0xc06bb267	-3.6827638
14	0xbdd65b7e	-0.104666695
15	0xbfab94c1	-1.3404771
16	0xbb12d1d6	-0.0022402904
17	0xc052b87c	-3.29251
18	0x3bc788c6	0.0060893027
19	0x401d2fd9	2.4560454
20	0x40277705	2.6166394
21	0xc089e5aa	-4.309285
22	0x3f71f5f5	0.94515926
23	0xbedaefc9	-0.42761067
24	0xc00a4f06	-2.1610732
25	0xc051cae1	-3.2780077
26	0xbbc91a34	-0.006137157
27	0xc073f57b	-3.811858
28	0x400b1069	2.1728766
29	0x3ed58d7e	0.41709512
30	0xbe2cca8e	-0.16874143
31	0xc0317f2b	-2.7733867
32	0x40234151	2.5508616
33	0xbff6edf5	-1.9291369
34	0xbe6241e8	-0.22095454
35	0xc02cd34b	-2.7003963
36	0x3f950500	1.1642151
37	0xbf347798	-0.70494986
38	0xbf3841c2	-0.7197534
39	0xbafc6557	-0.0019256276
40	0xbe580aee	-0.2109792
41	0xc023b54e	-2.557941
42	0xc05973fc	-3.3977041
43	0xc006808e	-2.1015964
44	0x3c3d8861	0.01156816
45	0xc0445c37	-3.0681283
46	0xc0664f33	-3.598584
47	0xc098e07f	-4.7774043
48	0xc05502fd	-3.3283074
49	0xbd1c6060	-0.038177848
50	0x3c87efb4	0.016593792
51	0xbe8527f4	-0.26007044
52	0xbe216f95	-0.15765221
53	0x3fa701b6	1.3047397
54	0x3fedb962	1.8572199
55	0xbec88000	-0.39160156
56	0x3fa47ee3	1.2851223
57	0xbd8f6652	-0.07001938
58	0x3f000d24	0.5002005
59	0xbfd3bbae	-1.654165
60	0xbe3fbc91	-0.18724276
61	0xbe173e07	-0.14769755
62	0xc008b0b4	-2.135785
63	0xbec7c0a0	-0.3901415

fc2.weight f4 [64, 64]
0	0x3e388dc9	0.18022837
1	0x3f61c939	0.88197666
2	0x3e7c6c69	0.2465073
3	0xbe154a36	-0.1457909
4	0x3f35ff3c	0.7109258
5	0x3ef91a03	0.48652658
6	0xbf8ce068	-1.1005983
7	0x3d286dec	0.041120455
8	0xc1075c91	-8.460099
9	0x3e162f66	0.14666519
10	0xbe895d77	-0.2682912
11	0x3ecd3873	0.4008213
12	0xbda2f3d1	-0.079566605
13	0xbfd78f21	-1.6840554
14	0x40833037	4.0996356
15	0xbf6ca4e3	-0.924391
16	0xc03da000	-2.9628906
17	0x3eae1fe7	0.34008715
18	0x3e0337b9	0.12814225
19	0x3e2faa8d	0.17154904
20	0x3e218398	0.15772855
21	0xc10f46cd	-8.954785
22	0xbe9bf679	-0.3046148
23	0xbe5d56e8	-0.21615183
24	0xbd94bcd8	-0.072625816
25	0xc0074c46	-2.1140304
26	0x3dce4b83	0.100729965
27	0xc0252c7c	-2.58084
28	0x3e138cbf	0.14409159
29	0x3ca1341c	0.019678168
30	0x3e5343a8	0.20631278
31	0xbfb81afd	-1.4383236
32	0x3f3688a2	0.71302235
33	0x3f1c119e	0.6096438
34	0x3e8adb38	0.27120376
35	0xc06b62fa	-3.677916
36	0xbec976d2	-0.39348465
37	0xbd685575	-0.056722123
38	0xbe8bcaba	-0.27303106
39	0x3df709ca	0.12062414
40	0x3e196ead	0.14983626
41	0xbfa18ab7	-1.2620457
42	0x3e00067c	0.12502474
43	0x3e97460e	0.29545635
44	0x3dc1f7e4	0.094711095
45	0xbe0fbcf9	-0.14036931
46	0xbe90607d	-0.28198615
47	0xbf9eccbb	-1.2406229
48	0x3e9b1c87	0.30295202
49	0x3d2a3b47	0.041560438
50	0x3d141cb1	0.036160175
51	0xbe265c8a	-0.16246238
52	0x3fc1833e	1.5118177
53	0xbef762de	-0.48317617
54	0xbe921234	-0.28529513
55	0xbfe1b7db	-1.7634233
56	0xbf3a5ecb	-0.7280089
57	0xbeac1835	-0.33612218
58	0xbfaa36f0	-1.3298016
59	0x3e92b2bd	0.2865199
60	0xbcb4ac68	-0.022054866
61	0x3e8ad7cd	0.27117768
62	0x3e3c8e52	0.18413666
63	0xbdfbfd7c	-0.12304208
64	0x3f07f8f2	0.53114235
65	0xc01403e9	-2.3127387
66	0x3e7a9a01	0.2447281
67	0x3e8d3e16	0.2758643
68	0xc0737207	-3.8038347
69	0xbf29ca7c	-0.6632459
70	0xbf73560c	-0.9505317
71	0xbd8cc4e9	-0.06873495
72	0xbeb3859b	-0.3506287
73	0xbebbbf91	-0.3666959
74	0xbef26acd	-0.47347108
75	0x3f61bf78	0.88182783
76	0xbf31f2ec	-0.69511294
77	0xbd5f29c4	-0.05448319
78	0xc1078a3d	-8.47125
79	0xc0e1e61e	-7.0593405
80	0xbfb4fbf5	-1.4139391
81	0x3fc911fd	1.5708615
82	0x3dabc8f9	0.08387942
83	0x3f1fbd2b	0.6239802
84	0xbe80182c	-0.25018442
85	0xc02d479d	-2.707496
86	0x3e552fd4	0.20819026
87	0xc0040668	-2.062891
88	0xc06ac747	-3.668413
89	0xc0021f4f	-2.033161
90	0x3b3a9f24	0.0028476203
91	0xc0441322	-3.0636678
92	0xbdbb8d1c	-0.09157774
93	0x3ddf0880	0.10890293
94	0xc08a4ffa	-4.322263
95	0x3dd20cc8	0.10256344
96	0x3d2fc34b	0.042910855
97	0xbf65bb59	-0.89738995
98	0x3e69dc2d	0.22837897
99	0xbdbdd345	-0.09268812
100	0xbe974267	-0.29542848
101	0xbe485b7a	-0.19566146
102	0x3d93d690	0.07218659
103	0xbcc6b64c	-0.024256848
104	0x3eb872c7	0.36025068
105	0xbb75e4a6	-0.0037520318
106	0xbd19f227	-0.03758445
107	0xc0c68c80	-6.204651
108	0xbc7086df	-0.014680593
109	0xbcd93400	-0.026514053
110	0xbe4758b7	-0.19467436
111	0x3e063302	0.13105395
112	0xbeb1d36c	-0.34731615
113	0x3ef96919	0.48712996
114	0xbe21c31a	-0.15797082
115	0x3f2530c6	0.6452755
116	0xc05fa0bb	-3.4941852
117	0xbfeb6afe	-1.8392026
118	0xbeef4d74	-0.4673878
119	0xbeed481b	-0.46344075
120	0x3db355fc	0.087566346
121	0xbf0b5343	-0.5442392
122	0x3f137cd0	0.57612324
123	0x3e922941	0.285471
124	0x3daba0f4	0.08380309
125	0xbe716dde	-0.23577067
126	0xbfa12bbb	-1.259147
127	0x3bfca9f0	0.007710688
128	0xbdb5ba1c	-0.08873388
129	0xbd9fe3b6	-0.07807104
130	0xbba8d77f	-0.0051526423
131	0xbba6b31e	-0.0050872704
132	0xbda1fe76	-0.07909863
133	0x3ecbe621	0.39824012
134	0xc011bca5	-2.277139
135	0xbdfca404	-0.12335971
136	0xc0864511	-4.195931
137	0xbdac551f	-0.08414673
138	0x3d90ec9d	0.070763804
139	0xbc87948c	-0.016550325
140	0xbdfb0a2c	-0.122577995
141	0xbeb707bb	-0.35748085
142	0x3cfa7c42	0.030576829
143	0xbdbe6c62	-0.09298016
144	0xc03609e0	-2.8443527
145	0x3ce4b57d	0.027918572
146	0x3e1e3b26	0.15452251
147	0xbe8bd957	-0.27314255
148	0xbfa84c03	-1.3148197
149	0xbc103ee4	-0.008804057
150	0xbdb32715	-0.08747689
151	0x3e437082	0.19085887
152	0xbdcef07c	-0.101044625
153	0xbc68ccf2	-0.014209019
154	0x3d3a0c22	0.045421727
155	0x3cabdd4d	0.020979548
156	0xbfbcec8b	-1.4759687
157	0x3bac909b	0.0052662618
158	0x3b1c36a2	0.0023836275
159	0x3d8c43d0	0.06848872
160	0xbfe12326	-1.7588851
161	0x3d388f98	0.045058817
162	0xbe395d3c	-0.18101972
163	0x3ea80da3	0.32822904
164	0x3d513864	0.05107917
165	0xbbc3c7fa	-0.005974767
166	0xbe0d1249	-0.13776506
167	0x3e462412	0.19349697
168	0xbf0f6e7f	-0.5602798
169	0xbd91c090	-0.071168065
170	0xbde6cc50	-0.11269438
171	0x3bb6f620	0.0055835396
172	0xbd147a60	-0.03624952
173	0x3ce2acf0	0.027670354
174	0x3b20de90	0.002454672
175	0x3e7ea555	0.24867757
176	0xbdef133c	-0.116735905
177	0xbe21046b	-0.15724342
178	0xbd4ac2fd	-0.04950236
179	0x3da3e554	0.08002725
180	0xbdd521d1	-0.104068406
181	0x3d2d7f5d	0.04235779
182	0xbdf0cbcd	-0.11757622
183	0xc0123d5b	-2.2849948
184	0xbbd0d365	-0.0063728564
185	0x3da54d2a	0.080713585
186	0x3d95a4fa	0.073068574
187	0xbfa73dc9	-1.306573
188	0x3dab2a5e	0.0835769
189	0xbdfa3e9e	-0.122189745
190	0x3ddc9b41	0.107718
191	0x3d8cd509	0.06876571
192	0xbafe3fc8	-0.001939767
193	0x3debe0f3	0.11517515
194	0xbe128c0d	-0.14311238
195	0xbdac2fdf	-0.08407568
196	0x3d955010	0.07290661
197	0xbd0027c4	-0.031287923
198	0xbcc26453	-0.023729479
199	0xbd5b2a15	-0.05350693
200	0x3db3b717	0.08775156
201	0x3cf226c2	0.029559497
202	0x3b163f73	0.0022926002
203	0xbd8d671b	-0.069044314
204	0xbe0e92fc	-0.13923258
205	0xbc956ada	-0.018239427
206	0x3cfe31cd	0.031029606
207	0xbd6c6580	-0.057713985
208	0xbd077f81	-0.03308058
209	0x3da5f0fc	0.08102605
210	0x3bd1c6d2	0.006401875
211	0xbd02542d	-0.031818558
212	0xbd0646db	-0.032782417
213	0xbde4bc5f	-0.111687414
214	0xbdfd00e5	-0.12353686
215	0xbd6dbe6f	-0.05804294
216	0xbd82215a	-0.063540176
217	0x3beb84b2	0.0071874494
218	0xbd2a3991	-0.041558806
219	0xbd42ac5a	-0.04752765
220	0x3deb06b1	0.11475886
221	0x3d19bec1	0.037535433
222	0x3daa347c	0.08310792
223	0xbd77dda0	-0.060514092
224	0xbd55989b	-0.05214749
225	0x3d239602	0.03993798
226	0xbdf7e8a8	-0.121049225
227	0xbda40463	-0.08008649
228	0xbc454de8	-0.0120425
229	0xbd9eadea	-0.07748015
230	0xbe06d80b	-0.13168351
231	0x3d8f9c89	0.070122786
232	0x3d8086c6	0.06275706
233	0x3ca61de0	0.020277917
234	0xbcb5e978	-0.022206053
235	0xbded203a	-0.11578412
236	0xbdaaafc7	-0.08334308
237	0x3d02590c	0.031823203
238	0x3d780d2c	0.060559437
239	0xbd42cf1f	-0.047560807
240	0xbd4ee4f2	-0.050511308
241	0x3d029b60	0.03188646
242	0xbdd60482	-0.104500785
243	0x3d418206	0.04724314
244	0xbd5f3a54	-0.054498985
245	0xbd12dc0c	-0.035854384
246	0xbd7fcbc9	-0.062450204
247	0x3c8b6c24	0.017019339
248	0xbd33528b	-0.04377989
249	0x3d599b8c	0.053126857
250	0xbc17a0b7	-0.009254626
251	0x3d86c9ff	0.065814964
252	0x3df62396	0.12018506
253	0xbd89042f	-0.06690251
254	0xbdfbcc90	-0.122948766
255	0x3dcd63aa	0.10028775

fc2.bias f4 [64]
0	0x3f114abb	0.56754655
1	0x3efd890d	0.49518624
2	0xbe77a32f	-0.24183343
3	0x3d3df28c	0.04637389
4	0x3e418259	0.1889738
5	0xbe166490	-0.14686799
6	0xbcfe090e	-0.031010177
7	0x3d5f2858	0.054481834
8	0x3b6894aa	0.0035489001
9	0xc008dfd1	-2.1386607
10	0xc07112f9	-3.766783
11	0xbdde0466	-0.10840683
12	0xbd701c7d	-0.05862092
13	0x3f13232a	0.5747553
14	0x3e4a13cc	0.19734114
15	0xbe8a1794	-0.26971114
16	0x3f50f757	0.8162741
17	0xbe3bb39a	-0.18330231
18	0xbd89147b	-0.066933595
19	0x3ed91e9a	0.4240616
20	0xbf82e19c	-1.02251
21	0xbe198f33	-0.14996032
22	0xbfd1207c	-1.6338038
23	0xbe8ad6c9	-0.27116993
24	0xbdecd935	-0.115648665
25	0xbe953dca	-0.29148704
26	0xbe245ac1	-0.16050245
27	0x3e01b30f	0.12665962
28	0xbdb61101	-0.08889962
29	0x3e9d6447	0.30740568
30	0xbd43dcba	-0.047817923
31	0xbdedc979	-0.116106935
32	0x3cabdd14	0.020979442
33	0xbf31ff71	-0.695304
34	0x3cc0cdce	0.023535635
35	0xbf917dfd	-1.1366574
36	0xbe3f297e	-0.18668172
37	0x3f815345	1.0103537
38	0xbd6df5c6	-0.058095716
39	0xbf4be518	-0.79646444
40	0xc00201c6	-2.0313582
41	0xbd9bed2d	-0.07613597
42	0xbf4988f1	-0.7872458
43	0xbebe4c24	-0.37167466
44	0xbd4745dd	-0.04865061
45	0xbeed63a7	-0.4636509
46	0xbdd64a00	-0.10463333
47	0xbe295ad1	-0.1653855
48	0xbe269ea8	-0.1627146
49	0x3eca83fe	0.39553827
50	0xbdfdd70a	-0.12394531
51	0x3ee1b26a	0.44081432
52	0x3c94ef55	0.018180529
53	0x3e8a5879	0.27020624
54	0x3f82712b	1.0190786
55	0xbe7274d2	-0.23677376
56	0x3e9b238f	0.30300567
57	0x3f783a75	0.969642
58	0xbe6922f9	-0.22767247
59	0xbc6633b9	-0.014050418
60	0x3f0e24d3	0.5552494
61	0xbd69e706	-0.057105087
62	0x3f312423	0.69195765
63	0xbf943a8d	-1.1580368

fc3.weight f4 [4, 64]
0	0xbf04cc37	-0.5187411
1	0x3ee6cee0	0.45079708
2	0x3ca86bc2	0.020559195
3	0xbd77442a	-0.06036774
4	0xbef03d0a	-0.4692157
5	0x3eabd069	0.33557442
6	0xbe1c18a4	-0.15243775
7	0x3debbc27	0.115104966
8	0x3e71f8ea	0.2363011
9	0x403bf549	2.936846
10	0xc10be2f3	-8.742908
11	0xbd03c693	-0.032171797
12	0x3daff2ec	0.085912555
13	0x3d27642f	0.040867027
14	0xbed25e91	-0.41087773
15	0x3d9d0f30	0.076689124
16	0x3ea250b1	0.31702188
17	0x3e06aa40	0.13150883
18	0xbdb46be8	-0.08809644
19	0x3f26c4ee	0.6514424
20	0xbf659029	-0.89673096
21	0x3c481b08	0.012213476
22	0xc1127a10	-9.1548
23	0x3d4465d0	0.04794866
24	0x3ea39301	0.31948093
25	0x3dc3dbe1	0.09563423
26	0xbd80e8a1	-0.062943704
27	0xc1760dc6	-15.378363
28	0x3d4ca2ff	0.049960133
29	0xbfb7b666	-1.4352539
30	0x3ee8d7c8	0.45477128
31	0x3a9ca348	0.0011950517
32	0x3d33d888	0.043907672
33	0xbdadf7ae	-0.08494507
34	0xbd9b9ef8	-0.0759868
35	0x3f259e44	0.6469462
36	0xbddfd42c	-0.109291404
37	0xbedd014e	-0.43165058
38	0xbc71bd65	-0.014754628
39	0xbf41ac25	-0.75653297
40	0x3e777a5f	0.24167775
41	0xbc40c343	-0.011765304
42	0xbd874e82	-0.06606771
43	0xbc2732ca	-0.01020498
44	0xbc2a072f	-0.010377689
45	0x3d9743c9	0.07385976
46	0xbc1a1a3b	-0.009405668
47	0x3d4e5b50	0.05038005
48	0xbde0d5da	-0.10978289
49	0xbe56b960	-0.20969152
50	0xbd9eda06	-0.077564284
51	0xbe777c8d	-0.24168606
52	0xbd4de5c2	-0.050267942
53	0x3f0c7071	0.5485907
54	0xbd9b0729	-0.07569725
55	0x3f9497de	1.1608846
56	0xbf4161ad	-0.75539666
57	0x3efff0b6	0.49988335
58	0x3c5b7e6d	0.0133968415
59	0xc193bd33	-18.467382
60	0x3f50430e	0.8135232
61	0x3d8a2569	0.06745417
62	0x3e342a39	0.17594232
63	0xc19a40d1	-19.281649
64	0x3edc56d4	0.43034995
65	0xbf49242f	-0.78570837
66	0xbc27cc89	-0.010241636
67	0xbd25e40b	-0.04050068
68	0xbe4e306d	-0.2013566
69	0xbed288de	-0.41120046
70	0xbd6104de	-0.054936282
71	0x3d2b3a59	0.04180369
72	0xc20860b9	-34.094456
73	0xc01030db	-2.252982
74	0x3eb8a67b	0.36064515
75	0xbd8992db	-0.067174636
76	0x3e3bec63	0.18351893
77	0x3e42a95d	0.1900992
78	0x3eb4f31b	0.35341725
79	0x3cb2dbe9	0.021833377
80	0xbe3d0fa3	-0.18462996
81	0x3df438d9	0.11924905
82	0xbd83ba00	-0.06431961
83	0x3e906749	0.282038
84	0xbc312a0a	-0.010813246
85	0xbd3fdf05	-0.046843547
86	0x3e923280	0.28554153
87	0x3d8e0cd1	0.06936038
88	0xbfd35fb7	-1.6513585
89	0x3b9e9eed	0.004840723
90	0xbc16d7c2	-0.009206714
91	0x3e16f3fa	0.14741507
92	0xbc4d9d67	-0.012549735
93	0x3f38f44b	0.7224776
94	0xbe6e5060	-0.23272848
95	0x3dc998d6	0.09843604
96	0xbd955524	-0.0729163
97	0xbdb9856a	-0.0905865
98	0xbd7f2983	-0.062295448
99	0xc08297b9	-4.081021
100	0xbd88f309	-0.0668698
101	0xbeb90fe0	-0.36144924
102	0xbdb8ec5e	-0.090294585
103	0xbfe99200	-1.8247681
104	0x3e8204b3	0.2539421
105	0x3c2f5161	0.010700555
106	0x3db9c377	0.09070485
107	0x3df6889f	0.12037777
108	0x3d31e2d6	0.04342922
109	0x3dba603e	0.09100388
110	0xbd0702e7	-0.032961752
111	0x3d5d639a	0.054050066
112	0xbcdc3afc	-0.026883595
113	0xbdb1581c	-0.08659384
114	0xbd2db474	-0.04240842
115	0xbde2e53b	-0.110788785
116	0x3da9b656	0.08286731
117	0xbf6892a7	-0.90848774
118	0xbe330922	-0.17483953
119	0x3d8eb962	0.06968953
120	0x3e92b416	0.2865302
121	0x3f015282	0.5051652
122	0x3e35c416	0.17750582
123	0x3ebb8f3e	0.36632723
124	0xbeb1c20f	-0.34718367
125	0x3ca289d3	0.01984111
126	0x3e883ab3	0.26607284
127	0x3e36a24e	0.17835352
128	0x3ea386c5	0.31938758
129	0x3f2e4edc	0.6808908
130	0x3ce9d767	0.028545095
131	0x3db656a4	0.08903244
132	0x3f80379f	1.0016974
133	0x3d20ef2e	0.0392906
134	0x3c5783ab	0.013153951
135	0xbe764fb9	-0.2405385
136	0x3eb4fb69	0.3534806
137	0x407d4efb	3.9579456
138	0x3ed48d56	0.4151408
139	0x3d1de377	0.038547006
140	0xc1f50f91	-30.6326
141	0xbeb6b014	-0.35681212
142	0x3db899f0	0.09013736
143	0xbd33c20d	-0.043886233
144	0xbe9b8ea0	-0.30382252
145	0xc12ebaf5	-10.920644
146	0xbd84c6b9	-0.06483216
147	0xbf930dcd	-1.1488587
148	0x3ecd78b3	0.4013115
149	0xbcc23721	-0.023707928
150	0x3e6df086	0.23236284
151	0xbef2d652	-0.47429138
152	0x3f6d46e0	0.9268627
153	0xbc049b25	-0.00809363
154	0xbd352afa	-0.04423044
155	0x3d85c6c4	0.06532052
156	0xbd8c8dd5	-0.0686299
157	0x3f488917	0.7833418
158	0xbdae934d	-0.08524189
159	0x3d378575	0.04480501
160	0xbc12826b	-0.008942227
161	0xbdf49637	-0.11942714
162	0xbd6c5d29	-0.057706032
163	0x3f591568	0.8479829
164	0xbd77293c	-0.06034206
165	0x3fb3afba	1.4038002
166	0xbd4f9aea	-0.050684847
167	0x402d24ee	2.705379
168	0xc0b9a15d	-5.8009477
169	0xbd32545c	-0.043537483
170	0xbee1075d	-0.4395093
171	0xbef5069d	-0.47856608
172	0x3d0c69a7	0.034280445
173	0xbe71ced3	-0.23614053
174	0x3a932365	0.0011225758
175	0x3cad8e05	0.021185884
176	0xbdac3fac	-0.08410582
177	0x3e54b5ae	0.2077243
178	0x3cbb2d40	0.022848725
179	0x3f02a9d5	0.51040393
180	0xbbd11da0	-0.0063817054
181	0x3f1f4328	0.6221185
182	0x3f8742c2	1.0567248
183	0xc0212b06	-2.518251
184	0x3e996cfa	0.29965955
185	0xbfd0407d	-1.626968
186	0xc1b84df2	-23.03806
187	0x3ea3bca8	0.3197987
188	0xbe5abe04	-0.21361548
189	0xbccab383	-0.024743801
190	0xbf6c8465	-0.9238952
191	0x3e45862b	0.19289462
192	0xbe0f3497	-0.13984905
193	0xbe162158	-0.14661157
194	0xbf951f8a	-1.165025
195	0xbd9fce2e	-0.078029975
196	0xbdd14c03	-0.10219576
197	0xbe0256a8	-0.12728369
198	0x3d8884ab	0.066659294
199	0xc084fb49	-4.1556745
200	0xbe44e78e	-0.19228956
201	0xbee72c66	-0.4515106
202	0xbdaa54c9	-0.08316953
203	0x3da16dff	0.07882308
204	0xbf7e9f7d	-0.9946211
205	0xbea4bff2	-0.32177693
206	0xbe5e03c9	-0.21681131
207	0xbe7d9c14	-0.2476657
208	0xbec613bd	-0.38686934
209	0xbe5c7c02	-0.2153168
210	0x3cceb592	0.025233064
211	0xbee9d668	-0.4567139
212	0xbe371b03	-0.17881398
213	0x3cb73bd4	0.022367395
214	0xc00ff527	-2.249338
215	0xbeabad03	-0.33530435
216	0x3ca6512d	0.02030238
217	0xc09d6f02	-4.9198008
218	0x3da9dd02	0.08294107
219	0xbedefefc	-0.43553913
220	0x3d3e1969	0.04641095
221	0xbe9af81b	-0.30267414
222	0xbd896ac6	-0.067098185
223	0xbf6eb461	-0.93243986
224	0xbcc7c1fb	-0.02438449
225	0xc129a93f	-10.60382
226	0xbdb07f45	-0.08618025
227	0xc00d86a5	-2.211343
228	0xbd509d56	-0.050931297
229	0xbdaf2867	-0.08552628
230	0x3db5b5d8	0.088725746
231	0xbe3e7e4c	-0.18602866
232	0xc0db4222	-6.851823
233	0xbee5d4b5	-0.44888845
234	0xc08b2ed1	-4.349465
235	0xbe93d70c	-0.28875005
236	0xbde75788	-0.11295992
237	0xbfc489fd	-1.5354611
238	0x3d9f60b1	0.07782114
239	0x3ca05655	0.019572416
240	0xbdd63686	-0.10459618
241	0xc0877c30	-4.2339096
242	0xbcf9e74b	-0.030505797
243	0xc047d199	-3.1221678
244	0x3d1e4dec	0.03864853
245	0xbe0040cc	-0.12524718
246	0xbe172570	-0.14760375
247	0xbe8f2b81	-0.27962878
248	0xc10244fe	-8.141844
249	0xbf959d1b	-1.168857
250	0xbdb20ff5	-0.0869445
251	0xbe9e9410	-0.30972338
252	0xbe4cff40	-0.20019245
253	0x3c2aa982	0.01041639
254	0xbeefc9c6	-0.46833628
255	0xbfac32ad	-1.3452965

fc3.bias f4 [4]
0	0x3c0a0bf0	0.008425698
1	0x3974f71d	0.0002336171
2	0x3ab78860	0.0014002435
3	0xc19d871c	-19.690971
