custom_grid/data/ppo-0.0/ppo_iter_200.pth (torch, 21521 bytes, 6 tensors)

fc1.weight f4 [64, 2]
0	0xbdf67ff8	-0.12036127
1	0xbed53e42	-0.4164906
2	0x3dc7cd7f	0.09755992
3	0x3ede5cb0	0.4343009
4	0x3e2f4e6f	0.17119764
5	0x3e9c5488	0.30533242
6	0xbebe6501	-0.37186435
7	0x3eb7f405	0.3592836
8	0x3f12edc5	0.5739406
9	0xbf09163a	-0.5354954
10	0x3ed6e102	0.41968542
11	0x3d78a91c	0.06070815
12	0xbbd3361a	-0.0064456584
13	0xbd220718	-0.039557546
14	0x3f193ae2	0.59855473
15	0xbeb0be44	-0.3452016
16	0x3ee71c45	0.45138755
17	0x3d85e8b2	0.06538524
18	0xbe84fa10	-0.25972033
19	0x3e530a18	0.20609319
20	0xbc1c356a	-0.009534219
21	0xbeb74aa0	-0.35799122
22	0x3c35581e	0.011068372
23	0x3d24627b	0.04013298
24	0xbe8ed107	-0.2789385
25	0xbf0626d5	-0.52403
26	0xbe60b64c	-0.2194454
27	0xbd90b78a	-0.07066257
28	0x3e540d15	0.20708115
29	0xc02a27f2	-2.658688
30	0x3f6abe8d	0.9169701
31	0xbfc8344f	-1.5640963
32	0x39a5f90c	0.00031656807
33	0xbde45244	-0.111485034
34	0xbd539a89	-0.051661048
35	0x3efad61c	0.48991477
36	0x3b2d1e27	0.0026415677
37	0xbe7a3d38	-0.24437416
38	0x3c7b0def	0.015323146
39	0xbf027237	-0.5095553
40	0x3ea1f2cc	0.31630552
41	0xbe3decac	-0.18547314
42	0x3d395539	0.04524729
43	0x3ef105d6	0.47074765
44	0x3f136cef	0.57588094
45	0xbeec9283	-0.4620553
46	0x3cd12f05	0.025535116
47	0xbd3166b6	-0.043310843
48	0x3f41496e	0.7550267
49	0xbf83c786	-1.0295265
50	0xbe81e935	-0.25373235
51	0x3e23d67f	0.15999793
52	0xb9affdb6	-0.0003356763
53	0xbcf809fe	-0.030278202
54	0x3dc0a127	0.09405737
55	0x3f04b58a	0.51839507
56	0x3e867570	0.26261473
57	0xbe21d8eb	-0.15805404
58	0x3d805f7e	0.06268214
59	0xbf49ea48	-0.7887311
60	0x3dd25433	0.10269966
61	0xbfdc1ffc	-1.7197261
62	0x3f129a58	0.5726676
63	0xbf03bf7c	-0.51464057
64	0x3ed48899	0.41510466
65	0xbd48c57a	-0.049016453
66	0x3e6d2192	0.23157337
67	0xbe8145d5	-0.2524859
68	0xbe75b9d5	-0.2399667
69	0xc029108c	-2.641635
70	0x3f0a6fa0	0.54076576
71	0x3e2d2b66	0.16911086
72	0x3f12c9e8	0.57339334
73	0xbf5af161	-0.85524565
74	0xbec7e0e4	-0.39038765
75	0xbf5bb713	-0.85826224
76	0xbe887f67	-0.266597
77	0x3dd76ea7	0.10519152
78	0x37349394	1.0763197e-05
79	0xbca930d8	-0.020653173
80	0xbee29172	-0.4425159
81	0xbf55c25e	-0.83499706
82	0x3f0f9d32	0.56099236
83	0xbf08dbf7	-0.5346064
84	0x3f19d39e	0.6008853
85	0x3ddbd251	0.10733474
86	0x3f3cd2d6	0.7375921
87	0xbf823faf	-1.0175685
88	0x3c05fe4c	0.008178305
89	0xbe82209d	-0.25415507
90	0x3f0a26eb	0.53965634
91	0xbee226e6	-0.44170302
92	0x3e5bc6ae	0.21462509
93	0x3eac4260	0.3364439
94	0xbebd7254	-0.37001288
95	0xbdb9a3fc	-0.09064481
96	0x3f190fa3	0.59789485
97	0xbcc26755	-0.023730913
98	0x3c85b1c5	0.016320119
99	0xbf7d0251	-0.9883166
100	0x3c054a12	0.0081353355
101	0xbf22e7e5	-0.6363509
102	0xbe8b9478	-0.2726171
103	0xbf90d5b2	-1.1315215
104	0x3dce2240	0.100651264
105	0xbfdc78e0	-1.7224388
106	0xbec8fd5c	-0.39255798
107	0xbea4d455	-0.32193246
108	0x3d563a5b	0.052301746
109	0xbf127289	-0.57206017
110	0x3b0395b5	0.0020078246
111	0xbd74a8a1	-0.05973113
112	0x3f42fcfc	0.76167274
113	0xc008aa29	-2.1353858
114	0x3e73d553	0.23811845
115	0xbf821252	-1.0161841
116	0x3f15f170	0.5857153
117	0xbfc505f6	-1.5392444
118	0xbf071e6e	-0.52780807
119	0xbf5090f2	-0.8147117
120	0x3b006c39	0.0019595756
121	0xbe86b73b	-0.2631167
122	0x3dc72919	0.09724636
123	0xbfe8fdbb	-1.8202432
124	0xbe282376	-0.16419777
125	0xbe812bd1	-0.25228742
126	0xbd3957d4	-0.045249775
127	0xbf389e67	-0.721167

fc1.bias f4 [64]
0	0x3c4ea729	0.012613096
1	0xc0358a04	-2.8365488
2	0x404c93a5	3.1965115
3	0xbfb7dfbe	-1.4365156
4	0xbfcb7b59	-1.5897018
5	0x3fc7229d	1.5557438
6	0xbd69b8b4	-0.057060912
7	0xc0629462	-3.5403066
8	0xbf747409	-0.95489556
9	0xc0254a24	-2.5826502
10	0x3edb5ac9	0.428427
11	0xbfcfdb63	-1.6238827
12	0x3fb71709	1.4303905
13	0xc06b9c95	-3.681432
14	0xbdc7e4cd	-0.09760437
15	0xbfa417d8	-1.2819777
16	0xbb11d678	-0.0022253077
17	0xc052b0a9	-3.2920325
18	0xbc4a4c68	-0.012347318
19	0x401cd0d8	2.4502468
20	0x4029cbf6	2.6530738
21	0xc08a2770	-4.317314
22	0x3f6f514b	0.9348342
23	0xbeda703d	-0.42663756
24	0xc0101179	-2.2510664
25	0xc051904e	-3.2744327
26	0xbbcd3060	-0.0062618703
27	0xc0748bfd	-3.8210442
28	0x400cc116	2.199285
29	0x3ed27d56	0.4111125
30	0xbe0be365	-0.13660963
31	0xc033f2b9	-2.8116896
32	0x40254e9e	2.5829234
33	0xbff3f7e1	-1.9060022
34	0xbe535f07	-0.20641719
35	0xc03003ba	-2.7502275
36	0x3f962221	1.1729165
37	0xbf35ca3a	-0.710117
38	0xbf34f06e	-0.70679367
39	0xbafc6557	-0.0019256276
40	0xbe65bac4	-0.22434527
41	0xc026e74a	-2.6078668
42	0xc0594571	-3.3948634
43	0xc00c67a1	-2.193825
44	0xbc213c45	-0.0098410295
45	0xc046bd0d	-3.1052887
46	0xc067aa9a	-3.6197877
47	0xc09928ff	-4.7862544
48	0xc0594d8a	-3.3953576
49	0xbd01cdae	-0.031690292
50	0xbc0dbcba	-0.008650953
51	0xbe9030ea	-0.28162318
52	0xbdf592ab	-0.11990865
53	0x3faac339	1.3340827
54	0x3fe965f3	1.8234237
55	0xbec88000	-0.39160156
56	0x3fa0f513	1.2574791
57	0xbd3f8e1d	-0.04676639
58	0x3f00540d	0.5012825
59	0xbfd24359	-1.6426803
60	0xbe3fbc91	-0.18724276
61	0xbde3b202	-0.11117937
62	0xc0085af9	-2.1305525
63	0xbec60ea7	-0.38683054

fc2.weight f4 [64, 64]
0	0x3e4ffdf3	0.20311718
1	0x3f6c3281	0.9226456
2	0x3e8eb440	0.27871895
3	0xbdd88a4e	-0.105732545
4	0x3f35ff3c	0.7109258
5	0x3f012f67	0.50462955
6	0xbf8cbd08	-1.0995188
7	0x3d286dec	0.041120455
8	0xc107e25f	-8.492766
9	0x3e3efcec	0.1865117
10	0xbe78602e	-0.2425544
11	0x3ecd3873	0.4008213
12	0xbd72ecba	-0.05930779
13	0xbfd78f21	-1.6840554
14	0x4084f81a	4.155286
15	0xbf5816a2	-0.84409535
16	0xc03da000	-2.9628906
17	0x3ecd6203	0.4011384
18	0x3e0c1936	0.13681492
19	0x3e407009	0.18792738
20	0x3e2e480a	0.17019668
21	0xc10fcf4d	-8.988111
22	0xbe8c7f96	-0.2744109
23	0xbe5d56e8	-0.21615183
24	0xbd94bcd8	-0.072625816
25	0xc0074c46	-2.1140304
26	0x3dcf09f6	0.10109322
27	0xc02400db	-2.5625522
28	0x3e1fc703	0.1560326
29	0x3d31bf08	0.043395072
30	0x3e536b14	0.20646316
31	0xbfb81afd	-1.4383236
32	0x3f3b2c6e	0.7311467
33	0x3f1c119e	0.6096438
34	0x3e94eb84	0.29085934
35	0xc06ef5eb	-3.7337596
36	0xbeba5a3d	-0.3639697
37	0xbd2adaae	-0.041712455
38	0xbe76663c	-0.24062437
39	0x3df709ca	0.12062414
40	0x3e304814	0.17214996
41	0xbfa18ab7	-1.2620457
42	0x3e00067c	0.12502474
43	0x3e97460e	0.29545635
44	0x3dc65d43	0.09685757
45	0xbe0fbcf9	-0.14036931
46	0xbe90607d	-0.28198615
47	0xbf9eccbb	-1.2406229
48	0x3e9b1c87	0.30295202
49	0x3d2a3b47	0.041560438
50	0x3d20104d	0.039078046
51	0xbe10e64d	-0.14150353
52	0x3fc1d1cb	1.5142149
53	0xbef05f14	-0.4694754
54	0xbe879fbf	-0.26489064
55	0xbfe1b7db	-1.7634233
56	0xbf34d15c	-0.7063196
57	0xbe91196a	-0.28339702
58	0xbfa72163	-1.3057064
59	0x3e9b3f71	0.3032184
60	0xbcb4ac68	-0.022054866
61	0x3e8b0699	0.2715347
62	0x3e3c8e52	0.18413666
63	0xbdfbfd7c	-0.12304208
64	0x3f07f8f2	0.53114235
65	0xc013becc	-2.3085203
66	0x3e75f86f	0.24020551
67	0x3e8c1a91	0.2736402
68	0xc0737207	-3.8038347
69	0xbf289bdd	-0.6586283
70	0xbf73560c	-0.9505317
71	0xbd8cc4e9	-0.06873495
72	0xbeb8bb81	-0.36080554
73	0xbeb5a991	-0.3548093
74	0xbef26acd	-0.47347108
75	0x3f61bf78	0.88182783
76	0xbf31f2ec	-0.69511294
77	0xbd5f29c4	-0.05448319
78	0xc1078a3d	-8.47125
79	0xc0e1e61e	-7.0593405
80	0xbfb4fbf5	-1.4139391
81	0x3fc9953b	1.5748667
82	0x3dabc8f9	0.08387942
83	0x3f1e3b95	0.61809665
84	0xbe767d31	-0.24071194
85	0xc02c1641	-2.6888583
86	0x3e47f760	0.1952796
87	0xc0040668	-2.062891
88	0xc06ac747	-3.668413
89	0xc0011820	-2.0170975
90	0x3b3a9f24	0.0028476203
91	0xc043c736	-3.0590339
92	0xbda7a31d	-0.08185408
93	0x3ddf0880	0.10890293
94	0xc08a4ffa	-4.322263
95	0x3dd20cc8	0.10256344
96	0x3d2c6c95	0.04209574
97	0xbf65bb59	-0.89738995
98	0x3e69dc2d	0.22837897
99	0xbdbdd345	-0.09268812
100	0xbe9709bc	-0.29499614
101	0xbe485b7a	-0.19566146
102	0x3d8ea3ee	0.06964861
103	0xbcc6b64c	-0.024256848
104	0x3eb872c7	0.36025068
105	0xbb75e4a6	-0.0037520318
106	0xbd19f227	-0.03758445
107	0xc0c68c80	-6.204651
108	0xbc7086df	-0.014680593
109	0xbcd93400	-0.026514053
110	0xbe4758b7	-0.19467436
111	0x3e063302	0.13105395
112	0xbeb1d36c	-0.34731615
113	0x3ef96919	0.48712996
114	0xbe21c31a	-0.15797082
115	0x3f2530c6	0.6452755
116	0xc05fa0bb	-3.4941852
117	0xbfee105f	-1.8598746
118	0xbef32d00	-0.4749527
119	0xbeed481b	-0.46344075
120	0x3db355fc	0.087566346
121	0xbf0b5343	-0.5442392
122	0x3f137cd0	0.57612324
123	0x3e922941	0.285471
124	0x3daba0f4	0.08380309
125	0xbe716dde	-0.23577067
126	0xbfa12bbb	-1.259147
127	0x3bfca9f0	0.007710688
128	0xbdb5ba1c	-0.08873388
129	0xbd9fe3b6	-0.07807104
130	0xbba8d77f	-0.0051526423
131	0xbba6b31e	-0.0050872704
132	0xbda1fe76	-0.07909863
133	0x3ecbe621	0.39824012
134	0xc011bca5	-2.277139
135	0xbdfca404	-0.12335971
136	0xc0864511	-4.195931
137	0xbdac551f	-0.08414673
138	0x3d90ec9d	0.070763804
139	0xbc87948c	-0.016550325
140	0xbdfb0a2c	-0.122577995
141	0xbeb707bb	-0.35748085
142	0x3cfa7c42	0.030576829
143	0xbdbe6c62	-0.09298016
144	0xc03609e0	-2.8443527
145	0x3ce4b57d	0.027918572
146	0x3e1e3b26	0.15452251
147	0xbe8bd957	-0.27314255
148	0xbfa84c03	-1.3148197
149	0xbc103ee4	-0.008804057
150	0xbdb32715	-0.08747689
151	0x3e437082	0.19085887
152	0xbdcef07c	-0.101044625
153	0xbc68ccf2	-0.014209019
154	0x3d3a0c22	0.045421727
155	0x3cabdd4d	0.020979548
156	0xbfbcec8b	-1.4759687
157	0x3bac909b	0.0052662618
158	0x3b1c36a2	0.0023836275
159	0x3d8c43d0	0.06848872
160	0xbfe12326	-1.7588851
161	0x3d388f98	0.045058817
162	0xbe395d3c	-0.18101972
163	0x3ea80da3	0.32822904
164	0x3d513864	0.05107917
165	0xbbc3c7fa	-0.005974767
166	0xbe0d1249	-0.13776506
167	0x3e462412	0.19349697
168	0xbf0f6e7f	-0.5602798
169	0xbd91c090	-0.071168065
170	0xbde6cc50	-0.11269438
171	0x3bb6f620	0.0055835396
172	0xbd147a60	-0.03624952
173	0x3ce2acf0	0.027670354
174	0x3b20de90	0.002454672
175	0x3e7ea555	0.24867757
176	0xbdef133c	-0.116735905
177	0xbe21046b	-0.15724342
178	0xbd4ac2fd	-0.04950236
179	0x3da3e554	0.08002725
180	0xbdd521d1	-0.104068406
181	0x3d2d7f5d	0.04235779
182	0xbdf0cbcd	-0.11757622
183	0xc0123d5b	-2.2849948
184	0xbbd0d365	-0.0063728564
185	0x3da54d2a	0.080713585
186	0x3d95a4fa	0.073068574
187	0xbfa73dc9	-1.306573
188	0x3dab2a5e	0.0835769
189	0xbdfa3e9e	-0.122189745
190	0x3ddc9b41	0.107718
191	0x3d8cd509	0.06876571
192	0xbafe3fc8	-0.001939767
193	0x3debe0f3	0.11517515
194	0xbe128c0d	-0.14311238
195	0xbdac2fdf	-0.08407568
196	0x3d955010	0.07290661
197	0xbd0027c4	-0.031287923
198	0xbcc26453	-0.023729479
199	0xbd5b2a15	-0.05350693
200	0x3db3b717	0.08775156
201	0x3cf226c2	0.029559497
202	0x3b163f73	0.0022926002
203	0xbd8d671b	-0.069044314
204	0xbe0e92fc	-0.13923258
205	0xbc956ada	-0.018239427
206	0x3cfe31cd	0.031029606
207	0xbd6c6580	-0.057713985
208	0xbd077f81	-0.03308058
209	0x3da5f0fc	0.08102605
210	0x3bd1c6d2	0.006401875
211	0xbd02542d	-0.031818558
212	0xbd0646db	-0.032782417
213	0xbde4bc5f	-0.111687414
214	0xbdfd00e5	-0.12353686
215	0xbd6dbe6f	-0.05804294
216	0xbd82215a	-0.063540176
217	0x3beb84b2	0.0071874494
218	0xbd2a3991	-0.041558806
219	0xbd42ac5a	-0.04752765
220	0x3deb06b1	0.11475886
221	0x3d19bec1	0.037535433
222	0x3daa347c	0.08310792
223	0xbd77dda0	-0.060514092
224	0xbd55989b	-0.05214749
225	0x3d239602	0.03993798
226	0xbdf7e8a8	-0.121049225
227	0xbda40463	-0.08008649
228	0xbc454de8	-0.0120425
229	0xbd9eadea	-0.07748015
230	0xbe06d80b	-0.13168351
231	0x3d8f9c89	0.070122786
232	0x3d8086c6	0.06275706
233	0x3ca61de0	0.020277917
234	0xbcb5e978	-0.022206053
235	0xbded203a	-0.11578412
236	0xbdaaafc7	-0.08334308
237	0x3d02590c	0.031823203
238	0x3d780d2c	0.060559437
239	0xbd42cf1f	-0.047560807
240	0xbd4ee4f2	-0.050511308
241	0x3d029b60	0.03188646
242	0xbdd60482	-0.104500785
243	0x3d418206	0.04724314
244	0xbd5f3a54	-0.054498985
245	0xbd12dc0c	-0.035854384
246	0xbd7fcbc9	-0.062450204
247	0x3c8b6c24	0.017019339
248	0xbd33528b	-0.04377989
249	0x3d599b8c	0.053126857
250	0xbc17a0b7	-0.009254626
251	0x3d86c9ff	0.065814964
252	0x3df62396	0.12018506
253	0xbd89042f	-0.06690251
254	0xbdfbcc90	-0.122948766
255	0x3dcd63aa	0.10028775

fc2.bias f4 [64]
0	0x3f184a00	0.59487915
1	0x3efaa7d3	0.48956165
2	0xbe77a32f	-0.24183343
3	0x3d3df28c	0.04637389
4	0x3e353968	0.1769768
5	0xbe10b665	-0.14132078
6	0xbcfe090e	-0.031010177
7	0x3d9f0aa5	0.07765702
8	0x39fd428e	0.00048305508
9	0xc008d5b6	-2.1380439
10	0xc06fb839	-3.745619
11	0xbdde0466	-0.10840683
12	0xbd13dfa8	-0.036101967
13	0x3f1b81dd	0.6074503
14	0x3e6f8592	0.23390797
15	0xbe8b1b50	-0.27169275
16	0x3f52f5da	0.8240639
17	0xbe3c9241	-0.18415166
18	0xbd89147b	-0.066933595
19	0x3eeb6d1b	0.45981678
20	0xbf82d551	-1.0221349
21	0xbe198f33	-0.14996032
22	0xbfd1207c	-1.6338038
23	0xbe8ad6c9	-0.27116993
24	0xbdd8f2d0	-0.10593188
25	0xbe953dca	-0.29148704
26	0xbe245ac1	-0.16050245
27	0x3e13841f	0.14405869
28	0xbdb61101	-0.08889962
29	0x3eb50161	0.35352615
30	0xbd3599fd	-0.044336308
31	0xbdedc979	-0.116106935
32	0x3cabdd14	0.020979442
33	0xbf31ff71	-0.695304
34	0x3cc0cdce	0.023535635
35	0xbf8ea3be	-1.114372
36	0xbe3f297e	-0.18668172
37	0x3f7bc7f1	0.9835196
38	0xbd6df5c6	-0.058095716
39	0xbf4be518	-0.79646444
40	0xbff7b773	-1.9352859
41	0xbd9bed2d	-0.07613597
42	0xbf48ac27	-0.78387684
43	0xbebe4c24	-0.37167466
44	0xbd4745dd	-0.04865061
45	0xbeed63a7	-0.4636509
46	0xbdd64a00	-0.10463333
47	0xbe295ad1	-0.1653855
48	0xbe269ea8	-0.1627146
49	0x3ecfdeb5	0.405996
50	0xbdfdd70a	-0.12394531
51	0x3ee0e7d6	0.43926877
52	0x3c94ef55	0.018180529
53	0x3e9595a7	0.29215738
54	0x3f7f2e78	0.9968028
55	0xbe6a80b2	-0.22900656
56	0x3eb6ac89	0.3567851
57	0x3f7ee6d3	0.9957096
58	0xbe619187	-0.2202817
59	0x3d17cf4e	0.037062936
60	0x3f1220ec	0.57081485
61	0xbd69e706	-0.057105087
62	0x3f373ff9	0.7158199
63	0xbf9274df	-1.1441916

fc3.weight f4 [4, 64]
0	0xbf105a20	-0.5638752
1	0x3eda5383	0.4264184
2	0x3ca86bc2	0.020559195
3	0xbd77442a	-0.06036774
4	0xbeeb4138	-0.45948195
5	0x3e9cd057	0.306277
6	0xbe1c18a4	-0.15243775
7	0x3db60a69	0.08888704
8	0x3e9b0685	0.30278412
9	0x403d0e36	2.9539924
10	0xc10c7993	-8.779681
11	0xbd03c693	-0.032171797
12	0x3d6dc178	0.058045834
13	0xbb8ed487	-0.0043588313
14	0xbef5eeb0	-0.48033667
15	0x3d998787	0.07496553
16	0x3eb1a997	0.346997
17	0x3deb642b	0.11493715
18	0xbdb46be8	-0.08809644
19	0x3f2d1a05	0.6761783
20	0xbf7764cf	-0.96638197
21	0x3c481b08	0.012213476
22	0xc1127a10	-9.1548
23	0x3d4465d0	0.04794866
24	0x3edebd5d	0.43503848
25	0x3dc3dbe1	0.09563423
26	0xbd80e8a1	-0.062943704
27	0xc17631a0	-15.3871155
28	0x3d4ca2ff	0.049960133
29	0xbfb85b4c	-1.4402862
30	0x3f01f6e8	0.50767374
31	0x3a9ca348	0.0011950517
32	0x3d33d888	0.043907672
33	0xbdadf7ae	-0.08494507
34	0xbd9b9ef8	-0.0759868
35	0x3f2a216d	0.66457254
36	0xbddfd42c	-0.109291404
37	0xbedcb429	-0.431062
38	0xbc71bd65	-0.014754628
39	0xbf41ac25	-0.75653297
40	0x3e7d66f8	0.2474631
41	0xbc40c343	-0.011765304
42	0xbd09f39d	-0.033679593
43	0xbc2732ca	-0.01020498
44	0xbc2a072f	-0.010377689
45	0x3d9743c9	0.07385976
46	0xbc1a1a3b	-0.009405668
47	0x3d4e5b50	0.05038005
48	0xbde0d5da	-0.10978289
49	0xbe59f4e1	-0.2128482
50	0xbd9eda06	-0.077564284
51	0xbe8c9aac	-0.27461755
52	0xbd4de5c2	-0.050267942
53	0x3f145198	0.57937
54	0xbdbae411	-0.091255315
55	0x3f9327be	1.1496503
56	0xbf460daf	-0.7736463
57	0x3f0376df	0.5135326
58	0x3b834bd2	0.004006841
59	0xc194b57b	-18.588614
60	0x3f56a4d1	0.8384524
61	0x3d8a2569	0.06745417
62	0x3e36513b	0.17804424
63	0xc19a87a3	-19.316229
64	0x3ef1d26d	0.47230855
65	0xbf461cfc	-0.77387977
66	0xbc27cc89	-0.010241636
67	0xbd25e40b	-0.04050068
68	0xbe535d07	-0.20640956
69	0xbebe4b48	-0.3716681
70	0xbd6104de	-0.054936282
71	0x3dae5902	0.08513071
72	0xc2086d86	-34.106956
73	0xc00fb9d4	-2.245717
74	0x3ec8eea8	0.3924458
75	0xbd8992db	-0.067174636
76	0x3e587e07	0.21141826
77	0x3e713bfb	0.23558037
78	0x3ed43c79	0.41452387
79	0x3cc0faae	0.023557033
80	0xbe44d284	-0.1922093
81	0x3e0b0e41	0.13579656
82	0xbd83ba00	-0.06431961
83	0x3e9b0ef9	0.3028486
84	0xbc28cc64	-0.010302637
85	0xbd3fdf05	-0.046843547
86	0x3e923280	0.28554153
87	0x3d8e0cd1	0.06936038
88	0xbfd7b24d	-1.6851288
89	0x3b9e9eed	0.004840723
90	0xbc16d7c2	-0.009206714
91	0x3e061449	0.13093676
92	0xbc4d9d67	-0.012549735
93	0x3f3a950b	0.7288367
94	0xbe9ddd50	-0.3083291
95	0x3dc998d6	0.09843604
96	0xbd955524	-0.0729163
97	0xbdb9856a	-0.0905865
98	0xbd7f2983	-0.062295448
99	0xc08422b8	-4.129238
100	0xbd88f309	-0.0668698
101	0xbeab19ed	-0.33418217
102	0xbdb8ec5e	-0.090294585
103	0xbfe99200	-1.8247681
104	0x3e8223f4	0.25418055
105	0x3c2f5161	0.010700555
106	0x3df3857b	0.11890694
107	0x3df6889f	0.12037777
108	0x3d31e2d6	0.04342922
109	0x3dba603e	0.09100388
110	0xbd0702e7	-0.032961752
111	0x3d5d639a	0.054050066
112	0xbcdc3afc	-0.026883595
113	0xbde3d8bc	-0.11125323
114	0xbd2db474	-0.04240842
115	0xbdd9e66e	-0.10639654
116	0x3da9b656	0.08286731
117	0xbf7475d9	-0.9549232
118	0xbe1b9c40	-0.15196323
119	0x3dba6495	0.09101216
120	0x3e9942d9	0.29933813
121	0x3efee926	0.49787253
122	0x3e3f61ae	0.18689606
123	0x3ec5e184	0.38648617
124	0xbeb49e3c	-0.35276973
125	0x3ca289d3	0.01984111
126	0x3e89fa9d	0.26949015
127	0x3e2d49b1	0.16922642
128	0x3ea1bd6b	0.31589827
129	0x3f31b9ac	0.6942394
130	0x3ce9d767	0.028545095
131	0x3db656a4	0.08903244
132	0x3f7f8e1b	0.9982621
133	0x3ce6c8bd	0.028171891
134	0x3c5783ab	0.013153951
135	0xbe87f1c7	-0.2655165
136	0x3e926b3d	0.2859744
137	0x407cc220	3.9493484
138	0x3ec6d3f9	0.38833597
139	0x3d1de377	0.038547006
140	0xc1f59a45	-30.700327
141	0xbeb8b5a2	-0.36076075
142	0x3dc635e9	0.09678251
143	0xbd33c20d	-0.043886233
144	0xbea83a30	-0.32856894
145	0xc12ebaf5	-10.920644
146	0xbd84c6b9	-0.06483216
147	0xbf994feb	-1.1977514
148	0x3ed48bdf	0.41512963
149	0xbcc23721	-0.023707928
150	0x3e6df086	0.23236284
151	0xbef2d652	-0.47429138
152	0x3f4f5413	0.8098766
153	0xbc049b25	-0.00809363
154	0xbd352afa	-0.04423044
155	0x3dabb581	0.083842285
156	0xbd8c8dd5	-0.0686299
157	0x3f481721	0.7816029
158	0xbd89f29f	-0.067357294
159	0x3d378575	0.04480501
160	0xbc12826b	-0.008942227
161	0xbdf49637	-0.11942714
162	0xbd6c5d29	-0.057706032
163	0x3f5676ae	0.8377484
164	0xbd77293c	-0.06034206
165	0x3faffd92	1.3749259
166	0xbd4f9aea	-0.050684847
167	0x402d24ee	2.705379
168	0xc0bd8267	-5.9221683
169	0xbd32545c	-0.043537483
170	0xbef701aa	-0.48243457
171	0xbef5069d	-0.47856608
172	0x3d0c69a7	0.034280445
173	0xbe71ced3	-0.23614053
174	0x3a932365	0.0011225758
175	0x3cad8e05	0.021185884
176	0xbdac3fac	-0.08410582
177	0x3e765124	0.2405439
178	0x3cbb2d40	0.022848725
179	0x3f09b210	0.53787327
180	0xbbd11da0	-0.0063817054
181	0x3f225657	0.63412994
182	0x3f83befe	1.0292661
183	0xc024ae8a	-2.573153
184	0x3e98a12a	0.29810458
185	0xbfd4f034	-1.6635804
186	0xc1b84ff7	-23.039045
187	0x3e9955f7	0.29948398
188	0xbe6d8cbc	-0.23198217
189	0xbccab383	-0.024743801
190	0xbf71cc25	-0.94452125
191	0x3e4f4d9d	0.20244451
192	0xbe0ffcef	-0.1406133
193	0xbe162158	-0.14661157
194	0xbf951f8a	-1.165025
195	0xbd9fce2e	-0.078029975
196	0xbdd14c07	-0.10219579
197	0xbe0b8bdc	-0.13627571
198	0x3d8884ab	0.066659294
199	0xc084fb49	-4.1556745
200	0xbe44e78e	-0.19228956
201	0xbee72c66	-0.4515106
202	0xbdaa54c9	-0.08316953
203	0x3da16dff	0.07882308
204	0xbf7e9f7d	-0.9946211
205	0xbea7034b	-0.326197
206	0xbe615a52	-0.2200711
207	0xbe7d9c14	-0.2476657
208	0xbec773bf	-0.38955495
209	0xbe5c7c02	-0.2153168
210	0x3cceb592	0.025233064
211	0xbee9d668	-0.4567139
212	0xbe372363	-0.17884593
213	0x3cb73bd4	0.022367395
214	0xc00ff527	-2.249338
215	0xbeabad03	-0.33530435
216	0x3ca6512d	0.02030238
217	0xc09d6f02	-4.9198008
218	0x3da9dd02	0.08294107
219	0xbedefefc	-0.43553913
220	0x3d3e1969	0.04641095
221	0xbe9af81b	-0.30267414
222	0xbd896ac6	-0.067098185
223	0xbf6eb461	-0.93243986
224	0xbcc7c1fb	-0.02438449
225	0xc129a93f	-10.60382
226	0xbdb07f45	-0.08618025
227	0xc00d86a5	-2.211343
228	0xbd509d56	-0.050931297
229	0xbdaf2867	-0.08552628
230	0x3db5b5d8	0.088725746
231	0xbe3e7e4c	-0.18602866
232	0xc0db4222	-6.851823
233	0xbee5d4b5	-0.44888845
234	0xc08b2ed1	-4.349465
235	0xbe93d70c	-0.28875005
236	0xbde75788	-0.11295992
237	0xbfc489fd	-1.5354611
238	0x3d9f60b1	0.07782114
239	0x3ca05655	0.019572416
240	0xbdd63686	-0.10459618
241	0xc0877c30	-4.2339096
242	0xbcf9e74b	-0.030505797
243	0xc047d199	-3.1221678
244	0x3d1e4dec	0.03864853
245	0xbe0040cc	-0.12524718
246	0xbe177c64	-0.14793545
247	0xbe8f2b81	-0.27962878
248	0xc10244fe	-8.141844
249	0xbf95b95a	-1.169719
250	0xbdb22ca4	-0.08699921
251	0xbe9e9410	-0.30972338
252	0xbe4d1023	-0.20025687
253	0x3c2aa982	0.01041639
254	0xbef023c4	-0.46902287
255	0xbfac3719	-1.3454314

fc3.bias f4 [4]
0	0xbbe9afed	-0.0071315677
1	0x3cac5a78	0.021039233
2	0xbc3d2639	-0.0115447575
3	0xc19fedc6	-19.9911
