custom_grid/data/ppo-0.0/ppo_iter_1250.pth (torch, 21533 bytes, 6 tensors)

fc1.weight f4 [64, 2]
000000 f0 45 df bd 62 98 db be 18 b4 c2 3d 6d aa df 3e
       -0.109020114 -0.42889696 0.095070064 0.43684712
000010 c9 0e 32 3e e8 83 9f 3e 01 d5 b5 be 12 3a c9 3e
       0.17388453 0.31155324 -0.35514072 0.39302117
000020 2a 17 15 3f 74 4e 07 bf ae 05 dd 3e a0 a9 6d 3d
       0.5823847 -0.52854085 0.43168396 0.058023095
000030 ab bd 8f bb ff 8f 2a bd ef ac 17 3f 48 e2 b4 be
       -0.004386624 -0.04164123 0.5924825 -0.3532889
000040 bc a8 eb 3e be 33 8d 3d 98 c1 86 be ec 84 52 3e
       0.46027172 0.06894635 -0.26319575 0.20558518
000050 8d 28 3e bc 14 24 b9 be 1e 58 35 3c 7b 62 24 3d
       -0.011606348 -0.36160338 0.011068372 0.04013298
000060 e3 fe 90 be 8f 07 04 bf d3 7d 62 be 8a b7 90 bd
       -0.28319463 -0.51574033 -0.2211831 -0.07066257
000070 e0 09 46 3e 51 2e 2c c0 f6 dd 69 3f ef 0a c9 bf
       0.19339705 -2.690327 0.9135431 -1.5706462
000080 0c f9 a5 39 44 52 e4 bd 2a 4c 7d bd d4 fb fb 3e
       0.00031656807 -0.111485034 -0.061840214 0.49215567
000090 27 1e 2d 3b 38 3d 7a be aa 22 c0 3c f3 71 07 bf
       0.0026415677 -0.24437416 0.02345403 -0.5290825
0000a0 e0 e4 a7 3e 2a a9 3a be 37 70 2e 3d 3f 66 eb 3e
       0.32791805 -0.18228593 0.042587485 0.45976445
0000b0 3e c4 12 3f 11 89 ee be 05 2f d1 3c b6 66 31 bd
       0.5733069 -0.46588948 0.025535116 -0.043310843
0000c0 0a 3f 41 3f 9a 75 83 bf ac 62 81 be 59 8a 1c 3e
       0.75486815 -1.0270264 -0.25270593 0.1528715
0000d0 b6 fd af b9 fe 09 f8 bc b5 04 bb 3d 75 fe 04 3f
       -0.0003356763 -0.030278202 0.09131757 0.5195077
0000e0 c4 5e 8c 3e 19 8d 1e be f9 cb 69 3d 32 e2 4b bf
       0.2741605 -0.15483512 0.05707929 -0.7964202
0000f0 33 54 d2 3d fc 1f dc bf ef 80 11 3f 17 fe 04 bf
       0.10269966 -1.7197261 0.5683736 -0.5195021
000100 3f 7e da 3e 86 cc 41 bd df 5d 5c 3e bd 35 88 be
       0.42674443 -0.04731419 0.21520184 -0.266035
000110 db dd 76 be 1e f2 29 c0 32 ec 06 3f 04 c1 23 3e
       -0.24108069 -2.6554027 0.52704155 0.15991598
000120 31 32 12 3f 72 7a 5b bf 9d 19 cd be 4a 4e 59 bf
       0.57107836 -0.8573371 -0.40058604 -0.84885085
000130 4c dd 87 be 4e fa db 3d 94 93 34 37 d8 30 a9 bc
       -0.26536024 0.10741101 1.0763197e-05 -0.020653173
000140 bf bf dc be 9e 9d 58 bf 87 87 0e 3f f0 ff 09 bf
       -0.4311504 -0.84615505 0.5567555 -0.53906155
000150 d9 ef 16 3f 57 43 c0 3d 5e f6 3c 3f ef d2 81 bf
       0.5895973 0.09387844 0.73813426 -1.0142497
000160 4c fe 05 3c 9d 20 82 be 83 72 08 3f d0 af e5 be
       0.008178305 -0.25415507 0.5329973 -0.44860697
000170 4b ce 59 3e e6 ab ac 3e 72 ea c1 be 76 34 ab bd
       0.21270101 0.33724898 -0.3787418 -0.083596155
000180 41 08 1a 3f cc 13 82 bc c5 b1 85 3c 51 02 7d bf
       0.60168844 -0.01587858 0.016320119 -0.9883166
000190 12 4a 05 3c e5 e7 22 bf 34 51 8e be 61 f0 8f bf
       0.0081353355 -0.6363509 -0.27796328 -1.1245233
0001a0 40 22 ce 3d e0 78 dc bf 2e 60 c7 be 02 f0 a6 be
       0.100651264 -1.7224388 -0.38940567 -0.32604986
0001b0 85 4d 0b 3d 91 c0 11 bf b5 95 03 3b a1 a8 74 bd
       0.034009475 -0.5693446 0.0020078246 -0.05973113
0001c0 fd df 41 3f f7 f0 08 c0 6a 53 7c 3e 25 6f 80 bf
       0.75732404 -2.1397073 0.24641195 -1.0033919
0001d0 20 87 14 3f d4 ca c5 bf de b8 05 bf e0 2d 52 bf
       0.58018684 -1.5452523 -0.5223521 -0.8210125
0001e0 39 6c 00 3b 3b b7 86 be 19 29 c7 3d bb fd e8 bf
       0.0019595756 -0.2631167 0.09724636 -1.8202432
0001f0 1e dc 57 be 6e 93 4d be d6 84 02 bd 67 9e 38 bf
       -0.21080062 -0.20075771 -0.031864963 -0.721167

fc1.bias f4 [64]
000000 2b 90 73 3b 7c 80 35 c0 84 89 4c 40 54 16 b4 bf
       0.0037164788 -2.835967 3.1958933 -1.4069314
000010 39 3f ca bf 6e f5 c7 3f 40 8d 6e bd 91 d7 62 c0
       -1.5800544 1.5621774 -0.058240175 -3.5444071
000020 7d 96 72 bf 4e 04 25 c0 bd 02 d8 3e 63 db cf bf
       -0.94760877 -2.5783877 0.4218959 -1.6238827
000030 d6 34 b8 3f ef 84 6b c0 7c 01 e8 bd f0 05 a4 bf
       1.4391124 -3.6799886 -0.11328408 -1.2814312
000040 78 d6 11 bb 42 76 52 c0 68 4c 4a bc 35 91 1b 40
       -0.0022253077 -3.288468 -0.012347318 2.4307377
000050 82 36 2a 40 81 8f 8a c0 1a 2d 6e 3f 3d 70 da be
       2.659577 -4.3300176 0.9303757 -0.42663756
000060 85 69 10 c0 4a ae 51 c0 60 30 cd bb 56 94 74 c0
       -2.2564404 -3.2762628 -0.0062618703 -3.8215537
000070 ca 3a 0d 40 3b fb cb 3e 65 e3 0b be 3a 1c 34 c0
       2.2067132 0.3984011 -0.13660963 -2.8142228
000080 42 c9 25 40 f5 16 f6 bf fe 31 4c be fe d6 30 c0
       2.5904088 -1.9225756 -0.19940946 -2.763122
000090 a8 79 95 3f de fb 33 bf 30 a2 35 bf 57 65 fc ba
       1.1677752 -0.70306194 -0.70950603 -0.0019256276
0000a0 a6 77 70 be 1f 12 27 c0 ab eb 59 c0 ca b5 0c c0
       -0.23483142 -2.610481 -3.405009 -2.1985955
0000b0 45 3c 21 bc 47 1d 47 c0 aa ba 67 c0 17 e2 98 c0
       -0.0098410295 -3.111162 -3.620768 -4.777599
0000c0 a9 27 59 c0 ae cd 01 bd ba bc 0d bc c9 7a 90 be
       -3.3930457 -0.031690292 -0.008650953 -0.28218678
0000d0 ab 92 f5 bd c8 0b ab 3f 16 11 ea 3f 00 80 c8 be
       -0.11990865 1.336297 1.8286464 -0.39160156
0000e0 04 a9 a0 3f 4f e5 38 bd 8e 8a ff 3e 84 13 d3 bf
       1.255158 -0.04514056 0.49910396 -1.6490331
0000f0 91 bc 3f be 02 b2 e3 bd 61 66 05 c0 32 e7 cb be
       -0.18724276 -0.11117937 -2.0843737 -0.39824826

fc2.weight f4 [64, 64]
000000 25 12 5a 3e 78 12 71 3f 43 60 9e 3e 74 b9 ae bd
       0.21295984 0.94168806 0.30932817 -0.08531466
000010 3c ff 35 3f 9f 7c 08 3f 3e a9 8c bf ec 6d 28 3d
       0.7109258 0.53315157 -1.0989149 0.041120455
000020 84 aa 07 c1 c5 57 41 3e e6 95 6c be 73 38 cd 3e
       -8.47913 0.18881138 -0.23104057 0.4008213
000030 b7 0b 3a bd 21 8f d7 bf ad 5f 84 40 a2 16 58 bf
       -0.04542133 -1.6840554 4.136679 -0.84409535
000040 00 a0 3d c0 35 cb d9 3e 36 19 0c 3e 96 3e 4f 3e
       -2.9628906 0.42537847 0.13681492 0.20238718
000050 33 0d 44 3e 6e de 0f c1 7e d3 8a be e8 56 5d be
       0.1914566 -8.991804 -0.2711448 -0.21615183
000060 d8 bc 94 bd b1 55 07 c0 f6 09 cf 3d 81 41 23 c0
       -0.072625816 -2.1146052 0.10109322 -2.550873
000070 51 45 35 3e af 95 53 3d 14 6b 53 3e fd 1a b8 bf
       0.17702223 0.05165642 0.20646316 -1.4383236
000080 de c8 41 3f 9e 11 1c 3f 0d 74 99 3e eb f5 6e c0
       0.75697124 0.6096438 0.29971352 -3.7337596
000090 42 67 b9 be 3b a9 13 bd 1c 1a 6d be ca 09 f7 3d
       -0.36211592 -0.036050063 -0.23154491 0.12062414
0000a0 06 ed 37 3e b7 8a a1 bf 7c 06 00 3e 0e 46 97 3e
       0.17961511 -1.2620457 0.12502474 0.29545635
0000b0 43 5d c6 3d f9 bc 0f be 7d 60 90 be bb cc 9e bf
       0.09685757 -0.14036931 -0.28198615 -1.2406229
0000c0 87 1c 9b 3e 47 3b 2a 3d 4d 10 20 3d 0a 0b 08 be
       0.30295202 0.041560438 0.039078046 -0.13285461
0000d0 cb d1 c1 3f 5c 24 e9 be 9f 6f 81 be db b7 e1 bf
       1.5142149 -0.45535553 -0.25280473 -1.7634233
0000e0 b9 e4 34 bf 13 e2 9a be e4 cc a7 bf f7 85 9d 3e
       -0.70661503 -0.30250606 -1.3109403 0.3076627
0000f0 68 ac b4 bc 99 06 8b 3e 30 5a 3f 3e 05 f7 fb bd
       -0.022054866 0.2715347 0.18686748 -0.123029746
000100 f2 f8 07 3f 48 fb 16 c0 f6 48 48 3e 22 13 6e 3e
       0.53114235 -2.359087 0.19559082 0.23249486
000110 07 72 73 c0 9d a2 38 bf 0c 56 73 bf e9 c4 8c bd
       -3.8038347 -0.7212313 -0.9505317 -0.06873495
000120 81 bb b8 be 40 cc c1 be cd 6a f2 be 78 bf 61 3f
       -0.36080554 -0.37851143 -0.47347108 0.88182783
000130 ec f2 31 bf c4 29 5f bd 3d 8a 07 c1 1e e6 e1 c0
       -0.69511294 -0.05448319 -8.47125 -7.0593405
000140 f5 fb b4 bf 9d 1f c4 3f f9 c8 ab 3d 90 6b 1e 3f
       -1.4139391 1.5322148 0.08387942 0.6188288
000150 52 93 b8 be 41 16 2c c0 e3 bb 48 3e 68 06 04 c0
       -0.36049896 -2.6888583 0.19602923 -2.062891
000160 47 c7 6a c0 20 18 01 c0 24 9f 3a 3b da cf 46 c0
       -3.668413 -2.0170975 0.0028476203 -3.1064363
000170 24 5f 4e be 80 08 df 3d fa 4f 8a c0 c8 0c d2 3d
       -0.20153481 0.10890293 -4.322263 0.10256344
000180 d2 fb 68 bc 59 bb 65 bf 2d dc 69 3e 45 d3 bd bd
       -0.014220195 -0.89738995 0.22837897 -0.09268812
000190 bc 09 97 be 7a 5b 48 be de e0 00 3d 4c b6 c6 bc
       -0.29499614 -0.19566146 0.03146445 -0.024256848
0001a0 c7 72 b8 3e a6 e4 75 bb 27 f2 19 bd 80 8c c6 c0
       0.36025068 -0.0037520318 -0.03758445 -6.204651
0001b0 df 86 70 bc 00 34 d9 bc b7 58 47 be 02 33 06 3e
       -0.014680593 -0.026514053 -0.19467436 0.13105395
0001c0 6c d3 b1 be 19 69 f9 3e 1a c3 21 be c6 30 25 3f
       -0.34731615 0.48712996 -0.15797082 0.6452755
0001d0 bb a0 5f c0 36 0c f0 bf 17 cd f2 be 1b 48 ed be
       -3.4941852 -1.8753726 -0.47422096 -0.46344075
0001e0 fc 55 b3 3d 43 53 0b bf d0 7c 13 3f 41 29 92 3e
       0.087566346 -0.5442392 0.57612324 0.285471
0001f0 f4 a0 ab 3d de 6d 71 be bb 2b a1 bf f0 a9 fc 3b
       0.08380309 -0.23577067 -1.259147 0.007710688
000200 1c ba b5 bd b6 e3 9f bd 7f d7 a8 bb 1e b3 a6 bb
       -0.08873388 -0.07807104 -0.0051526423 -0.0050872704
000210 76 fe a1 bd 21 e6 cb 3e a5 bc 11 c0 04 a4 fc bd
       -0.07909863 0.39824012 -2.277139 -0.12335971
000220 11 45 86 c0 1f 55 ac bd 9d ec 90 3d 8c 94 87 bc
       -4.195931 -0.08414673 0.070763804 -0.016550325
000230 2c 0a fb bd bb 07 b7 be 42 7c fa 3c 62 6c be bd
       -0.122577995 -0.35748085 0.030576829 -0.09298016
000240 e0 09 36 c0 7d b5 e4 3c 26 3b 1e 3e 57 d9 8b be
       -2.8443527 0.027918572 0.15452251 -0.27314255
000250 03 4c a8 bf e4 3e 10 bc 15 27 b3 bd 82 70 43 3e
       -1.3148197 -0.008804057 -0.08747689 0.19085887
000260 7c f0 ce bd f2 cc 68 bc 22 0c 3a 3d 4d dd ab 3c
       -0.101044625 -0.014209019 0.045421727 0.020979548
000270 8b ec bc bf 9b 90 ac 3b a2 36 1c 3b d0 43 8c 3d
       -1.4759687 0.0052662618 0.0023836275 0.06848872
000280 26 23 e1 bf 98 8f 38 3d 3c 5d 39 be a3 0d a8 3e
       -1.7588851 0.045058817 -0.18101972 0.32822904
000290 64 38 51 3d fa c7 c3 bb 49 12 0d be 12 24 46 3e
       0.05107917 -0.005974767 -0.13776506 0.19349697
0002a0 7f 6e 0f bf 90 c0 91 bd 50 cc e6 bd 20 f6 b6 3b
       -0.5602798 -0.071168065 -0.11269438 0.0055835396
0002b0 60 7a 14 bd f0 ac e2 3c 90 de 20 3b 55 a5 7e 3e
       -0.03624952 0.027670354 0.002454672 0.24867757
0002c0 3c 13 ef bd 6b 04 21 be fd c2 4a bd 54 e5 a3 3d
       -0.116735905 -0.15724342 -0.04950236 0.08002725
0002d0 d1 21 d5 bd 5d 7f 2d 3d cd cb f0 bd 5b 3d 12 c0
       -0.104068406 0.04235779 -0.11757622 -2.2849948
0002e0 65 d3 d0 bb 2a 4d a5 3d fa a4 95 3d c9 3d a7 bf
       -0.0063728564 0.080713585 0.073068574 -1.306573
0002f0 5e 2a ab 3d 9e 3e fa bd 41 9b dc 3d 09 d5 8c 3d
       0.0835769 -0.122189745 0.107718 0.06876571
000300 c8 3f fe ba f3 e0 eb 3d 0d 8c 12 be df 2f ac bd
       -0.001939767 0.11517515 -0.14311238 -0.08407568
000310 10 50 95 3d c4 27 00 bd 53 64 c2 bc 15 2a 5b bd
       0.07290661 -0.031287923 -0.023729479 -0.05350693
000320 17 b7 b3 3d c2 26 f2 3c 73 3f 16 3b 1b 67 8d bd
       0.08775156 0.029559497 0.0022926002 -0.069044314
000330 fc 92 0e be da 6a 95 bc cd 31 fe 3c 80 65 6c bd
       -0.13923258 -0.018239427 0.031029606 -0.057713985
000340 81 7f 07 bd fc f0 a5 3d d2 c6 d1 3b 2d 54 02 bd
       -0.03308058 0.08102605 0.006401875 -0.031818558
000350 db 46 06 bd 5f bc e4 bd e5 00 fd bd 6f be 6d bd
       -0.032782417 -0.111687414 -0.12353686 -0.05804294
000360 5a 21 82 bd b2 84 eb 3b 91 39 2a bd 5a ac 42 bd
       -0.063540176 0.0071874494 -0.041558806 -0.04752765
000370 b1 06 eb 3d c1 be 19 3d 7c 34 aa 3d a0 dd 77 bd
       0.11475886 0.037535433 0.08310792 -0.060514092
000380 9b 98 55 bd 02 96 23 3d a8 e8 f7 bd 63 04 a4 bd
       -0.05214749 0.03993798 -0.121049225 -0.08008649
000390 e8 4d 45 bc ea ad 9e bd 0b d8 06 be 89 9c 8f 3d
       -0.0120425 -0.07748015 -0.13168351 0.070122786
0003a0 c6 86 80 3d e0 1d a6 3c 78 e9 b5 bc 3a 20 ed bd
       0.06275706 0.020277917 -0.022206053 -0.11578412
0003b0 c7 af aa bd 0c 59 02 3d 2c 0d 78 3d 1f cf 42 bd
       -0.08334308 0.031823203 0.060559437 -0.047560807
0003c0 f2 e4 4e bd 60 9b 02 3d 82 04 d6 bd 06 82 41 3d
       -0.050511308 0.03188646 -0.104500785 0.04724314
0003d0 54 3a 5f bd 0c dc 12 bd c9 cb 7f bd 24 6c 8b 3c
       -0.054498985 -0.035854384 -0.062450204 0.017019339
0003e0 8b 52 33 bd 8c 9b 59 3d b7 a0 17 bc ff c9 86 3d
       -0.04377989 0.053126857 -0.009254626 0.065814964
0003f0 96 23 f6 3d 2f 04 89 bd 90 cc fb bd aa 63 cd 3d
       0.12018506 -0.06690251 -0.122948766 0.10028775

fc2.bias f4 [64]
000000 19 d4 1e 3f 38 43 e4 3e 2f a3 77 be 8c f2 3d 3d
       0.62042385 0.44582534 -0.24183343 0.04637389
000010 e6 7c 2d 3e b1 f7 0e be 0e 09 fe bc 32 cd b9 3d
       0.16942176 -0.13961674 -0.031010177 0.09072341
000020 55 49 fe 3c c2 90 08 c0 e0 69 70 c0 66 04 de bd
       0.031040827 -2.1338353 -3.756462 -0.10840683
000030 ba 45 05 bd a7 01 1a 3f e6 70 85 3e 50 1b 8b be
       -0.0325372 0.6015877 0.26062697 -0.27169275
000040 90 8b 52 3f 41 92 3c be 7b 14 89 bd d8 98 e9 3e
       0.82244205 -0.18415166 -0.066933595 0.45624423
000050 ec 31 83 bf 33 8f 19 be 7c 20 d1 bf c9 d6 8a be
       -1.024961 -0.14996032 -1.6338038 -0.27116993
000060 ad e3 ab bd ca 3d 95 be c1 5a 24 be 0b 8a 13 3e
       -0.08393035 -0.29148704 -0.16050245 0.14408128
000070 01 11 b6 bd e5 ce be 3e 56 e5 96 bd 79 c9 ed bd
       -0.08889962 0.37267223 -0.07367961 -0.116106935
000080 14 dd ab 3c 71 ff 31 bf ce cd c0 3c 48 d5 8c bf
       0.020979442 -0.695304 0.023535635 -1.1002588
000090 7e 29 3f be e1 8e 67 3f c6 f5 6d bd 18 e5 4b bf
       -0.18668172 0.9045239 -0.058095716 -0.79646444
0000a0 3d cb fc bf 2d ed 9b bd d6 47 44 bf 24 4c be be
       -1.9749523 -0.07613597 -0.7667211 -0.37167466
0000b0 dd 45 47 bd a7 63 ed be 00 4a d6 bd d1 5a 29 be
       -0.04865061 -0.4636509 -0.10463333 -0.1653855
0000c0 a8 9e 26 be 67 3c cf 3e 0a d7 fd bd 26 ca e4 3e
       -0.1627146 0.4047577 -0.12394531 0.44685477
0000d0 55 ef 94 3c 0c e4 8f 3e 11 88 7a 3f a9 c8 67 be
       0.018180529 0.28103673 0.9786387 -0.2263514
0000e0 7f b4 c2 3e d7 d7 87 3f fa d7 65 be e3 17 a8 3d
       0.38028333 1.0612744 -0.2244567 0.08207681
0000f0 77 3a 0c 3f 06 e7 69 bd dd 8e 3c 3f cf c2 93 bf
       0.5477671 -0.057105087 0.7365549 -1.1543826

fc3.weight f4 [4, 64]
000000 f2 7f 16 bf 8c 69 d1 3e c2 6b a8 3c 2a 44 77 bd
       -0.5878898 0.40900838 0.020559195 -0.06036774
000010 18 f7 ed be 88 ea 98 3e a4 18 1c be be 6e 22 3d
       -0.4647758 0.29866433 -0.15243775 0.039656393
000020 bc c3 e9 3e cb 6d 41 40 08 70 0c c1 93 c6 03 bd
       0.45657146 3.0223262 -8.777351 -0.032171797
000030 d6 85 4e 3d 29 be a3 bc e8 69 03 bf 87 87 99 3d
       0.050420605 -0.019988136 -0.51333475 0.07496553
000040 7b 87 a8 3e 2b 64 eb 3d e8 6b b4 bd c3 4c 29 3f
       0.32915863 0.11493715 -0.08809644 0.66132754
000050 d5 bb 96 bf 08 1b 48 3c 10 7a 12 c1 d0 65 44 3d
       -1.1776072 0.012213476 -9.1548 0.04794866
000060 ce c4 d1 3e e1 db c3 3d a1 e8 80 bd bf 41 73 c1
       0.40970463 0.09563423 -0.062943704 -15.203551
000070 ff a2 4c 3d c0 42 b9 bf 17 ca f4 3e 48 a3 9c 3a
       0.049960133 -1.4473495 0.47810432 0.0011950517
000080 88 d8 33 3d ae f7 ad bd f8 9e 9b bd b8 02 2d 3f
       0.043907672 -0.08494507 -0.0759868 0.67582273
000090 2c d4 df bd 9d 88 d2 be 65 bd 71 bc 25 ac 41 bf
       -0.109291404 -0.41119853 -0.014754628 -0.75653297
0000a0 33 37 62 3e 43 c3 40 bc f1 73 46 bd ca 32 27 bc
       0.2209137 -0.011765304 -0.048450414 -0.01020498
0000b0 2f 07 2a bc c9 43 97 3d 3b 1a 1a bc 50 5b 4e 3d
       -0.010377689 0.07385976 -0.009405668 0.05038005
0000c0 da d5 e0 bd 88 a1 63 be 06 da 9e bd ec 61 a0 be
       -0.10978289 -0.22229588 -0.077564284 -0.31324708
0000d0 c2 e5 4d bd dc 95 12 3f 7d 77 b2 bd ff 23 90 3f
       -0.050267942 0.5725992 -0.08714197 1.1260985
0000e0 e3 8c 48 bf 92 d1 04 3f 56 d1 0b 3c 0a 5b 95 c1
       -0.78339976 0.5188228 0.008533796 -18.669453
0000f0 c4 36 54 3f 69 25 8a 3d 16 5e 39 3e 6f 4f 9f c1
       0.82896066 0.06745417 0.18102297 -19.913786
000100 2b 59 05 3f 59 28 3d bf 89 cc 27 bc 0b e4 25 bd
       0.52089185 -0.7388969 -0.010241636 -0.04050068
000110 09 3d 48 be 98 f3 c4 be de 04 61 bd 8e 66 f9 3d
       -0.19554533 -0.38467097 -0.054936282 0.12177764
000120 fe 9e 08 c2 a9 be 13 c0 ab 9b c7 3e db 92 89 bd
       -34.155266 -2.308512 0.38985953 -0.067174636
000130 b6 4d 60 3e 43 d1 75 3e 80 cb d7 3e ae fa c0 3c
       0.21904644 0.24005608 0.42147446 0.023557033
000140 b0 0b 2b be 41 0e 0b 3e 00 ba 83 bd fa e5 a4 3e
       -0.16703677 0.13579656 -0.06431961 0.32206708
000150 0a 26 cd 3b 05 df 3f bd 80 32 92 3e d1 0c 8e 3d
       0.006260638 -0.046843547 0.28554153 0.06936038
000160 86 89 da bf ed 9e 9e 3b c2 d7 16 bc aa d7 25 3e
       -1.7073219 0.004840723 -0.009206714 0.1619555
000170 67 9d 4d bc fd 5b 3d 3f 18 0b 9c be d6 98 c9 3d
       -0.012549735 0.7396849 -0.30477214 0.09843604
000180 24 55 95 bd 6a 85 b9 bd 83 29 7f bd 92 fa 84 c0
       -0.0729163 -0.0905865 -0.062295448 -4.155587
000190 09 f3 88 bd 0c 8a a7 be 5e ec b8 bd 00 92 e9 bf
       -0.0668698 -0.3272251 -0.090294585 -1.8247681
0001a0 bd b1 8f 3e 61 51 2f 3c bf 20 14 3e 9f 88 f6 3d
       0.2806529 0.010700555 0.14465617 0.12037777
0001b0 d6 e2 31 3d 3e 60 ba 3d e7 02 07 bd 9a 63 5d 3d
       0.04342922 0.09100388 -0.032961752 0.054050066
0001c0 fc 3a dc bc c0 5d ae bd 74 b4 2d bd ec 7c c4 bd
       -0.026883595 -0.08513975 -0.04240842 -0.095941395
0001d0 56 b6 a9 3d df e8 77 bf 7c 45 1e be 2e 2e ea 3d
       0.08286731 -0.9683971 -0.15456194 0.11434589
0001e0 e9 da b4 3e f9 89 fd 3e 1b bf 3a 3e 98 8c 20 3f
       0.35323265 0.49519327 0.18236963 0.6271453
0001f0 4e 31 ab be d3 89 a2 3c 95 cc 89 3e 42 96 48 3e
       -0.33436054 0.01984111 0.26913896 0.19588569
000200 d6 72 8d 3e d8 76 ec 3e 67 d7 e9 3c a4 56 b6 3d
       0.27626675 0.4618442 0.028545095 0.08903244
000210 9b f4 7e 3f 58 59 41 3d ab 83 57 3c f3 b0 88 be
       0.9959199 0.047204345 0.013153951 -0.26697502
000220 89 a3 fd bd 8a fe 7e 40 32 36 ce 3e 77 e3 1d 3d
       -0.123847075 3.9842858 0.40275723 0.038547006
000230 e5 5a f6 c1 c2 b5 b2 be 16 71 e6 3d 0d c2 33 bd
       -30.794382 -0.34904295 0.11252038 -0.043886233
000240 66 8a ad be f5 ba 2e c1 b9 c6 84 bd 42 b7 99 bf
       -0.33894652 -10.920644 -0.06483216 -1.2009051
000250 16 39 cf 3e 21 37 c2 bc 86 f0 6d 3e 52 d6 f2 be
       0.4047324 -0.023707928 0.23236284 -0.47429138
000260 42 50 5a 3f 25 9b 04 bc fa 2a 35 bd 46 64 58 3d
       0.85278714 -0.00809363 -0.04423044 0.052830003
000270 d5 8d 8c bd 9f d7 47 3f a3 9f 4d bd 75 85 37 3d
       -0.0686299 0.78063387 -0.05020107 0.04480501
000280 6b 82 12 bc 37 96 f4 bd 29 5d 6c bd 52 bf 5a 3f
       -0.008942227 -0.11942714 -0.057706032 0.8544818
000290 3c 29 77 bd b4 1a 7d 3f ea 9a 4f bd ee 24 2d 40
       -0.06034206 0.9886887 -0.050684847 2.705379
0002a0 ef d6 ba c0 5c 54 32 bd 72 50 f9 be 9d 06 f5 be
       -5.838737 -0.043537483 -0.48694187 -0.47856608
0002b0 a7 69 0c 3d d3 ce 71 be 65 23 93 3a 05 8e ad 3c
       0.034280445 -0.23614053 0.0011225758 0.021185884
0002c0 ac 3f ac bd 3c 32 6d 3e 40 2d bb 3c 48 88 0d 3f
       -0.08410582 0.23163694 0.022848725 0.55286074
0002d0 a0 1d d1 bb 54 a9 26 3f bc fa 5a 3f 33 a3 25 c0
       -0.0063817054 0.65102124 0.8553884 -2.588086
0002e0 6d a9 80 3e e1 94 e1 bf f7 4f b8 c1 9a 11 51 be
       0.25129262 -1.7623559 -23.039045 -0.2041687
0002f0 f3 49 76 be 83 b3 ca bc 02 a7 73 bf 90 32 35 3e
       -0.24051647 -0.024743801 -0.9517671 0.1769507
000300 ef fc 0f be 58 21 16 be 8a 1f 95 bf 2e ce 9f bd
       -0.1406133 -0.14661157 -1.165025 -0.078029975
000310 07 4c d1 bd 1f 86 0b be ab 84 88 3d 49 fb 84 c0
       -0.10219579 -0.13625382 0.066659294 -4.1556745
000320 8e e7 44 be 66 2c e7 be c9 54 aa bd ff 6d a1 3d
       -0.19228956 -0.4515106 -0.08316953 0.07882308
000330 7d 9f 7e bf 4b 03 a7 be 52 5a 61 be 14 9c 7d be
       -0.9946211 -0.326197 -0.2200711 -0.2476657
000340 bf 73 c7 be 02 7c 5c be 92 b5 ce 3c 68 d6 e9 be
       -0.38955495 -0.2153168 0.025233064 -0.4567139
000350 63 23 37 be d4 3b b7 3c 27 f5 0f c0 03 ad ab be
       -0.17884593 0.022367395 -2.249338 -0.33530435
000360 2d 51 a6 3c 02 6f 9d c0 02 dd a9 3d fc fe de be
       0.02030238 -4.9198008 0.08294107 -0.43553913
000370 69 19 3e 3d 1b f8 9a be c6 6a 89 bd 61 b4 6e bf
       0.04641095 -0.30267414 -0.067098185 -0.93243986
000380 fb c1 c7 bc 3f a9 29 c1 45 7f b0 bd a5 86 0d c0
       -0.02438449 -10.60382 -0.08618025 -2.211343
000390 56 9d 50 bd 67 28 af bd d8 b5 b5 3d 4c 7e 3e be
       -0.050931297 -0.08552628 0.088725746 -0.18602866
0003a0 22 42 db c0 b5 d4 e5 be d1 2e 8b c0 0c d7 93 be
       -6.851823 -0.44888845 -4.349465 -0.28875005
0003b0 88 57 e7 bd fd 89 c4 bf b1 60 9f 3d 55 56 a0 3c
       -0.11295992 -1.5354611 0.07782114 0.019572416
0003c0 86 36 d6 bd 30 7c 87 c0 4b e7 f9 bc 99 d1 47 c0
       -0.10459618 -4.2339096 -0.030505797 -3.1221678
0003d0 ec 4d 1e 3d cc 40 00 be 64 7c 17 be 81 2b 8f be
       0.03864853 -0.12524718 -0.14793545 -0.27962878
0003e0 fe 44 02 c1 5a b9 95 bf a4 2c b2 bd 10 94 9e be
       -8.141844 -1.169719 -0.08699921 -0.30972338
0003f0 23 10 4d be 82 a9 2a 3c c4 23 f0 be 19 37 ac bf
       -0.20025687 0.01041639 -0.46902287 -1.3454314

fc3.bias f4 [4]
000000 8b 3c b7 bc e6 cd 95 3d 5c db 82 bd c6 ed 9f c1
       -0.022367736 0.07314663 -0.06389496 -19.9911
