custom_grid/data/ppo-0.0/ppo_iter_850.pth (torch, 21521 bytes, 6 tensors)

fc1.weight f4 [64, 2]
0	0xbdda90b2	-0.1067213
1	0xbedcb07f	-0.43103406
2	0x3dbc0470	0.09180534
3	0x3eddafa3	0.43298063
4	0x3e2f07db	0.1709284
5	0x3e9ccd1c	0.30625236
6	0xbeba9e2b	-0.36448798
7	0x3ec28e5a	0.3799923
8	0x3f15003d	0.5820349
9	0xbf072cbc	-0.52802634
10	0x3edced6e	0.43149894
11	0x3d6c191b	0.05764113
12	0xbbd74686	-0.0065696863
13	0xbd2a8fff	-0.04164123
14	0x3f17d17a	0.5930401
15	0xbeb43371	-0.35195497
16	0x3eea338a	0.45742446
17	0x3d8edfe7	0.069763
18	0xbe85a688	-0.26103616
19	0x3e564552	0.20924881
20	0xbc7e140b	-0.015507708
21	0xbebb5fc3	-0.36596498
22	0x3c35581e	0.011068372
23	0x3d24627b	0.04013298
24	0xbe919971	-0.2843738
25	0xbf043df3	-0.51657027
26	0xbe627dd3	-0.2211831
27	0xbd90b78a	-0.07066257
28	0x3e4e26e1	0.20132019
29	0xc02be3eb	-2.685786
30	0x3f69133a	0.9104496
31	0xbfc93806	-1.5720222
32	0x39a5f90c	0.00031656807
33	0xbde45244	-0.111485034
34	0xbd6fa0b3	-0.058502864
35	0x3efbd200	0.49183655
36	0x3b2d1e27	0.0026415677
37	0xbe7a3d38	-0.24437416
38	0x3cb0a25e	0.021561798
39	0xbf075c52	-0.52875245
40	0x3ea6c48e	0.32571834
41	0xbe3cef44	-0.18450648
42	0x3d406b5f	0.046977397
43	0x3eee6d8f	0.46567962
44	0x3f13bc85	0.5770953
45	0xbeed0264	-0.46290886
46	0x3cd12f05	0.025535116
47	0xbd3166b6	-0.043310843
48	0x3f3fd08c	0.7492759
49	0xbf8450c3	-1.0337147
50	0xbe809528	-0.25113797
51	0x3e1f69d3	0.15567712
52	0xb9affdb6	-0.0003356763
53	0xbcf809fe	-0.030278202
54	0x3dbac576	0.09119694
55	0x3f04d32c	0.5188472
56	0x3e8a58cd	0.27020875
57	0xbe21e334	-0.15809327
58	0x3d68a788	0.056800395
59	0xbf4bca92	-0.7960597
60	0x3dd25433	0.10269966
61	0xbfdc1ffc	-1.7197261
62	0x3f117c66	0.5683044
63	0xbf04f981	-0.5194321
64	0x3ed9553c	0.4244784
65	0xbd470391	-0.048587386
66	0x3e628fef	0.22125219
67	0xbe853337	-0.26015636
68	0xbe73484a	-0.23758045
69	0xc0299288	-2.6495686
70	0x3f07abf9	0.52996784
71	0x3e25a981	0.16177942
72	0x3f120039	0.5703159
73	0xbf5c1689	-0.85971886
74	0xbec9e2fa	-0.39430982
75	0xbf5ab84b	-0.8543746
76	0xbe885e58	-0.2663448
77	0x3dd7b4c1	0.10532523
78	0x37349394	1.0763197e-05
79	0xbca930d8	-0.020653173
80	0xbede4889	-0.43414715
81	0xbf57ee16	-0.84347665
82	0x3f0e77b2	0.5565139
83	0xbf0a0a03	-0.53921527
84	0x3f17886a	0.59192526
85	0x3dd1412b	0.10217508
86	0x3f3b5bec	0.73187137
87	0xbf82c866	-1.0217407
88	0x3c05fe4c	0.008178305
89	0xbe82209d	-0.25415507
90	0x3f085ab2	0.5326339
91	0xbee5d4f1	-0.44889024
92	0x3e5a910e	0.21344396
93	0x3eac6e8f	0.336781
94	0xbec07281	-0.3758736
95	0xbda8d5ae	-0.08243881
96	0x3f19d396	0.6008848
97	0xbc9243a7	-0.017854525
98	0x3c85b1c5	0.016320119
99	0xbf7d0251	-0.9883166
100	0x3c054a12	0.0081353355
101	0xbf22e7e5	-0.6363509
102	0xbe8bd066	-0.27307433
103	0xbf90bc32	-1.1307433
104	0x3dce2240	0.100651264
105	0xbfdc78e0	-1.7224388
106	0xbec6d20a	-0.38832122
107	0xbea6d8b0	-0.32587194
108	0x3d1a5f88	0.037688762
109	0xbf127e02	-0.5722352
110	0x3b0395b5	0.0020078246
111	0xbd74a8a1	-0.05973113
112	0x3f415d34	0.7553284
113	0xc00910ee	-2.1416583
114	0x3e730ca6	0.23735294
115	0xbf81e11c	-1.0146823
116	0x3f13ae90	0.57688236
117	0xbfc6392d	-1.5486199
118	0xbf06987c	-0.5257642
119	0xbf516297	-0.8179106
120	0x3b006c39	0.0019595756
121	0xbe86b73b	-0.2631167
122	0x3dc72919	0.09724636
123	0xbfe8fdbb	-1.8202432
124	0xbe4af2db	-0.19819205
125	0xbe5a990f	-0.2134745
126	0xbd1fbfa9	-0.03900114
127	0xbf389e67	-0.721167

fc1.bias f4 [64]
0	0xb83d4ff4	-4.5135574e-05
1	0xc035c32b	-2.840037
2	0x404c93f7	3.196531
3	0xbfb5175c	-1.4147754
4	0xbfca4a4f	-1.5803927
5	0x3fc7ee10	1.5619526
6	0xbd655f42	-0.055999048
7	0xc062d125	-3.5440152
8	0xbf72945e	-0.9475764
9	0xc0250e41	-2.578995
10	0x3ed5cdda	0.41758615
11	0xbfcfdb63	-1.6238827
12	0x3fb81b97	1.438342
13	0xc06b84ef	-3.6799886
14	0xbdd783cb	-0.105231844
15	0xbfa4c520	-1.2872658
16	0xbb11d678	-0.0022253077
17	0xc05298c0	-3.2905731
18	0xbc4a4c68	-0.012347318
19	0x401b840e	2.429935
20	0x402a3063	2.6592033
21	0xc08a5d93	-4.3239226
22	0x3f6ebe0c	0.9325874
23	0xbeda703d	-0.42663756
24	0xc010a9ea	-2.2603707
25	0xc051c92d	-3.2779038
26	0xbbcd3060	-0.0062618703
27	0xc0749aee	-3.8219562
28	0x400d1f23	2.2050254
29	0x3ecf922f	0.40541217
30	0xbe0be365	-0.13660963
31	0xc0341da4	-2.8143091
32	0x4025b1be	2.5889735
33	0xbff559c2	-1.9168017
34	0xbe5099b8	-0.20371139
35	0xc030b8f2	-2.7612882
36	0x3f952051	1.1650487
37	0xbf356031	-0.708499
38	0xbf35695b	-0.70863885
39	0xbafc6557	-0.0019256276
40	0xbe6de630	-0.23232341
41	0xc0271621	-2.6107256
42	0xc059b663	-3.401757
43	0xc00cfe58	-2.203024
44	0xbc213c45	-0.0098410295
45	0xc04724b2	-3.1116147
46	0xc067b2ea	-3.620295
47	0xc098f988	-4.7804604
48	0xc0593ccb	-3.3943355
49	0xbd01cdae	-0.031690292
50	0xbc0dbcba	-0.008650953
51	0xbe90fcc5	-0.28317848
52	0xbdf592ab	-0.11990865
53	0x3faac862	1.3342402
54	0x3fe9c932	1.8264525
55	0xbec88000	-0.39160156
56	0x3fa07400	1.25354
57	0xbd3d2d4b	-0.046185773
58	0x3efdc982	0.495678
59	0xbfd297b8	-1.6452551
60	0xbe3fbc91	-0.18724276
61	0xbde3b202	-0.11117937
62	0xc0063140	-2.096756
63	0xbec8463a	-0.3911608

fc2.weight f4 [64, 64]
0	0x3e578dbf	0.21050166
1	0x3f6f343f	0.93439096
2	0x3e976266	0.2956726
3	0xbdc67549	-0.09690339
4	0x3f35ff3c	0.7109258
5	0x3f057183	0.5212633
6	0xbf8cd9c3	-1.1003956
7	0x3d286dec	0.041120455
8	0xc107b8f7	-8.482657
9	0x3e381fdf	0.17980908
10	0xbe6da73b	-0.23208325
11	0x3ecd3873	0.4008213
12	0xbd484966	-0.048898123
13	0xbfd78f21	-1.6840554
14	0x40849f5f	4.1444545
15	0xbf5816a2	-0.84409535
16	0xc03da000	-2.9628906
17	0x3ed407d1	0.41412213
18	0x3e0c1936	0.13681492
19	0x3e4b254a	0.19838443
20	0x3e3b93aa	0.18318048
21	0xc10ff825	-8.998082
22	0xbe8aa27c	-0.2707709
23	0xbe5d56e8	-0.21615183
24	0xbd94bcd8	-0.072625816
25	0xc00755a5	-2.1146023
26	0x3dcf09f6	0.10109322
27	0xc0236cfa	-2.5535264
28	0x3e2cfb25	0.16892679
29	0x3d51d0f9	0.051224682
30	0x3e536b14	0.20646316
31	0xbfb81afd	-1.4383236
32	0x3f3f04d4	0.7461674
33	0x3f1c119e	0.6096438
34	0x3e987689	0.29777935
35	0xc06ef5eb	-3.7337596
36	0xbeb878fa	-0.36029798
37	0xbd196dfc	-0.037458405
38	0xbe72b5a4	-0.23702103
39	0x3df709ca	0.12062414
40	0x3e36d6bb	0.1785535
41	0xbfa18ab7	-1.2620457
42	0x3e00067c	0.12502474
43	0x3e97460e	0.29545635
44	0x3dc65d43	0.09685757
45	0xbe0fbcf9	-0.14036931
46	0xbe90607d	-0.28198615
47	0xbf9eccbb	-1.2406229
48	0x3e9b1c87	0.30295202
49	0x3d2a3b47	0.041560438
50	0x3d20104d	0.039078046
51	0xbe0a1ef5	-0.13488372
52	0x3fc1d1cb	1.5142149
53	0xbeeb55ea	-0.45963985
54	0xbe827a8d	-0.25484124
55	0xbfe1b7db	-1.7634233
56	0xbf342a77	-0.70377296
57	0xbe96c9de	-0.29450887
58	0xbfa736dd	-1.3063618
59	0x3e9d2c9a	0.3069809
60	0xbcb4ac68	-0.022054866
61	0x3e8b0699	0.2715347
62	0x3e3c05ae	0.18361542
63	0xbe01636c	-0.12635583
64	0x3f07f8f2	0.53114235
65	0xc0160169	-2.343836
66	0x3e55a5e7	0.20864068
67	0x3e7aca82	0.24491313
68	0xc0737207	-3.8038347
69	0xbf348228	-0.705111
70	0xbf73560c	-0.9505317
71	0xbd8cc4e9	-0.06873495
72	0xbeb8bb81	-0.36080554
73	0xbebeb07c	-0.37244022
74	0xbef26acd	-0.47347108
75	0x3f61bf78	0.88182783
76	0xbf31f2ec	-0.69511294
77	0xbd5f29c4	-0.05448319
78	0xc1078a3d	-8.47125
79	0xc0e1e61e	-7.0593405
80	0xbfb4fbf5	-1.4139391
81	0x3fc5c956	1.5452068
82	0x3dabc8f9	0.08387942
83	0x3f1e6b90	0.6188288
84	0xbeacce30	-0.3375106
85	0xc02c1641	-2.6888583
86	0x3e48bbe3	0.19602923
87	0xc0040668	-2.062891
88	0xc06ac747	-3.668413
89	0xc0011820	-2.0170975
90	0x3b3a9f24	0.0028476203
91	0xc045d49c	-3.0911016
92	0xbe365542	-0.17805961
93	0x3ddf0880	0.10890293
94	0xc08a4ffa	-4.322263
95	0x3dd20cc8	0.10256344
96	0x3a60e6f3	0.0008579336
97	0xbf65bb59	-0.89738995
98	0x3e69dc2d	0.22837897
99	0xbdbdd345	-0.09268812
100	0xbe9709bc	-0.29499614
101	0xbe485b7a	-0.19566146
102	0x3d30f596	0.04320296
103	0xbcc6b64c	-0.024256848
104	0x3eb872c7	0.36025068
105	0xbb75e4a6	-0.0037520318
106	0xbd19f227	-0.03758445
107	0xc0c68c80	-6.204651
108	0xbc7086df	-0.014680593
109	0xbcd93400	-0.026514053
110	0xbe4758b7	-0.19467436
111	0x3e063302	0.13105395
112	0xbeb1d36c	-0.34731615
113	0x3ef96919	0.48712996
114	0xbe21c31a	-0.15797082
115	0x3f2530c6	0.6452755
116	0xc05fa0bb	-3.4941852
117	0xbfefcd5a	-1.8734543
118	0xbef2cd17	-0.47422096
119	0xbeed481b	-0.46344075
120	0x3db355fc	0.087566346
121	0xbf0b5343	-0.5442392
122	0x3f137cd0	0.57612324
123	0x3e922941	0.285471
124	0x3daba0f4	0.08380309
125	0xbe716dde	-0.23577067
126	0xbfa12bbb	-1.259147
127	0x3bfca9f0	0.007710688
128	0xbdb5ba1c	-0.08873388
129	0xbd9fe3b6	-0.07807104
130	0xbba8d77f	-0.0051526423
131	0xbba6b31e	-0.0050872704
132	0xbda1fe76	-0.07909863
133	0x3ecbe621	0.39824012
134	0xc011bca5	-2.277139
135	0xbdfca404	-0.12335971
136	0xc0864511	-4.195931
137	0xbdac551f	-0.08414673
138	0x3d90ec9d	0.070763804
139	0xbc87948c	-0.016550325
140	0xbdfb0a2c	-0.122577995
141	0xbeb707bb	-0.35748085
142	0x3cfa7c42	0.030576829
143	0xbdbe6c62	-0.09298016
144	0xc03609e0	-2.8443527
145	0x3ce4b57d	0.027918572
146	0x3e1e3b26	0.15452251
147	0xbe8bd957	-0.27314255
148	0xbfa84c03	-1.3148197
149	0xbc103ee4	-0.008804057
150	0xbdb32715	-0.08747689
151	0x3e437082	0.19085887
152	0xbdcef07c	-0.101044625
153	0xbc68ccf2	-0.014209019
154	0x3d3a0c22	0.045421727
155	0x3cabdd4d	0.020979548
156	0xbfbcec8b	-1.4759687
157	0x3bac909b	0.0052662618
158	0x3b1c36a2	0.0023836275
159	0x3d8c43d0	0.06848872
160	0xbfe12326	-1.7588851
161	0x3d388f98	0.045058817
162	0xbe395d3c	-0.18101972
163	0x3ea80da3	0.32822904
164	0x3d513864	0.05107917
165	0xbbc3c7fa	-0.005974767
166	0xbe0d1249	-0.13776506
167	0x3e462412	0.19349697
168	0xbf0f6e7f	-0.5602798
169	0xbd91c090	-0.071168065
170	0xbde6cc50	-0.11269438
171	0x3bb6f620	0.0055835396
172	0xbd147a60	-0.03624952
173	0x3ce2acf0	0.027670354
174	0x3b20de90	0.002454672
175	0x3e7ea555	0.24867757
176	0xbdef133c	-0.116735905
177	0xbe21046b	-0.15724342
178	0xbd4ac2fd	-0.04950236
179	0x3da3e554	0.08002725
180	0xbdd521d1	-0.104068406
181	0x3d2d7f5d	0.04235779
182	0xbdf0cbcd	-0.11757622
183	0xc0123d5b	-2.2849948
184	0xbbd0d365	-0.0063728564
185	0x3da54d2a	0.080713585
186	0x3d95a4fa	0.073068574
187	0xbfa73dc9	-1.306573
188	0x3dab2a5e	0.0835769
189	0xbdfa3e9e	-0.122189745
190	0x3ddc9b41	0.107718
191	0x3d8cd509	0.06876571
192	0xbafe3fc8	-0.001939767
193	0x3debe0f3	0.11517515
194	0xbe128c0d	-0.14311238
195	0xbdac2fdf	-0.08407568
196	0x3d955010	0.07290661
197	0xbd0027c4	-0.031287923
198	0xbcc26453	-0.023729479
199	0xbd5b2a15	-0.05350693
200	0x3db3b717	0.08775156
201	0x3cf226c2	0.029559497
202	0x3b163f73	0.0022926002
203	0xbd8d671b	-0.069044314
204	0xbe0e92fc	-0.13923258
205	0xbc956ada	-0.018239427
206	0x3cfe31cd	0.031029606
207	0xbd6c6580	-0.057713985
208	0xbd077f81	-0.03308058
209	0x3da5f0fc	0.08102605
210	0x3bd1c6d2	0.006401875
211	0xbd02542d	-0.031818558
212	0xbd0646db	-0.032782417
213	0xbde4bc5f	-0.111687414
214	0xbdfd00e5	-0.12353686
215	0xbd6dbe6f	-0.05804294
216	0xbd82215a	-0.063540176
217	0x3beb84b2	0.0071874494
218	0xbd2a3991	-0.041558806
219	0xbd42ac5a	-0.04752765
220	0x3deb06b1	0.11475886
221	0x3d19bec1	0.037535433
222	0x3daa347c	0.08310792
223	0xbd77dda0	-0.060514092
224	0xbd55989b	-0.05214749
225	0x3d239602	0.03993798
226	0xbdf7e8a8	-0.121049225
227	0xbda40463	-0.08008649
228	0xbc454de8	-0.0120425
229	0xbd9eadea	-0.07748015
230	0xbe06d80b	-0.13168351
231	0x3d8f9c89	0.070122786
232	0x3d8086c6	0.06275706
233	0x3ca61de0	0.020277917
234	0xbcb5e978	-0.022206053
235	0xbded203a	-0.11578412
236	0xbdaaafc7	-0.08334308
237	0x3d02590c	0.031823203
238	0x3d780d2c	0.060559437
239	0xbd42cf1f	-0.047560807
240	0xbd4ee4f2	-0.050511308
241	0x3d029b60	0.03188646
242	0xbdd60482	-0.104500785
243	0x3d418206	0.04724314
244	0xbd5f3a54	-0.054498985
245	0xbd12dc0c	-0.035854384
246	0xbd7fcbc9	-0.062450204
247	0x3c8b6c24	0.017019339
248	0xbd33528b	-0.04377989
249	0x3d599b8c	0.053126857
250	0xbc17a0b7	-0.009254626
251	0x3d86c9ff	0.065814964
252	0x3df62396	0.12018506
253	0xbd89042f	-0.06690251
254	0xbdfbcc90	-0.122948766
255	0x3dcd63aa	0.10028775

fc2.bias f4 [64]
0	0x3f1c022f	0.6094083
1	0x3eead8ab	0.4586843
2	0xbe77a32f	-0.24183343
3	0x3d3df28c	0.04637389
4	0x3e307161	0.1723075
5	0xbe08d4db	-0.13362448
6	0xbcfe090e	-0.031010177
7	0x3db35fb2	0.08758487
8	0x3d003eea	0.03131
9	0xc008e9dd	-2.139274
10	0xc06fb52d	-3.745433
11	0xbdde0466	-0.10840683
12	0xbd254699	-0.04035053
13	0x3f1b7c60	0.60736656
14	0x3e78c066	0.24292144
15	0xbe8b1b50	-0.27169275
16	0x3f51a71d	0.8189562
17	0xbe3c9241	-0.18415166
18	0xbd89147b	-0.066933595
19	0x3eeb167c	0.45915592
20	0xbf8300aa	-1.0234578
21	0xbe198f33	-0.14996032
22	0xbfd1207c	-1.6338038
23	0xbe8ad6c9	-0.27116993
24	0xbdaf647a	-0.08564086
25	0xbe953dca	-0.29148704
26	0xbe245ac1	-0.16050245
27	0x3e144eda	0.14483204
28	0xbdb61101	-0.08889962
29	0x3eb7c792	0.35894448
30	0xbd6b6d80	-0.057477474
31	0xbdedc979	-0.116106935
32	0x3cabdd14	0.020979442
33	0xbf31ff71	-0.695304
34	0x3cc0cdce	0.023535635
35	0xbf8d1292	-1.1021292
36	0xbe3f297e	-0.18668172
37	0x3f6a225e	0.9145869
38	0xbd6df5c6	-0.058095716
39	0xbf4be518	-0.79646444
40	0xbffaa950	-1.958292
41	0xbd9bed2d	-0.07613597
42	0xbf43dd10	-0.7650919
43	0xbebe4c24	-0.37167466
44	0xbd4745dd	-0.04865061
45	0xbeed63a7	-0.4636509
46	0xbdd64a00	-0.10463333
47	0xbe295ad1	-0.1653855
48	0xbe269ea8	-0.1627146
49	0x3ecbe16d	0.39820424
50	0xbdfdd70a	-0.12394531
51	0x3ee2481d	0.44195643
52	0x3c94ef55	0.018180529
53	0x3e91c473	0.2847019
54	0x3f7af7ba	0.9803425
55	0xbe6800f4	-0.22656614
56	0x3ebfbb3e	0.37447542
57	0x3f8509d8	1.0393629
58	0xbe65ea8f	-0.22452758
59	0x3d6b3391	0.057422224
60	0x3f0d307d	0.5515211
61	0xbd69e706	-0.057105087
62	0x3f3c5368	0.7356477
63	0xbf928834	-1.1447816

fc3.weight f4 [4, 64]
0	0xbf134d08	-0.57539415
1	0x3ed69a9f	0.41914842
2	0x3ca86bc2	0.020559195
3	0xbd77442a	-0.06036774
4	0xbeeb73e5	-0.45986858
5	0x3e9ed90c	0.3102497
6	0xbe1c18a4	-0.15243775
7	0x3d6cd083	0.05781604
8	0x3ee55bc8	0.44796586
9	0x403d3456	2.9563193
10	0xc10c95b4	-8.786549
11	0xbd03c693	-0.032171797
12	0x3d5b398d	0.05352168
13	0xbc40b130	-0.011760995
14	0xbefe23c6	-0.49636668
15	0x3d998787	0.07496553
16	0x3ea9bd09	0.33152035
17	0x3deb642b	0.11493715
18	0xbdb46be8	-0.08809644
19	0x3f2be793	0.6715023
20	0xbf849172	-1.0356886
21	0x3c481b08	0.012213476
22	0xc1127a10	-9.1548
23	0x3d4465d0	0.04794866
24	0x3ed868f3	0.4226757
25	0x3dc3dbe1	0.09563423
26	0xbd80e8a1	-0.062943704
27	0xc17363ed	-15.211896
28	0x3d4ca2ff	0.049960133
29	0xbfb86ee3	-1.440884
30	0x3efc86c6	0.49321574
31	0x3a9ca348	0.0011950517
32	0x3d33d888	0.043907672
33	0xbdadf7ae	-0.08494507
34	0xbd9b9ef8	-0.0759868
35	0x3f2b9ba7	0.6703438
36	0xbddfd42c	-0.109291404
37	0xbed353b4	-0.41274798
38	0xbc71bd65	-0.014754628
39	0xbf41ac25	-0.75653297
40	0x3e65640b	0.22401445
41	0xbc40c343	-0.011765304
42	0xbd2f802e	-0.04284685
43	0xbc2732ca	-0.01020498
44	0xbc2a072f	-0.010377689
45	0x3d9743c9	0.07385976
46	0xbc1a1a3b	-0.009405668
47	0x3d4e5b50	0.05038005
48	0xbde0d5da	-0.10978289
49	0xbe562e86	-0.20916185
50	0xbd9eda06	-0.077564284
51	0xbe962024	-0.29321396
52	0xbd4de5c2	-0.050267942
53	0x3f1234a7	0.5711159
54	0xbdb3bee8	-0.08776647
55	0x3f906f73	1.1284012
56	0xbf48cb4a	-0.78435194
57	0x3f045088	0.5168538
58	0x3b9b589a	0.0047407867
59	0xc1951d53	-18.639318
60	0x3f542d1d	0.8288134
61	0x3d8a2569	0.06745417
62	0x3e3c1809	0.18368544
63	0xc19d3813	-19.65238
64	0x3f007843	0.50183505
65	0xbf3ff340	-0.74980545
66	0xbc27cc89	-0.010241636
67	0xbd25e40b	-0.04050068
68	0xbe4fa286	-0.20276842
69	0xbec42c7a	-0.38315183
70	0xbd6104de	-0.054936282
71	0x3ddf13ab	0.10892423
72	0xc2089f18	-34.155365
73	0xc011ccd2	-2.2781262
74	0x3ecc48d0	0.39899302
75	0xbd8992db	-0.067174636
76	0x3e5d2099	0.21594466
77	0x3e761bd1	0.24034049
78	0x3ed4e234	0.4157883
79	0x3cc0faae	0.023557033
80	0xbe31267b	-0.17299835
81	0x3e0b0e41	0.13579656
82	0xbd83ba00	-0.06431961
83	0x3e9ebef8	0.31005073
84	0x3ba418bd	0.005007832
85	0xbd3fdf05	-0.046843547
86	0x3e923280	0.28554153
87	0x3d8e0cd1	0.06936038
88	0xbfd9fec3	-1.7030872
89	0x3b9e9eed	0.004840723
90	0xbc16d7c2	-0.009206714
91	0x3e20e780	0.1571331
92	0xbc4d9d67	-0.012549735
93	0x3f3b220a	0.73098814
94	0xbe9e99d8	-0.30976748
95	0x3dc998d6	0.09843604
96	0xbd955524	-0.0729163
97	0xbdb9856a	-0.0905865
98	0xbd7f2983	-0.062295448
99	0xc084b57e	-4.147155
100	0xbd88f309	-0.0668698
101	0xbea7b934	-0.32758486
102	0xbdb8ec5e	-0.090294585
103	0xbfe99200	-1.8247681
104	0x3e8e206b	0.27759108
105	0x3c2f5161	0.010700555
106	0x3e0fdacb	0.14048307
107	0x3df6889f	0.12037777
108	0x3d31e2d6	0.04342922
109	0x3dba603e	0.09100388
110	0xbd0702e7	-0.032961752
111	0x3d5d639a	0.054050066
112	0xbcdc3afc	-0.026883595
113	0xbdc97ffd	-0.09838865
114	0xbd2db474	-0.04240842
115	0xbdd08488	-0.10181528
116	0x3da9b656	0.08286731
117	0xbf75043a	-0.95709574
118	0xbe1ddd76	-0.15416512
119	0x3de4052a	0.111337975
120	0x3ea8b542	0.3295079
121	0x3efe5253	0.49672183
122	0x3e3ea165	0.18616255
123	0x3f09af33	0.5378296
124	0xbeac74c6	-0.3368284
125	0x3ca289d3	0.01984111
126	0x3e8a0b62	0.2696181
127	0x3e3b39b8	0.18283737
128	0x3e93dc97	0.28879234
129	0x3f11b308	0.56913805
130	0x3ce9d767	0.028545095
131	0x3db656a4	0.08903244
132	0x3f7fa36c	0.99858737
133	0x3d188efe	0.037245743
134	0x3c5783ab	0.013153951
135	0xbe884e12	-0.26622063
136	0x3df54777	0.119765215
137	0x407fa1e3	3.9942558
138	0x3ec809c6	0.39069957
139	0x3d1de377	0.038547006
140	0xc1f68c10	-30.81839
141	0xbeb7826f	-0.358417
142	0x3ddf42fc	0.10901448
143	0xbd33c20d	-0.043886233
144	0xbeac2be6	-0.33627242
145	0xc12ebaf5	-10.920644
146	0xbd84c6b9	-0.06483216
147	0xbf992c13	-1.1966575
148	0x3eccfc2b	0.4003614
149	0xbcc23721	-0.023707928
150	0x3e6df086	0.23236284
151	0xbef2d652	-0.47429138
152	0x3f56cdb7	0.83907646
153	0xbc049b25	-0.00809363
154	0xbd352afa	-0.04423044
155	0x3d6c2292	0.057650156
156	0xbd8c8dd5	-0.0686299
157	0x3f48c07f	0.78418726
158	0xbd5bad16	-0.053631864
159	0x3d378575	0.04480501
160	0xbc12826b	-0.008942227
161	0xbdf49637	-0.11942714
162	0xbd6c5d29	-0.057706032
163	0x3f59f266	0.85135496
164	0xbd77293c	-0.06034206
165	0x3f9b7eb0	1.2148037
166	0xbd4f9aea	-0.050684847
167	0x402d24ee	2.705379
168	0xc0bbe99d	-5.8722672
169	0xbd32545c	-0.043537483
170	0xbeff735e	-0.49892706
171	0xbef5069d	-0.47856608
172	0x3d0c69a7	0.034280445
173	0xbe71ced3	-0.23614053
174	0x3a932365	0.0011225758
175	0x3cad8e05	0.021185884
176	0xbdac3fac	-0.08410582
177	0x3e661ab6	0.22471127
178	0x3cbb2d40	0.022848725
179	0x3f0c4f98	0.5480895
180	0xbbd11da0	-0.0063817054
181	0x3f246b69	0.64226395
182	0x3f68bb33	0.90910643
183	0xc02570d7	-2.5850122
184	0x3e8bbda1	0.27293113
185	0xbfdd3154	-1.7280679
186	0xc1b84ff7	-23.039045
187	0xbdc82c4f	-0.09774076
188	0xbe75523d	-0.23957153
189	0xbccab383	-0.024743801
190	0xbf7545fd	-0.9580992
191	0x3e418704	0.1889916
192	0xbe0ffcef	-0.1406133
193	0xbe162158	-0.14661157
194	0xbf951f8a	-1.165025
195	0xbd9fce2e	-0.078029975
196	0xbdd14c07	-0.10219579
197	0xbe0b867e	-0.13625523
198	0x3d8884ab	0.066659294
199	0xc084fb49	-4.1556745
200	0xbe44e78e	-0.19228956
201	0xbee72c66	-0.4515106
202	0xbdaa54c9	-0.08316953
203	0x3da16dff	0.07882308
204	0xbf7e9f7d	-0.9946211
205	0xbea7034b	-0.326197
206	0xbe615a52	-0.2200711
207	0xbe7d9c14	-0.2476657
208	0xbec773bf	-0.38955495
209	0xbe5c7c02	-0.2153168
210	0x3cceb592	0.025233064
211	0xbee9d668	-0.4567139
212	0xbe372363	-0.17884593
213	0x3cb73bd4	0.022367395
214	0xc00ff527	-2.249338
215	0xbeabad03	-0.33530435
216	0x3ca6512d	0.02030238
217	0xc09d6f02	-4.9198008
218	0x3da9dd02	0.08294107
219	0xbedefefc	-0.43553913
220	0x3d3e1969	0.04641095
221	0xbe9af81b	-0.30267414
222	0xbd896ac6	-0.067098185
223	0xbf6eb461	-0.93243986
224	0xbcc7c1fb	-0.02438449
225	0xc129a93f	-10.60382
226	0xbdb07f45	-0.08618025
227	0xc00d86a5	-2.211343
228	0xbd509d56	-0.050931297
229	0xbdaf2867	-0.08552628
230	0x3db5b5d8	0.088725746
231	0xbe3e7e4c	-0.18602866
232	0xc0db4222	-6.851823
233	0xbee5d4b5	-0.44888845
234	0xc08b2ed1	-4.349465
235	0xbe93d70c	-0.28875005
236	0xbde75788	-0.11295992
237	0xbfc489fd	-1.5354611
238	0x3d9f60b1	0.07782114
239	0x3ca05655	0.019572416
240	0xbdd63686	-0.10459618
241	0xc0877c30	-4.2339096
242	0xbcf9e74b	-0.030505797
243	0xc047d199	-3.1221678
244	0x3d1e4dec	0.03864853
245	0xbe0040cc	-0.12524718
246	0xbe177c64	-0.14793545
247	0xbe8f2b81	-0.27962878
248	0xc10244fe	-8.141844
249	0xbf95b95a	-1.169719
250	0xbdb22ca4	-0.08699921
251	0xbe9e9410	-0.30972338
252	0xbe4d1023	-0.20025687
253	0x3c2aa982	0.01041639
254	0xbef023c4	-0.46902287
255	0xbfac3719	-1.3454314

fc3.bias f4 [4]
0	0xbc9d3b0e	-0.019193199
1	0x3d4c56c1	0.049887422
2	0xbd1ab0bf	-0.037766214
3	0xc19fedc6	-19.9911
