custom_grid/data/ppo-0.0/ppo_final.pth (torch, 21485 bytes, 6 tensors)

fc1.weight f4 [64, 2]
0	0xbdf76bae	-0.12081085
1	0xbed57174	-0.4168812
2	0x3dbccc0c	0.09218606
3	0x3ede844b	0.43460307
4	0x3e379ddd	0.17931314
5	0x3ea3684c	0.3191551
6	0xbeb56189	-0.35425976
7	0x3eccf665	0.40031734
8	0x3f139ac6	0.5765804
9	0xbf08b9d0	-0.5340853
10	0x3ee04bf5	0.4380795
11	0x3d7c1a7b	0.06154869
12	0xbb8b5c7a	-0.0042529674
13	0xbd2a8fff	-0.04164123
14	0x3f157f46	0.5839733
15	0xbeb94b63	-0.36190328
16	0x3eee1517	0.46500465
17	0x3d8e8c50	0.06960356
18	0xbe88c1fb	-0.26710495
19	0x3e52c58b	0.20583169
20	0xbba89f1d	-0.005145921
21	0xbeb6415e	-0.35596746
22	0x3c35581e	0.011068372
23	0x3d24627b	0.04013298
24	0xbe8e98eb	-0.27851042
25	0xbf044f67	-0.5168366
26	0xbe627dd3	-0.2211831
27	0xbd90b78a	-0.07066257
28	0x3e3db4ae	0.18525955
29	0xc02c36e7	-2.690851
30	0x3f6d2ee8	0.926497
31	0xbfc761f3	-1.5576767
32	0x39a5f90c	0.00031656807
33	0xbde45244	-0.111485034
34	0xbd8ac73d	-0.06776283
35	0x3efb10da	0.49036294
36	0x3b2d1e27	0.0026415677
37	0xbe7a3d38	-0.24437416
38	0x3cc1f6eb	0.02367731
39	0xbf0729e8	-0.5279832
40	0x3ead44d8	0.33841586
41	0xbe33cbf1	-0.17558266
42	0x3d1e2b1e	0.03861534
43	0x3ee89efb	0.45433792
44	0x3f128b6d	0.57243997
45	0xbeeec0c2	-0.46631438
46	0x3cd12f05	0.025535116
47	0xbd3166b6	-0.043310843
48	0x3f3e880a	0.7442633
49	0xbf84f3b5	-1.0386873
50	0xbe82411e	-0.25440305
51	0x3e194128	0.14966261
52	0xb9affdb6	-0.0003356763
53	0xbcf809fe	-0.030278202
54	0x3db662c1	0.089055546
55	0x3f04c442	0.51861966
56	0x3e92ad42	0.2864781
57	0xbe15e0cb	-0.14636533
58	0x3d6f71d0	0.05845815
59	0xbf4bdf77	-0.79637855
60	0x3dd25433	0.10269966
61	0xbfdc1ffc	-1.7197261
62	0x3f105539	0.5638004
63	0xbf06345b	-0.5242364
64	0x3edfa331	0.43679193
65	0xbd324a5a	-0.04352794
66	0x3e54cca7	0.20781194
67	0xbe8c479d	-0.27398387
68	0xbe772644	-0.24135691
69	0xc02a106d	-2.6572526
70	0x3f06fca8	0.5272927
71	0x3e21c3f3	0.15797405
72	0x3f115365	0.56767875
73	0xbf5c303b	-0.86011094
74	0xbed35a59	-0.41279867
75	0xbf564da2	-0.8371221
76	0xbe88ab94	-0.26693404
77	0x3de44c0b	0.111473165
78	0x37349394	1.0763197e-05
79	0xbca930d8	-0.020653173
80	0xbedab522	-0.42716318
81	0xbf5971cc	-0.84939265
82	0x3f0d5c64	0.552191
83	0xbf0b35ac	-0.5437877
84	0x3f1471e0	0.5798626
85	0x3dab0916	0.083513424
86	0x3f3a2167	0.7270722
87	0xbf83649a	-1.0265076
88	0x3c05fe4c	0.008178305
89	0xbe82209d	-0.25415507
90	0x3f074f83	0.528557
91	0xbee80c54	-0.45321906
92	0x3e5d52cf	0.2161362
93	0x3eadce91	0.3394666
94	0xbec3174b	-0.3810371
95	0xbdb02a27	-0.0860179
96	0x3f193abb	0.5985524
97	0xbcb1d062	-0.02170581
98	0x3c85b1c5	0.016320119
99	0xbf7d0251	-0.9883166
100	0x3c054a12	0.0081353355
101	0xbf22e7e5	-0.6363509
102	0xbe8d3f6f	-0.27587458
103	0xbf90543d	-1.1275707
104	0x3dce2240	0.100651264
105	0xbfdc78e0	-1.7224388
106	0xbec6e545	-0.38846794
107	0xbea827a5	-0.32842746
108	0x3d0708e5	0.032967467
109	0xbf112531	-0.56697375
110	0x3b0395b5	0.0020078246
111	0xbd74a8a1	-0.05973113
112	0x3f41400e	0.75488365
113	0xc0091765	-2.142053
114	0x3e7d10f5	0.247135
115	0xbf807071	-1.0034314
116	0x3f13940f	0.57647794
117	0xbfc63ddc	-1.5487628
118	0xbf05f5c9	-0.52328163
119	0xbf523223	-0.8210775
120	0x3b006c39	0.0019595756
121	0xbe86b73b	-0.2631167
122	0x3dc72919	0.09724636
123	0xbfe8fdbb	-1.8202432
124	0xbe6366fe	-0.22207257
125	0xbe42da2c	-0.19028538
126	0xbcfb915e	-0.030708965
127	0xbf389e67	-0.721167

fc1.bias f4 [64]
0	0x3c8170b3	0.01580081
1	0xc035a42a	-2.8381448
2	0x404cc4fa	3.1995225
3	0xbfb35dd9	-1.4013015
4	0xbfcade86	-1.5849159
5	0x3fc84bde	1.5648153
6	0xbd6f3bdf	-0.058406707
7	0xc0635ce9	-3.5525458
8	0xbf725856	-0.9466604
9	0xc024b41b	-2.5734928
10	0x3ed9c99d	0.4253663
11	0xbfcfdb63	-1.6238827
12	0x3fb7d1b0	1.4360867
13	0xc06b84ef	-3.6799886
14	0xbdf84717	-0.12122934
15	0xbfa27af0	-1.2693768
16	0xbb11d678	-0.0022253077
17	0xc052819b	-3.2891605
18	0xbc4a4c68	-0.012347318
19	0x401ba2bd	2.4318078
20	0x402a9199	2.6651366
21	0xc08aba18	-4.3352165
22	0x3f6e4e08	0.93087816
23	0xbeda703d	-0.42663756
24	0xc010fa33	-2.265271
25	0xc0518a9b	-3.2740848
26	0xbbcd3060	-0.0062618703
27	0xc074b057	-3.823263
28	0x400d9f1a	2.2128358
29	0x3ecac322	0.39602
30	0xbe0be365	-0.13660963
31	0xc03460c4	-2.818406
32	0x402618fe	2.5952754
33	0xbff70b03	-1.9300236
34	0xbe4b0ab8	-0.19828308
35	0xc030e6da	-2.76409
36	0x3f953b4c	1.1658721
37	0xbf310f82	-0.6916429
38	0xbf359780	-0.70934296
39	0xbafc6557	-0.0019256276
40	0xbe746256	-0.23865637
41	0xc0275753	-2.6147048
42	0xc05a6c73	-3.4128692
43	0xc00d4c57	-2.2077844
44	0xbc213c45	-0.0098410295
45	0xc0476199	-3.115332
46	0xc0677e44	-3.6170816
47	0xc098cc99	-4.7749753
48	0xc0596434	-3.396741
49	0xbd01cdae	-0.031690292
50	0xbc0dbcba	-0.008650953
51	0xbe9128fd	-0.28351584
52	0xbdf592ab	-0.11990865
53	0x3faaefc0	1.3354416
54	0x3fea4898	1.8303404
55	0xbec88000	-0.39160156
56	0x3fa05eaf	1.2528895
57	0xbd3c3fca	-0.04595927
58	0x3efda67f	0.4954109
59	0xbfd2f28f	-1.6480273
60	0xbe3fbc91	-0.18724276
61	0xbde3b202	-0.11117937
62	0xc004add3	-2.0731094
63	0xbecc849c	-0.39944923

fc2.weight f4 [64, 64]
0	0x3e5bad20	0.2145276
1	0x3f723eb0	0.94626904
2	0x3ea40ad9	0.32039526
3	0xbd9ae25a	-0.075627044
4	0x3f35ff3c	0.7109258
5	0x3f0aa0bf	0.5415153
6	0xbf8c8ea3	-1.0981029
7	0x3d286dec	0.041120455
8	0xc107a2da	-8.477259
9	0x3e4325d0	0.19057393
10	0xbe6b76bf	-0.22994517
11	0x3ecd3873	0.4008213
12	0xbd23c47e	-0.03998231
13	0xbfd78f21	-1.6840554
14	0x40842373	4.1293273
15	0xbf5816a2	-0.84409535
16	0xc03da000	-2.9628906
17	0x3edc3175	0.43006483
18	0x3e0c1936	0.13681492
19	0x3e544250	0.20728421
20	0x3e4c58c6	0.1995574
21	0xc10fc04b	-8.984447
22	0xbe8b4100	-0.2719803
23	0xbe5d56e8	-0.21615183
24	0xbd94bcd8	-0.072625816
25	0xc0074333	-2.1134765
26	0x3dcf09f6	0.10109322
27	0xc02327bb	-2.5493
28	0x3e3d74c4	0.18501574
29	0x3d539769	0.051658068
30	0x3e536b14	0.20646316
31	0xbfb81afd	-1.4383236
32	0x3f441c2b	0.7660548
33	0x3f1c119e	0.6096438
34	0x3e98ae66	0.29820555
35	0xc06ef5eb	-3.7337596
36	0xbebaee29	-0.36509827
37	0xbd0d12d4	-0.034441784
38	0xbe64b43f	-0.22334383
39	0x3df709ca	0.12062414
40	0x3e39e3fe	0.18153378
41	0xbfa18ab7	-1.2620457
42	0x3e00067c	0.12502474
43	0x3e97460e	0.29545635
44	0x3dc65d43	0.09685757
45	0xbe0fbcf9	-0.14036931
46	0xbe90607d	-0.28198615
47	0xbf9ea566	-1.2394226
48	0x3e9b1c87	0.30295202
49	0x3d2a3b47	0.041560438
50	0x3d20104d	0.039078046
51	0xbe08d528	-0.13362563
52	0x3fc1d1cb	1.5142149
53	0xbee60c7e	-0.44931406
54	0xbe8080f5	-0.25098386
55	0xbfe1b7db	-1.7634233
56	0xbf3606fb	-0.711044
57	0xbe9eeb07	-0.31038687
58	0xbfa89641	-1.3170854
59	0x3e9eb5c7	0.3099806
60	0xbcb4ac68	-0.022054866
61	0x3e8b0699	0.2715347
62	0x3e3f9d1d	0.18712278
63	0xbdf95e57	-0.12176197
64	0x3f07f8f2	0.53114235
65	0xc01743df	-2.3635175
66	0x3e44c79f	0.19216774
67	0x3e6adac8	0.22935021
68	0xc0737207	-3.8038347
69	0xbf39c661	-0.7256833
70	0xbf73560c	-0.9505317
71	0xbd8cc4e9	-0.06873495
72	0xbeb8bb81	-0.36080554
73	0xbec1bca9	-0.3783925
74	0xbef26acd	-0.47347108
75	0x3f61bf78	0.88182783
76	0xbf31f2ec	-0.69511294
77	0xbd5f29c4	-0.05448319
78	0xc1078a3d	-8.47125
79	0xc0e1e61e	-7.0593405
80	0xbfb4fbf5	-1.4139391
81	0x3fc3b165	1.5288512
82	0x3dabc8f9	0.08387942
83	0x3f1e6b90	0.6188288
84	0xbebb914c	-0.3663429
85	0xc02c1641	-2.6888583
86	0x3e48bbe3	0.19602923
87	0xc0040668	-2.062891
88	0xc06ac747	-3.668413
89	0xc0011820	-2.0170975
90	0x3b3a9f24	0.0028476203
91	0xc0474ca4	-3.1140528
92	0xbe544f1a	-0.207333
93	0x3ddf0880	0.10890293
94	0xc08a4ffa	-4.322263
95	0x3dd20cc8	0.10256344
96	0xbc973d17	-0.018461747
97	0xbf65bb59	-0.89738995
98	0x3e69dc2d	0.22837897
99	0xbdbdd345	-0.09268812
100	0xbe9709bc	-0.29499614
101	0xbe485b7a	-0.19566146
102	0x3cea4713	0.028598344
103	0xbcc6b64c	-0.024256848
104	0x3eb872c7	0.36025068
105	0xbb75e4a6	-0.0037520318
106	0xbd19f227	-0.03758445
107	0xc0c68c80	-6.204651
108	0xbc7086df	-0.014680593
109	0xbcd93400	-0.026514053
110	0xbe4758b7	-0.19467436
111	0x3e063302	0.13105395
112	0xbeb1d36c	-0.34731615
113	0x3ef96919	0.48712996
114	0xbe21c31a	-0.15797082
115	0x3f2530c6	0.6452755
116	0xc05fa0bb	-3.4941852
117	0xbfefc7a6	-1.8732803
118	0xbef2cd17	-0.47422096
119	0xbeed481b	-0.46344075
120	0x3db355fc	0.087566346
121	0xbf0b5343	-0.5442392
122	0x3f137cd0	0.57612324
123	0x3e922941	0.285471
124	0x3daba0f4	0.08380309
125	0xbe716dde	-0.23577067
126	0xbfa12bbb	-1.259147
127	0x3bfca9f0	0.007710688
128	0xbdb5ba1c	-0.08873388
129	0xbd9fe3b6	-0.07807104
130	0xbba8d77f	-0.0051526423
131	0xbba6b31e	-0.0050872704
132	0xbda1fe76	-0.07909863
133	0x3ecbe621	0.39824012
134	0xc011bca5	-2.277139
135	0xbdfca404	-0.12335971
136	0xc0864511	-4.195931
137	0xbdac551f	-0.08414673
138	0x3d90ec9d	0.070763804
139	0xbc87948c	-0.016550325
140	0xbdfb0a2c	-0.122577995
141	0xbeb707bb	-0.35748085
142	0x3cfa7c42	0.030576829
143	0xbdbe6c62	-0.09298016
144	0xc03609e0	-2.8443527
145	0x3ce4b57d	0.027918572
146	0x3e1e3b26	0.15452251
147	0xbe8bd957	-0.27314255
148	0xbfa84c03	-1.3148197
149	0xbc103ee4	-0.008804057
150	0xbdb32715	-0.08747689
151	0x3e437082	0.19085887
152	0xbdcef07c	-0.101044625
153	0xbc68ccf2	-0.014209019
154	0x3d3a0c22	0.045421727
155	0x3cabdd4d	0.020979548
156	0xbfbcec8b	-1.4759687
157	0x3bac909b	0.0052662618
158	0x3b1c36a2	0.0023836275
159	0x3d8c43d0	0.06848872
160	0xbfe12326	-1.7588851
161	0x3d388f98	0.045058817
162	0xbe395d3c	-0.18101972
163	0x3ea80da3	0.32822904
164	0x3d513864	0.05107917
165	0xbbc3c7fa	-0.005974767
166	0xbe0d1249	-0.13776506
167	0x3e462412	0.19349697
168	0xbf0f6e7f	-0.5602798
169	0xbd91c090	-0.071168065
170	0xbde6cc50	-0.11269438
171	0x3bb6f620	0.0055835396
172	0xbd147a60	-0.03624952
173	0x3ce2acf0	0.027670354
174	0x3b20de90	0.002454672
175	0x3e7ea555	0.24867757
176	0xbdef133c	-0.116735905
177	0xbe21046b	-0.15724342
178	0xbd4ac2fd	-0.04950236
179	0x3da3e554	0.08002725
180	0xbdd521d1	-0.104068406
181	0x3d2d7f5d	0.04235779
182	0xbdf0cbcd	-0.11757622
183	0xc0123d5b	-2.2849948
184	0xbbd0d365	-0.0063728564
185	0x3da54d2a	0.080713585
186	0x3d95a4fa	0.073068574
187	0xbfa73dc9	-1.306573
188	0x3dab2a5e	0.0835769
189	0xbdfa3e9e	-0.122189745
190	0x3ddc9b41	0.107718
191	0x3d8cd509	0.06876571
192	0xbafe3fc8	-0.001939767
193	0x3debe0f3	0.11517515
194	0xbe128c0d	-0.14311238
195	0xbdac2fdf	-0.08407568
196	0x3d955010	0.07290661
197	0xbd0027c4	-0.031287923
198	0xbcc26453	-0.023729479
199	0xbd5b2a15	-0.05350693
200	0x3db3b717	0.08775156
201	0x3cf226c2	0.029559497
202	0x3b163f73	0.0022926002
203	0xbd8d671b	-0.069044314
204	0xbe0e92fc	-0.13923258
205	0xbc956ada	-0.018239427
206	0x3cfe31cd	0.031029606
207	0xbd6c6580	-0.057713985
208	0xbd077f81	-0.03308058
209	0x3da5f0fc	0.08102605
210	0x3bd1c6d2	0.006401875
211	0xbd02542d	-0.031818558
212	0xbd0646db	-0.032782417
213	0xbde4bc5f	-0.111687414
214	0xbdfd00e5	-0.12353686
215	0xbd6dbe6f	-0.05804294
216	0xbd82215a	-0.063540176
217	0x3beb84b2	0.0071874494
218	0xbd2a3991	-0.041558806
219	0xbd42ac5a	-0.04752765
220	0x3deb06b1	0.11475886
221	0x3d19bec1	0.037535433
222	0x3daa347c	0.08310792
223	0xbd77dda0	-0.060514092
224	0xbd55989b	-0.05214749
225	0x3d239602	0.03993798
226	0xbdf7e8a8	-0.121049225
227	0xbda40463	-0.08008649
228	0xbc454de8	-0.0120425
229	0xbd9eadea	-0.07748015
230	0xbe06d80b	-0.13168351
231	0x3d8f9c89	0.070122786
232	0x3d8086c6	0.06275706
233	0x3ca61de0	0.020277917
234	0xbcb5e978	-0.022206053
235	0xbded203a	-0.11578412
236	0xbdaaafc7	-0.08334308
237	0x3d02590c	0.031823203
238	0x3d780d2c	0.060559437
239	0xbd42cf1f	-0.047560807
240	0xbd4ee4f2	-0.050511308
241	0x3d029b60	0.03188646
242	0xbdd60482	-0.104500785
243	0x3d418206	0.04724314
244	0xbd5f3a54	-0.054498985
245	0xbd12dc0c	-0.035854384
246	0xbd7fcbc9	-0.062450204
247	0x3c8b6c24	0.017019339
248	0xbd33528b	-0.04377989
249	0x3d599b8c	0.053126857
250	0xbc17a0b7	-0.009254626
251	0x3d86c9ff	0.065814964
252	0x3df62396	0.12018506
253	0xbd89042f	-0.06690251
254	0xbdfbcc90	-0.122948766
255	0x3dcd63aa	0.10028775

fc2.bias f4 [64]
0	0x3f216ea5	0.63059455
1	0x3ee28a72	0.4424625
2	0xbe77a32f	-0.24183343
3	0x3d3df28c	0.04637389
4	0x3e312375	0.17298682
5	0xbe0ef27b	-0.13959686
6	0xbcfe090e	-0.031010177
7	0x3db89d42	0.090143695
8	0x3cf82255	0.030289808
9	0xc0086eee	-2.1317706
10	0xc07069e0	-3.756462
11	0xbdde0466	-0.10840683
12	0xbcef7433	-0.029230213
13	0x3f19e2a3	0.60111445
14	0x3e876d87	0.2645075
15	0xbe8b1b50	-0.27169275
16	0x3f52de2f	0.82370275
17	0xbe3c9241	-0.18415166
18	0xbd89147b	-0.066933595
19	0x3ee92d98	0.45542598
20	0xbf84303f	-1.0327224
21	0xbe198f33	-0.14996032
22	0xbfd1207c	-1.6338038
23	0xbe8ad6c9	-0.27116993
24	0xbda4f5ad	-0.080546714
25	0xbe953dca	-0.29148704
26	0xbe245ac1	-0.16050245
27	0x3e133b89	0.1437818
28	0xbdb61101	-0.08889962
29	0x3ebef50f	0.3729634
30	0xbd99ac40	-0.07503557
31	0xbdedc979	-0.116106935
32	0x3cabdd14	0.020979442
33	0xbf31ff71	-0.695304
34	0x3cc0cdce	0.023535635
35	0xbf8d3027	-1.103032
36	0xbe3f297e	-0.18668172
37	0x3f67825d	0.90433294
38	0xbd6df5c6	-0.058095716
39	0xbf4be518	-0.79646444
40	0xbffcff5e	-1.9765432
41	0xbd9bed2d	-0.07613597
42	0xbf355ed1	-0.70847803
43	0xbebe4c24	-0.37167466
44	0xbd4745dd	-0.04865061
45	0xbeed63a7	-0.4636509
46	0xbdd64a00	-0.10463333
47	0xbe295ad1	-0.1653855
48	0xbe269ea8	-0.1627146
49	0x3ed12e5e	0.40855688
50	0xbdfdd70a	-0.12394531
51	0x3ee6e1fa	0.4509428
52	0x3c94ef55	0.018180529
53	0x3e8f8f5b	0.2803906
54	0x3f79f002	0.9763185
55	0xbe67c8a9	-0.2263514
56	0x3ec9c16b	0.3940538
57	0x3f8a53fa	1.0806878
58	0xbe6769dd	-0.22598977
59	0x3dab76a6	0.0837224
60	0x3f0b1c09	0.54339653
61	0xbd69e706	-0.057105087
62	0x3f3c2206	0.73489416
63	0xbf950156	-1.1641033

fc3.weight f4 [4, 64]
0	0xbf187f5e	-0.59569347
1	0x3ed066c9	0.4070342
2	0x3ca86bc2	0.020559195
3	0xbd77442a	-0.06036774
4	0xbee887d5	-0.45416132
5	0x3e963d59	0.2934368
6	0xbe1c18a4	-0.15243775
7	0x3ceda3b5	0.029008726
8	0x3ee9df34	0.45678103
9	0x4042e4f8	3.0452251
10	0xc10c7008	-8.777351
11	0xbd03c693	-0.032171797
12	0x3d3ced1d	0.046124566
13	0xbcbc0da6	-0.022955727
14	0xbf05a0c4	-0.52198434
15	0x3d998787	0.07496553
16	0x3ea6f3d3	0.32607898
17	0x3deb642b	0.11493715
18	0xbdb46be8	-0.08809644
19	0x3f2894a4	0.6585181
20	0xbfaf99fe	-1.371887
21	0x3c481b08	0.012213476
22	0xc1127a10	-9.1548
23	0x3d4465d0	0.04794866
24	0x3eced793	0.40398845
25	0x3dc3dbe1	0.09563423
26	0xbd80e8a1	-0.062943704
27	0xc172cfb5	-15.17571
28	0x3d4ca2ff	0.049960133
29	0xbfb8ab35	-1.4427248
30	0x3ef1b1b7	0.47205898
31	0x3a9ca348	0.0011950517
32	0x3d33d888	0.043907672
33	0xbdadf7ae	-0.08494507
34	0xbd9b9ef8	-0.0759868
35	0x3f2f5760	0.684927
36	0xbddfd42c	-0.109291404
37	0xbed2eab3	-0.41194686
38	0xbc71bd65	-0.014754628
39	0xbf41ac25	-0.75653297
40	0x3e61fc34	0.22068864
41	0xbc40c343	-0.011765304
42	0xbd483778	-0.048881024
43	0xbc2732ca	-0.01020498
44	0xbc2a072f	-0.010377689
45	0x3d9743c9	0.07385976
46	0xbc1a1a3b	-0.009405668
47	0x3d4e5b50	0.05038005
48	0xbde0d5da	-0.10978289
49	0xbe680832	-0.22659376
50	0xbd9eda06	-0.077564284
51	0xbea53fa8	-0.32275128
52	0xbd4de5c2	-0.050267942
53	0x3f125a29	0.57168823
54	0xbdb7b963	-0.089709066
55	0x3f9023ff	1.1260985
56	0xbf4910a5	-0.7854102
57	0x3f052f36	0.52025163
58	0x3c03be17	0.008040926
59	0xc1955e10	-18.670929
60	0x3f53c468	0.8272157
61	0x3d8a2569	0.06745417
62	0x3e382830	0.1798408
63	0xc1a0cb5c	-20.099297
64	0x3f085b6b	0.5326449
65	0xbf3c91c2	-0.7365991
66	0xbc27cc89	-0.010241636
67	0xbd25e40b	-0.04050068
68	0xbe48e17b	-0.19617264
69	0xbec76829	-0.38946655
70	0xbd6104de	-0.054936282
71	0x3e023adb	0.12717764
72	0xc2089e79	-34.15476
73	0xc0144b4c	-2.3170958
74	0x3ec79bab	0.38985953
75	0xbd8992db	-0.067174636
76	0x3e64b419	0.22334327
77	0x3e745ed2	0.23864296
78	0x3ed5ce42	0.41758925
79	0x3cc0faae	0.023557033
80	0xbe25313b	-0.16132061
81	0x3e0b0e41	0.13579656
82	0xbd83ba00	-0.06431961
83	0x3ea906a2	0.33012873
84	0x3d43717c	0.04771565
85	0xbd3fdf05	-0.046843547
86	0x3e923280	0.28554153
87	0x3d8e0cd1	0.06936038
88	0xbfdad4f7	-1.7096242
89	0x3b9e9eed	0.004840723
90	0xbc16d7c2	-0.009206714
91	0x3e2922b5	0.16517146
92	0xbc4d9d67	-0.012549735
93	0x3f3dbedb	0.7411935
94	0xbe9d2a31	-0.30696252
95	0x3dc998d6	0.09843604
96	0xbd955524	-0.0729163
97	0xbdb9856a	-0.0905865
98	0xbd7f2983	-0.062295448
99	0xc084d157	-4.150554
100	0xbd88f309	-0.0668698
101	0xbea70f04	-0.32628644
102	0xbdb8ec5e	-0.090294585
103	0xbfe99200	-1.8247681
104	0x3e8fceee	0.28087562
105	0x3c2f5161	0.010700555
106	0x3e252da4	0.16130692
107	0x3df6889f	0.12037777
108	0x3d31e2d6	0.04342922
109	0x3dba603e	0.09100388
110	0xbd0702e7	-0.032961752
111	0x3d5d639a	0.054050066
112	0xbcdc3afc	-0.026883595
113	0xbda2f42e	-0.0795673
114	0xbd2db474	-0.04240842
115	0xbdc7f4af	-0.097634666
116	0x3da9b656	0.08286731
117	0xbf788602	-0.9707948
118	0xbe1b8bb2	-0.15190008
119	0x3dea2e2e	0.11434589
120	0x3ebf8da9	0.37412766
121	0x3efd0c4a	0.49423438
122	0x3e3b4007	0.18286143
123	0x3f20f18e	0.62868583
124	0xbea99d2f	-0.33127734
125	0x3ca289d3	0.01984111
126	0x3e8bf2b1	0.27333596
127	0x3e82648f	0.25467345
128	0x3e89b1fc	0.26893604
129	0x3ef4e47e	0.47830576
130	0x3ce9d767	0.028545095
131	0x3db656a4	0.08903244
132	0x3f7f48f6	0.99720705
133	0x3d5d7bcf	0.05407315
134	0x3c5783ab	0.013153951
135	0xbe884f25	-0.26622882
136	0xbe7a37bb	-0.24435322
137	0x407cb01f	3.9482496
138	0x3ece3632	0.40275723
139	0x3d1de377	0.038547006
140	0xc1f65ae5	-30.794382
141	0xbeb0ed8f	-0.34556243
142	0x3df42382	0.11920835
143	0xbd33c20d	-0.043886233
144	0xbeaef98e	-0.3417477
145	0xc12ebaf5	-10.920644
146	0xbd84c6b9	-0.06483216
147	0xbf9a9113	-1.2075523
148	0x3f05cc41	0.5226479
149	0xbcc23721	-0.023707928
150	0x3e6df086	0.23236284
151	0xbef2d652	-0.47429138
152	0x3f5bb434	0.85821843
153	0xbc049b25	-0.00809363
154	0xbd352afa	-0.04423044
155	0x3d4b37dd	0.049613822
156	0xbd8c8dd5	-0.0686299
157	0x3f47aa74	0.77994466
158	0xbd3a51b8	-0.04548809
159	0x3d378575	0.04480501
160	0xbc12826b	-0.008942227
161	0xbdf49637	-0.11942714
162	0xbd6c5d29	-0.057706032
163	0x3f57f16e	0.8435277
164	0xbd77293c	-0.06034206
165	0x3f573d44	0.8407786
166	0xbd4f9aea	-0.050684847
167	0x402d24ee	2.705379
168	0xc0bac718	-5.8368034
169	0xbd32545c	-0.043537483
170	0xbf1aa7f5	-0.6041253
171	0xbef5069d	-0.47856608
172	0x3d0c69a7	0.034280445
173	0xbe71ced3	-0.23614053
174	0x3a932365	0.0011225758
175	0x3cad8e05	0.021185884
176	0xbdac3fac	-0.08410582
177	0x3e7f45e8	0.24929011
178	0x3cbb2d40	0.022848725
179	0x3f0ec9f0	0.5577688
180	0xbbd11da0	-0.0063817054
181	0x3f278929	0.65443665
182	0x3f5f956d	0.8733738
183	0xc025a333	-2.588086
184	0x3e6e1e5c	0.23253769
185	0xbfe7510a	-1.8071606
186	0xc1b84ff7	-23.039045
187	0xbe54d56f	-0.20784543
188	0xbe774771	-0.24148346
189	0xbccab383	-0.024743801
190	0xbf750b58	-0.95720434
191	0x3df34488	0.11878306
192	0xbe0ffcef	-0.1406133
193	0xbe162158	-0.14661157
194	0xbf951f8a	-1.165025
195	0xbd9fce2e	-0.078029975
196	0xbdd14c07	-0.10219579
197	0xbe0b8616	-0.13625368
198	0x3d8884ab	0.066659294
199	0xc084fb49	-4.1556745
200	0xbe44e78e	-0.19228956
201	0xbee72c66	-0.4515106
202	0xbdaa54c9	-0.08316953
203	0x3da16dff	0.07882308
204	0xbf7e9f7d	-0.9946211
205	0xbea7034b	-0.326197
206	0xbe615a52	-0.2200711
207	0xbe7d9c14	-0.2476657
208	0xbec773bf	-0.38955495
209	0xbe5c7c02	-0.2153168
210	0x3cceb592	0.025233064
211	0xbee9d668	-0.4567139
212	0xbe372363	-0.17884593
213	0x3cb73bd4	0.022367395
214	0xc00ff527	-2.249338
215	0xbeabad03	-0.33530435
216	0x3ca6512d	0.02030238
217	0xc09d6f02	-4.9198008
218	0x3da9dd02	0.08294107
219	0xbedefefc	-0.43553913
220	0x3d3e1969	0.04641095
221	0xbe9af81b	-0.30267414
222	0xbd896ac6	-0.067098185
223	0xbf6eb461	-0.93243986
224	0xbcc7c1fb	-0.02438449
225	0xc129a93f	-10.60382
226	0xbdb07f45	-0.08618025
227	0xc00d86a5	-2.211343
228	0xbd509d56	-0.050931297
229	0xbdaf2867	-0.08552628
230	0x3db5b5d8	0.088725746
231	0xbe3e7e4c	-0.18602866
232	0xc0db4222	-6.851823
233	0xbee5d4b5	-0.44888845
234	0xc08b2ed1	-4.349465
235	0xbe93d70c	-0.28875005
236	0xbde75788	-0.11295992
237	0xbfc489fd	-1.5354611
238	0x3d9f60b1	0.07782114
239	0x3ca05655	0.019572416
240	0xbdd63686	-0.10459618
241	0xc0877c30	-4.2339096
242	0xbcf9e74b	-0.030505797
243	0xc047d199	-3.1221678
244	0x3d1e4dec	0.03864853
245	0xbe0040cc	-0.12524718
246	0xbe177c64	-0.14793545
247	0xbe8f2b81	-0.27962878
248	0xc10244fe	-8.141844
249	0xbf95b95a	-1.169719
250	0xbdb22ca4	-0.08699921
251	0xbe9e9410	-0.30972338
252	0xbe4d1023	-0.20025687
253	0x3c2aa982	0.01041639
254	0xbef023c4	-0.46902287
255	0xbfac3719	-1.3454314

fc3.bias f4 [4]
0	0xbcc0bb0f	-0.023526696
1	0x3dbe3832	0.09288062
2	0xbdb19e6a	-0.08672793
3	0xc19fedc6	-19.9911
