custom_grid/data/ppo-0.0/ppo_iter_950.pth (torch, 21521 bytes, 6 tensors)

fc1.weight f4 [64, 2]
000000 5f 50 c5 bd 7a 65 e7 be c1 5b bc 3d eb df df 3e
       -0.0963447 -0.45194608 0.09197188 0.43725523
000010 99 4f 31 3e a9 59 9a 3e da 39 bf be e1 f3 c0 3e
       0.1731552 0.3014653 -0.37348825 0.37686065
000020 6a f7 14 3f a0 2a 06 bf a0 3a d9 3e 80 3d 7f 3d
       0.58190024 -0.5240879 0.4242754 0.06231451
000030 51 32 5d bb 25 44 18 bd 01 3e 18 3f 92 f2 b3 be
       -0.0033751915 -0.037174363 0.5946961 -0.35146004
000040 ec 7d e4 3e fd c7 8c 3d 83 1c 80 be 58 b1 45 3e
       0.4462732 0.06874082 -0.25021753 0.19305933
000050 2d 01 5c bc f0 01 bb be 1e 58 35 3c 7b 62 24 3d
       -0.013428015 -0.36524916 0.011068372 0.04013298
000060 8b 2d 95 be 83 30 02 bf 84 81 6a be 90 b7 90 bd
       -0.2913631 -0.50855273 -0.22900969 -0.07066262
000070 21 c9 48 3e fc 5d 30 c0 86 32 68 3f 6a a8 c9 bf
       0.19607975 -2.7557364 0.9070209 -1.5754521
000080 0c f9 a5 39 44 52 e4 bd 74 75 52 bd 1f 1f fd 3e
       0.00031656807 -0.111485034 -0.051381543 0.49437806
000090 27 1e 2d 3b 38 3d 7a be fd 3f f2 3c c5 c7 0b bf
       0.0026415677 -0.24437416 0.029571528 -0.546017
0000a0 39 6a a2 3e 8e 1f 43 be 5d ee 23 3d 36 4a f8 3e
       0.31721666 -0.19055006 0.040022243 0.48494118
0000b0 d0 0d 16 3f 66 a8 e7 be 05 2f d1 3c b6 66 31 bd
       0.58614826 -0.45245665 0.025535116 -0.043310843
0000c0 e1 e3 42 3f d2 a6 82 bf be 09 82 be 37 1a 24 3e
       0.76128966 -1.020716 -0.25398058 0.16025625
0000d0 7b 89 b4 b9 fe 09 f8 bc cf d8 c9 3d 94 4d 03 3f
       -0.00034434706 -0.030278202 0.09855806 0.5129025
0000e0 08 6b 83 3e 0a 16 2b be 8e c6 42 3d 03 63 58 bf
       0.25667596 -0.16707626 0.047552638 -0.8452608
0000f0 33 54 d2 3d fc 1f dc bf 15 c2 12 3f 6d ab 03 bf
       0.10269966 -1.7197261 0.57327396 -0.5143345
000100 d2 21 d6 3e 0e a2 41 bd 81 1d 6c 3e 86 12 7f be
       0.41822678 -0.047273688 0.2305813 -0.2490941
000110 84 80 67 be 1e f3 29 c0 a9 c5 06 3f b0 f5 24 3e
       -0.22607619 -2.6554637 0.52645355 0.16109347
000120 7a ec 0f 3f 73 11 5e bf f6 4c c7 be 4e a2 5b bf
       0.5622021 -0.86745375 -0.38925904 -0.8579453
000130 3c 3d 88 be e4 95 d9 3d 94 93 34 37 d8 30 a9 bc
       -0.26609218 0.106242925 1.0763197e-05 -0.020653173
000140 76 a1 e3 be 33 9d 54 bf 42 d7 0f 3f 00 8d 08 bf
       -0.44459122 -0.83052367 0.5618783 -0.5334015
000150 05 3a 17 3f 3d fa c9 3d 00 71 3e 3f b4 19 81 bf
       0.59072906 0.09862182 0.74391174 -1.0085969
000160 4c fe 05 3c 9d 20 82 be cc 07 0a 3f 29 48 e2 be
       0.008178305 -0.25415507 0.5391815 -0.4419568
000170 e3 f5 5d 3e 8b ec ad 3e ad 46 be be ef 91 bb bd
       0.2167583 0.3396953 -0.37163296 -0.09158694
000180 57 d3 1d 3f 7f a6 38 ba c5 b1 85 3c 51 02 7d bf
       0.61650604 -0.0007043853 0.016320119 -0.9883166
000190 12 4a 05 3c e5 e7 22 bf 67 c5 98 be fd 6a 8d bf
       0.0081353355 -0.6363509 -0.29838106 -1.1048275
0001a0 40 22 ce 3d e0 78 dc bf ac 3f d1 be ef 6b 9c be
       0.100651264 -1.7224388 -0.4086889 -0.30551097
0001b0 84 d3 29 3d 9a 7f 14 bf b5 95 03 3b a1 a8 74 bd
       0.041461483 -0.58007205 0.0020078246 -0.05973113
0001c0 30 72 3e 3f 8e c9 09 c0 97 6b 63 3e d2 49 85 bf
       0.74392986 -2.152927 0.22209011 -1.0413153
0001d0 56 03 0f 3f 33 a6 c8 bf c5 27 01 bf d0 c7 57 bf
       0.55864465 -1.567572 -0.5045131 -0.84289265
0001e0 39 6c 00 3b 3b b7 86 be 19 29 c7 3d bb fd e8 bf
       0.0019595756 -0.2631167 0.09724636 -1.8202432
0001f0 38 c6 42 be e6 81 65 be db 58 20 bd 67 9e 38 bf
       -0.19020927 -0.22412834 -0.03914724 -0.721167

fc1.bias f4 [64]
000000 9f 27 a5 bb fb cf 35 c0 3c 5b 4c 40 b4 b4 b5 bf
       -0.0050401236 -2.8408191 3.1930685 -1.4195771
000010 8f 58 ca bf 72 36 c8 3f 15 80 77 bd 5a c9 62 c0
       -1.5808276 1.5641615 -0.060424883 -3.5435395
000020 c8 4b 73 bf ae 22 26 c0 7c 78 d5 3e 63 db cf bf
       -0.9503751 -2.5958667 0.41693485 -1.6238827
000030 ec 01 b9 3f 5f 27 6b c0 22 34 d9 bd 4b 1e a5 bf
       1.4453712 -3.674278 -0.10605647 -1.289987
000040 78 d6 11 bb 78 92 52 c0 68 4c 4a bc c1 29 1b 40
       -0.0022253077 -3.2901897 -0.012347318 2.4244235
000050 15 ea 29 40 91 ce 89 c0 89 9e 6e 3f 3d 70 da be
       2.6549122 -4.3064656 0.93210655 -0.42663756
000060 aa 02 10 c0 85 9f 51 c0 3e 08 d5 bb 70 38 75 c0
       -2.2501626 -3.2753613 -0.0065012267 -3.8315697
000070 4c cb 0c 40 b6 55 d6 3e 65 e3 0b be a8 da 33 c0
       2.1999083 0.41862267 -0.13660963 -2.8102207
000080 05 dc 25 40 5a d9 f3 bf e6 51 64 be 18 f4 30 c0
       2.591554 -1.9050705 -0.22296867 -2.7648983
000090 83 7e 94 3f 50 9c 36 bf 2e e2 33 bf 57 65 fc ba
       1.1601108 -0.71332264 -0.70267 -0.0019256276
0000a0 91 2a 64 be 30 c9 26 c0 03 d6 59 c0 d6 58 0c c0
       -0.22281863 -2.6060295 -3.4036872 -2.192922
0000b0 45 3c 21 bc 41 c2 46 c0 a5 68 67 c0 b9 1b 99 c0
       -0.0098410295 -3.1056063 -3.615762 -4.784634
0000c0 95 75 58 c0 ae cd 01 bd ba bc 0d bc af 12 86 be
       -3.3821766 -0.031690292 -0.008650953 -0.2618613
0000d0 ab 92 f5 bd f3 23 ad 3f 2c 3d e9 3f 00 80 c8 be
       -0.11990865 1.3526596 1.8221793 -0.39160156
0000e0 54 be 9e 3f 6f 16 38 bd 8e 74 f5 3e ea 2e d5 bf
       1.2401834 -0.04494327 0.47940487 -1.6654942
0000f0 91 bc 3f be 02 b2 e3 bd 66 b2 06 c0 04 26 c9 be
       -0.18724276 -0.11117937 -2.1046386 -0.39286816

fc2.weight f4 [64, 64]
000000 bf 62 51 3e ca 5c 70 3f 2c 9b 9a 3e 6d 7b a5 bd
       0.20447825 0.93891585 0.30196512 -0.08080182
000010 3c ff 35 3f 02 a7 05 3f 68 e0 8c bf ec 6d 28 3d
       0.7109258 0.5220796 -1.1005983 0.041120455
000020 08 83 07 c1 d5 0b c5 3d dd 4a 7a be 73 38 cd 3e
       -8.46949 0.096213974 -0.2444262 0.4008213
000030 d8 f9 75 bd 21 8f d7 bf 21 b2 84 40 a2 16 58 bf
       -0.060052723 -1.6840554 4.1467443 -0.84409535
000040 00 a0 3d c0 f0 21 d3 3e 36 19 0c 3e 31 6e 3f 3e
       -2.9628906 0.4123683 0.13681492 0.18694378
000050 b9 24 37 3e 12 ad 0f c1 cb 59 8d be e8 56 5d be
       0.17885102 -8.9797535 -0.2760757 -0.21615183
000060 d8 bc 94 bd 46 4c 07 c0 ee 65 d3 3d e7 00 23 c0
       -0.072625816 -2.1140304 0.10322176 -2.54693
000070 88 87 28 3e b6 26 29 3d 14 6b 53 3e fd 1a b8 bf
       0.16457951 0.041296683 0.20646316 -1.4383236
000080 ce b4 3e 3f 9e 11 1c 3f f5 4c 94 3e eb f5 6e c0
       0.74494636 0.6096438 0.28964964 -3.7337596
000090 e5 e9 bb be aa e1 2c bd 4a 39 67 be ca 09 f7 3d
       -0.36701885 -0.042207398 -0.22580448 0.12062414
0000a0 fa ce 2c 3e b7 8a a1 bf 7c 06 00 3e 0e 46 97 3e
       0.1687583 -1.2620457 0.12502474 0.29545635
0000b0 43 5d c6 3d f9 bc 0f be 7d 60 90 be bb cc 9e bf
       0.09685757 -0.14036931 -0.28198615 -1.2406229
0000c0 87 1c 9b 3e 47 3b 2a 3d 4d 10 20 3d 76 e9 11 be
       0.30295202 0.041560438 0.039078046 -0.14249215
0000d0 cb d1 c1 3f c8 84 ec be da 7e 89 be db b7 e1 bf
       1.5142149 -0.46195054 -0.26854593 -1.7634233
0000e0 fd 06 36 bf 9f 91 95 be df f7 a7 bf 71 1a 9a 3e
       -0.71104413 -0.29212663 -1.3122519 0.30098298
0000f0 68 ac b4 bc 99 06 8b 3e 52 8e 3c 3e 7c fd fb bd
       -0.022054866 0.2715347 0.18413666 -0.12304208
000100 f2 f8 07 3f a6 d8 16 c0 d3 c8 41 3e 06 f1 5d 3e
       0.53114235 -2.3569732 0.18924265 0.21673974
000110 07 72 73 c0 48 5e 34 bf 0c 56 73 bf e9 c4 8c bd
       -3.8038347 -0.7045636 -0.9505317 -0.06873495
000120 81 bb b8 be e3 dc dc be cd 6a f2 be 78 bf 61 3f
       -0.36080554 -0.43137273 -0.47347108 0.88182783
000130 ec f2 31 bf c4 29 5f bd 3d 8a 07 c1 1e e6 e1 c0
       -0.69511294 -0.05448319 -8.47125 -7.0593405
000140 f5 fb b4 bf 02 a7 c2 3f f9 c8 ab 3d 97 f9 1f 3f
       -1.4139391 1.5207217 0.08387942 0.6249022
000150 7b c8 91 be 70 6c 2b c0 ba 16 4f 3e 68 06 04 c0
       -0.28473267 -2.6784935 0.20223513 -2.062891
000160 47 c7 6a c0 20 18 01 c0 24 9f 3a 3b f5 7b 46 c0
       -3.668413 -2.0170975 0.0028476203 -3.1013157
000170 06 37 00 be 80 08 df 3d fa 4f 8a c0 c8 0c d2 3d
       -0.1252099 0.10890293 -4.322263 0.10256344
000180 0d 6e 82 bb 59 bb 65 bf 2d dc 69 3e 45 d3 bd bd
       -0.003980404 -0.89738995 0.22837897 -0.09268812
000190 bc 09 97 be 7a 5b 48 be 6d 7b 35 3c 4c b6 c6 bc
       -0.29499614 -0.19566146 0.01107679 -0.024256848
0001a0 c7 72 b8 3e a6 e4 75 bb 27 f2 19 bd 80 8c c6 c0
       0.36025068 -0.0037520318 -0.03758445 -6.204651
0001b0 df 86 70 bc 00 34 d9 bc b7 58 47 be 02 33 06 3e
       -0.014680593 -0.026514053 -0.19467436 0.13105395
0001c0 6c d3 b1 be 19 69 f9 3e 1a c3 21 be c6 30 25 3f
       -0.34731615 0.48712996 -0.15797082 0.6452755
0001d0 bb a0 5f c0 ba 3a f5 bf 49 c1 ef be 1b 48 ed be
       -3.4941852 -1.9158547 -0.46827152 -0.46344075
0001e0 fc 55 b3 3d 43 53 0b bf d0 7c 13 3f 41 29 92 3e
       0.087566346 -0.5442392 0.57612324 0.285471
0001f0 f4 a0 ab 3d de 6d 71 be bb 2b a1 bf f0 a9 fc 3b
       0.08380309 -0.23577067 -1.259147 0.007710688
000200 1c ba b5 bd b6 e3 9f bd 7f d7 a8 bb 1e b3 a6 bb
       -0.08873388 -0.07807104 -0.0051526423 -0.0050872704
000210 76 fe a1 bd 21 e6 cb 3e a5 bc 11 c0 04 a4 fc bd
       -0.07909863 0.39824012 -2.277139 -0.12335971
000220 11 45 86 c0 1f 55 ac bd 9d ec 90 3d 8c 94 87 bc
       -4.195931 -0.08414673 0.070763804 -0.016550325
000230 2c 0a fb bd bb 07 b7 be 42 7c fa 3c 62 6c be bd
       -0.122577995 -0.35748085 0.030576829 -0.09298016
000240 e0 09 36 c0 7d b5 e4 3c 26 3b 1e 3e 57 d9 8b be
       -2.8443527 0.027918572 0.15452251 -0.27314255
000250 03 4c a8 bf e4 3e 10 bc 15 27 b3 bd 82 70 43 3e
       -1.3148197 -0.008804057 -0.08747689 0.19085887
000260 7c f0 ce bd f2 cc 68 bc 22 0c 3a 3d 4d dd ab 3c
       -0.101044625 -0.014209019 0.045421727 0.020979548
000270 8b ec bc bf 9b 90 ac 3b a2 36 1c 3b d0 43 8c 3d
       -1.4759687 0.0052662618 0.0023836275 0.06848872
000280 26 23 e1 bf 98 8f 38 3d 3c 5d 39 be a3 0d a8 3e
       -1.7588851 0.045058817 -0.18101972 0.32822904
000290 64 38 51 3d fa c7 c3 bb 49 12 0d be 12 24 46 3e
       0.05107917 -0.005974767 -0.13776506 0.19349697
0002a0 7f 6e 0f bf 90 c0 91 bd 50 cc e6 bd 20 f6 b6 3b
       -0.5602798 -0.071168065 -0.11269438 0.0055835396
0002b0 60 7a 14 bd f0 ac e2 3c 90 de 20 3b 55 a5 7e 3e
       -0.03624952 0.027670354 0.002454672 0.24867757
0002c0 3c 13 ef bd 6b 04 21 be fd c2 4a bd 54 e5 a3 3d
       -0.116735905 -0.15724342 -0.04950236 0.08002725
0002d0 d1 21 d5 bd 5d 7f 2d 3d cd cb f0 bd 5b 3d 12 c0
       -0.104068406 0.04235779 -0.11757622 -2.2849948
0002e0 65 d3 d0 bb 2a 4d a5 3d fa a4 95 3d c9 3d a7 bf
       -0.0063728564 0.080713585 0.073068574 -1.306573
0002f0 5e 2a ab 3d 9e 3e fa bd 41 9b dc 3d 09 d5 8c 3d
       0.0835769 -0.122189745 0.107718 0.06876571
000300 c8 3f fe ba f3 e0 eb 3d 0d 8c 12 be df 2f ac bd
       -0.001939767 0.11517515 -0.14311238 -0.08407568
000310 10 50 95 3d c4 27 00 bd 53 64 c2 bc 15 2a 5b bd
       0.07290661 -0.031287923 -0.023729479 -0.05350693
000320 17 b7 b3 3d c2 26 f2 3c 73 3f 16 3b 1b 67 8d bd
       0.08775156 0.029559497 0.0022926002 -0.069044314
000330 fc 92 0e be da 6a 95 bc cd 31 fe 3c 80 65 6c bd
       -0.13923258 -0.018239427 0.031029606 -0.057713985
000340 81 7f 07 bd fc f0 a5 3d d2 c6 d1 3b 2d 54 02 bd
       -0.03308058 0.08102605 0.006401875 -0.031818558
000350 db 46 06 bd 5f bc e4 bd e5 00 fd bd 6f be 6d bd
       -0.032782417 -0.111687414 -0.12353686 -0.05804294
000360 5a 21 82 bd b2 84 eb 3b 91 39 2a bd 5a ac 42 bd
       -0.063540176 0.0071874494 -0.041558806 -0.04752765
000370 b1 06 eb 3d c1 be 19 3d 7c 34 aa 3d a0 dd 77 bd
       0.11475886 0.037535433 0.08310792 -0.060514092
000380 9b 98 55 bd 02 96 23 3d a8 e8 f7 bd 63 04 a4 bd
       -0.05214749 0.03993798 -0.121049225 -0.08008649
000390 e8 4d 45 bc ea ad 9e bd 0b d8 06 be 89 9c 8f 3d
       -0.0120425 -0.07748015 -0.13168351 0.070122786
0003a0 c6 86 80 3d e0 1d a6 3c 78 e9 b5 bc 3a 20 ed bd
       0.06275706 0.020277917 -0.022206053 -0.11578412
0003b0 c7 af aa bd 0c 59 02 3d 2c 0d 78 3d 1f cf 42 bd
       -0.08334308 0.031823203 0.060559437 -0.047560807
0003c0 f2 e4 4e bd 60 9b 02 3d 82 04 d6 bd 06 82 41 3d
       -0.050511308 0.03188646 -0.104500785 0.04724314
0003d0 54 3a 5f bd 0c dc 12 bd c9 cb 7f bd 24 6c 8b 3c
       -0.054498985 -0.035854384 -0.062450204 0.017019339
0003e0 8b 52 33 bd 8c 9b 59 3d b7 a0 17 bc ff c9 86 3d
       -0.04377989 0.053126857 -0.009254626 0.065814964
0003f0 96 23 f6 3d 2f 04 89 bd 90 cc fb bd aa 63 cd 3d
       0.12018506 -0.06690251 -0.122948766 0.10028775

fc2.bias f4 [64]
000000 23 e9 1c 3f a9 e2 e0 3e 2f a3 77 be 8c f2 3d 3d
       0.6129324 0.43922928 -0.24183343 0.04637389
000010 b0 5d 31 3e 2a 48 17 be 0e 09 fe bc ae 0f d0 3d
       0.17320895 -0.14773622 -0.031010177 0.10159241
000020 12 c6 01 3d c7 f6 08 c0 23 f3 6f c0 66 04 de bd
       0.031683035 -2.140062 -3.749215 -0.10840683
000030 de c0 3f bd a3 8f 26 3f 62 d2 81 3e 89 64 8a be
       -0.04681479 0.6506292 0.25355822 -0.27029827
000040 b9 6b 52 3f 41 92 3c be 7b 14 89 bd 3f 23 eb 3e
       0.8219562 -0.18415166 -0.066933595 0.45925328
000050 42 7c 82 bf 33 8f 19 be 7c 20 d1 bf c9 d6 8a be
       -1.019417 -0.14996032 -1.6338038 -0.27116993
000060 b7 4b a7 bd ca 3d 95 be c1 5a 24 be 0e 87 14 3e
       -0.08168738 -0.29148704 -0.16050245 0.14504644
000070 01 11 b6 bd fd 27 c3 3e 6a 89 8d bd 79 c9 ed bd
       -0.08889962 0.38116446 -0.06910975 -0.116106935
000080 14 dd ab 3c 71 ff 31 bf ce cd c0 3c c4 f9 8d bf
       0.020979442 -0.695304 0.023535635 -1.1091847
000090 7e 29 3f be cb b2 6b 3f c6 f5 6d bd 18 e5 4b bf
       -0.18668172 0.9206969 -0.058095716 -0.79646444
0000a0 46 f8 fb bf 2d ed 9b bd 40 a2 45 bf 24 4c be be
       -1.9685142 -0.07613597 -0.772007 -0.37167466
0000b0 dd 45 47 bd a7 63 ed be 00 4a d6 bd d1 5a 29 be
       -0.04865061 -0.4636509 -0.10463333 -0.1653855
0000c0 a8 9e 26 be a8 d3 c8 3e 0a d7 fd bd 18 5e e7 3e
       -0.1627146 0.3922398 -0.12394531 0.45188975
0000d0 55 ef 94 3c 5c fa 90 3e 52 95 7c 3f ec d5 6a be
       0.018180529 0.2831601 0.98665345 -0.22933167
0000e0 9b 7e ba 3e 44 78 84 3f dc ea 56 be ca 1a 97 3d
       0.36424717 1.0349202 -0.20988029 0.073781565
0000f0 6d da 0d 3f 06 e7 69 bd 33 eb 3e 3f cb 15 8f bf
       0.55411416 -0.057105087 0.74577636 -1.1178526

fc3.weight f4 [4, 64]
000000 84 3d 13 bf a2 f2 db 3e c2 6b a8 3c 2a 44 77 bd
       -0.5751574 0.42958552 0.020559195 -0.06036774
000010 05 00 ef be 1b 85 99 3e a4 18 1c be 13 fe 68 3d
       -0.46679702 0.29984364 -0.15243775 0.05688293
000020 d4 ce ba 3e ca 59 3e 40 21 89 0c c1 93 c6 03 bd
       0.36485922 2.9742303 -8.783479 -0.032171797
000030 dd 23 5e 3d c9 53 2b bd b9 a4 03 bf 80 cd 9b 3d
       0.05423342 -0.04182795 -0.5142322 0.076075554
000040 0f 9a aa 3e 2b 64 eb 3d e8 6b b4 bd d1 8a 29 3f
       0.33320662 0.11493715 -0.08809644 0.6622744
000050 6a 64 7f bf 08 1b 48 3c 10 7a 12 c1 d0 65 44 3d
       -0.99762595 0.012213476 -9.1548 0.04794866
000060 db 1a d5 3e e1 db c3 3d a1 e8 80 bd 72 e5 73 c1
       0.41622052 0.09563423 -0.062943704 -15.243517
000070 ff a2 4c 3d 5d db b9 bf 3b 65 f6 3e 48 a3 9c 3a
       0.049960133 -1.4520069 0.48124108 0.0011950517
000080 88 d8 33 3d ae f7 ad bd f8 9e 9b bd 5f 45 2b 3f
       0.043907672 -0.08494507 -0.0759868 0.66902727
000090 2c d4 df bd 5d 6d c5 be 65 bd 71 bc 25 ac 41 bf
       -0.109291404 -0.3856 -0.014754628 -0.75653297
0000a0 4c f0 68 3e 43 c3 40 bc 2c 94 4a bd ca 32 27 bc
       0.22747916 -0.011765304 -0.049457714 -0.01020498
0000b0 2f 07 2a bc c9 43 97 3d 3b 1a 1a bc 50 5b 4e 3d
       -0.010377689 0.07385976 -0.009405668 0.05038005
0000c0 da d5 e0 bd f3 e3 55 be 06 da 9e bd 0d 8a 9b be
       -0.10978289 -0.20887737 -0.077564284 -0.30378762
0000d0 c2 e5 4d bd 9f 98 11 3f 32 3b ce bd eb 64 8e 3f
       -0.050267942 0.56873506 -0.10069884 1.1124548
0000e0 71 0c 48 bf dd 25 f7 3e 2a 98 c7 bb da b7 94 c1
       -0.78143984 0.48271075 -0.0060911374 -18.589771
0000f0 bf 25 54 3f 69 25 8a 3d f8 95 03 3e 9d 42 9c c1
       0.82870096 0.06745417 0.12850177 -19.532526
000100 21 7b 02 3f b4 10 38 bf 89 cc 27 bc 0b e4 25 bd
       0.5096913 -0.71900487 -0.010241636 -0.04050068
000110 33 12 4e be 0c a6 bd be de 04 61 bd 8b 0d f9 3d
       -0.2012413 -0.37040746 -0.054936282 0.12160786
000120 06 80 08 c2 a4 02 11 c0 ec e6 cd 3e db 92 89 bd
       -34.125023 -2.2657862 0.40215242 -0.067174636
000130 64 8f 5c 3e ba ab 87 3e 09 77 d6 3e ab e2 b7 3c
       0.21539074 0.26498204 0.41887692 0.02244695
000140 06 6a 36 be 41 0e 0b 3e 00 ba 83 bd 0e af a0 3e
       -0.17813882 0.13579656 -0.06431961 0.31383556
000150 5f 4d e0 bb 05 df 3f bd 80 32 92 3e d1 0c 8e 3d
       -0.006845161 -0.046843547 0.28554153 0.06936038
000160 b4 49 db bf ed 9e 9e 3b c2 d7 16 bc dc 2c 23 3e
       -1.7131867 0.004840723 -0.009206714 0.15935081
000170 67 9d 4d bc 3c 4d 3b 3f ad bd 9c be d6 98 c9 3d
       -0.012549735 0.73164725 -0.3061346 0.09843604
000180 24 55 95 bd 6a 85 b9 bd 83 29 7f bd f6 5e 85 c0
       -0.0729163 -0.0905865 -0.062295448 -4.167842
000190 09 f3 88 bd a1 ba 99 be 5e ec b8 bd 00 92 e9 bf
       -0.0668698 -0.300252 -0.090294585 -1.8247681
0001a0 a6 50 8c 3e 61 51 2f 3c a0 4f 0a 3e 9f 88 f6 3d
       0.2740528 0.010700555 0.13506937 0.12037777
0001b0 d6 e2 31 3d 3e 60 ba 3d e7 02 07 bd 9a 63 5d 3d
       0.04342922 0.09100388 -0.032961752 0.054050066
0001c0 fc 3a dc bc d3 98 ce bd 74 b4 2d bd 25 a5 d3 bd
       -0.026883595 -0.10087743 -0.04240842 -0.10334233
0001d0 56 b6 a9 3d f7 19 75 bf 12 43 15 be 17 4c 08 3e
       0.08286731 -0.95742744 -0.14576367 0.13310276
0001e0 e7 d1 a6 3e 2b 16 07 3f da b7 49 3e 95 3a 01 3f
       0.32582018 0.527682 0.1969904 0.50480014
0001f0 36 fe ad be d3 89 a2 3c 83 a1 a3 3e 04 6e 29 3e
       -0.3398301 0.01984111 0.3195916 0.16545874
000200 c8 61 8d 3e 93 be 1d 3f 67 d7 e9 3c a4 56 b6 3d
       0.27613664 0.6161892 0.028545095 0.08903244
000210 df 58 80 3f 49 f5 0e 3d ab 83 57 3c 55 91 8c be
       1.0027121 0.03490189 0.013153951 -0.2745463
000220 7e 62 60 3e da ee 7d 40 d8 9d c5 3e 77 e3 1d 3d
       0.21912572 3.9677033 0.38596988 0.038547006
000230 04 89 f5 c1 3f b6 b2 be 63 39 ea 3d 0d c2 33 bd
       -30.691902 -0.34904668 0.11436727 -0.043886233
000240 15 d2 a9 be f5 ba 2e c1 b9 c6 84 bd 09 17 99 bf
       -0.33168092 -10.920644 -0.06483216 -1.1960155
000250 45 eb d2 3e 21 37 c2 bc 86 f0 6d 3e 52 d6 f2 be
       0.4119512 -0.023707928 0.23236284 -0.47429138
000260 17 f0 59 3f 25 9b 04 bc fa 2a 35 bd 58 13 63 3d
       0.85131973 -0.00809363 -0.04423044 0.05543837
000270 d5 8d 8c bd 62 77 4a 3f d5 07 51 bd 75 85 37 3d
       -0.0686299 0.79088414 -0.05103286 0.04480501
000280 6b 82 12 bc 37 96 f4 bd 29 5d 6c bd b6 57 5d 3f
       -0.008942227 -0.11942714 -0.057706032 0.8646196
000290 3c 29 77 bd 57 5e a7 3f ea 9a 4f bd ee 24 2d 40
       -0.06034206 1.3075665 -0.050684847 2.705379
0002a0 d5 cf bb c0 5c 54 32 bd fd f1 f9 be 9d 06 f5 be
       -5.86912 -0.043537483 -0.48817435 -0.47856608
0002b0 a7 69 0c 3d d3 ce 71 be 65 23 93 3a 05 8e ad 3c
       0.034280445 -0.23614053 0.0011225758 0.021185884
0002c0 ac 3f ac bd 47 af 6a 3e 40 2d bb 3c 94 ba 0d 3f
       -0.08410582 0.22918426 0.022848725 0.5536282
0002d0 a0 1d d1 bb b4 d2 24 3f f0 a8 80 3f 12 33 27 c0
       -0.0063817054 0.6438401 1.0051556 -2.612492
0002e0 a7 95 8d 3e 13 a1 da bf c3 4f b8 c1 fc eb 40 3e
       0.27653238 -1.7080406 -23.038946 0.18840021
0002f0 5c 7c 72 be 83 b3 ca bc f4 9c 73 bf 7f 34 53 3e
       -0.23680252 -0.024743801 -0.95161366 0.20625494
000300 ef fc 0f be 58 21 16 be 8a 1f 95 bf 2e ce 9f bd
       -0.1406133 -0.14661157 -1.165025 -0.078029975
000310 07 4c d1 bd 78 8a 0b be ab 84 88 3d 49 fb 84 c0
       -0.10219579 -0.1362704 0.066659294 -4.1556745
000320 8e e7 44 be 66 2c e7 be c9 54 aa bd ff 6d a1 3d
       -0.19228956 -0.4515106 -0.08316953 0.07882308
000330 7d 9f 7e bf 4b 03 a7 be 52 5a 61 be 14 9c 7d be
       -0.9946211 -0.326197 -0.2200711 -0.2476657
000340 bf 73 c7 be 02 7c 5c be 92 b5 ce 3c 68 d6 e9 be
       -0.38955495 -0.2153168 0.025233064 -0.4567139
000350 63 23 37 be d4 3b b7 3c 27 f5 0f c0 03 ad ab be
       -0.17884593 0.022367395 -2.249338 -0.33530435
000360 2d 51 a6 3c 02 6f 9d c0 02 dd a9 3d fc fe de be
       0.02030238 -4.9198008 0.08294107 -0.43553913
000370 69 19 3e 3d 1b f8 9a be c6 6a 89 bd 61 b4 6e bf
       0.04641095 -0.30267414 -0.067098185 -0.93243986
000380 fb c1 c7 bc 3f a9 29 c1 45 7f b0 bd a5 86 0d c0
       -0.02438449 -10.60382 -0.08618025 -2.211343
000390 56 9d 50 bd 67 28 af bd d8 b5 b5 3d 4c 7e 3e be
       -0.050931297 -0.08552628 0.088725746 -0.18602866
0003a0 22 42 db c0 b5 d4 e5 be d1 2e 8b c0 0c d7 93 be
       -6.851823 -0.44888845 -4.349465 -0.28875005
0003b0 88 57 e7 bd fd 89 c4 bf b1 60 9f 3d 55 56 a0 3c
       -0.11295992 -1.5354611 0.07782114 0.019572416
0003c0 86 36 d6 bd 30 7c 87 c0 4b e7 f9 bc 99 d1 47 c0
       -0.10459618 -4.2339096 -0.030505797 -3.1221678
0003d0 ec 4d 1e 3d cc 40 00 be 64 7c 17 be 81 2b 8f be
       0.03864853 -0.12524718 -0.14793545 -0.27962878
0003e0 fe 44 02 c1 5a b9 95 bf a4 2c b2 bd 10 94 9e be
       -8.141844 -1.169719 -0.08699921 -0.30972338
0003f0 23 10 4d be 82 a9 2a 3c eb 20 f0 be 19 37 ac bf
       -0.20025687 0.01041639 -0.46900114 -1.3454314

fc3.bias f4 [4]
000000 f6 d4 67 bd 47 07 94 3d 04 1f df bc c6 ed 9f c1
       -0.05659958 0.072279505 -0.02723647 -19.9911
