data/ppo-0.01-rerun/ppo_iter_1100.pth (torch, 21124 bytes, 6 tensors)

fc1.weight f4 [64, 2]
-0.11203732 -0.4268124 0.094577536 0.4347714 0.17900543 0.30666277 -0.36042553 0.37207925
0.5830436 -0.5255134 0.42118 0.054396413 -0.003517603 -0.037423056 0.59504354 -0.35200074
0.43991378 0.06527931 -0.2619197 0.20900202 -0.00985771 -0.3740119 0.011068372 0.04013298
-0.27896172 -0.5240827 -0.21811342 -0.07066257 0.19448072 -2.7469528 0.91721296 -1.5639435
0.00031656807 -0.111485034 -0.057589814 0.48859346 0.0026415677 -0.24437416 0.015833337 -0.5372749
0.31500855 -0.19150291 0.04103751 0.45968926 0.5980481 -0.43653587 0.025535116 -0.043310843
0.7524061 -1.031897 -0.2615481 0.16453661 -0.0003782166 -0.030278202 0.09498692 0.51511544
0.2573124 -0.16877027 0.041426502 -0.875882 0.10269966 -1.7197261 0.57584035 -0.5120125
0.41922036 -0.048822835 0.17448597 -0.30924407 -0.21962674 -2.6481767 0.5182411 0.1631469
0.57110137 -0.8632208 -0.4049908 -0.84202105 -0.25707337 0.107299246 1.0763197e-05 -0.020653173
-0.4271012 -0.85248667 0.5666078 -0.5284541 0.58425766 0.09799082 0.7352437 -1.0197433
0.008178313 -0.25415507 0.5418472 -0.4398889 0.20766479 0.33369976 -0.37276658 -0.096033156
0.61310446 0.0072916783 0.016320119 -0.9883166 0.008135394 -0.6363509 -0.28209293 -1.119453
0.100651264 -1.7224388 -0.39697608 -0.31844515 0.04125816 -0.56212485 0.0020078246 -0.05973113
0.7570352 -2.1434124 0.18879941 -1.0781338 0.570569 -1.554528 -0.5472389 -0.7859414
0.0019595756 -0.2631167 0.09724636 -1.8202432 -0.19432648 -0.21602716 -0.03679 -0.721167
00000000: d373 e5bd 2887 dabe deb1 c13d 5b9a de3e
00000010: 334d 373e e702 9d3e b289 b8be 2c81 be3e
00000020: 5842 153f 0c88 06bf e8a4 d73e c6ce 5e3d
00000030: 9687 66bb eb48 19bd c654 183f 7139 b4be
00000040: 613c e13e 29b1 853d 571a 86be a004 563e
00000050: 3c82 21bc 7d7e bfbe 1e58 353c 7b62 243d
00000060: 12d4 8ebe 492a 06bf 2059 5fbe 8ab7 90bd
00000070: f425 473e 13ce 2fc0 78ce 6a3f 4d2f c8bf
00000080: 0cf9 a539 4452 e4bd 4ce3 6bbd ec28 fa3e
00000090: 271e 2d3b 383d 7abe eab4 813c d98a 09bf
000000a0: cd48 a13e 5719 44be f316 283d 645c eb3e
000000b0: ae19 193f a181 dfbe 052f d13c b666 31bd
000000c0: b09d 403f 3315 84bf a2e9 85be 497c 283e
000000d0: 5f4b c6b9 fe09 f8bc 8188 c23d 9bde 033f
000000e0: 73be 833e 1dd2 2cbe d6ae 293d ce39 60bf
000000f0: 3354 d23d fc1f dcbf 466a 133f 4013 03bf
00000100: 0da4 d63e 74fa 47bd 73ac 323e 3d55 9ebe
00000110: d5e5 60be ba7b 29c0 73ab 043f fb0f 273e
00000120: b333 123f 0afc 5cbf f45a cfbe b18e 57bf
00000130: 1f9f 83be b5bf db3d 9493 3437 d830 a9bc
00000140: 02ad dabe 913c 5abf 350d 113f c548 07bf
00000150: e991 153f 69af c83d ee38 3c3f f386 82bf
00000160: 55fe 053c 9d20 82be 80b6 0a3f 1e39 e1be
00000170: 14a6 543e b2da aa3e 43db bebe 08ad c4bd
00000180: 6af4 1c3f 08ef ee3b c5b1 853c 5102 7dbf
00000190: 514a 053c e5e7 22bf 7c6e 90be 3c4a 8fbf
000001a0: 4022 ce3d e078 dcbf 7340 cbbe 3e0b a3be
000001b0: 51fe 283d 6ae7 0fbf b595 033b a1a8 74bd
000001c0: 0fcd 413f ab2d 09c0 a254 413e 4a00 8abf
000001d0: cf10 123f c6fa c6bf d917 0cbf 7533 49bf
000001e0: 396c 003b 3bb7 86be 1929 c73d bbfd e8bf
000001f0: 85fd 46be 3936 5dbe 1cb1 16bd 679e 38bf

fc1.bias f4 [64]
0.0074767764 -2.837328 3.1925216 -1.4259871 -1.5821148 1.5512819 -0.059817147 -3.5425372
-0.9498326 -2.5815523 0.42047143 -1.6238827 1.4375278 -3.6827638 -0.108713694 -1.2801331
-0.0022253077 -3.2900057 -0.012347318 2.430061 2.6519775 -4.329489 0.95325243 -0.42663756
-2.2548552 -3.267554 -0.0064074164 -3.8247561 2.1970768 0.40693393 -0.13660963 -2.8075387
2.5806134 -1.9654568 -0.22951077 -2.7616096 1.1606942 -0.6946088 -0.71063405 -0.0019256276
-0.24127093 -2.6016567 -3.4031868 -2.1969874 -0.0098410295 -3.1023126 -3.6236675 -4.783404
-3.3813827 -0.031690292 -0.008650953 -0.26969257 -0.11990865 1.341712 1.842208 -0.39160156
1.2592019 -0.059013065 0.49277204 -1.626336 -0.18724276 -0.11117937 -2.100751 -0.39412948
00000000: bfff f43b c896 35c0 4652 4c40 bf86 b6bf
00000010: bd82 cabf 6890 c63f d302 75bd eeb8 62c0
00000020: 3b28 73bf 2738 25c0 0848 d73e 63db cfbf
00000030: e900 b83f 67b2 6bc0 49a5 debd 67db a3bf
00000040: 78d6 11bb 748f 52c0 684c 4abc 1f86 1b40
00000050: 00ba 2940 2d8b 8ac0 5a08 743f 3d70 dabe
00000060: 8c4f 10c0 9b1f 51c0 4ef5 d1bb cec8 74c0
00000070: e89c 0c40 a559 d03e 65e3 0bbe b7ae 33c0
00000080: c528 2540 1794 fbbf df04 6bbe 36be 30c0
00000090: a191 943f e2d1 31bf 1dec 35bf 5765 fcba
000000a0: ba0f 77be 8b81 26c0 d0cd 59c0 719b 0cc0
000000b0: 453c 21bc 4a8c 46c0 2bea 67c0 a511 99c0
000000c0: 9368 58c0 aecd 01bd babc 0dbc 2515 8abe
000000d0: ab92 f5bd 38bd ab3f 79cd eb3f 0080 c8be
000000e0: 872d a13f afb7 71bd 9e4c fc3e c72b d0bf
000000f0: 91bc 3fbe 02b2 e3bd b472 06c0 57cb c9be

fc2.weight f4 [64, 64]
0.17213088 0.9334385 0.27073786 -0.08564985 0.7109258 0.49804807 -1.1013486 0.041120455
-8.48763 0.1557325 -0.2750984 0.4008213 -0.10389296 -1.6840554 4.1413507 -0.84409535
-2.9628906 0.40897128 0.13681492 0.15142591 0.14804319 -8.988764 -0.29235408 -0.21615183
-0.072625816 -2.1143498 0.100729965 -2.559863 0.13340333 0.015878953 0.20646316 -1.4383236
0.71670717 0.6096438 0.2707796 -3.7337596 -0.38436615 -0.061713267 -0.23780946 0.12062414
0.13700092 -1.2620457 0.12502474 0.29545635 0.09685757 -0.14036931 -0.28198615 -1.2406229
0.30295202 0.041560438 0.039078046 -0.16301061 1.5142149 -0.50383246 -0.30185062 -1.7634233
-0.7268234 -0.29720828 -1.3244311 0.28808716 -0.022054866 0.2715347 0.18413666 -0.12304208
0.53114235 -2.3433208 0.20359735 0.24511917 -3.8038347 -0.7198042 -0.9505317 -0.06873495
-0.35464752 -0.3558664 -0.47347108 0.88182783 -0.69511294 -0.05448319 -8.47125 -7.0593405
-1.4139391 1.5490462 0.08387942 0.6257675 -0.3072794 -2.6854053 0.20727065 -2.062891
-3.668413 -2.0185034 0.0028476203 -3.0810585 -0.14756155 0.10890293 -4.322263 0.10256344
-0.014790361 -0.89738995 0.22837897 -0.09268812 -0.29499614 -0.19566146 0.04609342 -0.024256848
0.36025068 -0.0037520318 -0.03758445 -6.204651 -0.014680593 -0.026514053 -0.19467436 0.13105395
-0.34731615 0.48712996 -0.15797082 0.6452755 -3.4941852 -1.8654126 -0.46714228 -0.46344075
0.087566346 -0.5442392 0.57612324 0.285471 0.08380309 -0.23577067 -1.259147 0.007710688
-0.08873388 -0.07807104 -0.0051526423 -0.0050872704 -0.07909863 0.39824012 -2.277139 -0.12335971
-4.195931 -0.08414673 0.070763804 -0.016550325 -0.122577995 -0.35748085 0.030576829 -0.09298016
-2.8443527 0.027918572 0.15452251 -0.27314255 -1.3148197 -0.008804057 -0.08747689 0.19085887
-0.101044625 -0.014209019 0.045421727 0.020979548 -1.4759687 0.0052662618 0.0023836275 0.06848872
-1.7588851 0.045058817 -0.18101972 0.32822904 0.05107917 -0.005974767 -0.13776506 0.19349697
-0.5602798 -0.071168065 -0.11269438 0.0055835396 -0.03624952 0.027670354 0.002454672 0.24867757
-0.116735905 -0.15724342 -0.04950236 0.08002725 -0.104068406 0.04235779 -0.11757622 -2.2849948
-0.0063728564 0.080713585 0.073068574 -1.306573 0.0835769 -0.122189745 0.107718 0.06876571
-0.001939767 0.11517515 -0.14311238 -0.08407568 0.07290661 -0.031287923 -0.023729479 -0.05350693
0.08775156 0.029559497 0.0022926002 -0.069044314 -0.13923258 -0.018239427 0.031029606 -0.057713985
-0.03308058 0.08102605 0.006401875 -0.031818558 -0.032782417 -0.111687414 -0.12353686 -0.05804294
-0.063540176 0.0071874494 -0.041558806 -0.04752765 0.11475886 0.037535433 0.08310792 -0.060514092
-0.05214749 0.03993798 -0.121049225 -0.08008649 -0.0120425 -0.07748015 -0.13168351 0.070122786
0.06275706 0.020277917 -0.022206053 -0.11578412 -0.08334308 0.031823203 0.060559437 -0.047560807
-0.050511308 0.03188646 -0.104500785 0.04724314 -0.054498985 -0.035854384 -0.062450204 0.017019339
-0.04377989 0.053126857 -0.009254626 0.065814964 0.12018506 -0.06690251 -0.122948766 0.10028775
00000000: 1443 303e d3f5 6e3f 279e 8a3e 3069 afbd
00000010: 3cff 353f 2800 ff3e fef8 8cbf ec6d 283d
00000020: 55cd 07c1 5778 1f3e b3d9 8cbe 7338 cd3e
00000030: d5c5 d4bd 218f d7bf f285 8440 a216 58bf
00000040: 00a0 3dc0 af64 d13e 3619 0c3e 650f 1b3e
00000050: a298 173e fad1 0fc1 6faf 95be e856 5dbe
00000060: d8bc 94bd 8251 07c0 834b ce3d ccd4 23c0
00000070: e29a 083e 9414 823c 146b 533e fd1a b8bf
00000080: 1f7a 373f 9e11 1c3f a0a3 8a3e ebf5 6ec0
00000090: a4cb c4be 0dc7 7cbd 5384 73be ca09 f73d
000000a0: f849 0c3e b78a a1bf 7c06 003e 0e46 973e
000000b0: 435d c63d f9bc 0fbe 7d60 90be bbcc 9ebf
000000c0: 871c 9b3e 473b 2a3d 4d10 203d 41ec 26be
000000d0: cbd1 c13f 2afb 00bf 2a8c 9abe dbb7 e1bf
000000e0: 1911 3abf af2b 98be f586 a9bf 2980 933e
000000f0: 68ac b4bc 9906 8b3e 528e 3c3e 7cfd fbbd
00000100: f2f8 073f f8f8 15c0 d37b 503e 8500 7b3e
00000110: 0772 73c0 1745 38bf 0c56 73bf e9c4 8cbd
00000120: 5c94 b5be 1f34 b6be cd6a f2be 78bf 613f
00000130: ecf2 31bf c429 5fbd 3d8a 07c1 1ee6 e1c0
00000140: f5fb b4bf 2547 c63f f9c8 ab3d 4d32 203f
00000150: ba53 9dbe aedd 2bc0 c23e 543e 6806 04c0
00000160: 47c7 6ac0 292f 01c0 249f 3a3b 1030 45c0
00000170: 601a 17be 8008 df3d fa4f 8ac0 c80c d23d
00000180: 4553 72bc 59bb 65bf 2ddc 693e 45d3 bdbd
00000190: bc09 97be 7a5b 48be 74cc 3c3d 4cb6 c6bc
000001a0: c772 b83e a6e4 75bb 27f2 19bd 808c c6c0
000001b0: df86 70bc 0034 d9bc b758 47be 0233 063e
000001c0: 6cd3 b1be 1969 f93e 1ac3 21be c630 253f
000001d0: bba0 5fc0 d7c5 eebf 462d efbe 1b48 edbe
000001e0: fc55 b33d 4353 0bbf d07c 133f 4129 923e
000001f0: f4a0 ab3d de6d 71be bb2b a1bf f0a9 fc3b
00000200: 1cba b5bd b6e3 9fbd 7fd7 a8bb 1eb3 a6bb
00000210: 76fe a1bd 21e6 cb3e a5bc 11c0 04a4 fcbd
00000220: 1145 86c0 1f55 acbd 9dec 903d 8c94 87bc
00000230: 2c0a fbbd bb07 b7be 427c fa3c 626c bebd
00000240: e009 36c0 7db5 e43c 263b 1e3e 57d9 8bbe
00000250: 034c a8bf e43e 10bc 1527 b3bd 8270 433e
00000260: 7cf0 cebd f2cc 68bc 220c 3a3d 4ddd ab3c
00000270: 8bec bcbf 9b90 ac3b a236 1c3b d043 8c3d
00000280: 2623 e1bf 988f 383d 3c5d 39be a30d a83e
00000290: 6438 513d fac7 c3bb 4912 0dbe 1224 463e
000002a0: 7f6e 0fbf 90c0 91bd 50cc e6bd 20f6 b63b
000002b0: 607a 14bd f0ac e23c 90de 203b 55a5 7e3e
000002c0: 3c13 efbd 6b04 21be fdc2 4abd 54e5 a33d
000002d0: d121 d5bd 5d7f 2d3d cdcb f0bd 5b3d 12c0
000002e0: 65d3 d0bb 2a4d a53d faa4 953d c93d a7bf
000002f0: 5e2a ab3d 9e3e fabd 419b dc3d 09d5 8c3d
00000300: c83f feba f3e0 eb3d 0d8c 12be df2f acbd
00000310: 1050 953d c427 00bd 5364 c2bc 152a 5bbd
00000320: 17b7 b33d c226 f23c 733f 163b 1b67 8dbd
00000330: fc92 0ebe da6a 95bc cd31 fe3c 8065 6cbd
00000340: 817f 07bd fcf0 a53d d2c6 d13b 2d54 02bd
00000350: db46 06bd 5fbc e4bd e500 fdbd 6fbe 6dbd
00000360: 5a21 82bd b284 eb3b 9139 2abd 5aac 42bd
00000370: b106 eb3d c1be 193d 7c34 aa3d a0dd 77bd
00000380: 9b98 55bd 0296 233d a8e8 f7bd 6304 a4bd
00000390: e84d 45bc eaad 9ebd 0bd8 06be 899c 8f3d
000003a0: c686 803d e01d a63c 78e9 b5bc 3a20 edbd
000003b0: c7af aabd 0c59 023d 2c0d 783d 1fcf 42bd
000003c0: f2e4 4ebd 609b 023d 8204 d6bd 0682 413d
000003d0: 543a 5fbd 0cdc 12bd c9cb 7fbd 246c 8b3c
000003e0: 8b52 33bd 8c9b 593d b7a0 17bc ffc9 863d
000003f0: 9623 f63d 2f04 89bd 90cc fbbd aa63 cd3d

fc2.bias f4 [64]
0.57831293 0.45359284 -0.24183343 0.04637389 0.17534037 -0.16946171 -0.031010177 0.089645125
0.014702261 -2.1394913 -3.75903 -0.10840683 -0.045997046 0.6142601 0.2513235 -0.25786218
0.8366191 -0.18415166 -0.066933595 0.4524573 -1.019979 -0.14996032 -1.6338038 -0.27116993
-0.07743842 -0.29148704 -0.16050245 0.12309016 -0.08889962 0.38054278 -0.05679001 -0.116106935
0.020979442 -0.695304 0.023535635 -1.1063952 -0.18668172 0.9552839 -0.058095716 -0.79646444
-1.9965675 -0.07613597 -0.77234364 -0.37167466 -0.04865061 -0.4636509 -0.10463333 -0.1653855
-0.1627146 0.4183535 -0.12394531 0.45359018 0.018180529 0.28341472 0.9883718 -0.21914533
0.36224872 1.0239642 -0.23888472 0.07605183 0.56375587 -0.057105087 0.7240262 -1.123717
00000000: 510c 143f 523d e83e 2fa3 77be 8cf2 3d3d
00000010: 6d8c 333e 5f87 2dbe 0e09 febc dd97 b73d
00000020: c1e1 703c 6ded 08c0 f393 70c0 6604 debd
00000030: 6667 3cbd 2640 1d3f 79ad 803e 8306 84be
00000040: ab2c 563f 4192 3cbe 7b14 89bd 7ca8 e73e
00000050: ac8e 82bf 338f 19be 7c20 d1bf c9d6 8abe
00000060: 0998 9ebd ca3d 95be c15a 24be b216 fc3d
00000070: 0111 b6bd 81d6 c23e a49c 68bd 79c9 edbd
00000080: 14dd ab3c 71ff 31bf cecd c03c 5c9e 8dbf
00000090: 7e29 3fbe 7c8d 743f c6f5 6dbd 18e5 4bbf
000000a0: 868f ffbf 2ded 9bbd 50b8 45bf 244c bebe
000000b0: dd45 47bd a763 edbe 004a d6bd d15a 29be
000000c0: a89e 26be 6e32 d63e 0ad7 fdbd f93c e83e
000000d0: 55ef 943c bc1b 913e ef05 7d3f a267 60be
000000e0: aa78 b93e 4211 833f 329e 74be 10c1 9b3d
000000f0: 4e52 103f 06e7 69bd c859 393f f5d5 8fbf

fc3.weight f4 [4, 64]
-0.5548534 0.42767054 0.020559195 -0.06036774 -0.4675241 0.28338885 -0.15243775 0.031462923
0.33221817 2.9946449 -8.774874 -0.032171797 0.10441371 -0.012446335 -0.51920146 0.09649217
0.3526744 0.11493715 -0.08809644 0.649949 -0.99429315 0.012213476 -9.1548 0.04794866
0.42483267 0.09563423 -0.062943704 -15.242721 0.049960133 -1.4555229 0.47781074 0.0011950517
0.043907672 -0.08494507 -0.0759868 0.7083909 -0.109291404 -0.42270947 -0.014754628 -0.75653297
0.22631298 -0.011765304 -0.056003872 -0.01020498 -0.010377689 0.07385976 -0.009405668 0.05038005
-0.10978289 -0.22224732 -0.077564284 -0.3191797 -0.050267942 0.58114064 -0.08216919 1.1225353
-0.77216095 0.51408696 0.016890116 -18.670578 0.8394419 0.06745417 0.15260795 -19.425022
0.49158427 -0.73912793 -0.010241636 -0.04050068 -0.21313769 -0.37509924 -0.054936282 0.13025951
-34.134186 -2.2937696 0.3820807 -0.067174636 0.16511217 0.23385504 0.40952465 0.002029245
-0.18226828 0.13579656 -0.06431961 0.31253877 -0.013780418 -0.046843547 0.28554153 0.06936038
-1.7180707 0.004840723 -0.009206714 0.15178551 -0.012549735 0.7210204 -0.31109646 0.09843604
-0.0729163 -0.0905865 -0.062295448 -4.1729207 -0.0668698 -0.27665997 -0.090294585 -1.8247681
0.27504176 0.010700555 0.14116375 0.12037777 0.04342922 0.09100388 -0.032961752 0.054050066
-0.026883595 -0.08793759 -0.04240842 -0.1014228 0.08286731 -0.9529173 -0.16246566 0.117140725
0.31866387 0.4964857 0.17401087 0.6374815 -0.3365558 0.01984111 0.29380947 0.17511636
0.27718455 0.62629056 0.028545095 0.08903244 1.0118045 0.05256808 0.013153951 -0.27021575
0.260301 3.892017 0.41177857 0.038547006 -30.732384 -0.3420391 0.12294417 -0.043886233
-0.3395223 -10.920644 -0.06483216 -1.1894072 0.41900098 -0.023707928 0.23236284 -0.47429138
0.8577752 -0.00809363 -0.04423044 0.06300483 -0.0686299 0.79912454 -0.04674264 0.04480501
-0.008942227 -0.11942714 -0.057706032 0.77504516 -0.06034206 1.343717 -0.050684847 2.705379
-5.8433056 -0.043537483 -0.4824105 -0.47856608 0.034280445 -0.23614053 0.0011225758 0.021185884
-0.08410582 0.23046301 0.022848725 0.55777097 -0.0063817054 0.6348664 0.9872567 -2.5988994
0.28144425 -1.6982638 -23.005714 0.11287697 -0.24333009 -0.024743801 -0.9456979 0.19880134
-0.1406133 -0.14661157 -1.165025 -0.078029975 -0.10219579 -0.13627554 0.066659294 -4.1556745
-0.19228956 -0.4515106 -0.08316953 0.07882308 -0.9946211 -0.326197 -0.2200711 -0.2476657
-0.38955495 -0.2153168 0.025233064 -0.4567139 -0.17884593 0.022367395 -2.249338 -0.33530435
0.02030238 -4.9198008 0.08294107 -0.43553913 0.04641095 -0.30267414 -0.067098185 -0.93243986
-0.02438449 -10.60382 -0.08618025 -2.211343 -0.050931297 -0.08552628 0.088725746 -0.18602866
-6.851823 -0.44888845 -4.349465 -0.28875005 -0.11295992 -1.5354611 0.07782114 0.019572416
-0.10459618 -4.2339096 -0.030505797 -3.1221678 0.03864853 -0.12524718 -0.14793545 -0.27962878
-8.141844 -1.169719 -0.08699921 -0.30972338 -0.20025687 0.01041639 -0.46900687 -1.3454314
00000000: df0a 0ebf a2f7 da3e c26b a83c 2a44 77bd
00000010: 525f efbe 5818 913e a418 1cbe 44df 003d
00000020: 8018 aa3e 43a8 3f40 e265 0cc1 93c6 03bd
00000030: dbd6 d53d b6eb 4bbc 63ea 04bf b09d c53d
00000040: bd91 b43e 2b64 eb3d e86b b4bd 0f63 263f
00000050: ff89 7ebf 081b 483c 107a 12c1 d065 443d
00000060: ab83 d93e e1db c33d a1e8 80bd 2fe2 73c1
00000070: ffa2 4c3d 934e babf 9ca3 f43e 48a3 9c3a
00000080: 88d8 333d aef7 adbd f89e 9bbd 1b59 353f
00000090: 2cd4 dfbd 606d d8be 65bd 71bc 25ac 41bf
000000a0: 97be 673e 43c3 40bc 5164 65bd ca32 27bc
000000b0: 2f07 2abc c943 973d 3b1a 1abc 505b 4e3d
000000c0: dad5 e0bd cd94 63be 06da 9ebd 866b a3be
000000d0: c2e5 4dbd a2c5 143f 5248 a8bd 3daf 8f3f
000000e0: 57ac 45bf 349b 033f 245d 8a3c 585d 95c1
000000f0: aae5 563f 6925 8a3d 4245 1c3e 7266 9bc1
00000100: efb0 fb3e 7d37 3dbf 89cc 27bc 0be4 25bd
00000110: c440 5abe 020d c0be de04 61bd c062 053e
00000120: 6889 08c2 1fcd 12c0 15a0 c33e db92 89bd
00000130: 2a13 293e b277 6f3e 37ad d13e 15fd 043b
00000140: 89a4 3abe 410e 0b3e 00ba 83bd 1505 a03e
00000150: 43c7 61bc 05df 3fbd 8032 923e d10c 8e3d
00000160: bee9 dbbf ed9e 9e3b c2d7 16bc a96d 1b3e
00000170: 679d 4dbc cb94 383f 0948 9fbe d698 c93d
00000180: 2455 95bd 6a85 b9bd 8329 7fbd 9188 85c0
00000190: 09f3 88bd 60a6 8dbe 5eec b8bd 0092 e9bf
000001a0: 46d2 8c3e 6151 2f3c 3b8d 103e 9f88 f63d
000001b0: d6e2 313d 3e60 ba3d e702 07bd 9a63 5d3d
000001c0: fc3a dcbc a018 b4bd 74b4 2dbd c2b6 cfbd
000001d0: 56b6 a93d 63f2 73bf 665d 26be 7ae7 ef3d
000001e0: e927 a33e 6033 fe3e e82f 323e fd31 233f
000001f0: 0b51 acbe d389 a23c 326e 963e b451 333e
00000200: 22eb 8d3e 9454 203f 67d7 e93c a456 b63d
00000210: cf82 813f a151 573d ab83 573c b859 8abe
00000220: 2c46 853e ce16 7940 a4d4 d23e 77e3 1d3d
00000230: ecdb f5c1 c01f afbe 27ca fb3d 0dc2 33bd
00000240: ded5 adbe f5ba 2ec1 b9c6 84bd 7f3e 98bf
00000250: 4c87 d63e 2137 c2bc 86f0 6d3e 52d6 f2be
00000260: 2897 5b3f 259b 04bc fa2a 35bd ad08 813d
00000270: d58d 8cbd 6d93 4c3f 3675 3fbd 7585 373d
00000280: 6b82 12bc 3796 f4bd 295d 6cbd 5c69 463f
00000290: 3c29 77bd ebfe ab3f ea9a 4fbd ee24 2d40
000002a0: 5cfc bac0 5c54 32bd 82fe f6be 9d06 f5be
000002b0: a769 0c3d d3ce 71be 6523 933a 058e ad3c
000002c0: ac3f acbd 7ffe 6b3e 402d bb3c 14ca 0e3f
000002d0: a01d d1bb 9b86 223f dbbc 7c3f 5e54 26c0
000002e0: 7619 903e b560 d9bf b40b b8c1 0a2c e73d
000002f0: 862b 79be 83b3 cabc 4219 72bf 9492 4b3e
00000300: effc 0fbe 5821 16be 8a1f 95bf 2ece 9fbd
00000310: 074c d1bd d18b 0bbe ab84 883d 49fb 84c0
00000320: 8ee7 44be 662c e7be c954 aabd ff6d a13d
00000330: 7d9f 7ebf 4b03 a7be 525a 61be 149c 7dbe
00000340: bf73 c7be 027c 5cbe 92b5 ce3c 68d6 e9be
00000350: 6323 37be d43b b73c 27f5 0fc0 03ad abbe
00000360: 2d51 a63c 026f 9dc0 02dd a93d fcfe debe
00000370: 6919 3e3d 1bf8 9abe c66a 89bd 61b4 6ebf
00000380: fbc1 c7bc 3fa9 29c1 457f b0bd a586 0dc0
00000390: 569d 50bd 6728 afbd d8b5 b53d 4c7e 3ebe
000003a0: 2242 dbc0 b5d4 e5be d12e 8bc0 0cd7 93be
000003b0: 8857 e7bd fd89 c4bf b160 9f3d 5556 a03c
000003c0: 8636 d6bd 307c 87c0 4be7 f9bc 99d1 47c0
000003d0: ec4d 1e3d cc40 00be 647c 17be 812b 8fbe
000003e0: fe44 02c1 5ab9 95bf a42c b2bd 1094 9ebe
000003f0: 2310 4dbe 82a9 2a3c ab21 f0be 1937 acbf

fc3.bias f4 [4]
-0.030990606 0.043975767 -0.0140789 -19.9911
00000000: 03e0 fdbc ef1f 343d 30ab 66bc c6ed 9fc1
