data/ppo-0.01-rerun/ppo_iter_350.pth (torch, 21114 bytes, 6 tensors)

fc1.weight f4 [64, 2]
0	0xbde9cb06	-0.11415677
1	0xbed9f25a	-0.42567712
2	0x3dc96b92	0.098349705
3	0x3edcb3d1	0.4310594
4	0x3e2fae1c	0.17156261
5	0x3e9c822f	0.30568072
6	0xbebc7a32	-0.36811978
7	0x3ebc47db	0.3677357
8	0x3f13fe94	0.5781033
9	0xbf07cdf7	-0.5304865
10	0x3ed5d820	0.41766453
11	0x3d81aaa0	0.06331372
12	0xbbabf0cc	-0.005247211
13	0xbd1948eb	-0.037423056
14	0x3f18bb6c	0.59660983
15	0xbeb1a6e3	-0.34697637
16	0x3ee3b3d6	0.4447314
17	0x3d814418	0.06311816
18	0xbe80db6d	-0.2516741
19	0x3e4986eb	0.19680373
20	0xbc084529	-0.00831727
21	0xbebb9499	-0.3663681
22	0x3c35581e	0.011068372
23	0x3d24627b	0.04013298
24	0xbe92f0d5	-0.28699365
25	0xbf03f358	-0.5154319
26	0xbe5f5920	-0.21811342
27	0xbd90b78a	-0.07066257
28	0x3e52dc91	0.20591952
29	0xc02af26e	-2.6710467
30	0x3f6b304f	0.9187059
31	0xbfc7f019	-1.5620147
32	0x39a5f90c	0.00031656807
33	0xbde45244	-0.111485034
34	0xbd5546c3	-0.052069437
35	0x3efb959a	0.49137574
36	0x3b2d1e27	0.0026415677
37	0xbe7a3d38	-0.24437416
38	0x3c3f2f1f	0.011668949
39	0xbf038e47	-0.51388973
40	0x3ea268f6	0.31720704
41	0xbe407a24	-0.18796593
42	0x3d26f76f	0.040763315
43	0x3ef24298	0.47316432
44	0x3f14da78	0.58145857
45	0xbeea2f00	-0.45738983
46	0x3cd12f05	0.025535116
47	0xbd3166b6	-0.043310843
48	0x3f4196a8	0.7562051
49	0xbf83b258	-1.0288801
50	0xbe80dee8	-0.25170064
51	0x3e23dc21	0.16001941
52	0xb9c64b5f	-0.0003782166
53	0xbcf809fe	-0.030278202
54	0x3dc05192	0.09390558
55	0x3f0459e6	0.51699674
56	0x3e86b0dd	0.2630681
57	0xbe250194	-0.16113883
58	0x3d674088	0.056458026
59	0xbf4c7a00	-0.7987366
60	0x3dd25433	0.10269966
61	0xbfdc1ffc	-1.7197261
62	0x3f1270f1	0.57203585
63	0xbf03c839	-0.5147739
64	0x3ed65614	0.41862547
65	0xbd54e973	-0.051980447
66	0x3e66f289	0.22553457
67	0xbe831316	-0.256005
68	0xbe6d4bfd	-0.23173518
69	0xc0291670	-2.6419945
70	0x3f087f15	0.5331891
71	0x3e29aab2	0.16569021
72	0x3f135caa	0.5756327
73	0xbf5a11ee	-0.8518361
74	0xbec87f8b	-0.39159808
75	0xbf5b8af9	-0.8575893
76	0xbe84a36f	-0.2590594
77	0x3dd2f444	0.10300496
78	0x37349394	1.0763197e-05
79	0xbca930d8	-0.020653173
80	0xbee1f0c3	-0.44129
81	0xbf56122a	-0.83621466
82	0x3f0fe0e1	0.5620251
83	0xbf084960	-0.5323696
84	0x3f18e92c	0.5973079
85	0x3dd494ba	0.1037993
86	0x3f3d0b67	0.73845524
87	0xbf823449	-1.0172206
88	0x3c05fe4c	0.008178305
89	0xbe82209d	-0.25415507
90	0x3f09c7bc	0.53820395
91	0xbee2c6a0	-0.44292164
92	0x3e55f986	0.20895967
93	0x3eaa3db3	0.33250198
94	0xbebb8b16	-0.36629552
95	0xbdc60450	-0.09668791
96	0x3f1a1a95	0.6019681
97	0xbca7b4a5	-0.02047188
98	0x3c85b1c5	0.016320119
99	0xbf7d0251	-0.9883166
100	0x3c054a12	0.0081353355
101	0xbf22e7e5	-0.6363509
102	0xbe8cfc23	-0.27536115
103	0xbf9081af	-1.1289576
104	0x3dce2240	0.100651264
105	0xbfdc78e0	-1.7224388
106	0xbeca9faa	-0.3957494
107	0xbea2c54f	-0.3179116
108	0x3d5905a6	0.052983902
109	0xbf0fdc99	-0.5619598
110	0x3b0395b5	0.0020078246
111	0xbd74a8a1	-0.05973113
112	0x3f4352b3	0.76298064
113	0xc008b493	-2.1360214
114	0x3e615349	0.22004427
115	0xbf856e4c	-1.0424285
116	0x3f14a3e0	0.58062553
117	0xbfc5a803	-1.5441898
118	0xbf08080f	-0.53137296
119	0xbf4f8369	-0.8105989
120	0x3b006c39	0.0019595756
121	0xbe86b73b	-0.2631167
122	0x3dc72919	0.09724636
123	0xbfe8fdbb	-1.8202432
124	0xbe26deff	-0.16296004
125	0xbe7cd235	-0.24689563
126	0xbd21e3ae	-0.039523773
127	0xbf389e67	-0.721167

fc1.bias f4 [64]
0	0x3c191a9f	0.009344726
1	0xc035df6e	-2.841762
2	0x404cb3ec	3.1984816
3	0xbfb73a2f	-1.4314631
4	0xbfcafda5	-1.5858656
5	0x3fc7c126	1.5605819
6	0xbd6df7a2	-0.05809749
7	0xc062b84f	-3.5424993
8	0xbf744bdc	-0.9542825
9	0xc025f3cc	-2.5930052
10	0x3ed8512a	0.42249423
11	0xbfcfdb63	-1.6238827
12	0x3fb849ad	1.4397484
13	0xc06bb267	-3.6827638
14	0xbdc6a29a	-0.096989825
15	0xbfa3e8df	-1.2805442
16	0xbb11d678	-0.0022253077
17	0xc052c174	-3.2930574
18	0xbc4a4c68	-0.012347318
19	0x401c5868	2.442896
20	0x4029c781	2.6528018
21	0xc08a1a55	-4.3157144
22	0x3f6ff3e2	0.9373151
23	0xbeda703d	-0.42663756
24	0xc00ff6fc	-2.2494497
25	0xc051b505	-3.2766736
26	0xbbd1f54e	-0.0064074164
27	0xc074c182	-3.8243108
28	0x400cb07e	2.1982722
29	0x3ed1d4db	0.40982708
30	0xbe0be365	-0.13660963
31	0xc0340054	-2.81252
32	0x40250b05	2.5787976
33	0xbff4e4ef	-1.9132365
34	0xbe5cee18	-0.215752
35	0xc0303d16	-2.7537284
36	0x3f9675c2	1.1754687
37	0xbf350086	-0.70703924
38	0xbf360442	-0.71100247
39	0xbafc6557	-0.0019256276
40	0xbe66a034	-0.2252205
41	0xc026de63	-2.6073234
42	0xc059711d	-3.397529
43	0xc00c51d6	-2.1924949
44	0xbc213c45	-0.0098410295
45	0xc046d4b0	-3.1067314
46	0xc067ff5d	-3.6249611
47	0xc099470d	-4.789923
48	0xc059111e	-3.3916698
49	0xbd01cdae	-0.031690292
50	0xbc0dbcba	-0.008650953
51	0xbe909508	-0.28238702
52	0xbdf592ab	-0.11990865
53	0x3fab2822	1.3371623
54	0x3feadfd1	1.8349553
55	0xbec88000	-0.39160156
56	0x3fa179ab	1.2615255
57	0xbd40d0e0	-0.0470742
58	0x3f005c47	0.50140804
59	0xbfd1d03b	-1.6391672
60	0xbe3fbc91	-0.18724276
61	0xbde3b202	-0.11117937
62	0xc00870a8	-2.131876
63	0xbec8c8fd	-0.39215842

fc2.weight f4 [64, 64]
0	0x3e4bc5ba	0.19899645
1	0x3f6c5f72	0.9233314
2	0x3e8c50cf	0.27405402
3	0xbdd98b4a	-0.106222704
4	0x3f35ff3c	0.7109258
5	0x3f006367	0.50151676
6	0xbf8cf8fe	-1.1013486
7	0x3d286dec	0.041120455
8	0xc107cef1	-8.488023
9	0x3e2e5bfe	0.1702728
10	0xbe803500	-0.25040436
11	0x3ecd3873	0.4008213
12	0xbd918a17	-0.07106417
13	0xbfd78f21	-1.6840554
14	0x4084e767	4.1532474
15	0xbf5816a2	-0.84409535
16	0xc03da000	-2.9628906
17	0x3ecb7bf7	0.39743015
18	0x3e0c1936	0.13681492
19	0x3e35295b	0.17691557
20	0x3e270c79	0.16313352
21	0xc10fc712	-8.986101
22	0xbe8f44ee	-0.27982277
23	0xbe5d56e8	-0.21615183
24	0xbd94bcd8	-0.072625816
25	0xc0074c46	-2.1140304
26	0x3dce4b83	0.100729965
27	0xc023f79b	-2.5619876
28	0x3e186b14	0.14884597
29	0x3d1a144f	0.037617024
30	0x3e536b14	0.20646316
31	0xbfb81afd	-1.4383236
32	0x3f39fff7	0.72656196
33	0x3f1c119e	0.6096438
34	0x3e928319	0.28615645
35	0xc06ef5eb	-3.7337596
36	0xbebd5a13	-0.36982784
37	0xbd4a8b10	-0.049449027
38	0xbe7d00ab	-0.24707286
39	0x3df709ca	0.12062414
40	0x3e2809b4	0.16409951
41	0xbfa18ab7	-1.2620457
42	0x3e00067c	0.12502474
43	0x3e97460e	0.29545635
44	0x3dc65d43	0.09685757
45	0xbe0fbcf9	-0.14036931
46	0xbe90607d	-0.28198615
47	0xbf9eccbb	-1.2406229
48	0x3e9b1c87	0.30295202
49	0x3d2a3b47	0.041560438
50	0x3d20104d	0.039078046
51	0xbe162198	-0.14661252
52	0x3fc1d1cb	1.5142149
53	0xbef4ab15	-0.47786775
54	0xbe8cf734	-0.2753235
55	0xbfe1b7db	-1.7634233
56	0xbf366e1f	-0.7126178
57	0xbe920fda	-0.2852772
58	0xbfa7ea11	-1.3118306
59	0x3e95a64d	0.2922844
60	0xbcb4ac68	-0.022054866
61	0x3e8b0699	0.2715347
62	0x3e3c8e52	0.18413666
63	0xbdfbfd7c	-0.12304208
64	0x3f07f8f2	0.53114235
65	0xc012ede8	-2.2957706
66	0x3e7bb89f	0.24582146
67	0x3e905287	0.28187963
68	0xc0737207	-3.8038347
69	0xbf28f65d	-0.6600092
70	0xbf73560c	-0.9505317
71	0xbd8cc4e9	-0.06873495
72	0xbeb5945c	-0.35464752
73	0xbead6d4f	-0.33872458
74	0xbef26acd	-0.47347108
75	0x3f61bf78	0.88182783
76	0xbf31f2ec	-0.69511294
77	0xbd5f29c4	-0.05448319
78	0xc1078a3d	-8.47125
79	0xc0e1e61e	-7.0593405
80	0xbfb4fbf5	-1.4139391
81	0x3fcb3472	1.587538
82	0x3dabc8f9	0.08387942
83	0x3f203e8e	0.6259545
84	0xbe749ba9	-0.23887505
85	0xc02bd5f2	-2.6849332
86	0x3e546e9c	0.20745319
87	0xc0040668	-2.062891
88	0xc06ac747	-3.668413
89	0xc0012f29	-2.0185034
90	0x3b3a9f24	0.0028476203
91	0xc042c670	-3.0433617
92	0xbda2dc23	-0.07952144
93	0x3ddf0880	0.10890293
94	0xc08a4ffa	-4.322263
95	0x3dd20cc8	0.10256344
96	0x3d282561	0.041051272
97	0xbf65bb59	-0.89738995
98	0x3e69dc2d	0.22837897
99	0xbdbdd345	-0.09268812
100	0xbe9709bc	-0.29499614
101	0xbe485b7a	-0.19566146
102	0x3da12c0e	0.07869731
103	0xbcc6b64c	-0.024256848
104	0x3eb872c7	0.36025068
105	0xbb75e4a6	-0.0037520318
106	0xbd19f227	-0.03758445
107	0xc0c68c80	-6.204651
108	0xbc7086df	-0.014680593
109	0xbcd93400	-0.026514053
110	0xbe4758b7	-0.19467436
111	0x3e063302	0.13105395
112	0xbeb1d36c	-0.34731615
113	0x3ef96919	0.48712996
114	0xbe21c31a	-0.15797082
115	0x3f2530c6	0.6452755
116	0xc05fa0bb	-3.4941852
117	0xbfedd8f6	-1.8581836
118	0xbeef1512	-0.46695763
119	0xbeed481b	-0.46344075
120	0x3db355fc	0.087566346
121	0xbf0b5343	-0.5442392
122	0x3f137cd0	0.57612324
123	0x3e922941	0.285471
124	0x3daba0f4	0.08380309
125	0xbe716dde	-0.23577067
126	0xbfa12bbb	-1.259147
127	0x3bfca9f0	0.007710688
128	0xbdb5ba1c	-0.08873388
129	0xbd9fe3b6	-0.07807104
130	0xbba8d77f	-0.0051526423
131	0xbba6b31e	-0.0050872704
132	0xbda1fe76	-0.07909863
133	0x3ecbe621	0.39824012
134	0xc011bca5	-2.277139
135	0xbdfca404	-0.12335971
136	0xc0864511	-4.195931
137	0xbdac551f	-0.08414673
138	0x3d90ec9d	0.070763804
139	0xbc87948c	-0.016550325
140	0xbdfb0a2c	-0.122577995
141	0xbeb707bb	-0.35748085
142	0x3cfa7c42	0.030576829
143	0xbdbe6c62	-0.09298016
144	0xc03609e0	-2.8443527
145	0x3ce4b57d	0.027918572
146	0x3e1e3b26	0.15452251
147	0xbe8bd957	-0.27314255
148	0xbfa84c03	-1.3148197
149	0xbc103ee4	-0.008804057
150	0xbdb32715	-0.08747689
151	0x3e437082	0.19085887
152	0xbdcef07c	-0.101044625
153	0xbc68ccf2	-0.014209019
154	0x3d3a0c22	0.045421727
155	0x3cabdd4d	0.020979548
156	0xbfbcec8b	-1.4759687
157	0x3bac909b	0.0052662618
158	0x3b1c36a2	0.0023836275
159	0x3d8c43d0	0.06848872
160	0xbfe12326	-1.7588851
161	0x3d388f98	0.045058817
162	0xbe395d3c	-0.18101972
163	0x3ea80da3	0.32822904
164	0x3d513864	0.05107917
165	0xbbc3c7fa	-0.005974767
166	0xbe0d1249	-0.13776506
167	0x3e462412	0.19349697
168	0xbf0f6e7f	-0.5602798
169	0xbd91c090	-0.071168065
170	0xbde6cc50	-0.11269438
171	0x3bb6f620	0.0055835396
172	0xbd147a60	-0.03624952
173	0x3ce2acf0	0.027670354
174	0x3b20de90	0.002454672
175	0x3e7ea555	0.24867757
176	0xbdef133c	-0.116735905
177	0xbe21046b	-0.15724342
178	0xbd4ac2fd	-0.04950236
179	0x3da3e554	0.08002725
180	0xbdd521d1	-0.104068406
181	0x3d2d7f5d	0.04235779
182	0xbdf0cbcd	-0.11757622
183	0xc0123d5b	-2.2849948
184	0xbbd0d365	-0.0063728564
185	0x3da54d2a	0.080713585
186	0x3d95a4fa	0.073068574
187	0xbfa73dc9	-1.306573
188	0x3dab2a5e	0.0835769
189	0xbdfa3e9e	-0.122189745
190	0x3ddc9b41	0.107718
191	0x3d8cd509	0.06876571
192	0xbafe3fc8	-0.001939767
193	0x3debe0f3	0.11517515
194	0xbe128c0d	-0.14311238
195	0xbdac2fdf	-0.08407568
196	0x3d955010	0.07290661
197	0xbd0027c4	-0.031287923
198	0xbcc26453	-0.023729479
199	0xbd5b2a15	-0.05350693
200	0x3db3b717	0.08775156
201	0x3cf226c2	0.029559497
202	0x3b163f73	0.0022926002
203	0xbd8d671b	-0.069044314
204	0xbe0e92fc	-0.13923258
205	0xbc956ada	-0.018239427
206	0x3cfe31cd	0.031029606
207	0xbd6c6580	-0.057713985
208	0xbd077f81	-0.03308058
209	0x3da5f0fc	0.08102605
210	0x3bd1c6d2	0.006401875
211	0xbd02542d	-0.031818558
212	0xbd0646db	-0.032782417
213	0xbde4bc5f	-0.111687414
214	0xbdfd00e5	-0.12353686
215	0xbd6dbe6f	-0.05804294
216	0xbd82215a	-0.063540176
217	0x3beb84b2	0.0071874494
218	0xbd2a3991	-0.041558806
219	0xbd42ac5a	-0.04752765
220	0x3deb06b1	0.11475886
221	0x3d19bec1	0.037535433
222	0x3daa347c	0.08310792
223	0xbd77dda0	-0.060514092
224	0xbd55989b	-0.05214749
225	0x3d239602	0.03993798
226	0xbdf7e8a8	-0.121049225
227	0xbda40463	-0.08008649
228	0xbc454de8	-0.0120425
229	0xbd9eadea	-0.07748015
230	0xbe06d80b	-0.13168351
231	0x3d8f9c89	0.070122786
232	0x3d8086c6	0.06275706
233	0x3ca61de0	0.020277917
234	0xbcb5e978	-0.022206053
235	0xbded203a	-0.11578412
236	0xbdaaafc7	-0.08334308
237	0x3d02590c	0.031823203
238	0x3d780d2c	0.060559437
239	0xbd42cf1f	-0.047560807
240	0xbd4ee4f2	-0.050511308
241	0x3d029b60	0.03188646
242	0xbdd60482	-0.104500785
243	0x3d418206	0.04724314
244	0xbd5f3a54	-0.054498985
245	0xbd12dc0c	-0.035854384
246	0xbd7fcbc9	-0.062450204
247	0x3c8b6c24	0.017019339
248	0xbd33528b	-0.04377989
249	0x3d599b8c	0.053126857
250	0xbc17a0b7	-0.009254626
251	0x3d86c9ff	0.065814964
252	0x3df62396	0.12018506
253	0xbd89042f	-0.06690251
254	0xbdfbcc90	-0.122948766
255	0x3dcd63aa	0.10028775

fc2.bias f4 [64]
0	0x3f16bd5f	0.5888271
1	0x3efd5686	0.49480075
2	0xbe77a32f	-0.24183343
3	0x3d3df28c	0.04637389
4	0x3e37ee34	0.17961961
5	0xbe123aa5	-0.14280184
6	0xbcfe090e	-0.031010177
7	0x3d995fc5	0.0748897
8	0x3bac0816	0.0052499874
9	0xc0094101	-2.1445925
10	0xc06fb0d0	-3.7451668
11	0xbdde0466	-0.10840683
12	0xbd3dc141	-0.04632688
13	0x3f1e2f30	0.6179075
14	0x3e716219	0.23572578
15	0xbe8a11bb	-0.26966652
16	0x3f5374c7	0.82600063
17	0xbe3c9241	-0.18415166
18	0xbd89147b	-0.066933595
19	0x3ee8c5fd	0.45463553
20	0xbf839240	-1.0279007
21	0xbe198f33	-0.14996032
22	0xbfd1207c	-1.6338038
23	0xbe8ad6c9	-0.27116993
24	0xbdd1ed1d	-0.10250304
25	0xbe953dca	-0.29148704
26	0xbe245ac1	-0.16050245
27	0x3e086435	0.13319476
28	0xbdb61101	-0.08889962
29	0x3eb76169	0.35816506
30	0xbd36e787	-0.044654395
31	0xbdedc979	-0.116106935
32	0x3cabdd14	0.020979442
33	0xbf31ff71	-0.695304
34	0x3cc0cdce	0.023535635
35	0xbf8e803f	-1.1132888
36	0xbe3f297e	-0.18668172
37	0x3f7cc03c	0.98730826
38	0xbd6df5c6	-0.058095716
39	0xbf4be518	-0.79646444
40	0xbffa0352	-1.9532263
41	0xbd9bed2d	-0.07613597
42	0xbf469978	-0.77577925
43	0xbebe4c24	-0.37167466
44	0xbd4745dd	-0.04865061
45	0xbeed63a7	-0.4636509
46	0xbdd64a00	-0.10463333
47	0xbe295ad1	-0.1653855
48	0xbe269ea8	-0.1627146
49	0x3ed3d64c	0.41374433
50	0xbdfdd70a	-0.12394531
51	0x3ee527ef	0.4475703
52	0x3c94ef55	0.018180529
53	0x3e98592f	0.29755542
54	0x3f80017f	1.0000457
55	0xbe654dfb	-0.22393028
56	0x3eb4b1aa	0.35291797
57	0x3f7e731f	0.9939441
58	0xbe64792b	-0.22311847
59	0x3d13ede4	0.036115542
60	0x3f1331ed	0.57498056
61	0xbd69e706	-0.057105087
62	0x3f37d0ba	0.71802866
63	0xbf912d5e	-1.134197

fc3.weight f4 [4, 64]
0	0xbf0edc18	-0.55804586
1	0x3eddf293	0.43349132
2	0x3ca86bc2	0.020559195
3	0xbd77442a	-0.06036774
4	0xbeea6e5e	-0.45787328
5	0x3e9a6e80	0.3016243
6	0xbe1c18a4	-0.15243775
7	0x3da388d0	0.07985079
8	0x3e966ffe	0.29382318
9	0x403d0176	2.9532142
10	0xc10c808e	-8.781385
11	0xbd03c693	-0.032171797
12	0x3d92703a	0.07150312
13	0xbc9aae99	-0.018882083
14	0xbefaaef4	-0.48961604
15	0x3d9e17a9	0.077193566
16	0x3eb419eb	0.35176024
17	0x3deb642b	0.11493715
18	0xbdb46be8	-0.08809644
19	0x3f2ca891	0.6744471
20	0xbf76c208	-0.9638982
21	0x3c481b08	0.012213476
22	0xc1127a10	-9.1548
23	0x3d4465d0	0.04794866
24	0x3eda1247	0.4259207
25	0x3dc3dbe1	0.09563423
26	0xbd80e8a1	-0.062943704
27	0xc17611aa	-15.3793125
28	0x3d4ca2ff	0.049960133
29	0xbfb8d18a	-1.4438946
30	0x3f00669c	0.5015657
31	0x3a9ca348	0.0011950517
32	0x3d33d888	0.043907672
33	0xbdadf7ae	-0.08494507
34	0xbd9b9ef8	-0.0759868
35	0x3f2d14d5	0.6760991
36	0xbddfd42c	-0.109291404
37	0xbeda6a28	-0.42659116
38	0xbc71bd65	-0.014754628
39	0xbf41ac25	-0.75653297
40	0x3e80c7ac	0.25152338
41	0xbc40c343	-0.011765304
42	0xbcf8354f	-0.030298857
43	0xbc2732ca	-0.01020498
44	0xbc2a072f	-0.010377689
45	0x3d9743c9	0.07385976
46	0xbc1a1a3b	-0.009405668
47	0x3d4e5b50	0.05038005
48	0xbde0d5da	-0.10978289
49	0xbe5d77d3	-0.2162774
50	0xbd9eda06	-0.077564284
51	0xbe90f136	-0.2830903
52	0xbd4de5c2	-0.050267942
53	0x3f1531c5	0.5827907
54	0xbdbb1d52	-0.09136452
55	0x3f941758	1.1569624
56	0xbf44f2ef	-0.7693319
57	0x3f005e7e	0.50144184
58	0x3b9c8e18	0.004777681
59	0xc194b3fc	-18.587883
60	0x3f579b79	0.8422161
61	0x3d8a2569	0.06745417
62	0x3e220bef	0.15824865
63	0xc19ac886	-19.347912
64	0x3eefb354	0.46816504
65	0xbf45fe0d	-0.77340776
66	0xbc27cc89	-0.010241636
67	0xbd25e40b	-0.04050068
68	0xbe582441	-0.2110758
69	0xbec0f427	-0.37686273
70	0xbd6104de	-0.054936282
71	0x3db67cdd	0.089105345
72	0xc20873e7	-34.113186
73	0xc00fd68a	-2.2474694
74	0x3ec8eae0	0.39241695
75	0xbd8992db	-0.067174636
76	0x3e4abb48	0.19798005
77	0x3e792c7f	0.2433338
78	0x3ed2ca73	0.41170081
79	0x3caeba26	0.021328997
80	0xbe4b23ea	-0.19837919
81	0x3e0b0e41	0.13579656
82	0xbd83ba00	-0.06431961
83	0x3e9a864a	0.3018058
84	0xbc30e143	-0.010795894
85	0xbd3fdf05	-0.046843547
86	0x3e923280	0.28554153
87	0x3d8e0cd1	0.06936038
88	0xbfd7bece	-1.6855104
89	0x3b9e9eed	0.004840723
90	0xbc16d7c2	-0.009206714
91	0x3e066442	0.13124183
92	0xbc4d9d67	-0.012549735
93	0x3f397a37	0.7245211
94	0xbe9edc6f	-0.31027552
95	0x3dc998d6	0.09843604
96	0xbd955524	-0.0729163
97	0xbdb9856a	-0.0905865
98	0xbd7f2983	-0.062295448
99	0xc08470e9	-4.138783
100	0xbd88f309	-0.0668698
101	0xbeb52c89	-0.3538554
102	0xbdb8ec5e	-0.090294585
103	0xbfe99200	-1.8247681
104	0x3e800c54	0.25009406
105	0x3c2f5161	0.010700555
106	0x3df68f48	0.120390475
107	0x3df6889f	0.12037777
108	0x3d31e2d6	0.04342922
109	0x3dba603e	0.09100388
110	0xbd0702e7	-0.032961752
111	0x3d5d639a	0.054050066
112	0xbcdc3afc	-0.026883595
113	0xbddf9426	-0.10916929
114	0xbd2db474	-0.04240842
115	0xbdd9ff9a	-0.10644455
116	0x3da9b656	0.08286731
117	0xbf74e34c	-0.9565933
118	0xbe1fd820	-0.15609789
119	0x3dac27bd	0.08406017
120	0x3e965442	0.2936116
121	0x3f021eb0	0.50828075
122	0x3e3e9774	0.18612462
123	0x3ec78cde	0.3897466
124	0xbeb71664	-0.3575927
125	0x3ca289d3	0.01984111
126	0x3e92ab8e	0.2864651
127	0x3e32516d	0.17413874
128	0x3ea1f4bb	0.31632027
129	0x3f2ff1e9	0.687285
130	0x3ce9d767	0.028545095
131	0x3db656a4	0.08903244
132	0x3f803320	1.0015602
133	0x3d18081a	0.0371171
134	0x3c5783ab	0.013153951
135	0xbe857f5c	-0.2607373
136	0x3e98403a	0.297365
137	0x407c104a	3.9384942
138	0x3ec7dfbd	0.39037886
139	0x3d1de377	0.038547006
140	0xc1f598ad	-30.699549
141	0xbeb285ac	-0.3486761
142	0x3dd9b7e6	0.10630779
143	0xbd33c20d	-0.043886233
144	0xbea7ab55	-0.32747903
145	0xc12ebaf5	-10.920644
146	0xbd84c6b9	-0.06483216
147	0xbf990f6d	-1.1957833
148	0x3ed4c4c8	0.41556382
149	0xbcc23721	-0.023707928
150	0x3e6df086	0.23236284
151	0xbef2d652	-0.47429138
152	0x3f51fdc3	0.82027835
153	0xbc049b25	-0.00809363
154	0xbd352afa	-0.04423044
155	0x3dab18b5	0.08354322
156	0xbd8c8dd5	-0.0686299
157	0x3f49cd6d	0.7882908
158	0xbd79a1d9	-0.060945366
159	0x3d378575	0.04480501
160	0xbc12826b	-0.008942227
161	0xbdf49637	-0.11942714
162	0xbd6c5d29	-0.057706032
163	0x3f54fab5	0.8319505
164	0xbd77293c	-0.06034206
165	0x3fb0e1fe	1.3818967
166	0xbd4f9aea	-0.050684847
167	0x402d24ee	2.705379
168	0xc0bd0435	-5.9067636
169	0xbd32545c	-0.043537483
170	0xbef80283	-0.48439416
171	0xbef5069d	-0.47856608
172	0x3d0c69a7	0.034280445
173	0xbe71ced3	-0.23614053
174	0x3a932365	0.0011225758
175	0x3cad8e05	0.021185884
176	0xbdac3fac	-0.08410582
177	0x3e78a383	0.24281125
178	0x3cbb2d40	0.022848725
179	0x3f0b55b3	0.5442764
180	0xbbd11da0	-0.0063817054
181	0x3f221f42	0.63328946
182	0x3f841e51	1.0321752
183	0xc024e9f1	-2.5767787
184	0x3e9a9e79	0.3019903
185	0xbfd4ba38	-1.661933
186	0xc1b84ff7	-23.039045
187	0x3e97292a	0.29523593
188	0xbe6c8855	-0.23098882
189	0xbccab383	-0.024743801
190	0xbf6fbdda	-0.93649065
191	0x3e4a3e2b	0.19750278
192	0xbe0ffcef	-0.1406133
193	0xbe162158	-0.14661157
194	0xbf951f8a	-1.165025
195	0xbd9fce2e	-0.078029975
196	0xbdd14c07	-0.10219579
197	0xbe0b8be1	-0.13627578
198	0x3d8884ab	0.066659294
199	0xc084fb49	-4.1556745
200	0xbe44e78e	-0.19228956
201	0xbee72c66	-0.4515106
202	0xbdaa54c9	-0.08316953
203	0x3da16dff	0.07882308
204	0xbf7e9f7d	-0.9946211
205	0xbea7034b	-0.326197
206	0xbe615a52	-0.2200711
207	0xbe7d9c14	-0.2476657
208	0xbec773bf	-0.38955495
209	0xbe5c7c02	-0.2153168
210	0x3cceb592	0.025233064
211	0xbee9d668	-0.4567139
212	0xbe372363	-0.17884593
213	0x3cb73bd4	0.022367395
214	0xc00ff527	-2.249338
215	0xbeabad03	-0.33530435
216	0x3ca6512d	0.02030238
217	0xc09d6f02	-4.9198008
218	0x3da9dd02	0.08294107
219	0xbedefefc	-0.43553913
220	0x3d3e1969	0.04641095
221	0xbe9af81b	-0.30267414
222	0xbd896ac6	-0.067098185
223	0xbf6eb461	-0.93243986
224	0xbcc7c1fb	-0.02438449
225	0xc129a93f	-10.60382
226	0xbdb07f45	-0.08618025
227	0xc00d86a5	-2.211343
228	0xbd509d56	-0.050931297
229	0xbdaf2867	-0.08552628
230	0x3db5b5d8	0.088725746
231	0xbe3e7e4c	-0.18602866
232	0xc0db4222	-6.851823
233	0xbee5d4b5	-0.44888845
234	0xc08b2ed1	-4.349465
235	0xbe93d70c	-0.28875005
236	0xbde75788	-0.11295992
237	0xbfc489fd	-1.5354611
238	0x3d9f60b1	0.07782114
239	0x3ca05655	0.019572416
240	0xbdd63686	-0.10459618
241	0xc0877c30	-4.2339096
242	0xbcf9e74b	-0.030505797
243	0xc047d199	-3.1221678
244	0x3d1e4dec	0.03864853
245	0xbe0040cc	-0.12524718
246	0xbe177c64	-0.14793545
247	0xbe8f2b81	-0.27962878
248	0xc10244fe	-8.141844
249	0xbf95b95a	-1.169719
250	0xbdb22ca4	-0.08699921
251	0xbe9e9410	-0.30972338
252	0xbe4d1023	-0.20025687
253	0x3c2aa982	0.01041639
254	0xbef021ab	-0.46900687
255	0xbfac3719	-1.3454314

fc3.bias f4 [4]
0	0xbca667a4	-0.020313092
1	0x3ce4d17b	0.02793192
2	0xbba75219	-0.0051062224
3	0xc19fedc6	-19.9911
