custom_grid/data/zppo-0.0001/ppo_iter_650.pth (torch, 21521 bytes, 6 tensors)

fc1.weight f4 [64, 2]
0	0xbdfbe7a5	-0.12300042
1	0xbed4b800	-0.4154663
2	0x3db3c5b9	0.08777947
3	0x3ee1292f	0.43976733
4	0x3e31292a	0.17300859
5	0x3e9c58b7	0.30536434
6	0xbeba0466	-0.3633148
7	0x3ebbc3e8	0.36672902
8	0x3f145949	0.5794874
9	0xbf07d3a7	-0.5305733
10	0x3ed71054	0.42004645
11	0x3d7e7ecd	0.062132645
12	0xbb70d096	-0.003674542
13	0xbd208bac	-0.0391957
14	0x3f17ea3c	0.5934179
15	0xbeb5a6ff	-0.3547897
16	0x3ee3d250	0.44496393
17	0x3d896c6c	0.06710133
18	0xbe86305c	-0.2620877
19	0x3e53d1f9	0.20685567
20	0xbc5ee207	-0.013603694
21	0xbeb3b32b	-0.35097632
22	0x3c35581e	0.011068372
23	0x3d24627b	0.04013298
24	0xbe8d5c99	-0.2760971
25	0xbf06c706	-0.52647436
26	0xbe5f5920	-0.21811342
27	0xbd90b78a	-0.07066257
28	0x3e4e4299	0.20142592
29	0xc02d0afa	-2.703795
30	0x3f693b89	0.9110647
31	0xbfc8f59e	-1.5699956
32	0x39a5f90c	0.00031656807
33	0xbde45244	-0.111485034
34	0xbd5df8ca	-0.054192342
35	0x3efca4c1	0.49344447
36	0x3b2d1e27	0.0026415677
37	0xbe7a3d38	-0.24437416
38	0x3cd49927	0.025951935
39	0xbf066bba	-0.5250813
40	0x3ea2c4ad	0.31790677
41	0xbe3fdb87	-0.18736087
42	0x3d401fd5	0.046905357
43	0x3ef035db	0.46916088
44	0x3f16edbc	0.58956504
45	0xbee5c6b0	-0.4487815
46	0x3cd12f05	0.025535116
47	0xbd3166b6	-0.043310843
48	0x3f41aa66	0.7565063
49	0xbf8380a1	-1.027363
50	0xbe8140d2	-0.25244766
51	0x3e1ff360	0.15620184
52	0xb896b1c8	-7.185672e-05
53	0xbcf809fe	-0.030278202
54	0x3db69fa7	0.0891717
55	0x3f042787	0.51622814
56	0x3e8585eb	0.26078734
57	0xbe243a51	-0.16037871
58	0x3d7f7380	0.06236601
59	0xbf4817f4	-0.7816155
60	0x3dd25433	0.10269966
61	0xbfdc1ffc	-1.7197261
62	0x3f126b36	0.5719484
63	0xbf049f84	-0.518059
64	0x3ed5fe3f	0.41795537
65	0xbd4d6043	-0.05014063
66	0x3e5a7263	0.21332698
67	0xbe87f1b0	-0.2655158
68	0xbe65c60d	-0.22438832
69	0xc029c1dd	-2.6524575
70	0x3f071444	0.527653
71	0x3e265362	0.16242746
72	0x3f11a32e	0.5688962
73	0xbf5c4db4	-0.86056066
74	0xbecfbb34	-0.40572512
75	0xbf57c6e4	-0.8428786
76	0xbe85fbf0	-0.26168776
77	0x3ddf1553	0.10892739
78	0x37349394	1.0763197e-05
79	0xbca930d8	-0.020653173
80	0xbedcca37	-0.43123028
81	0xbf58a3a2	-0.84624684
82	0x3f0f5617	0.5599074
83	0xbf09ba5e	-0.538
84	0x3f17b5d7	0.5926184
85	0x3dcf8b3a	0.10133977
86	0x3f3d2c35	0.7389558
87	0xbf81ff18	-1.0155973
88	0x3c05fe4c	0.008178305
89	0xbe82209d	-0.25415507
90	0x3f098e48	0.5373273
91	0xbee4d2bc	-0.44692028
92	0x3e55a48b	0.2086355
93	0x3eabbcdf	0.33542535
94	0xbebe1d72	-0.3713184
95	0xbdbff0f2	-0.093721285
96	0x3f1b5bf1	0.60687166
97	0xbc3631c8	-0.011120267
98	0x3c85b1c5	0.016320119
99	0xbf7d0251	-0.9883166
100	0x3c054a12	0.0081353355
101	0xbf22e7e5	-0.6363509
102	0xbe96759b	-0.293866
103	0xbf8e3713	-1.1110557
104	0x3dce2240	0.100651264
105	0xbfdc78e0	-1.7224388
106	0xbec83b9f	-0.39107987
107	0xbea43288	-0.32069802
108	0x3d3aa847	0.045570638
109	0xbf1104ee	-0.5664815
110	0x3b0395b5	0.0020078246
111	0xbd74a8a1	-0.05973113
112	0x3f425543	0.7591135
113	0xc008da6b	-2.1383312
114	0x3e67c055	0.22631963
115	0xbf83f4de	-1.0309103
116	0x3f1519b3	0.5824234
117	0xbfc58a97	-1.5432919
118	0xbf0b3b02	-0.54386914
119	0xbf4c3a83	-0.7977678
120	0x3b006c39	0.0019595756
121	0xbe86b73b	-0.2631167
122	0x3dc72919	0.09724636
123	0xbfe8fdbb	-1.8202432
124	0xbe3fa575	-0.1871546
125	0xbe631013	-0.221741
126	0xbd09f997	-0.033685293
127	0xbf389e67	-0.721167

fc1.bias f4 [64]
0	0x3c6ab63e	0.0143256765
1	0xc0355b11	-2.8336833
2	0x404c7789	3.1947958
3	0xbfb71ee8	-1.4306307
4	0xbfca7c2a	-1.5819142
5	0x3fc832e9	1.5640537
6	0xbd732a41	-0.05936647
7	0xc062db03	-3.5446174
8	0xbf736dd7	-0.9508948
9	0xc0252944	-2.5806437
10	0x3eddd5fa	0.43327314
11	0xbfcfdb63	-1.6238827
12	0x3fb726ba	1.4308693
13	0xc06bb267	-3.6827638
14	0xbdd32e6e	-0.1031159
15	0xbfa4dfa3	-1.2880749
16	0xbb11d678	-0.0022253077
17	0xc05268e4	-3.287652
18	0xbc4a4c68	-0.012347318
19	0x401bb63d	2.432998
20	0x4029ea6b	2.6549327
21	0xc08a4427	-4.3208194
22	0x3f70c36f	0.9404821
23	0xbeda703d	-0.42663756
24	0xc0102087	-2.2519853
25	0xc051bf05	-3.277284
26	0xbbd8ea0c	-0.0066196974
27	0xc074e968	-3.826746
28	0x400cff07	2.2030656
29	0x3ed0cfea	0.40783626
30	0xbe0be365	-0.13660963
31	0xc033ecd3	-2.8113296
32	0x40255140	2.583084
33	0xbff63f39	-1.9238044
34	0xbe5df5a1	-0.21675731
35	0xc030d704	-2.7631235
36	0x3f947fbe	1.1601484
37	0xbf318f65	-0.6935943
38	0xbf34e244	-0.70657754
39	0xbafc6557	-0.0019256276
40	0xbe70ec35	-0.23527606
41	0xc026e78b	-2.6078823
42	0xc059ba2a	-3.4019876
43	0xc00c7502	-2.1946416
44	0xbc213c45	-0.0098410295
45	0xc046d736	-3.1068854
46	0xc067d0cb	-3.6221187
47	0xc0991d32	-4.784814
48	0xc058e618	-3.3890438
49	0xbd01cdae	-0.031690292
50	0xbc0dbcba	-0.008650953
51	0xbe898113	-0.26856288
52	0xbdf592ab	-0.11990865
53	0x3fab1795	1.3366572
54	0x3fea2186	1.829148
55	0xbec88000	-0.39160156
56	0x3fa14561	1.2599298
57	0xbd44bcb0	-0.04803151
58	0x3effd80d	0.4996952
59	0xbfd04ed9	-1.6274062
60	0xbe3fbc91	-0.18724276
61	0xbde3b202	-0.11117937
62	0xc006edf0	-2.1082726
63	0xbecbbd06	-0.3979265

fc2.weight f4 [64, 64]
0	0x3e526477	0.20546137
1	0x3f6e813b	0.9316594
2	0x3e9873ed	0.29775944
3	0xbdbdf7ad	-0.09275756
4	0x3f35ff3c	0.7109258
5	0x3f0580c6	0.5214962
6	0xbf8d299a	-1.1028321
7	0x3d286dec	0.041120455
8	0xc107bb62	-8.483248
9	0x3e2573c9	0.1615745
10	0xbe706c11	-0.23478724
11	0x3ecd3873	0.4008213
12	0xbd4edeae	-0.050505333
13	0xbfd78f21	-1.6840554
14	0x4084dd1a	4.15199
15	0xbf5816a2	-0.84409535
16	0xc03da000	-2.9628906
17	0x3ecffac2	0.40621
18	0x3e0c1936	0.13681492
19	0x3e48a34b	0.19593541
20	0x3e3ce062	0.1844497
21	0xc110039e	-9.000883
22	0xbe889f84	-0.266842
23	0xbe5d56e8	-0.21615183
24	0xbd94bcd8	-0.072625816
25	0xc00765e0	-2.115593
26	0x3dce4b83	0.100729965
27	0xc023c2c4	-2.5587626
28	0x3e2e4200	0.17017365
29	0x3d500fcf	0.050796326
30	0x3e536b14	0.20646316
31	0xbfb81afd	-1.4383236
32	0x3f3f6537	0.74763817
33	0x3f1c119e	0.6096438
34	0x3e9454fd	0.2897109
35	0xc06ef5eb	-3.7337596
36	0xbeb69f7c	-0.35668552
37	0xbd32edb8	-0.043683738
38	0xbe6e0317	-0.23243366
39	0x3df709ca	0.12062414
40	0x3e2f8c46	0.17143354
41	0xbfa18ab7	-1.2620457
42	0x3e00067c	0.12502474
43	0x3e97460e	0.29545635
44	0x3dc65d43	0.09685757
45	0xbe0fbcf9	-0.14036931
46	0xbe90607d	-0.28198615
47	0xbf9eccbb	-1.2406229
48	0x3e9b1c87	0.30295202
49	0x3d2a3b47	0.041560438
50	0x3d20104d	0.039078046
51	0xbe121a25	-0.14267786
52	0x3fc1d1cb	1.5142149
53	0xbeea7dd0	-0.45799112
54	0xbe84400d	-0.25830117
55	0xbfe1b7db	-1.7634233
56	0xbf3380eb	-0.7011859
57	0xbe932911	-0.2874227
58	0xbfa6e7e5	-1.3039519
59	0x3e980809	0.2969363
60	0xbcb4ac68	-0.022054866
61	0x3e8b0699	0.2715347
62	0x3e3c8e52	0.18413666
63	0xbdfbfd7c	-0.12304208
64	0x3f07f8f2	0.53114235
65	0xc01561da	-2.3340974
66	0x3e5c2631	0.21498944
67	0x3e7f3288	0.2492162
68	0xc0737207	-3.8038347
69	0xbf30bb67	-0.69035953
70	0xbf73560c	-0.9505317
71	0xbd8cc4e9	-0.06873495
72	0xbeb8bb81	-0.36080554
73	0xbeb649db	-0.35603222
74	0xbef26acd	-0.47347108
75	0x3f61bf78	0.88182783
76	0xbf31f2ec	-0.69511294
77	0xbd5f29c4	-0.05448319
78	0xc1078a3d	-8.47125
79	0xc0e1e61e	-7.0593405
80	0xbfb4fbf5	-1.4139391
81	0x3fc6b5c3	1.5524219
82	0x3dabc8f9	0.08387942
83	0x3f205b6b	0.6263949
84	0xbe8ee9f7	-0.27912876
85	0xc02b5c94	-2.6775255
86	0x3e509fa5	0.203734
87	0xc0040668	-2.062891
88	0xc06ac747	-3.668413
89	0xc0011820	-2.0170975
90	0x3b3a9f24	0.0028476203
91	0xc0453518	-3.0813656
92	0xbdf4f01b	-0.11959859
93	0x3ddf0880	0.10890293
94	0xc08a4ffa	-4.322263
95	0x3dd20cc8	0.10256344
96	0x3c374e5b	0.011188115
97	0xbf65bb59	-0.89738995
98	0x3e69dc2d	0.22837897
99	0xbdbdd345	-0.09268812
100	0xbe9709bc	-0.29499614
101	0xbe485b7a	-0.19566146
102	0x3d42421d	0.04742633
103	0xbcc6b64c	-0.024256848
104	0x3eb872c7	0.36025068
105	0xbb75e4a6	-0.0037520318
106	0xbd19f227	-0.03758445
107	0xc0c68c80	-6.204651
108	0xbc7086df	-0.014680593
109	0xbcd93400	-0.026514053
110	0xbe4758b7	-0.19467436
111	0x3e063302	0.13105395
112	0xbeb1d36c	-0.34731615
113	0x3ef96919	0.48712996
114	0xbe21c31a	-0.15797082
115	0x3f2530c6	0.6452755
116	0xc05fa0bb	-3.4941852
117	0xbfef36b2	-1.8688567
118	0xbeeef193	-0.46668682
119	0xbeed481b	-0.46344075
120	0x3db355fc	0.087566346
121	0xbf0b5343	-0.5442392
122	0x3f137cd0	0.57612324
123	0x3e922941	0.285471
124	0x3daba0f4	0.08380309
125	0xbe716dde	-0.23577067
126	0xbfa12bbb	-1.259147
127	0x3bfca9f0	0.007710688
128	0xbdb5ba1c	-0.08873388
129	0xbd9fe3b6	-0.07807104
130	0xbba8d77f	-0.0051526423
131	0xbba6b31e	-0.0050872704
132	0xbda1fe76	-0.07909863
133	0x3ecbe621	0.39824012
134	0xc011bca5	-2.277139
135	0xbdfca404	-0.12335971
136	0xc0864511	-4.195931
137	0xbdac551f	-0.08414673
138	0x3d90ec9d	0.070763804
139	0xbc87948c	-0.016550325
140	0xbdfb0a2c	-0.122577995
141	0xbeb707bb	-0.35748085
142	0x3cfa7c42	0.030576829
143	0xbdbe6c62	-0.09298016
144	0xc03609e0	-2.8443527
145	0x3ce4b57d	0.027918572
146	0x3e1e3b26	0.15452251
147	0xbe8bd957	-0.27314255
148	0xbfa84c03	-1.3148197
149	0xbc103ee4	-0.008804057
150	0xbdb32715	-0.08747689
151	0x3e437082	0.19085887
152	0xbdcef07c	-0.101044625
153	0xbc68ccf2	-0.014209019
154	0x3d3a0c22	0.045421727
155	0x3cabdd4d	0.020979548
156	0xbfbcec8b	-1.4759687
157	0x3bac909b	0.0052662618
158	0x3b1c36a2	0.0023836275
159	0x3d8c43d0	0.06848872
160	0xbfe12326	-1.7588851
161	0x3d388f98	0.045058817
162	0xbe395d3c	-0.18101972
163	0x3ea80da3	0.32822904
164	0x3d513864	0.05107917
165	0xbbc3c7fa	-0.005974767
166	0xbe0d1249	-0.13776506
167	0x3e462412	0.19349697
168	0xbf0f6e7f	-0.5602798
169	0xbd91c090	-0.071168065
170	0xbde6cc50	-0.11269438
171	0x3bb6f620	0.0055835396
172	0xbd147a60	-0.03624952
173	0x3ce2acf0	0.027670354
174	0x3b20de90	0.002454672
175	0x3e7ea555	0.24867757
176	0xbdef133c	-0.116735905
177	0xbe21046b	-0.15724342
178	0xbd4ac2fd	-0.04950236
179	0x3da3e554	0.08002725
180	0xbdd521d1	-0.104068406
181	0x3d2d7f5d	0.04235779
182	0xbdf0cbcd	-0.11757622
183	0xc0123d5b	-2.2849948
184	0xbbd0d365	-0.0063728564
185	0x3da54d2a	0.080713585
186	0x3d95a4fa	0.073068574
187	0xbfa73dc9	-1.306573
188	0x3dab2a5e	0.0835769
189	0xbdfa3e9e	-0.122189745
190	0x3ddc9b41	0.107718
191	0x3d8cd509	0.06876571
192	0xbafe3fc8	-0.001939767
193	0x3debe0f3	0.11517515
194	0xbe128c0d	-0.14311238
195	0xbdac2fdf	-0.08407568
196	0x3d955010	0.07290661
197	0xbd0027c4	-0.031287923
198	0xbcc26453	-0.023729479
199	0xbd5b2a15	-0.05350693
200	0x3db3b717	0.08775156
201	0x3cf226c2	0.029559497
202	0x3b163f73	0.0022926002
203	0xbd8d671b	-0.069044314
204	0xbe0e92fc	-0.13923258
205	0xbc956ada	-0.018239427
206	0x3cfe31cd	0.031029606
207	0xbd6c6580	-0.057713985
208	0xbd077f81	-0.03308058
209	0x3da5f0fc	0.08102605
210	0x3bd1c6d2	0.006401875
211	0xbd02542d	-0.031818558
212	0xbd0646db	-0.032782417
213	0xbde4bc5f	-0.111687414
214	0xbdfd00e5	-0.12353686
215	0xbd6dbe6f	-0.05804294
216	0xbd82215a	-0.063540176
217	0x3beb84b2	0.0071874494
218	0xbd2a3991	-0.041558806
219	0xbd42ac5a	-0.04752765
220	0x3deb06b1	0.11475886
221	0x3d19bec1	0.037535433
222	0x3daa347c	0.08310792
223	0xbd77dda0	-0.060514092
224	0xbd55989b	-0.05214749
225	0x3d239602	0.03993798
226	0xbdf7e8a8	-0.121049225
227	0xbda40463	-0.08008649
228	0xbc454de8	-0.0120425
229	0xbd9eadea	-0.07748015
230	0xbe06d80b	-0.13168351
231	0x3d8f9c89	0.070122786
232	0x3d8086c6	0.06275706
233	0x3ca61de0	0.020277917
234	0xbcb5e978	-0.022206053
235	0xbded203a	-0.11578412
236	0xbdaaafc7	-0.08334308
237	0x3d02590c	0.031823203
238	0x3d780d2c	0.060559437
239	0xbd42cf1f	-0.047560807
240	0xbd4ee4f2	-0.050511308
241	0x3d029b60	0.03188646
242	0xbdd60482	-0.104500785
243	0x3d418206	0.04724314
244	0xbd5f3a54	-0.054498985
245	0xbd12dc0c	-0.035854384
246	0xbd7fcbc9	-0.062450204
247	0x3c8b6c24	0.017019339
248	0xbd33528b	-0.04377989
249	0x3d599b8c	0.053126857
250	0xbc17a0b7	-0.009254626
251	0x3d86c9ff	0.065814964
252	0x3df62396	0.12018506
253	0xbd89042f	-0.06690251
254	0xbdfbcc90	-0.122948766
255	0x3dcd63aa	0.10028775

fc2.bias f4 [64]
0	0x3f1cd559	0.6126304
1	0x3eedec4d	0.46469346
2	0xbe77a32f	-0.24183343
3	0x3d3df28c	0.04637389
4	0x3e2b4b4d	0.16727944
5	0xbe0bd626	-0.1365591
6	0xbcfe090e	-0.031010177
7	0x3dc7c61a	0.09754582
8	0x3c4628e2	0.012094708
9	0xc0093523	-2.1438682
10	0xc06fb35d	-3.7453225
11	0xbdde0466	-0.10840683
12	0xbcf0f9cf	-0.029415993
13	0x3f1fa3a4	0.6235907
14	0x3e779e8c	0.24181575
15	0xbe8695dc	-0.2628621
16	0x3f5249a9	0.82143646
17	0xbe3c9241	-0.18415166
18	0xbd89147b	-0.066933595
19	0x3ee8c611	0.45463613
20	0xbf83c2bd	-1.0293804
21	0xbe198f33	-0.14996032
22	0xbfd1207c	-1.6338038
23	0xbe8ad6c9	-0.27116993
24	0xbda85bef	-0.0822066
25	0xbe953dca	-0.29148704
26	0xbe245ac1	-0.16050245
27	0x3dfc822b	0.12329515
28	0xbdb61101	-0.08889962
29	0x3ebca1ff	0.36842343
30	0xbd5beb20	-0.05369103
31	0xbdedc979	-0.116106935
32	0x3cabdd14	0.020979442
33	0xbf31ff71	-0.695304
34	0x3cc0cdce	0.023535635
35	0xbf8d76e2	-1.1051905
36	0xbe3f297e	-0.18668172
37	0x3f729bab	0.9476878
38	0xbd6df5c6	-0.058095716
39	0xbf4be518	-0.79646444
40	0xbffac7d6	-1.9592235
41	0xbd9bed2d	-0.07613597
42	0xbf44f0f1	-0.7693015
43	0xbebe4c24	-0.37167466
44	0xbd4745dd	-0.04865061
45	0xbeed63a7	-0.4636509
46	0xbdd64a00	-0.10463333
47	0xbe295ad1	-0.1653855
48	0xbe269ea8	-0.1627146
49	0x3ec852b5	0.391256
50	0xbdfdd70a	-0.12394531
51	0x3ee34d5c	0.44394958
52	0x3c94ef55	0.018180529
53	0x3e93c128	0.28858304
54	0x3f7b4ee8	0.98167276
55	0xbe64f984	-0.22360808
56	0x3eb99bba	0.36251622
57	0x3f8428a9	1.0324908
58	0xbe628c64	-0.22123867
59	0x3d8eaeb6	0.06966917
60	0x3f0f4dc2	0.55978024
61	0xbd69e706	-0.057105087
62	0x3f3de8b9	0.7418323
63	0xbf908836	-1.1291568

fc3.weight f4 [4, 64]
0	0xbf13b434	-0.57696843
1	0x3eda11a6	0.4259159
2	0x3ca86bc2	0.020559195
3	0xbd77442a	-0.06036774
4	0xbeeb80c0	-0.45996666
5	0x3e9eec08	0.31039453
6	0xbe1c18a4	-0.15243775
7	0x3d76171a	0.060080625
8	0x3eaed58a	0.34147292
9	0x403ecb6f	2.9811666
10	0xc10c8e29	-8.784707
11	0xbd03c693	-0.032171797
12	0x3d55ec84	0.052227512
13	0xbc765fce	-0.01503749
14	0xbeff0c77	-0.49814197
15	0x3db5aeb8	0.088712156
16	0x3eae9c52	0.34103638
17	0x3deb642b	0.11493715
18	0xbdb46be8	-0.08809644
19	0x3f28f7ae	0.6600293
20	0xbf7ceef3	-0.9880211
21	0x3c481b08	0.012213476
22	0xc1127a10	-9.1548
23	0x3d4465d0	0.04794866
24	0x3ed8597d	0.42255774
25	0x3dc3dbe1	0.09563423
26	0xbd80e8a1	-0.062943704
27	0xc174783f	-15.279357
28	0x3d4ca2ff	0.049960133
29	0xbfb95011	-1.4477559
30	0x3efcb940	0.49360085
31	0x3a9ca348	0.0011950517
32	0x3d33d888	0.043907672
33	0xbdadf7ae	-0.08494507
34	0xbd9b9ef8	-0.0759868
35	0x3f32bd4d	0.698201
36	0xbddfd42c	-0.109291404
37	0xbed838ed	-0.4223093
38	0xbc71bd65	-0.014754628
39	0xbf41ac25	-0.75653297
40	0x3e6f928b	0.23395745
41	0xbc40c343	-0.011765304
42	0xbd35763d	-0.044302214
43	0xbc2732ca	-0.01020498
44	0xbc2a072f	-0.010377689
45	0x3d9743c9	0.07385976
46	0xbc1a1a3b	-0.009405668
47	0x3d4e5b50	0.05038005
48	0xbde0d5da	-0.10978289
49	0xbe5bc62b	-0.21462314
50	0xbd9eda06	-0.077564284
51	0xbe99513e	-0.29944795
52	0xbd4de5c2	-0.050267942
53	0x3f14a1ef	0.5805959
54	0xbdcce03d	-0.100037076
55	0x3f904a75	1.1272722
56	0xbf46ce79	-0.776588
57	0x3f03593c	0.51308036
58	0x3be80e42	0.007081778
59	0xc1949fc1	-18.578005
60	0x3f55f1eb	0.8357226
61	0x3d8a2569	0.06745417
62	0x3e257249	0.16156878
63	0xc19ad20b	-19.35256
64	0x3effe21a	0.4997719
65	0xbf40c345	-0.7529796
66	0xbc27cc89	-0.010241636
67	0xbd25e40b	-0.04050068
68	0xbe4f7537	-0.20259558
69	0xbec25ead	-0.37962857
70	0xbd6104de	-0.054936282
71	0x3de33fc9	0.110961504
72	0xc20894e2	-34.145393
73	0xc011249c	-2.2678595
74	0x3ecdd768	0.40203404
75	0xbd8992db	-0.067174636
76	0x3e5e75a5	0.21724565
77	0x3e77b324	0.2418943
78	0x3ed53012	0.41638237
79	0x3c20b86f	0.009809597
80	0xbe367da2	-0.17821363
81	0x3e0b0e41	0.13579656
82	0xbd83ba00	-0.06431961
83	0x3ea1ce99	0.31602934
84	0xbbd142af	-0.006386123
85	0xbd3fdf05	-0.046843547
86	0x3e923280	0.28554153
87	0x3d8e0cd1	0.06936038
88	0xbfda46d6	-1.7052867
89	0x3b9e9eed	0.004840723
90	0xbc16d7c2	-0.009206714
91	0x3e15e4f1	0.14638115
92	0xbc4d9d67	-0.012549735
93	0x3f3a8a5f	0.7286739
94	0xbea03fa1	-0.31298545
95	0x3dc998d6	0.09843604
96	0xbd955524	-0.0729163
97	0xbdb9856a	-0.0905865
98	0xbd7f2983	-0.062295448
99	0xc0853986	-4.163272
100	0xbd88f309	-0.0668698
101	0xbeacee4a	-0.3377555
102	0xbdb8ec5e	-0.090294585
103	0xbfe99200	-1.8247681
104	0x3e8904fe	0.2676162
105	0x3c2f5161	0.010700555
106	0x3e03be2e	0.12865517
107	0x3df6889f	0.12037777
108	0x3d31e2d6	0.04342922
109	0x3dba603e	0.09100388
110	0xbd0702e7	-0.032961752
111	0x3d5d639a	0.054050066
112	0xbcdc3afc	-0.026883595
113	0xbdc44fa2	-0.09585501
114	0xbd2db474	-0.04240842
115	0xbdd096b0	-0.10184991
116	0x3da9b656	0.08286731
117	0xbf741fb3	-0.9536087
118	0xbe1492c6	-0.14509115
119	0x3de68488	0.11255747
120	0x3ea0e892	0.31427437
121	0x3effe80a	0.4998172
122	0x3e3c3c02	0.18382266
123	0x3ef96578	0.48710227
124	0xbead50f4	-0.33850825
125	0x3ca289d3	0.01984111
126	0x3e93dae1	0.2887793
127	0x3e34023a	0.17578974
128	0x3e92ee9f	0.28697678
129	0x3f1e5002	0.6184083
130	0x3ce9d767	0.028545095
131	0x3db656a4	0.08903244
132	0x3f7f4dff	0.9972839
133	0x3d05e388	0.032687694
134	0x3c5783ab	0.013153951
135	0xbe886c94	-0.2664534
136	0x3e6a23bf	0.22865199
137	0x407b0034	3.9218874
138	0x3ec33da3	0.38132963
139	0x3d1de377	0.038547006
140	0xc1f642f0	-30.782684
141	0xbeb64b3b	-0.3560427
142	0x3ddb4d3e	0.10708092
143	0xbd33c20d	-0.043886233
144	0xbeabc8a6	-0.3355152
145	0xc12ebaf5	-10.920644
146	0xbd84c6b9	-0.06483216
147	0xbf9961e5	-1.1983
148	0x3ed2b5fe	0.41154474
149	0xbcc23721	-0.023707928
150	0x3e6df086	0.23236284
151	0xbef2d652	-0.47429138
152	0x3f56a40e	0.8384408
153	0xbc049b25	-0.00809363
154	0xbd352afa	-0.04423044
155	0x3d8c1222	0.06839396
156	0xbd8c8dd5	-0.0686299
157	0x3f499bb6	0.7875322
158	0xbd5a90b5	-0.05336066
159	0x3d378575	0.04480501
160	0xbc12826b	-0.008942227
161	0xbdf49637	-0.11942714
162	0xbd6c5d29	-0.057706032
163	0x3f50883f	0.81457895
164	0xbd77293c	-0.06034206
165	0x3fa97f16	1.3241909
166	0xbd4f9aea	-0.050684847
167	0x402d24ee	2.705379
168	0xc0bc5025	-5.8847833
169	0xbd32545c	-0.043537483
170	0xbef9d06f	-0.48791835
171	0xbef5069d	-0.47856608
172	0x3d0c69a7	0.034280445
173	0xbe71ced3	-0.23614053
174	0x3a932365	0.0011225758
175	0x3cad8e05	0.021185884
176	0xbdac3fac	-0.08410582
177	0x3e6233f3	0.2209013
178	0x3cbb2d40	0.022848725
179	0x3f0caaba	0.5494801
180	0xbbd11da0	-0.0063817054
181	0x3f21d174	0.63210225
182	0x3f769aab	0.96329755
183	0xc0260027	-2.5937593
184	0x3e9255b5	0.28581014
185	0xbfd9f66a	-1.7028325
186	0xc1b84ff5	-23.039042
187	0x3e2dcd42	0.16972831
188	0xbe7738a5	-0.24142702
189	0xbccab383	-0.024743801
190	0xbf749913	-0.9554607
191	0x3e489442	0.19587806
192	0xbe0ffcef	-0.1406133
193	0xbe162158	-0.14661157
194	0xbf951f8a	-1.165025
195	0xbd9fce2e	-0.078029975
196	0xbdd14c07	-0.10219579
197	0xbe0b899f	-0.13626717
198	0x3d8884ab	0.066659294
199	0xc084fb49	-4.1556745
200	0xbe44e78e	-0.19228956
201	0xbee72c66	-0.4515106
202	0xbdaa54c9	-0.08316953
203	0x3da16dff	0.07882308
204	0xbf7e9f7d	-0.9946211
205	0xbea7034b	-0.326197
206	0xbe615a52	-0.2200711
207	0xbe7d9c14	-0.2476657
208	0xbec773bf	-0.38955495
209	0xbe5c7c02	-0.2153168
210	0x3cceb592	0.025233064
211	0xbee9d668	-0.4567139
212	0xbe372363	-0.17884593
213	0x3cb73bd4	0.022367395
214	0xc00ff527	-2.249338
215	0xbeabad03	-0.33530435
216	0x3ca6512d	0.02030238
217	0xc09d6f02	-4.9198008
218	0x3da9dd02	0.08294107
219	0xbedefefc	-0.43553913
220	0x3d3e1969	0.04641095
221	0xbe9af81b	-0.30267414
222	0xbd896ac6	-0.067098185
223	0xbf6eb461	-0.93243986
224	0xbcc7c1fb	-0.02438449
225	0xc129a93f	-10.60382
226	0xbdb07f45	-0.08618025
227	0xc00d86a5	-2.211343
228	0xbd509d56	-0.050931297
229	0xbdaf2867	-0.08552628
230	0x3db5b5d8	0.088725746
231	0xbe3e7e4c	-0.18602866
232	0xc0db4222	-6.851823
233	0xbee5d4b5	-0.44888845
234	0xc08b2ed1	-4.349465
235	0xbe93d70c	-0.28875005
236	0xbde75788	-0.11295992
237	0xbfc489fd	-1.5354611
238	0x3d9f60b1	0.07782114
239	0x3ca05655	0.019572416
240	0xbdd63686	-0.10459618
241	0xc0877c30	-4.2339096
242	0xbcf9e74b	-0.030505797
243	0xc047d199	-3.1221678
244	0x3d1e4dec	0.03864853
245	0xbe0040cc	-0.12524718
246	0xbe177c64	-0.14793545
247	0xbe8f2b81	-0.27962878
248	0xc10244fe	-8.141844
249	0xbf95b95a	-1.169719
250	0xbdb22ca4	-0.08699921
251	0xbe9e9410	-0.30972338
252	0xbe4d1023	-0.20025687
253	0x3c2aa982	0.01041639
254	0xbef02348	-0.46901917
255	0xbfac3719	-1.3454314

fc3.bias f4 [4]
0	0xbc9c7792	-0.019099984
1	0x3d317244	0.043321863
2	0xbce5899d	-0.02801972
3	0xc19fedc6	-19.9911
