custom_grid/data/zppo-0.0001/ppo_iter_1200.pth (torch, 21533 bytes, 6 tensors)

fc1.weight f4 [64, 2]
00000000: 704f f3bd 813d d7be db77 a23d 8dd0 e53e
00000010: d20d 323e 6fc6 9d3e 7d1f b9be fb40 c13e
00000020: 3f7a 143f 323e 07bf 5e15 dc3e d4f2 6a3d
00000030: 96d0 70bb ac8b 20bd d36c 153f a405 bcbe
00000040: c17f e73e 2bf0 933d c980 85be 2a8d 563e
00000050: 47f2 4fbc 9018 b4be 1e58 353c 7b62 243d
00000060: 9097 8ebe 92a3 06bf 2059 5fbe 8ab7 90bd
00000070: 6a24 3f3e e2cb 2dc0 cd4a 6a3f 83cd c8bf
00000080: 0cf9 a539 4452 e4bd c23e 67bd 8a13 fb3e
00000090: 271e 2d3b 383d 7abe 1e6d c03c c6e2 08bf
000000a0: b82a a53e 630b 40be 05ec 2a3d 008d ef3e
000000b0: 3591 163f 0603 e6be 052f d13c b666 31bd
000000c0: eb4a 413f 3a5f 83bf cab0 80be 90be 203e
000000d0: c8b1 96b8 fe09 f8bc 9fe2 a53d f240 053f
000000e0: ca94 883e d8ab 23be ab2d 6b3d 4ca7 48bf
000000f0: 3354 d23d fc1f dcbf a001 113f d035 06bf
00000100: e6f7 d93e c9de 49bd ad79 5d3e 12d2 84be
00000110: c900 5fbe 84cb 29c0 c150 073f 93c8 283e
00000120: 0262 103f 5da4 5dbf fc7c d8be c460 52bf
00000130: f5cb 85be 88e0 e33d 9493 3437 d830 a9bc
00000140: 1fb6 d8be fdd5 5bbf 2df5 0d3f 5e3f 0bbf
00000150: 3aa8 163f e544 cb3d c6a3 3c3f c4f1 81bf
00000160: 4cfe 053c 9d20 82be c859 083f 64a2 e7be
00000170: 5094 573e b47f ad3e 1d08 bdbe 8fd1 cabd
00000180: 753b 1d3f 2992 8fba c5b1 853c 5102 7dbf
00000190: 124a 053c e5e7 22bf 2540 95be 0998 8ebf
000001a0: 4022 ce3d e078 dcbf c3fe c8be d467 a3be
000001b0: 582b 113d 477f 10bf b595 033b a1a8 74bd
000001c0: 7d1d 403f 0562 09c0 d6dc 653e da7c 83bf
000001d0: c33d 133f 666b c6bf ab51 0bbf 0d92 4cbf
000001e0: 396c 003b 3bb7 86be 1929 c73d bbfd e8bf
000001f0: 6d07 4dbe 56d6 55be 217f fcbc 679e 38bf
-0.11880386 -0.4203911 0.07933017 0.44885674 0.17388085 0.30815455 -0.36156836 0.3774489
0.5799903 -0.5282928 0.42985052 0.057360485 -0.003674542 -0.0391957 0.5836918 -0.36723053
0.45214656 0.07223543 -0.26074818 0.20952287 -0.012692041 -0.3517499 0.011068372 0.04013298
-0.27850008 -0.5259334 -0.21811342 -0.07066257 0.18666235 -2.715569 0.91520387 -1.5687717
0.00031656807 -0.111485034 -0.056456335 0.49038345 0.0026415677 -0.24437416 0.023489531 -0.5347103
0.32259154 -0.18754344 0.041728992 0.46787262 0.5881532 -0.44924182 0.025535116 -0.043310843
0.7550494 -1.0263436 -0.2513488 0.15697694 -7.185672e-05 -0.030278202 0.08099865 0.52052224
0.26676017 -0.15983522 0.0574166 -0.78380275 0.10269966 -1.7197261 0.56643105 -0.5242586
0.42571944 -0.04928473 0.21628447 -0.2594152 -0.21777643 -2.6530466 0.52857596 0.16482763
0.5639955 -0.86578923 -0.42282856 -0.821789 -0.2613217 0.1112681 1.0763197e-05 -0.020653173
-0.42326447 -0.85873395 0.55452234 -0.54393566 0.58850443 0.0992525 0.736874 -1.0151906
0.008178305 -0.25415507 0.53261995 -0.45241082 0.2105267 0.33886492 -0.36920252 -0.099032514
0.6141885 -0.0010953593 0.016320119 -0.9883166 0.0081353355 -0.6363509 -0.291505 -1.1140147
0.100651264 -1.7224388 -0.39256868 -0.31915152 0.035441726 -0.5644421 0.0020078246 -0.05973113
0.75044996 -2.1466076 0.22447523 -1.0272477 0.57516116 -1.5501525 -0.5442149 -0.79910356
0.0019595756 -0.2631167 0.09724636 -1.8202432 -0.20022364 -0.20882544 -0.030822339 -0.721167

fc1.bias f4 [64]
00000000: 63e0 2f3c 02d3 34c0 bb92 4c40 555f b5bf
00000010: 9357 cabf b81f c83f 412a 73bd bf63 63c0
00000020: ad26 72bf 6638 25c0 97c3 e03e 63db cfbf
00000030: c49c b73f 67b2 6bc0 687d f2bd 97ec a3bf
00000040: 78d6 11bb 398b 52c0 684c 4abc c922 1b40
00000050: 9f5a 2a40 1359 8ac0 c7d3 6f3f 3d70 dabe
00000060: 7767 10c0 0bd0 51c0 0cea d8bb 33b5 74c0
00000070: 7277 0d40 ed7d ca3e 65e3 0bbe a23b 34c0
00000080: 1db4 2540 eed2 f5bf da2e 67be 09bc 30c0
00000090: 7cfc 933f 2572 2dbf 19e6 34bf 5765 fcba
000000a0: 2662 78be fb35 27c0 69cc 59c0 48c7 0cc0
000000b0: 453c 21bc 3816 47c0 74a7 67c0 522e 99c0
000000c0: 3072 58c0 aecd 01bd babc 0dbc 68ea 8abe
000000d0: ab92 f5bd 728a ab3f 9c8b ea3f 0080 c8be
000000e0: 1450 a03f 820c 6abd 2f81 fc3e 514a d0bf
000000f0: 91bc 3fbe 02b2 e3bd f318 06c0 8f08 cdbe
0.01073465 -2.825379 3.1964557 -1.4169718 -1.5807976 1.563468 -0.05936647 -3.552963
-0.94590265 -2.5815673 0.43899223 -1.6238827 1.4344716 -3.6827638 -0.118403256 -1.2806576
-0.0022253077 -3.2897475 -0.012347318 2.423998 2.661781 -4.3233733 0.9368252 -0.42663756
-2.256315 -3.278323 -0.0066196974 -3.8235595 2.2104154 0.395492 -0.13660963 -2.8161397
2.5891182 -1.9204996 -0.22576466 -2.7614768 1.1561427 -0.67752296 -0.706636 -0.0019256276
-0.2425619 -2.6126697 -3.4031012 -2.1996632 -0.0098410295 -3.1107311 -3.6195955 -4.7869043
-3.3819695 -0.031690292 -0.008650953 -0.27131963 -0.11990865 1.3401625 1.8323855 -0.39160156
1.2524438 -0.057140835 0.4931731 -1.627268 -0.18724276 -0.11117937 -2.0952728 -0.40045592

fc2.weight f4 [64, 64]
00000000: c85f 4e3e 6c9c 6e3f fe20 9f3e f1a3 a4bd
00000010: 3cff 353f e4c9 073f 9a29 8dbf ec6d 283d
00000020: 2bb4 07c1 5307 283e 9345 78be 7338 cd3e
00000030: ebe6 58bd 218f d7bf fa62 8440 a216 58bf
00000040: 00a0 3dc0 9354 d13e 3619 0c3e e9fb 463e
00000050: 51d4 413e 932d 10c1 72a6 8cbe e856 5dbe
00000060: d8bc 94bd a87e 07c0 834b ce3d 7605 24c0
00000070: 310e 333e 6538 2b3d 146b 533e fd1a b8bf
00000080: 0f59 413f 9e11 1c3f cfdd 903e ebf5 6ec0
00000090: 0e90 bbbe 4c2c 40bd 9f5d 65be ca09 f73d
000000a0: 4403 2d3e b78a a1bf 7c06 003e 0e46 973e
000000b0: 435d c63d f9bc 0fbe 7d60 90be bbcc 9ebf
000000c0: 871c 9b3e 473b 2a3d 4d10 203d 4d0a 18be
000000d0: cbd1 c13f 155c e9be 44fe 86be dbb7 e1bf
000000e0: 7e52 36bf 8802 9bbe 40a0 a8bf 6922 953e
000000f0: 68ac b4bc 9906 8b3e 528e 3c3e 7cfd fbbd
00000100: f2f8 073f 8f93 16c0 db32 4b3e d3e1 6e3e
00000110: 0772 73c0 8d9b 35bf 0c56 73bf e9c4 8cbd
00000120: 81bb b8be 2974 bcbe cd6a f2be 78bf 613f
00000130: ecf2 31bf c429 5fbd 3d8a 07c1 1ee6 e1c0
00000140: f5fb b4bf 288e c43f f9c8 ab3d 6b5b 203f
00000150: b001 99be 945c 2bc0 a59f 503e 6806 04c0
00000160: 47c7 6ac0 2018 01c0 249f 3a3b 8f26 47c0
00000170: a5f3 0ebe 8008 df3d fa4f 8ac0 c80c d23d
00000180: a351 ebbb 59bb 65bf 2ddc 693e 45d3 bdbd
00000190: bc09 97be 7a5b 48be fca7 033d 4cb6 c6bc
000001a0: c772 b83e a6e4 75bb 27f2 19bd 808c c6c0
000001b0: df86 70bc 0034 d9bc b758 47be 0233 063e
000001c0: 6cd3 b1be 1969 f93e 1ac3 21be c630 253f
000001d0: bba0 5fc0 0421 f0bf 93f1 eebe 1b48 edbe
000001e0: fc55 b33d 4353 0bbf d07c 133f 4129 923e
000001f0: f4a0 ab3d de6d 71be bb2b a1bf f0a9 fc3b
00000200: 1cba b5bd b6e3 9fbd 7fd7 a8bb 1eb3 a6bb
00000210: 76fe a1bd 21e6 cb3e a5bc 11c0 04a4 fcbd
00000220: 1145 86c0 1f55 acbd 9dec 903d 8c94 87bc
00000230: 2c0a fbbd bb07 b7be 427c fa3c 626c bebd
00000240: e009 36c0 7db5 e43c 263b 1e3e 57d9 8bbe
00000250: 034c a8bf e43e 10bc 1527 b3bd 8270 433e
00000260: 7cf0 cebd f2cc 68bc 220c 3a3d 4ddd ab3c
00000270: 8bec bcbf 9b90 ac3b a236 1c3b d043 8c3d
00000280: 2623 e1bf 988f 383d 3c5d 39be a30d a83e
00000290: 6438 513d fac7 c3bb 4912 0dbe 1224 463e
000002a0: 7f6e 0fbf 90c0 91bd 50cc e6bd 20f6 b63b
000002b0: 607a 14bd f0ac e23c 90de 203b 55a5 7e3e
000002c0: 3c13 efbd 6b04 21be fdc2 4abd 54e5 a33d
000002d0: d121 d5bd 5d7f 2d3d cdcb f0bd 5b3d 12c0
000002e0: 65d3 d0bb 2a4d a53d faa4 953d c93d a7bf
000002f0: 5e2a ab3d 9e3e fabd 419b dc3d 09d5 8c3d
00000300: c83f feba f3e0 eb3d 0d8c 12be df2f acbd
00000310: 1050 953d c427 00bd 5364 c2bc 152a 5bbd
00000320: 17b7 b33d c226 f23c 733f 163b 1b67 8dbd
00000330: fc92 0ebe da6a 95bc cd31 fe3c 8065 6cbd
00000340: 817f 07bd fcf0 a53d d2c6 d13b 2d54 02bd
00000350: db46 06bd 5fbc e4bd e500 fdbd 6fbe 6dbd
00000360: 5a21 82bd b284 eb3b 9139 2abd 5aac 42bd
00000370: b106 eb3d c1be 193d 7c34 aa3d a0dd 77bd
00000380: 9b98 55bd 0296 233d a8e8 f7bd 6304 a4bd
00000390: e84d 45bc eaad 9ebd 0bd8 06be 899c 8f3d
000003a0: c686 803d e01d a63c 78e9 b5bc 3a20 edbd
000003b0: c7af aabd 0c59 023d 2c0d 783d 1fcf 42bd
000003c0: f2e4 4ebd 609b 023d 8204 d6bd 0682 413d
000003d0: 543a 5fbd 0cdc 12bd c9cb 7fbd 246c 8b3c
000003e0: 8b52 33bd 8c9b 593d b7a0 17bc ffc9 863d
000003f0: 9623 f63d 2f04 89bd 90cc fbbd aa63 cd3d
0.20153725 0.9320743 0.3107986 -0.08039082 0.7109258 0.53042436 -1.1028321 0.041120455
-8.481486 0.16409044 -0.2424529 0.4008213 -0.052954596 -1.6840554 4.137082 -0.84409535
-2.9628906 0.40884838 0.13681492 0.19432034 0.18928649 -9.0111265 -0.27470738 -0.21615183
-0.072625816 -2.1171055 0.100729965 -2.5628333 0.17485882 0.04180183 0.20646316 -1.4383236
0.7552652 0.6096438 0.28294227 -3.7337596 -0.36633343 -0.046917245 -0.22398995 0.12062414
0.16895777 -1.2620457 0.12502474 0.29545635 0.09685757 -0.14036931 -0.28198615 -1.2406229
0.30295202 0.041560438 0.039078046 -0.1484768 1.5142149 -0.45578066 -0.26365864 -1.7634233
-0.71219623 -0.3027537 -1.3173904 0.29127815 -0.022054866 0.2715347 0.18413666 -0.12304208
0.53114235 -2.3527563 0.19843619 0.23328333 -3.8038347 -0.70940477 -0.9505317 -0.06873495
-0.36080554 -0.36807373 -0.47347108 0.88182783 -0.69511294 -0.05448319 -8.47125 -7.0593405
-1.4139391 1.5355883 0.08387942 0.6263949 -0.298841 -2.6775255 0.203734 -2.062891
-3.668413 -2.0170975 0.0028476203 -3.1117284 -0.1396013 0.10890293 -4.322263 0.10256344
-0.0071813627 -0.89738995 0.22837897 -0.09268812 -0.29499614 -0.19566146 0.032142624 -0.024256848
0.36025068 -0.0037520318 -0.03758445 -6.204651 -0.014680593 -0.026514053 -0.19467436 0.13105395
-0.34731615 0.48712996 -0.15797082 0.6452755 -3.4941852 -1.8760076 -0.46668682 -0.46344075
0.087566346 -0.5442392 0.57612324 0.285471 0.08380309 -0.23577067 -1.259147 0.007710688
-0.08873388 -0.07807104 -0.0051526423 -0.0050872704 -0.07909863 0.39824012 -2.277139 -0.12335971
-4.195931 -0.08414673 0.070763804 -0.016550325 -0.122577995 -0.35748085 0.030576829 -0.09298016
-2.8443527 0.027918572 0.15452251 -0.27314255 -1.3148197 -0.008804057 -0.08747689 0.19085887
-0.101044625 -0.014209019 0.045421727 0.020979548 -1.4759687 0.0052662618 0.0023836275 0.06848872
-1.7588851 0.045058817 -0.18101972 0.32822904 0.05107917 -0.005974767 -0.13776506 0.19349697
-0.5602798 -0.071168065 -0.11269438 0.0055835396 -0.03624952 0.027670354 0.002454672 0.24867757
-0.116735905 -0.15724342 -0.04950236 0.08002725 -0.104068406 0.04235779 -0.11757622 -2.2849948
-0.0063728564 0.080713585 0.073068574 -1.306573 0.0835769 -0.122189745 0.107718 0.06876571
-0.001939767 0.11517515 -0.14311238 -0.08407568 0.07290661 -0.031287923 -0.023729479 -0.05350693
0.08775156 0.029559497 0.0022926002 -0.069044314 -0.13923258 -0.018239427 0.031029606 -0.057713985
-0.03308058 0.08102605 0.006401875 -0.031818558 -0.032782417 -0.111687414 -0.12353686 -0.05804294
-0.063540176 0.0071874494 -0.041558806 -0.04752765 0.11475886 0.037535433 0.08310792 -0.060514092
-0.05214749 0.03993798 -0.121049225 -0.08008649 -0.0120425 -0.07748015 -0.13168351 0.070122786
0.06275706 0.020277917 -0.022206053 -0.11578412 -0.08334308 0.031823203 0.060559437 -0.047560807
-0.050511308 0.03188646 -0.104500785 0.04724314 -0.054498985 -0.035854384 -0.062450204 0.017019339
-0.04377989 0.053126857 -0.009254626 0.065814964 0.12018506 -0.06690251 -0.122948766 0.10028775

fc2.bias f4 [64]
00000000: 9b69 1f3f 6990 e53e 2fa3 77be 8cf2 3d3d
00000010: a063 293e 171f 16be 0e09 febc e476 dd3d
00000020: 9b22 1a3c 1afd 08c0 06ff 6fc0 6604 debd
00000030: 45ac d3bc 1966 213f 9002 843e 7fcc 85be
00000040: aa10 533f 4192 3cbe 7b14 89bd 2e70 e93e
00000050: 9bad 83bf 338f 19be 7c20 d1bf c9d6 8abe
00000060: 37f6 95bd ca3d 95be c15a 24be 450b f63d
00000070: 0111 b6bd fd78 c23e e4e1 8fbd 79c9 edbd
00000080: 14dd ab3c 71ff 31bf cecd c03c ca4a 8dbf
00000090: 7e29 3fbe 724f 6d3f c6f5 6dbd 18e5 4bbf
000000a0: 1370 fcbf 2ded 9bbd f846 41bf 244c bebe
000000b0: dd45 47bd a763 edbe 004a d6bd d15a 29be
000000c0: a89e 26be 54ac c93e 0ad7 fdbd f11e e53e
000000d0: 55ef 943c a4fa 913e 5c74 773f 04a9 65be
000000e0: 2b0c c53e 2575 873f 8397 64be c82b 7d3d
000000f0: 5ca8 0a3f 06e7 69bd 9116 3f3f 7590 90bf
0.62270516 0.4483674 -0.24183343 0.04637389 0.1654191 -0.14660297 -0.031010177 0.10813692
0.009407665 -2.140448 -3.7499404 -0.10840683 -0.02583898 0.63046414 0.25783205 -0.2613258
0.824473 -0.18415166 -0.066933595 0.455934 -1.0287355 -0.14996032 -1.6338038 -0.27116993
-0.073223524 -0.29148704 -0.16050245 0.12013868 -0.08889962 0.37982932 -0.07025507 -0.116106935
0.020979442 -0.695304 0.023535635 -1.1038449 -0.18668172 0.9269935 -0.058095716 -0.79646444
-1.9721702 -0.07613597 -0.75498915 -0.37167466 -0.04865061 -0.4636509 -0.10463333 -0.1653855
-0.1627146 0.39389288 -0.12394531 0.4475017 0.018180529 0.28511536 0.96661925 -0.22427756
0.38485846 1.0582625 -0.22323422 0.06180933 0.54163146 -0.057105087 0.7464381 -1.1294085

fc3.weight f4 [4, 64]
00000000: cdfe 15bf 98e9 d53e c26b a83c 2a44 77bd
00000010: 044a f0be fa47 9b3e a418 1cbe 3320 253d
00000020: 3107 053f 08a7 4440 f483 0cc1 93c6 03bd
00000030: af40 5e3d e00b e9bc 1ebf 03bf 3cd1 bd3d
00000040: 9745 a83e 2b64 eb3d e86b b4bd b6b0 243f
00000050: 8863 80bf 081b 483c 107a 12c1 d065 443d
00000060: e544 d33e e1db c33d a1e8 80bd 79c9 73c1
00000070: ffa2 4c3d aee7 b9bf 9806 f43e 48a3 9c3a
00000080: 88d8 333d aef7 adbd f89e 9bbd ece4 373f
00000090: 2cd4 dfbd 3262 e2be 65bd 71bc 25ac 41bf
000000a0: 10f7 693e 43c3 40bc 3e22 72bd ca32 27bc
000000b0: 2f07 2abc c943 973d 3b1a 1abc 505b 4e3d
000000c0: dad5 e0bd ad33 65be 06da 9ebd ba27 a3be
000000d0: c2e5 4dbd d0bb 123f 7a05 dbbd ee97 8e3f
000000e0: d423 49bf 3a31 023f b120 e23b bf9f 94c1
000000f0: 8084 533f 6925 8a3d 1e9f 183e a0fd 9ac1
00000100: 5aee 063f e7cb 3dbf 89cc 27bc 0be4 25bd
00000110: 2e85 48be 8bf0 c1be de04 61bd 4405 023e
00000120: 5cd0 08c2 4d98 14c0 9581 c93e db92 89bd
00000130: 9260 5c3e 7766 803e 5d40 d63e a53e bf3b
00000140: 0fd2 27be 410e 0b3e 00ba 83bd fcf8 aa3e
00000150: c41b cabb 05df 3fbd 8032 923e d10c 8e3d
00000160: 36fd dbbf ed9e 9e3b c2d7 16bc c5ce 233e
00000170: 679d 4dbc c95f 3c3f 3aed 9fbe d698 c93d
00000180: 2455 95bd 6a85 b9bd 8329 7fbd 54e2 85c0
00000190: 09f3 88bd b3f0 93be 5eec b8bd 0092 e9bf
000001a0: 72d0 8b3e 6151 2f3c 3a18 103e 9f88 f63d
000001b0: d6e2 313d 3e60 ba3d e702 07bd 9a63 5d3d
000001c0: fc3a dcbc 78f3 a6bd 74b4 2dbd bd87 c7bd
000001d0: 56b6 a93d 99e3 76bf 0327 0dbe 4bee 013e
000001e0: 5373 b53e 233c 013f a76b 3c3e 76f5 013f
000001f0: 472c a8be d389 a23c bcd9 993e c10e 363e
00000200: 3902 863e abae 0c3f 67d7 e93c a456 b63d
00000210: c5e8 7f3f 25b6 143d ab83 573c 343a 8abe
00000220: 9e6d 7cbd 84a3 7940 1f39 cb3e 77e3 1d3d
00000230: ad39 f6c1 594c b3be 7137 ea3d 0dc2 33bd
00000240: 864d aebe f5ba 2ec1 b9c6 84bd 731c 9abf
00000250: 48c2 d23e 2137 c2bc 86f0 6d3e 52d6 f2be
00000260: b3e3 5b3f 259b 04bc fa2a 35bd 2b7c 603d
00000270: d58d 8cbd 8689 493f 5fc0 36bd 7585 373d
00000280: 6b82 12bc 3796 f4bd 295d 6cbd b06d 4d3f
00000290: 3c29 77bd 0381 853f ea9a 4fbd ee24 2d40
000002a0: 0ae0 bbc0 5c54 32bd 2f1c fabe 9d06 f5be
000002b0: a769 0c3d d3ce 71be 6523 933a 058e ad3c
000002c0: ac3f acbd 760d 5d3e 402d bb3c 9a1f 0e3f
000002d0: a01d d1bb 6b77 253f d0d2 673f 29d5 26c0
000002e0: 7c88 803e 9a01 debf f54f b8c1 13eb 153e
000002f0: 9997 79be 83b3 cabc a542 74bf 6e36 493e
00000300: effc 0fbe 5821 16be 8a1f 95bf 2ece 9fbd
00000310: 074c d1bd df87 0bbe ab84 883d 49fb 84c0
00000320: 8ee7 44be 662c e7be c954 aabd ff6d a13d
00000330: 7d9f 7ebf 4b03 a7be 525a 61be 149c 7dbe
00000340: bf73 c7be 027c 5cbe 92b5 ce3c 68d6 e9be
00000350: 6323 37be d43b b73c 27f5 0fc0 03ad abbe
00000360: 2d51 a63c 026f 9dc0 02dd a93d fcfe debe
00000370: 6919 3e3d 1bf8 9abe c66a 89bd 61b4 6ebf
00000380: fbc1 c7bc 3fa9 29c1 457f b0bd a586 0dc0
00000390: 569d 50bd 6728 afbd d8b5 b53d 4c7e 3ebe
000003a0: 2242 dbc0 b5d4 e5be d12e 8bc0 0cd7 93be
000003b0: 8857 e7bd fd89 c4bf b160 9f3d 5556 a03c
000003c0: 8636 d6bd 307c 87c0 4be7 f9bc 99d1 47c0
000003d0: ec4d 1e3d cc40 00be 647c 17be 812b 8fbe
000003e0: fe44 02c1 5ab9 95bf a42c b2bd 1094 9ebe
000003f0: 2310 4dbe 82a9 2a3c 4823 f0be 1937 acbf
-0.5859192 0.4177978 0.020559195 -0.06036774 -0.4693147 0.3032835 -0.15243775 0.04031391
0.519641 3.0726948 -8.782215 -0.032171797 0.054260906 -0.028448045 -0.51463497 0.09268424
0.32865593 0.11493715 -0.08809644 0.6433214 -1.0030375 0.012213476 -9.1548 0.04794866
0.412635 0.09563423 -0.062943704 -15.236688 0.049960133 -1.4523828 0.4766128 0.0011950517
0.043907672 -0.08494507 -0.0759868 0.7183368 -0.109291404 -0.44215542 -0.014754628 -0.75653297
0.22848153 -0.011765304 -0.059114687 -0.01020498 -0.010377689 0.07385976 -0.009405668 0.05038005
-0.10978289 -0.22382994 -0.077564284 -0.31866246 -0.050267942 0.5731783 -0.10694404 1.1140115
-0.78570294 0.50856364 0.00690087 -18.578001 0.82624054 0.06745417 0.14904448 -19.37384
0.52707446 -0.74139255 -0.010241636 -0.04050068 -0.19582054 -0.37878832 -0.054936282 0.12697321
-34.203476 -2.3217957 0.39356676 -0.067174636 0.21521214 0.25078174 0.4184598 0.005836325
-0.16388725 0.13579656 -0.06431961 0.33393085 -0.0061678607 -0.046843547 0.28554153 0.06936038
-1.7186649 0.004840723 -0.009206714 0.15996845 -0.012549735 0.73583657 -0.31235677 0.09843604
-0.0729163 -0.0905865 -0.062295448 -4.183878 -0.0668698 -0.28894576 -0.090294585 -1.8247681
0.2730747 0.010700555 0.14071742 0.12037777 0.04342922 0.09100388 -0.032961752 0.054050066
-0.026883595 -0.08151907 -0.04240842 -0.09742687 0.08286731 -0.96441036 -0.13784413 0.12688558
0.35439548 0.50482386 0.18400441 0.5076517 -0.3284628 0.01984111 0.3004893 0.17779066
0.2617357 0.5495402 0.028545095 0.08903244 0.99964553 0.03630652 0.013153951 -0.2699753
-0.061627977 3.9006052 0.39692017 0.038547006 -30.778162 -0.35019186 0.11436356 -0.043886233
-0.3404352 -10.920644 -0.06483216 -1.2039932 0.4116385 -0.023707928 0.23236284 -0.47429138
0.85894316 -0.00809363 -0.04423044 0.054805916 -0.0686299 0.7872547 -0.044617053 0.04480501
-0.008942227 -0.11942714 -0.057706032 0.80245495 -0.06034206 1.0429996 -0.050684847 2.705379
-5.8710985 -0.043537483 -0.48849627 -0.47856608 0.034280445 -0.23614053 0.0011225758 0.021185884
-0.08410582 0.21587166 0.022848725 0.5551697 -0.0063817054 0.6463534 0.9055605 -2.6067603
0.2510413 -1.7344239 -23.039042 0.14640455 -0.24374236 -0.024743801 -0.9541419 0.1964967
-0.1406133 -0.14661157 -1.165025 -0.078029975 -0.10219579 -0.1362605 0.066659294 -4.1556745
-0.19228956 -0.4515106 -0.08316953 0.07882308 -0.9946211 -0.326197 -0.2200711 -0.2476657
-0.38955495 -0.2153168 0.025233064 -0.4567139 -0.17884593 0.022367395 -2.249338 -0.33530435
0.02030238 -4.9198008 0.08294107 -0.43553913 0.04641095 -0.30267414 -0.067098185 -0.93243986
-0.02438449 -10.60382 -0.08618025 -2.211343 -0.050931297 -0.08552628 0.088725746 -0.18602866
-6.851823 -0.44888845 -4.349465 -0.28875005 -0.11295992 -1.5354611 0.07782114 0.019572416
-0.10459618 -4.2339096 -0.030505797 -3.1221678 0.03864853 -0.12524718 -0.14793545 -0.27962878
-8.141844 -1.169719 -0.08699921 -0.30972338 -0.20025687 0.01041639 -0.46901917 -1.3454314

fc3.bias f4 [4]
00000000: b976 0bbd b6aa a53d 446f 7ebd c6ed 9fc1
-0.03404877 0.08089201 -0.06211783 -19.9911
