custom_grid/data/ppo-0.0001/ppo_iter_600.pth (torch, 21521 bytes, 6 tensors)

fc1.weight f4 [64, 2]
0	0xbdf1282b	-0.117752396
1	0xbed7260a	-0.4202121
2	0x3dbe9605	0.09305958
3	0x3ede3ce0	0.4340582
4	0x3e34d3e7	0.1765896
5	0x3e9ca899	0.3059738
6	0xbebdf223	-0.37098798
7	0x3ebcc816	0.36871403
8	0x3f1432bf	0.5788993
9	0xbf07d946	-0.5306591
10	0x3ed94d22	0.4244166
11	0x3d8252eb	0.063634716
12	0xbc1b5d14	-0.009482641
13	0xbd2a1e36	-0.041532718
14	0x3f17276e	0.5904454
15	0xbeb5df83	-0.35522088
16	0x3eea0c27	0.45712397
17	0x3d93e8bd	0.07222126
18	0xbe8349c5	-0.2564222
19	0x3e505856	0.20346197
20	0xbc27c872	-0.010240661
21	0xbebe5566	-0.3717453
22	0x3c35581e	0.011068372
23	0x3d24627b	0.04013298
24	0xbe8e7d91	-0.27830175
25	0xbf05bde3	-0.5224287
26	0xbe6ab951	-0.22922255
27	0xbd865ac5	-0.06560282
28	0x3e544019	0.20727576
29	0xc02ab401	-2.6672366
30	0x3f6c597f	0.9232406
31	0xbfc7849d	-1.5587345
32	0x39a5f90c	0.00031656807
33	0xbde45244	-0.111485034
34	0xbd6cb7a7	-0.057792332
35	0x3efa8921	0.48932746
36	0x3b2d1e27	0.0026415677
37	0xbe7a3d38	-0.24437416
38	0x3cebc28c	0.02877929
39	0xbf060e15	-0.5236524
40	0x3ea4f83c	0.32220638
41	0xbe3b9864	-0.18319851
42	0x3d25d1b9	0.04048321
43	0x3eed413c	0.46338832
44	0x3f142630	0.5787077
45	0xbeecf15e	-0.462779
46	0x3cd12f05	0.025535116
47	0xbd3166b6	-0.043310843
48	0x3f3d5a0f	0.73965544
49	0xbf85a6a5	-1.0441481
50	0xbe81f4be	-0.25382036
51	0x3e1d435a	0.15357724
52	0xb9a8099c	-0.00032050617
53	0xbcf809fe	-0.030278202
54	0x3db628a0	0.08894467
55	0x3f044163	0.5166227
56	0x3e899823	0.26873884
57	0xbe1f83b1	-0.1557758
58	0x3d945b71	0.072440036
59	0xbf49960a	-0.78744566
60	0x3dd25433	0.10269966
61	0xbfdc1ffc	-1.7197261
62	0x3f11a8fd	0.5689848
63	0xbf04f9fe	-0.5194396
64	0x3ed7af98	0.42126155
65	0xbd4e90f9	-0.050431225
66	0x3e6cdd94	0.231314
67	0xbe81e118	-0.25367045
68	0xbe6e5662	-0.2327514
69	0xc0299a32	-2.6500363
70	0x3f079cbf	0.5297355
71	0x3e27171f	0.16317414
72	0x3f12d45a	0.5735527
73	0xbf5bfeab	-0.8593547
74	0xbecc5f18	-0.399163
75	0xbf599691	-0.8499537
76	0xbe857f93	-0.26073894
77	0x3dd51fbf	0.10406446
78	0x37349394	1.0763197e-05
79	0xbca930d8	-0.020653173
80	0xbede844d	-0.43460312
81	0xbf57e2f8	-0.843307
82	0x3f0e8bf1	0.55682284
83	0xbf0a3d2b	-0.53999585
84	0x3f17cca8	0.59296656
85	0x3dd6a9ea	0.10481627
86	0x3f39082a	0.7227808
87	0xbf8410d8	-1.031764
88	0x3c05fe4c	0.008178305
89	0xbe82209d	-0.25415507
90	0x3f08ae75	0.533912
91	0xbee5ef78	-0.44909263
92	0x3e5a31e1	0.2130809
93	0x3ead49d0	0.33845377
94	0xbebe3c6d	-0.37155476
95	0xbdbfc604	-0.0936394
96	0x3f193ba0	0.59856606
97	0xbca75b12	-0.020429168
98	0x3c85b1c5	0.016320119
99	0xbf7d0251	-0.9883166
100	0x3c054a12	0.0081353355
101	0xbf22e7e5	-0.6363509
102	0xbe9349d1	-0.28767255
103	0xbf8ef342	-1.1167986
104	0x3dce2240	0.100651264
105	0xbfdc78e0	-1.7224388
106	0xbecd62e6	-0.40114516
107	0xbea1d5c2	-0.31608397
108	0x3d27b78a	0.04094652
109	0xbf12485a	-0.5714165
110	0x3b0395b5	0.0020078246
111	0xbd74a8a1	-0.05973113
112	0x3f41a822	0.75647175
113	0xc008f472	-2.1399198
114	0x3e827a5d	0.2548398
115	0xbf7ea2df	-0.9946727
116	0x3f135262	0.5754758
117	0xbfc64622	-1.5490153
118	0xbf06b771	-0.5262366
119	0xbf50eac7	-0.8160824
120	0x3b006c39	0.0019595756
121	0xbe86b73b	-0.2631167
122	0x3dc72919	0.09724636
123	0xbfe8fdbb	-1.8202432
124	0xbe33777a	-0.17526045
125	0xbe7321f1	-0.23743416
126	0xbd375e15	-0.044767458
127	0xbf389e67	-0.721167

fc1.bias f4 [64]
0	0x3c205d5b	0.009787883
1	0xc035be8f	-2.8397558
2	0x404c613e	3.1934352
3	0xbfb66cf8	-1.4252005
4	0xbfcb074e	-1.5861604
5	0x3fc8c966	1.5686462
6	0xbd56c4cd	-0.052433778
7	0xc062fc44	-3.546647
8	0xbf721541	-0.9456368
9	0xc025791e	-2.5855174
10	0x3ed416d0	0.41423655
11	0xbfcfdb63	-1.6238827
12	0x3fb77151	1.4331456
13	0xc06afefe	-3.6718135
14	0xbdc18c74	-0.094506174
15	0xbfa2fff8	-1.2734365
16	0xbb11d678	-0.0022253077
17	0xc0529f0c	-3.2909575
18	0xbc4a4c68	-0.012347318
19	0x401be3ad	2.4357712
20	0x402a4c23	2.660897
21	0xc08a6bd1	-4.325661
22	0x3f6e3110	0.93043613
23	0xbeda703d	-0.42663756
24	0xc0111e13	-2.2674606
25	0xc051b8b4	-3.2768984
26	0xbbd25b67	-0.0064195874
27	0xc074db2d	-3.8258774
28	0x400d64b4	2.2092714
29	0x3ed45ee5	0.4147865
30	0xbe0be365	-0.13660963
31	0xc03414a7	-2.8137605
32	0x40259aaa	2.587565
33	0xbff3d197	-1.9048337
34	0xbe533c02	-0.2062836
35	0xc030dc11	-2.7634318
36	0x3f9467c7	1.159417
37	0xbf33bb0a	-0.70207274
38	0xbf35c5ab	-0.7100474
39	0xbafc6557	-0.0019256276
40	0xbe6c78f6	-0.23093018
41	0xc02715f2	-2.6107144
42	0xc0599909	-3.3999655
43	0xc00d6628	-2.2093601
44	0xbc213c45	-0.0098410295
45	0xc046feef	-3.10931
46	0xc0679287	-3.6183183
47	0xc0991c6a	-4.7847185
48	0xc0594ab2	-3.395184
49	0xbd01cdae	-0.031690292
50	0xbc0dbcba	-0.008650953
51	0xbe8be21e	-0.2732095
52	0xbdf592ab	-0.11990865
53	0x3fac20e5	1.3447539
54	0x3fe9754f	1.8238925
55	0xbec88000	-0.39160156
56	0x3fa0b158	1.2554121
57	0xbd0abc34	-0.03387089
58	0x3efe3581	0.49650195
59	0xbfd29cc7	-1.6454095
60	0xbe3fbc91	-0.18724276
61	0xbde3b202	-0.11117937
62	0xc007a4f0	-2.119442
63	0xbec5c3a0	-0.38625813

fc2.weight f4 [64, 64]
0	0x3e58732c	0.21137685
1	0x3f6cacec	0.9245136
2	0x3e9a02a1	0.3008013
3	0xbdc4fade	-0.096181616
4	0x3f35ff3c	0.7109258
5	0x3f05d6c0	0.5228081
6	0xbf8d4851	-1.1037694
7	0x3d286dec	0.041120455
8	0xc107d8bc	-8.490414
9	0x3e19b5b5	0.15010722
10	0xbe64c32e	-0.2234008
11	0x3ecd3873	0.4008213
12	0xbd3404a5	-0.043949742
13	0xbfd78f21	-1.6840554
14	0x40852a2e	4.161399
15	0xbf5816a2	-0.84409535
16	0xc03da000	-2.9628906
17	0x3ecdcc82	0.4019509
18	0x3e0c1936	0.13681492
19	0x3e51bb68	0.20481646
20	0x3e427c7d	0.18992801
21	0xc10fb599	-8.981835
22	0xbe83d00d	-0.25744668
23	0xbe5d56e8	-0.21615183
24	0xbd94bcd8	-0.072625816
25	0xc007530c	-2.1144438
26	0x3dce4b83	0.100729965
27	0xc023fa07	-2.5621355
28	0x3e33e54d	0.1756794
29	0x3d829ed9	0.06377954
30	0x3e536b14	0.20646316
31	0xbfb81afd	-1.4383236
32	0x3f4070ad	0.7517193
33	0x3f1c119e	0.6096438
34	0x3e9696d0	0.29411936
35	0xc06ef5eb	-3.7337596
36	0xbeb1e8f9	-0.34748057
37	0xbd31ca6e	-0.043405943
38	0xbe6f6895	-0.23379739
39	0x3df709ca	0.12062414
40	0x3e35c5ad	0.17751189
41	0xbfa18ab7	-1.2620457
42	0x3e00067c	0.12502474
43	0x3e97460e	0.29545635
44	0x3dc65d43	0.09685757
45	0xbe0fbcf9	-0.14036931
46	0xbe90607d	-0.28198615
47	0xbf9eccbb	-1.2406229
48	0x3e9b1c87	0.30295202
49	0x3d2a3b47	0.041560438
50	0x3d20104d	0.039078046
51	0xbe0e9637	-0.1392449
52	0x3fc1d1cb	1.5142149
53	0xbee8498c	-0.45368612
54	0xbe7dfc9a	-0.24803391
55	0xbfe1b7db	-1.7634233
56	0xbf30e2ad	-0.6909588
57	0xbe8df94f	-0.2772927
58	0xbfa57fe3	-1.2929653
59	0x3e97d3e7	0.29653856
60	0xbcb4ac68	-0.022054866
61	0x3e8b0699	0.2715347
62	0x3e3c8e52	0.18413666
63	0xbe03913d	-0.12848373
64	0x3f07f8f2	0.53114235
65	0xc0154cbb	-2.3328083
66	0x3e5b60d8	0.21423662
67	0x3e7ca705	0.24673088
68	0xc0737207	-3.8038347
69	0xbf2f587c	-0.6849439
70	0xbf73560c	-0.9505317
71	0xbd8cc4e9	-0.06873495
72	0xbeb8bb81	-0.36080554
73	0xbec44b71	-0.38338807
74	0xbef26acd	-0.47347108
75	0x3f61bf78	0.88182783
76	0xbf31f2ec	-0.69511294
77	0xbd5f29c4	-0.05448319
78	0xc1078a3d	-8.47125
79	0xc0e1e61e	-7.0593405
80	0xbfb4fbf5	-1.4139391
81	0x3fc65d64	1.549725
82	0x3dabc8f9	0.08387942
83	0x3f1f20f9	0.6215969
84	0xbe890543	-0.26761827
85	0xc02b7426	-2.6789641
86	0x3e4bb210	0.19892144
87	0xc0040668	-2.062891
88	0xc06ac747	-3.668413
89	0xc0011820	-2.0170975
90	0x3b3a9f24	0.0028476203
91	0xc0455a28	-3.0836277
92	0xbddd016c	-0.10791287
93	0x3ddf0880	0.10890293
94	0xc08a4ffa	-4.322263
95	0x3dd20cc8	0.10256344
96	0x3c7eeb3b	0.015559013
97	0xbf65bb59	-0.89738995
98	0x3e69dc2d	0.22837897
99	0xbdbdd345	-0.09268812
100	0xbe9709bc	-0.29499614
101	0xbe485b7a	-0.19566146
102	0x3d2b2b83	0.041789543
103	0xbcc6b64c	-0.024256848
104	0x3eb872c7	0.36025068
105	0xbb75e4a6	-0.0037520318
106	0xbd19f227	-0.03758445
107	0xc0c68c80	-6.204651
108	0xbc7086df	-0.014680593
109	0xbcd93400	-0.026514053
110	0xbe4758b7	-0.19467436
111	0x3e063302	0.13105395
112	0xbeb1d36c	-0.34731615
113	0x3ef96919	0.48712996
114	0xbe21c31a	-0.15797082
115	0x3f2530c6	0.6452755
116	0xc05fa0bb	-3.4941852
117	0xbff0f4d8	-1.882472
118	0xbef161c6	-0.47144908
119	0xbeed481b	-0.46344075
120	0x3db355fc	0.087566346
121	0xbf0b5343	-0.5442392
122	0x3f137cd0	0.57612324
123	0x3e922941	0.285471
124	0x3daba0f4	0.08380309
125	0xbe716dde	-0.23577067
126	0xbfa12bbb	-1.259147
127	0x3bfca9f0	0.007710688
128	0xbdb5ba1c	-0.08873388
129	0xbd9fe3b6	-0.07807104
130	0xbba8d77f	-0.0051526423
131	0xbba6b31e	-0.0050872704
132	0xbda1fe76	-0.07909863
133	0x3ecbe621	0.39824012
134	0xc011bca5	-2.277139
135	0xbdfca404	-0.12335971
136	0xc0864511	-4.195931
137	0xbdac551f	-0.08414673
138	0x3d90ec9d	0.070763804
139	0xbc87948c	-0.016550325
140	0xbdfb0a2c	-0.122577995
141	0xbeb707bb	-0.35748085
142	0x3cfa7c42	0.030576829
143	0xbdbe6c62	-0.09298016
144	0xc03609e0	-2.8443527
145	0x3ce4b57d	0.027918572
146	0x3e1e3b26	0.15452251
147	0xbe8bd957	-0.27314255
148	0xbfa84c03	-1.3148197
149	0xbc103ee4	-0.008804057
150	0xbdb32715	-0.08747689
151	0x3e437082	0.19085887
152	0xbdcef07c	-0.101044625
153	0xbc68ccf2	-0.014209019
154	0x3d3a0c22	0.045421727
155	0x3cabdd4d	0.020979548
156	0xbfbcec8b	-1.4759687
157	0x3bac909b	0.0052662618
158	0x3b1c36a2	0.0023836275
159	0x3d8c43d0	0.06848872
160	0xbfe12326	-1.7588851
161	0x3d388f98	0.045058817
162	0xbe395d3c	-0.18101972
163	0x3ea80da3	0.32822904
164	0x3d513864	0.05107917
165	0xbbc3c7fa	-0.005974767
166	0xbe0d1249	-0.13776506
167	0x3e462412	0.19349697
168	0xbf0f6e7f	-0.5602798
169	0xbd91c090	-0.071168065
170	0xbde6cc50	-0.11269438
171	0x3bb6f620	0.0055835396
172	0xbd147a60	-0.03624952
173	0x3ce2acf0	0.027670354
174	0x3b20de90	0.002454672
175	0x3e7ea555	0.24867757
176	0xbdef133c	-0.116735905
177	0xbe21046b	-0.15724342
178	0xbd4ac2fd	-0.04950236
179	0x3da3e554	0.08002725
180	0xbdd521d1	-0.104068406
181	0x3d2d7f5d	0.04235779
182	0xbdf0cbcd	-0.11757622
183	0xc0123d5b	-2.2849948
184	0xbbd0d365	-0.0063728564
185	0x3da54d2a	0.080713585
186	0x3d95a4fa	0.073068574
187	0xbfa73dc9	-1.306573
188	0x3dab2a5e	0.0835769
189	0xbdfa3e9e	-0.122189745
190	0x3ddc9b41	0.107718
191	0x3d8cd509	0.06876571
192	0xbafe3fc8	-0.001939767
193	0x3debe0f3	0.11517515
194	0xbe128c0d	-0.14311238
195	0xbdac2fdf	-0.08407568
196	0x3d955010	0.07290661
197	0xbd0027c4	-0.031287923
198	0xbcc26453	-0.023729479
199	0xbd5b2a15	-0.05350693
200	0x3db3b717	0.08775156
201	0x3cf226c2	0.029559497
202	0x3b163f73	0.0022926002
203	0xbd8d671b	-0.069044314
204	0xbe0e92fc	-0.13923258
205	0xbc956ada	-0.018239427
206	0x3cfe31cd	0.031029606
207	0xbd6c6580	-0.057713985
208	0xbd077f81	-0.03308058
209	0x3da5f0fc	0.08102605
210	0x3bd1c6d2	0.006401875
211	0xbd02542d	-0.031818558
212	0xbd0646db	-0.032782417
213	0xbde4bc5f	-0.111687414
214	0xbdfd00e5	-0.12353686
215	0xbd6dbe6f	-0.05804294
216	0xbd82215a	-0.063540176
217	0x3beb84b2	0.0071874494
218	0xbd2a3991	-0.041558806
219	0xbd42ac5a	-0.04752765
220	0x3deb06b1	0.11475886
221	0x3d19bec1	0.037535433
222	0x3daa347c	0.08310792
223	0xbd77dda0	-0.060514092
224	0xbd55989b	-0.05214749
225	0x3d239602	0.03993798
226	0xbdf7e8a8	-0.121049225
227	0xbda40463	-0.08008649
228	0xbc454de8	-0.0120425
229	0xbd9eadea	-0.07748015
230	0xbe06d80b	-0.13168351
231	0x3d8f9c89	0.070122786
232	0x3d8086c6	0.06275706
233	0x3ca61de0	0.020277917
234	0xbcb5e978	-0.022206053
235	0xbded203a	-0.11578412
236	0xbdaaafc7	-0.08334308
237	0x3d02590c	0.031823203
238	0x3d780d2c	0.060559437
239	0xbd42cf1f	-0.047560807
240	0xbd4ee4f2	-0.050511308
241	0x3d029b60	0.03188646
242	0xbdd60482	-0.104500785
243	0x3d418206	0.04724314
244	0xbd5f3a54	-0.054498985
245	0xbd12dc0c	-0.035854384
246	0xbd7fcbc9	-0.062450204
247	0x3c8b6c24	0.017019339
248	0xbd33528b	-0.04377989
249	0x3d599b8c	0.053126857
250	0xbc17a0b7	-0.009254626
251	0x3d86c9ff	0.065814964
252	0x3df62396	0.12018506
253	0xbd89042f	-0.06690251
254	0xbdfbcc90	-0.122948766
255	0x3dcd63aa	0.10028775

fc2.bias f4 [64]
0	0x3f1dd0e1	0.6164685
1	0x3eed39d7	0.4633319
2	0xbe77a32f	-0.24183343
3	0x3d3df28c	0.04637389
4	0x3e2d1d04	0.169056
5	0xbe13727b	-0.1439914
6	0xbcfe090e	-0.031010177
7	0x3db5f1f4	0.088840395
8	0x3c8b910c	0.017036937
9	0xc008e130	-2.1387444
10	0xc06fb329	-3.74531
11	0xbdde0466	-0.10840683
12	0xbd175660	-0.036947608
13	0x3f2122a9	0.6294351
14	0x3e7bfe78	0.24608791
15	0xbe8a64a0	-0.27029896
16	0x3f51c6bb	0.81943864
17	0xbe3c9241	-0.18415166
18	0xbd89147b	-0.066933595
19	0x3ee7b4f0	0.45255232
20	0xbf83244a	-1.024545
21	0xbe198f33	-0.14996032
22	0xbfd1207c	-1.6338038
23	0xbe8ad6c9	-0.27116993
24	0xbda659b7	-0.081225805
25	0xbe953dca	-0.29148704
26	0xbe245ac1	-0.16050245
27	0x3e132b8c	0.1437208
28	0xbdb61101	-0.08889962
29	0x3eb92c3b	0.36166558
30	0xbd557018	-0.052108854
31	0xbdedc979	-0.116106935
32	0x3cabdd14	0.020979442
33	0xbf31ff71	-0.695304
34	0x3cc0cdce	0.023535635
35	0xbf8e04fc	-1.1095271
36	0xbe3f297e	-0.18668172
37	0x3f709a9b	0.9398591
38	0xbd6df5c6	-0.058095716
39	0xbf4be518	-0.79646444
40	0xbff967fe	-1.9484861
41	0xbd9bed2d	-0.07613597
42	0xbf41fb6c	-0.75774264
43	0xbebe4c24	-0.37167466
44	0xbd4745dd	-0.04865061
45	0xbeed63a7	-0.4636509
46	0xbdd64a00	-0.10463333
47	0xbe295ad1	-0.1653855
48	0xbe269ea8	-0.1627146
49	0x3ec9b92c	0.39399087
50	0xbdfdd70a	-0.12394531
51	0x3ee5fa85	0.44917694
52	0x3c94ef55	0.018180529
53	0x3e92fab7	0.28706905
54	0x3f791d88	0.97310686
55	0xbe6c0ee7	-0.2305256
56	0x3ebda117	0.37036964
57	0x3f8074c2	1.0035632
58	0xbe5f0334	-0.21778566
59	0x3d73faf3	0.059565496
60	0x3f106b7b	0.56414
61	0xbd69e706	-0.057105087
62	0x3f3a03e0	0.7266216
63	0xbf8fda17	-1.1238431

fc3.weight f4 [4, 64]
0	0xbf1458ee	-0.57948196
1	0x3ee22e25	0.4417583
2	0x3ca86bc2	0.020559195
3	0xbd77442a	-0.06036774
4	0xbeec0cee	-0.46103615
5	0x3e978e9b	0.29600987
6	0xbe1c18a4	-0.15243775
7	0x3d955c43	0.07292988
8	0x3eadfff3	0.33984336
9	0x403f12fc	2.9855337
10	0xc10c7dc0	-8.780701
11	0xbd03c693	-0.032171797
12	0x3d34495a	0.044015266
13	0xbcec0f9d	-0.028816039
14	0xbefdd3fb	-0.4957579
15	0x3d9fef5d	0.07809327
16	0x3eaeb1bc	0.34119976
17	0x3deb642b	0.11493715
18	0xbdb46be8	-0.08809644
19	0x3f2a85fe	0.66610706
20	0xbf7b7af4	-0.98234487
21	0x3c481b08	0.012213476
22	0xc1127a10	-9.1548
23	0x3d4465d0	0.04794866
24	0x3ed8a154	0.42310584
25	0x3dc3dbe1	0.09563423
26	0xbd80e8a1	-0.062943704
27	0xc1745a84	-15.272099
28	0x3d4ca2ff	0.049960133
29	0xbfb908a7	-1.4455765
30	0x3efd143c	0.494295
31	0x3a9ca348	0.0011950517
32	0x3d33d888	0.043907672
33	0xbdadf7ae	-0.08494507
34	0xbd9b9ef8	-0.0759868
35	0x3f30795d	0.68935186
36	0xbddfd42c	-0.109291404
37	0xbecca76d	-0.39971486
38	0xbc71bd65	-0.014754628
39	0xbf41ac25	-0.75653297
40	0x3e766acf	0.24064182
41	0xbc40c343	-0.011765304
42	0xbd28a499	-0.041172598
43	0xbc2732ca	-0.01020498
44	0xbc2a072f	-0.010377689
45	0x3d9743c9	0.07385976
46	0xbc1a1a3b	-0.009405668
47	0x3d4e5b50	0.05038005
48	0xbde0d5da	-0.10978289
49	0xbe56759d	-0.20943303
50	0xbd9eda06	-0.077564284
51	0xbe9827c8	-0.2971785
52	0xbd4de5c2	-0.050267942
53	0x3f146322	0.57963765
54	0xbdd11e65	-0.102108754
55	0x3f923efd	1.1425472
56	0xbf46b368	-0.776175
57	0x3f0024bb	0.50056046
58	0x3b7ea468	0.0038855318
59	0xc194cd41	-18.600222
60	0x3f563b9b	0.836847
61	0x3d8a2569	0.06745417
62	0x3e1cb556	0.15303549
63	0xc19ada30	-19.356537
64	0x3f00ad13	0.5026409
65	0xbf409a32	-0.75235283
66	0xbc27cc89	-0.010241636
67	0xbd25e40b	-0.04050068
68	0xbe4d4e49	-0.20049395
69	0xbebf5dc1	-0.37376216
70	0xbd6104de	-0.054936282
71	0x3dcfcc67	0.101464085
72	0xc208900a	-34.140663
73	0xc011476a	-2.2699838
74	0x3ec8f8e9	0.39252403
75	0xbd8992db	-0.067174636
76	0x3e66e367	0.22547685
77	0x3e826616	0.2546851
78	0x3ed527cb	0.41631922
79	0x3ca75971	0.020428391
80	0xbe32a6c6	-0.17446432
81	0x3e0b0e41	0.13579656
82	0xbd83ba00	-0.06431961
83	0x3e9efd80	0.3105278
84	0xbace19cc	-0.0015724241
85	0xbd3fdf05	-0.046843547
86	0x3e923280	0.28554153
87	0x3d8e0cd1	0.06936038
88	0xbfda9071	-1.707533
89	0x3b9e9eed	0.004840723
90	0xbc16d7c2	-0.009206714
91	0x3e1f29a3	0.15543227
92	0xbc4d9d67	-0.012549735
93	0x3f3bd784	0.73375726
94	0xbea0aeb8	-0.313833
95	0x3dc998d6	0.09843604
96	0xbd955524	-0.0729163
97	0xbdb9856a	-0.0905865
98	0xbd7f2983	-0.062295448
99	0xc084da92	-4.151681
100	0xbd88f309	-0.0668698
101	0xbea51376	-0.3224141
102	0xbdb8ec5e	-0.090294585
103	0xbfe99200	-1.8247681
104	0x3e859c0c	0.26095617
105	0x3c2f5161	0.010700555
106	0x3e059dbc	0.13048452
107	0x3df6889f	0.12037777
108	0x3d31e2d6	0.04342922
109	0x3dba603e	0.09100388
110	0xbd0702e7	-0.032961752
111	0x3d5d639a	0.054050066
112	0xbcdc3afc	-0.026883595
113	0xbdc4a335	-0.09601442
114	0xbd2db474	-0.04240842
115	0xbdd26750	-0.102736115
116	0x3da9b656	0.08286731
117	0xbf726eb5	-0.94700176
118	0xbe12b2d7	-0.14326034
119	0x3dcbd2a3	0.09952285
120	0x3ea40030	0.32031393
121	0x3f028f18	0.50999594
122	0x3e3f81cb	0.18701856
123	0x3edb8fd8	0.42883182
124	0xbeabd5e0	-0.3356161
125	0x3ca289d3	0.01984111
126	0x3e986bff	0.29769894
127	0x3e3d63df	0.18495129
128	0x3e953cb0	0.29147863
129	0x3f22769b	0.6346223
130	0x3ce9d767	0.028545095
131	0x3db656a4	0.08903244
132	0x3f7f3d12	0.9970256
133	0x3d1a6f91	0.037704054
134	0x3c5783ab	0.013153951
135	0xbe87981f	-0.26483247
136	0x3e79c8f2	0.24393061
137	0x407aa71a	3.916449
138	0x3ec86095	0.39136186
139	0x3d1de377	0.038547006
140	0xc1f5d6ab	-30.729818
141	0xbeb57a27	-0.35444757
142	0x3ddbb658	0.10728139
143	0xbd33c20d	-0.043886233
144	0xbeac5481	-0.3365822
145	0xc12ebaf5	-10.920644
146	0xbd84c6b9	-0.06483216
147	0xbf9928d1	-1.1965581
148	0x3ed09f54	0.40746558
149	0xbcc23721	-0.023707928
150	0x3e6df086	0.23236284
151	0xbef2d652	-0.47429138
152	0x3f5734d2	0.8406497
153	0xbc049b25	-0.00809363
154	0xbd352afa	-0.04423044
155	0x3d7319b1	0.059350673
156	0xbd8c8dd5	-0.0686299
157	0x3f481f7c	0.7817304
158	0xbd50c960	-0.050973296
159	0x3d378575	0.04480501
160	0xbc12826b	-0.008942227
161	0xbdf49637	-0.11942714
162	0xbd6c5d29	-0.057706032
163	0x3f566a0f	0.8375558
164	0xbd77293c	-0.06034206
165	0x3faa8b54	1.332377
166	0xbd4f9aea	-0.050684847
167	0x402d24ee	2.705379
168	0xc0bc8982	-5.8917856
169	0xbd32545c	-0.043537483
170	0xbefc05c3	-0.49223146
171	0xbef5069d	-0.47856608
172	0x3d0c69a7	0.034280445
173	0xbe71ced3	-0.23614053
174	0x3a932365	0.0011225758
175	0x3cad8e05	0.021185884
176	0xbdac3fac	-0.08410582
177	0x3e56fade	0.20994136
178	0x3cbb2d40	0.022848725
179	0x3f0d0149	0.55080086
180	0xbbd11da0	-0.0063817054
181	0x3f213ea7	0.62986225
182	0x3f79d442	0.97589505
183	0xc02551ec	-2.583125
184	0x3e8fd925	0.28095356
185	0xbfd780f2	-1.6836226
186	0xc1b84ff7	-23.039045
187	0x3e4615fd	0.19344325
188	0xbe781fce	-0.24230883
189	0xbccab383	-0.024743801
190	0xbf744214	-0.9541333
191	0x3e4132c5	0.18867023
192	0xbe0ffcef	-0.1406133
193	0xbe162158	-0.14661157
194	0xbf951f8a	-1.165025
195	0xbd9fce2e	-0.078029975
196	0xbdd14c07	-0.10219579
197	0xbe0b8b9f	-0.1362748
198	0x3d8884ab	0.066659294
199	0xc084fb49	-4.1556745
200	0xbe44e78e	-0.19228956
201	0xbee72c66	-0.4515106
202	0xbdaa54c9	-0.08316953
203	0x3da16dff	0.07882308
204	0xbf7e9f7d	-0.9946211
205	0xbea7034b	-0.326197
206	0xbe615a52	-0.2200711
207	0xbe7d9c14	-0.2476657
208	0xbec773bf	-0.38955495
209	0xbe5c7c02	-0.2153168
210	0x3cceb592	0.025233064
211	0xbee9d668	-0.4567139
212	0xbe372363	-0.17884593
213	0x3cb73bd4	0.022367395
214	0xc00ff527	-2.249338
215	0xbeabad03	-0.33530435
216	0x3ca6512d	0.02030238
217	0xc09d6f02	-4.9198008
218	0x3da9dd02	0.08294107
219	0xbedefefc	-0.43553913
220	0x3d3e1969	0.04641095
221	0xbe9af81b	-0.30267414
222	0xbd896ac6	-0.067098185
223	0xbf6eb461	-0.93243986
224	0xbcc7c1fb	-0.02438449
225	0xc129a93f	-10.60382
226	0xbdb07f45	-0.08618025
227	0xc00d86a5	-2.211343
228	0xbd509d56	-0.050931297
229	0xbdaf2867	-0.08552628
230	0x3db5b5d8	0.088725746
231	0xbe3e7e4c	-0.18602866
232	0xc0db4222	-6.851823
233	0xbee5d4b5	-0.44888845
234	0xc08b2ed1	-4.349465
235	0xbe93d70c	-0.28875005
236	0xbde75788	-0.11295992
237	0xbfc489fd	-1.5354611
238	0x3d9f60b1	0.07782114
239	0x3ca05655	0.019572416
240	0xbdd63686	-0.10459618
241	0xc0877c30	-4.2339096
242	0xbcf9e74b	-0.030505797
243	0xc047d199	-3.1221678
244	0x3d1e4dec	0.03864853
245	0xbe0040cc	-0.12524718
246	0xbe177c64	-0.14793545
247	0xbe8f2b81	-0.27962878
248	0xc10244fe	-8.141844
249	0xbf95b95a	-1.169719
250	0xbdb22ca4	-0.08699921
251	0xbe9e9410	-0.30972338
252	0xbe4d1023	-0.20025687
253	0x3c2aa982	0.01041639
254	0xbef0212f	-0.46900317
255	0xbfac3719	-1.3454314

fc3.bias f4 [4]
0	0xbd0f423e	-0.034975283
1	0x3d5fd8fb	0.054650288
2	0xbcdb9290	-0.026803285
3	0xc19fedc6	-19.9911
