custom_grid/data/ppo-0.0001/ppo_iter_500.pth (torch, 21521 bytes, 6 tensors)

fc1.weight f4 [64, 2]
0	0xbdf15b98	-0.11785048
1	0xbed743f9	-0.42044047
2	0x3dbf7c53	0.09349885
3	0x3ede25b1	0.4338813
4	0x3e33964e	0.17537805
5	0x3e9c96f6	0.30583924
6	0xbebe410e	-0.37159008
7	0x3ebadf08	0.36498284
8	0x3f148def	0.58029073
9	0xbf07613f	-0.5288276
10	0x3ed930b6	0.42419976
11	0x3d81fac4	0.06346658
12	0xbc41f694	-0.011838574
13	0xbd20a0ae	-0.039215736
14	0x3f175a09	0.5912176
15	0xbeb58808	-0.35455346
16	0x3ee902ef	0.4551005
17	0x3d92c3d0	0.071662545
18	0xbe8326d8	-0.25615573
19	0x3e4fc235	0.20288928
20	0xbc02dde9	-0.007987478
21	0xbebbef1d	-0.36705866
22	0x3c35581e	0.011068372
23	0x3d24627b	0.04013298
24	0xbe8ed4c6	-0.27896708
25	0xbf058b0f	-0.5216531
26	0xbe6988c5	-0.2280608
27	0xbd86683b	-0.06562849
28	0x3e565f43	0.20934777
29	0xc02aa9bb	-2.6666095
30	0x3f6c37b7	0.92272514
31	0xbfc79f54	-1.5595498
32	0x39a5f90c	0.00031656807
33	0xbde45244	-0.111485034
34	0xbd6a3526	-0.057179593
35	0x3efafdfd	0.49021903
36	0x3b2d1e27	0.0026415677
37	0xbe7a3d38	-0.24437416
38	0x3cd6560d	0.02616408
39	0xbf055599	-0.52083737
40	0x3ea4af11	0.32164815
41	0xbe3e6a9f	-0.1859536
42	0x3d2933a5	0.041309018
43	0x3eede955	0.4646708
44	0x3f14dd63	0.5815031
45	0xbeeadc47	-0.45871183
46	0x3cd12f05	0.025535116
47	0xbd3166b6	-0.043310843
48	0x3f3defab	0.7419383
49	0xbf856324	-1.042088
50	0xbe81a197	-0.25318596
51	0x3e1e2a14	0.15445739
52	0xb9a8099c	-0.00032050617
53	0xbcf809fe	-0.030278202
54	0x3db7d48a	0.089760855
55	0x3f0413f1	0.5159293
56	0x3e88f5d2	0.26750046
57	0xbe225075	-0.15851004
58	0x3d94bb28	0.0726226
59	0xbf4918f6	-0.7855371
60	0x3dd25433	0.10269966
61	0xbfdc1ffc	-1.7197261
62	0x3f11eb24	0.5699942
63	0xbf04bdad	-0.5185192
64	0x3ed72487	0.42020056
65	0xbd4e1884	-0.05031635
66	0x3e70808f	0.23486541
67	0xbe80069d	-0.25005046
68	0xbe72138f	-0.23640274
69	0xc0295032	-2.6455197
70	0x3f07f0c2	0.5310174
71	0x3e28b649	0.16475786
72	0x3f13a939	0.5768009
73	0xbf5ad097	-0.8547453
74	0xbecb84c5	-0.39749733
75	0xbf5a0086	-0.8515705
76	0xbe8547c8	-0.26031327
77	0x3dd20ab4	0.10255948
78	0x37349394	1.0763197e-05
79	0xbca930d8	-0.020653173
80	0xbedfc0df	-0.43701836
81	0xbf573980	-0.84072113
82	0x3f0ed0dc	0.55787444
83	0xbf09fe28	-0.53903437
84	0x3f17d863	0.59314555
85	0x3dd80828	0.10548431
86	0x3f39a4ff	0.7251739
87	0xbf83c917	-1.0295743
88	0x3c05fe4c	0.008178305
89	0xbe82209d	-0.25415507
90	0x3f08ee67	0.53488773
91	0xbee57f92	-0.4482389
92	0x3e596b03	0.21232228
93	0x3ead253d	0.33817473
94	0xbebdca42	-0.37068373
95	0xbdbf39ee	-0.09337221
96	0x3f190481	0.597725
97	0xbcae70bd	-0.021293992
98	0x3c85b1c5	0.016320119
99	0xbf7d0251	-0.9883166
100	0x3c054a12	0.0081353355
101	0xbf22e7e5	-0.6363509
102	0xbe919869	-0.28436592
103	0xbf8f4b42	-1.1194842
104	0x3dce2240	0.100651264
105	0xbfdc78e0	-1.7224388
106	0xbeccc0f0	-0.3999095
107	0xbea21d0a	-0.3166278
108	0x3d338b8e	0.04383426
109	0xbf1133d3	-0.567197
110	0x3b0395b5	0.0020078246
111	0xbd74a8a1	-0.05973113
112	0x3f420102	0.7578279
113	0xc008e573	-2.1390045
114	0x3e8241c2	0.25440794
115	0xbf7ed43e	-0.99542606
116	0x3f13fba3	0.5780584
117	0xbfc5f76c	-1.5466132
118	0xbf06a0c3	-0.5258905
119	0xbf511b50	-0.816823
120	0x3b006c39	0.0019595756
121	0xbe86b73b	-0.2631167
122	0x3dc72919	0.09724636
123	0xbfe8fdbb	-1.8202432
124	0xbe2b6249	-0.16736712
125	0xbe7d53f0	-0.24739051
126	0xbd36bd49	-0.04461411
127	0xbf389e67	-0.721167

fc1.bias f4 [64]
0	0x3c2138c4	0.009840194
1	0xc035bc09	-2.8396018
2	0x404c7471	3.194607
3	0xbfb70b83	-1.4300388
4	0xbfcaea9a	-1.5852845
5	0x3fc8b41d	1.5679966
6	0xbd5068bb	-0.05088113
7	0xc062f41e	-3.5461497
8	0xbf727a38	-0.9471774
9	0xc0257f8c	-2.5859098
10	0x3ed56996	0.41682118
11	0xbfcfdb63	-1.6238827
12	0x3fb7713f	1.4331435
13	0xc06b10bc	-3.6728964
14	0xbdbd5b59	-0.09245939
15	0xbfa319a6	-1.2742202
16	0xbb11d678	-0.0022253077
17	0xc0529eb0	-3.2909355
18	0xbc4a4c68	-0.012347318
19	0x401c1319	2.4386656
20	0x402a101b	2.657233
21	0xc08a614c	-4.324377
22	0x3f6f4e1a	0.9347855
23	0xbeda703d	-0.42663756
24	0xc010f511	-2.2649577
25	0xc051bfad	-3.277324
26	0xbbd25b67	-0.0064195874
27	0xc074df78	-3.8261395
28	0x400d2b34	2.205762
29	0x3ed31b09	0.41231564
30	0xbe0be365	-0.13660963
31	0xc0340822	-2.8129964
32	0x402588c4	2.5864725
33	0xbff3674f	-1.9015902
34	0xbe513802	-0.20431522
35	0xc030afc3	-2.7607276
36	0x3f95093a	1.1643441
37	0xbf341d7c	-0.7035749
38	0xbf3603a9	-0.71099335
39	0xbafc6557	-0.0019256276
40	0xbe69d154	-0.22833759
41	0xc0270889	-2.609896
42	0xc0599505	-3.3997204
43	0xc00d3c54	-2.2068071
44	0xbc213c45	-0.0098410295
45	0xc046f195	-3.108495
46	0xc067996a	-3.6187387
47	0xc0992392	-4.785592
48	0xc0595190	-3.3956032
49	0xbd01cdae	-0.031690292
50	0xbc0dbcba	-0.008650953
51	0xbe8d9bdd	-0.27657977
52	0xbdf592ab	-0.11990865
53	0x3fabf5b2	1.3434355
54	0x3fe972e8	1.8238192
55	0xbec88000	-0.39160156
56	0x3fa0d420	1.2564735
57	0xbd148355	-0.03625806
58	0x3efdf6b5	0.49602285
59	0xbfd2a107	-1.6455392
60	0xbe3fbc91	-0.18724276
61	0xbde3b202	-0.11117937
62	0xc008252d	-2.127269
63	0xbec61a71	-0.38692048

fc2.weight f4 [64, 64]
0	0x3e5a79a1	0.2133546
1	0x3f6ca1c6	0.92434347
2	0x3e9a1cca	0.3010009
3	0xbdc4d025	-0.09610013
4	0x3f35ff3c	0.7109258
5	0x3f055359	0.52080303
6	0xbf8d1e4e	-1.1024873
7	0x3d286dec	0.041120455
8	0xc107d939	-8.490533
9	0x3e1c4c10	0.1526339
10	0xbe64e57a	-0.22353163
11	0x3ecd3873	0.4008213
12	0xbd27780c	-0.04088597
13	0xbfd78f21	-1.6840554
14	0x4085366a	4.1628923
15	0xbf5816a2	-0.84409535
16	0xc03da000	-2.9628906
17	0x3ecdb25c	0.4017514
18	0x3e0c1936	0.13681492
19	0x3e536bde	0.20646617
20	0x3e426620	0.1898427
21	0xc10fb467	-8.981544
22	0xbe84d1dd	-0.25941363
23	0xbe5d56e8	-0.21615183
24	0xbd94bcd8	-0.072625816
25	0xc0074c46	-2.1140304
26	0x3dce4b83	0.100729965
27	0xc023ef3c	-2.5614767
28	0x3e33d0b8	0.17560089
29	0x3d7e5089	0.062088523
30	0x3e536b14	0.20646316
31	0xbfb81afd	-1.4383236
32	0x3f40392d	0.75087243
33	0x3f1c119e	0.6096438
34	0x3e978d74	0.29600108
35	0xc06ef5eb	-3.7337596
36	0xbeb2b5ce	-0.3490433
37	0xbd286027	-0.041107323
38	0xbe6cfe65	-0.23143919
39	0x3df709ca	0.12062414
40	0x3e3888e9	0.18020977
41	0xbfa18ab7	-1.2620457
42	0x3e00067c	0.12502474
43	0x3e97460e	0.29545635
44	0x3dc65d43	0.09685757
45	0xbe0fbcf9	-0.14036931
46	0xbe90607d	-0.28198615
47	0xbf9eccbb	-1.2406229
48	0x3e9b1c87	0.30295202
49	0x3d2a3b47	0.041560438
50	0x3d20104d	0.039078046
51	0xbe0c9039	-0.13726892
52	0x3fc1d1cb	1.5142149
53	0xbee65ca2	-0.44992548
54	0xbe7ccda4	-0.2468782
55	0xbfe1b7db	-1.7634233
56	0xbf3144c3	-0.6924555
57	0xbe8d373a	-0.27581197
58	0xbfa5a5f9	-1.2941276
59	0x3e9875eb	0.29777464
60	0xbcb4ac68	-0.022054866
61	0x3e8b0699	0.2715347
62	0x3e3c8e52	0.18413666
63	0xbe0187cc	-0.12649459
64	0x3f07f8f2	0.53114235
65	0xc014f0a7	-2.3271883
66	0x3e60c09c	0.21948475
67	0x3e80e68e	0.251759
68	0xc0737207	-3.8038347
69	0xbf2dc3c3	-0.67876834
70	0xbf73560c	-0.9505317
71	0xbd8cc4e9	-0.06873495
72	0xbeb8bb81	-0.36080554
73	0xbec1c229	-0.37843445
74	0xbef26acd	-0.47347108
75	0x3f61bf78	0.88182783
76	0xbf31f2ec	-0.69511294
77	0xbd5f29c4	-0.05448319
78	0xc1078a3d	-8.47125
79	0xc0e1e61e	-7.0593405
80	0xbfb4fbf5	-1.4139391
81	0x3fc7044e	1.5548189
82	0x3dabc8f9	0.08387942
83	0x3f1f20f9	0.6215969
84	0xbe849f08	-0.2590258
85	0xc02b7426	-2.6789641
86	0x3e4bb210	0.19892144
87	0xc0040668	-2.062891
88	0xc06ac747	-3.668413
89	0xc0011820	-2.0170975
90	0x3b3a9f24	0.0028476203
91	0xc044d447	-3.0754564
92	0xbdcb920d	-0.09939966
93	0x3ddf0880	0.10890293
94	0xc08a4ffa	-4.322263
95	0x3dd20cc8	0.10256344
96	0x3cb0b142	0.021568898
97	0xbf65bb59	-0.89738995
98	0x3e69dc2d	0.22837897
99	0xbdbdd345	-0.09268812
100	0xbe9709bc	-0.29499614
101	0xbe485b7a	-0.19566146
102	0x3d3f0793	0.046638083
103	0xbcc6b64c	-0.024256848
104	0x3eb872c7	0.36025068
105	0xbb75e4a6	-0.0037520318
106	0xbd19f227	-0.03758445
107	0xc0c68c80	-6.204651
108	0xbc7086df	-0.014680593
109	0xbcd93400	-0.026514053
110	0xbe4758b7	-0.19467436
111	0x3e063302	0.13105395
112	0xbeb1d36c	-0.34731615
113	0x3ef96919	0.48712996
114	0xbe21c31a	-0.15797082
115	0x3f2530c6	0.6452755
116	0xc05fa0bb	-3.4941852
117	0xbff09950	-1.8796787
118	0xbef161c6	-0.47144908
119	0xbeed481b	-0.46344075
120	0x3db355fc	0.087566346
121	0xbf0b5343	-0.5442392
122	0x3f137cd0	0.57612324
123	0x3e922941	0.285471
124	0x3daba0f4	0.08380309
125	0xbe716dde	-0.23577067
126	0xbfa12bbb	-1.259147
127	0x3bfca9f0	0.007710688
128	0xbdb5ba1c	-0.08873388
129	0xbd9fe3b6	-0.07807104
130	0xbba8d77f	-0.0051526423
131	0xbba6b31e	-0.0050872704
132	0xbda1fe76	-0.07909863
133	0x3ecbe621	0.39824012
134	0xc011bca5	-2.277139
135	0xbdfca404	-0.12335971
136	0xc0864511	-4.195931
137	0xbdac551f	-0.08414673
138	0x3d90ec9d	0.070763804
139	0xbc87948c	-0.016550325
140	0xbdfb0a2c	-0.122577995
141	0xbeb707bb	-0.35748085
142	0x3cfa7c42	0.030576829
143	0xbdbe6c62	-0.09298016
144	0xc03609e0	-2.8443527
145	0x3ce4b57d	0.027918572
146	0x3e1e3b26	0.15452251
147	0xbe8bd957	-0.27314255
148	0xbfa84c03	-1.3148197
149	0xbc103ee4	-0.008804057
150	0xbdb32715	-0.08747689
151	0x3e437082	0.19085887
152	0xbdcef07c	-0.101044625
153	0xbc68ccf2	-0.014209019
154	0x3d3a0c22	0.045421727
155	0x3cabdd4d	0.020979548
156	0xbfbcec8b	-1.4759687
157	0x3bac909b	0.0052662618
158	0x3b1c36a2	0.0023836275
159	0x3d8c43d0	0.06848872
160	0xbfe12326	-1.7588851
161	0x3d388f98	0.045058817
162	0xbe395d3c	-0.18101972
163	0x3ea80da3	0.32822904
164	0x3d513864	0.05107917
165	0xbbc3c7fa	-0.005974767
166	0xbe0d1249	-0.13776506
167	0x3e462412	0.19349697
168	0xbf0f6e7f	-0.5602798
169	0xbd91c090	-0.071168065
170	0xbde6cc50	-0.11269438
171	0x3bb6f620	0.0055835396
172	0xbd147a60	-0.03624952
173	0x3ce2acf0	0.027670354
174	0x3b20de90	0.002454672
175	0x3e7ea555	0.24867757
176	0xbdef133c	-0.116735905
177	0xbe21046b	-0.15724342
178	0xbd4ac2fd	-0.04950236
179	0x3da3e554	0.08002725
180	0xbdd521d1	-0.104068406
181	0x3d2d7f5d	0.04235779
182	0xbdf0cbcd	-0.11757622
183	0xc0123d5b	-2.2849948
184	0xbbd0d365	-0.0063728564
185	0x3da54d2a	0.080713585
186	0x3d95a4fa	0.073068574
187	0xbfa73dc9	-1.306573
188	0x3dab2a5e	0.0835769
189	0xbdfa3e9e	-0.122189745
190	0x3ddc9b41	0.107718
191	0x3d8cd509	0.06876571
192	0xbafe3fc8	-0.001939767
193	0x3debe0f3	0.11517515
194	0xbe128c0d	-0.14311238
195	0xbdac2fdf	-0.08407568
196	0x3d955010	0.07290661
197	0xbd0027c4	-0.031287923
198	0xbcc26453	-0.023729479
199	0xbd5b2a15	-0.05350693
200	0x3db3b717	0.08775156
201	0x3cf226c2	0.029559497
202	0x3b163f73	0.0022926002
203	0xbd8d671b	-0.069044314
204	0xbe0e92fc	-0.13923258
205	0xbc956ada	-0.018239427
206	0x3cfe31cd	0.031029606
207	0xbd6c6580	-0.057713985
208	0xbd077f81	-0.03308058
209	0x3da5f0fc	0.08102605
210	0x3bd1c6d2	0.006401875
211	0xbd02542d	-0.031818558
212	0xbd0646db	-0.032782417
213	0xbde4bc5f	-0.111687414
214	0xbdfd00e5	-0.12353686
215	0xbd6dbe6f	-0.05804294
216	0xbd82215a	-0.063540176
217	0x3beb84b2	0.0071874494
218	0xbd2a3991	-0.041558806
219	0xbd42ac5a	-0.04752765
220	0x3deb06b1	0.11475886
221	0x3d19bec1	0.037535433
222	0x3daa347c	0.08310792
223	0xbd77dda0	-0.060514092
224	0xbd55989b	-0.05214749
225	0x3d239602	0.03993798
226	0xbdf7e8a8	-0.121049225
227	0xbda40463	-0.08008649
228	0xbc454de8	-0.0120425
229	0xbd9eadea	-0.07748015
230	0xbe06d80b	-0.13168351
231	0x3d8f9c89	0.070122786
232	0x3d8086c6	0.06275706
233	0x3ca61de0	0.020277917
234	0xbcb5e978	-0.022206053
235	0xbded203a	-0.11578412
236	0xbdaaafc7	-0.08334308
237	0x3d02590c	0.031823203
238	0x3d780d2c	0.060559437
239	0xbd42cf1f	-0.047560807
240	0xbd4ee4f2	-0.050511308
241	0x3d029b60	0.03188646
242	0xbdd60482	-0.104500785
243	0x3d418206	0.04724314
244	0xbd5f3a54	-0.054498985
245	0xbd12dc0c	-0.035854384
246	0xbd7fcbc9	-0.062450204
247	0x3c8b6c24	0.017019339
248	0xbd33528b	-0.04377989
249	0x3d599b8c	0.053126857
250	0xbc17a0b7	-0.009254626
251	0x3d86c9ff	0.065814964
252	0x3df62396	0.12018506
253	0xbd89042f	-0.06690251
254	0xbdfbcc90	-0.122948766
255	0x3dcd63aa	0.10028775

fc2.bias f4 [64]
0	0x3f1e1d21	0.617632
1	0x3eefe446	0.46853846
2	0xbe77a32f	-0.24183343
3	0x3d3df28c	0.04637389
4	0x3e2eeb84	0.1708203
5	0xbe0f614f	-0.14001964
6	0xbcfe090e	-0.031010177
7	0x3db66b0d	0.08907137
8	0x3c95bf26	0.018279623
9	0xc008f606	-2.140016
10	0xc06fb198	-3.7452145
11	0xbdde0466	-0.10840683
12	0xbd045ee6	-0.032317065
13	0x3f20e820	0.62854195
14	0x3e7a5925	0.24448068
15	0xbe8a80e8	-0.27051473
16	0x3f51f6bf	0.8201713
17	0xbe3c9241	-0.18415166
18	0xbd89147b	-0.066933595
19	0x3ee821bb	0.45338234
20	0xbf838091	-1.027361
21	0xbe198f33	-0.14996032
22	0xbfd1207c	-1.6338038
23	0xbe8ad6c9	-0.27116993
24	0xbdaf225d	-0.08551476
25	0xbe953dca	-0.29148704
26	0xbe245ac1	-0.16050245
27	0x3e12efda	0.14349309
28	0xbdb61101	-0.08889962
29	0x3eb898c0	0.3605404
30	0xbd56ded7	-0.05245861
31	0xbdedc979	-0.116106935
32	0x3cabdd14	0.020979442
33	0xbf31ff71	-0.695304
34	0x3cc0cdce	0.023535635
35	0xbf8df759	-1.109111
36	0xbe3f297e	-0.18668172
37	0x3f74c0e5	0.95606834
38	0xbd6df5c6	-0.058095716
39	0xbf4be518	-0.79646444
40	0xbff93e94	-1.9472222
41	0xbd9bed2d	-0.07613597
42	0xbf432e00	-0.76242065
43	0xbebe4c24	-0.37167466
44	0xbd4745dd	-0.04865061
45	0xbeed63a7	-0.4636509
46	0xbdd64a00	-0.10463333
47	0xbe295ad1	-0.1653855
48	0xbe269ea8	-0.1627146
49	0x3ecb1aa9	0.39668778
50	0xbdfdd70a	-0.12394531
51	0x3ee50a1c	0.44734275
52	0x3c94ef55	0.018180529
53	0x3e92db87	0.2868311
54	0x3f7a136f	0.97685903
55	0xbe6c9d7d	-0.23106952
56	0x3ebbf7ac	0.36712396
57	0x3f80084c	1.0002532
58	0xbe5d8e77	-0.21636377
59	0x3d25e38e	0.040500216
60	0x3f11098c	0.5665519
61	0xbd69e706	-0.057105087
62	0x3f39d4fa	0.725906
63	0xbf8fda1a	-1.1238434

fc3.weight f4 [4, 64]
0	0xbf147c42	-0.580021
1	0x3ee1ded6	0.44115323
2	0x3ca86bc2	0.020559195
3	0xbd77442a	-0.06036774
4	0xbeed6ae7	-0.46370623
5	0x3e998950	0.29987574
6	0xbe1c18a4	-0.15243775
7	0x3d9afb3c	0.075674504
8	0x3ea892d7	0.3292453
9	0x403e843f	2.9768217
10	0xc10c7f03	-8.781009
11	0xbd03c693	-0.032171797
12	0x3d223afe	0.03960704
13	0xbce15bfc	-0.027509682
14	0xbefcd93c	-0.49384487
15	0x3d9f46e2	0.07777192
16	0x3eaf58f7	0.34247562
17	0x3deb642b	0.11493715
18	0xbdb46be8	-0.08809644
19	0x3f2aeb34	0.6676514
20	0xbf7a61a2	-0.97805226
21	0x3c481b08	0.012213476
22	0xc1127a10	-9.1548
23	0x3d4465d0	0.04794866
24	0x3ed94f7c	0.42443454
25	0x3dc3dbe1	0.09563423
26	0xbd80e8a1	-0.062943704
27	0xc174581e	-15.271513
28	0x3d4ca2ff	0.049960133
29	0xbfb92a5b	-1.4466051
30	0x3efdfb9f	0.49606034
31	0x3a9ca348	0.0011950517
32	0x3d33d888	0.043907672
33	0xbdadf7ae	-0.08494507
34	0xbd9b9ef8	-0.0759868
35	0x3f2e4e24	0.68087983
36	0xbddfd42c	-0.109291404
37	0xbed2fa5f	-0.41206643
38	0xbc71bd65	-0.014754628
39	0xbf41ac25	-0.75653297
40	0x3e7448f0	0.23855948
41	0xbc40c343	-0.011765304
42	0xbd268807	-0.04065707
43	0xbc2732ca	-0.01020498
44	0xbc2a072f	-0.010377689
45	0x3d9743c9	0.07385976
46	0xbc1a1a3b	-0.009405668
47	0x3d4e5b50	0.05038005
48	0xbde0d5da	-0.10978289
49	0xbe54d064	-0.2078262
50	0xbd9eda06	-0.077564284
51	0xbe961a80	-0.29317093
52	0xbd4de5c2	-0.050267942
53	0x3f14adbc	0.580776
54	0xbdd4c799	-0.10389633
55	0x3f921139	1.1411506
56	0xbf464cf8	-0.77461195
57	0x3f0037f7	0.50085396
58	0x3aa55644	0.001261421
59	0xc1949f9d	-18.577936
60	0x3f569488	0.8382039
61	0x3d8a2569	0.06745417
62	0x3e1d9c63	0.15391688
63	0xc19aced3	-19.350988
64	0x3effd73c	0.49968898
65	0xbf418e1b	-0.7560746
66	0xbc27cc89	-0.010241636
67	0xbd25e40b	-0.04050068
68	0xbe4cb7f2	-0.19992045
69	0xbec03609	-0.37541226
70	0xbd6104de	-0.054936282
71	0x3dcc34eb	0.09971031
72	0xc2089074	-34.141068
73	0xc010d659	-2.2630827
74	0x3ec9bc5b	0.39401516
75	0xbd8992db	-0.067174636
76	0x3e6b66ee	0.22988483
77	0x3e81f30f	0.25380751
78	0x3ed530cc	0.41638792
79	0x3ca9fcc6	0.020750415
80	0xbe329707	-0.17440425
81	0x3e0b0e41	0.13579656
82	0xbd83ba00	-0.06431961
83	0x3e9e78ca	0.3095153
84	0xbb556342	-0.0032560383
85	0xbd3fdf05	-0.046843547
86	0x3e923280	0.28554153
87	0x3d8e0cd1	0.06936038
88	0xbfd9dfc6	-1.7021415
89	0x3b9e9eed	0.004840723
90	0xbc16d7c2	-0.009206714
91	0x3e190b0c	0.1494562
92	0xbc4d9d67	-0.012549735
93	0x3f3bef11	0.7341166
94	0xbea054bb	-0.31314644
95	0x3dc998d6	0.09843604
96	0xbd955524	-0.0729163
97	0xbdb9856a	-0.0905865
98	0xbd7f2983	-0.062295448
99	0xc084ae9a	-4.1463137
100	0xbd88f309	-0.0668698
101	0xbeaa8ccc	-0.33310544
102	0xbdb8ec5e	-0.090294585
103	0xbfe99200	-1.8247681
104	0x3e86ad54	0.26304114
105	0x3c2f5161	0.010700555
106	0x3e043340	0.12910175
107	0x3df6889f	0.12037777
108	0x3d31e2d6	0.04342922
109	0x3dba603e	0.09100388
110	0xbd0702e7	-0.032961752
111	0x3d5d639a	0.054050066
112	0xbcdc3afc	-0.026883595
113	0xbdcfb608	-0.101421416
114	0xbd2db474	-0.04240842
115	0xbdd4a182	-0.10382368
116	0x3da9b656	0.08286731
117	0xbf722ded	-0.9460133
118	0xbe113055	-0.14178593
119	0x3dcbc82d	0.0995029
120	0x3ea2aca6	0.31772345
121	0x3f026d75	0.5094827
122	0x3e4231ca	0.18964306
123	0x3ecdab2a	0.4016965
124	0xbeac0d28	-0.33603787
125	0x3ca289d3	0.01984111
126	0x3e979292	0.29604012
127	0x3e3997ed	0.18124361
128	0x3e971354	0.29506934
129	0x3f26c4d4	0.65144086
130	0x3ce9d767	0.028545095
131	0x3db656a4	0.08903244
132	0x3f7f3d53	0.9970295
133	0x3d18d3fc	0.03731154
134	0x3c5783ab	0.013153951
135	0xbe8807d9	-0.26568487
136	0x3e858435	0.26077428
137	0x407b40bf	3.9258268
138	0x3ec74277	0.38917896
139	0x3d1de377	0.038547006
140	0xc1f5cca6	-30.724926
141	0xbeb5b5c6	-0.35490245
142	0x3dd8218b	0.10553273
143	0xbd33c20d	-0.043886233
144	0xbeacecec	-0.33774507
145	0xc12ebaf5	-10.920644
146	0xbd84c6b9	-0.06483216
147	0xbf993235	-1.1968447
148	0x3ed13f54	0.40868628
149	0xbcc23721	-0.023707928
150	0x3e6df086	0.23236284
151	0xbef2d652	-0.47429138
152	0x3f558557	0.83406585
153	0xbc049b25	-0.00809363
154	0xbd352afa	-0.04423044
155	0x3d85c5a7	0.0653184
156	0xbd8c8dd5	-0.0686299
157	0x3f47f725	0.7811149
158	0xbd59fc88	-0.05321935
159	0x3d378575	0.04480501
160	0xbc12826b	-0.008942227
161	0xbdf49637	-0.11942714
162	0xbd6c5d29	-0.057706032
163	0x3f57a380	0.84233856
164	0xbd77293c	-0.06034206
165	0x3fac84a5	1.347798
166	0xbd4f9aea	-0.050684847
167	0x402d24ee	2.705379
168	0xc0bc964a	-5.893346
169	0xbd32545c	-0.043537483
170	0xbefb4059	-0.4907253
171	0xbef5069d	-0.47856608
172	0x3d0c69a7	0.034280445
173	0xbe71ced3	-0.23614053
174	0x3a932365	0.0011225758
175	0x3cad8e05	0.021185884
176	0xbdac3fac	-0.08410582
177	0x3e6059e4	0.2190929
178	0x3cbb2d40	0.022848725
179	0x3f0c9d42	0.54927456
180	0xbbd11da0	-0.0063817054
181	0x3f20d045	0.62817794
182	0x3f7e3380	0.9929733
183	0xc0254d17	-2.5828302
184	0x3e909961	0.2824202
185	0xbfd6d9c3	-1.6785206
186	0xc1b84ff7	-23.039045
187	0x3e70d03f	0.2351694
188	0xbe790541	-0.2431841
189	0xbccab383	-0.024743801
190	0xbf73c9ca	-0.9522978
191	0x3e436063	0.19079737
192	0xbe0ffcef	-0.1406133
193	0xbe162158	-0.14661157
194	0xbf951f8a	-1.165025
195	0xbd9fce2e	-0.078029975
196	0xbdd14c07	-0.10219579
197	0xbe0b8b9f	-0.1362748
198	0x3d8884ab	0.066659294
199	0xc084fb49	-4.1556745
200	0xbe44e78e	-0.19228956
201	0xbee72c66	-0.4515106
202	0xbdaa54c9	-0.08316953
203	0x3da16dff	0.07882308
204	0xbf7e9f7d	-0.9946211
205	0xbea7034b	-0.326197
206	0xbe615a52	-0.2200711
207	0xbe7d9c14	-0.2476657
208	0xbec773bf	-0.38955495
209	0xbe5c7c02	-0.2153168
210	0x3cceb592	0.025233064
211	0xbee9d668	-0.4567139
212	0xbe372363	-0.17884593
213	0x3cb73bd4	0.022367395
214	0xc00ff527	-2.249338
215	0xbeabad03	-0.33530435
216	0x3ca6512d	0.02030238
217	0xc09d6f02	-4.9198008
218	0x3da9dd02	0.08294107
219	0xbedefefc	-0.43553913
220	0x3d3e1969	0.04641095
221	0xbe9af81b	-0.30267414
222	0xbd896ac6	-0.067098185
223	0xbf6eb461	-0.93243986
224	0xbcc7c1fb	-0.02438449
225	0xc129a93f	-10.60382
226	0xbdb07f45	-0.08618025
227	0xc00d86a5	-2.211343
228	0xbd509d56	-0.050931297
229	0xbdaf2867	-0.08552628
230	0x3db5b5d8	0.088725746
231	0xbe3e7e4c	-0.18602866
232	0xc0db4222	-6.851823
233	0xbee5d4b5	-0.44888845
234	0xc08b2ed1	-4.349465
235	0xbe93d70c	-0.28875005
236	0xbde75788	-0.11295992
237	0xbfc489fd	-1.5354611
238	0x3d9f60b1	0.07782114
239	0x3ca05655	0.019572416
240	0xbdd63686	-0.10459618
241	0xc0877c30	-4.2339096
242	0xbcf9e74b	-0.030505797
243	0xc047d199	-3.1221678
244	0x3d1e4dec	0.03864853
245	0xbe0040cc	-0.12524718
246	0xbe177c64	-0.14793545
247	0xbe8f2b81	-0.27962878
248	0xc10244fe	-8.141844
249	0xbf95b95a	-1.169719
250	0xbdb22ca4	-0.08699921
251	0xbe9e9410	-0.30972338
252	0xbe4d1023	-0.20025687
253	0x3c2aa982	0.01041639
254	0xbef0212f	-0.46900317
255	0xbfac3719	-1.3454314

fc3.bias f4 [4]
0	0xbd091a2d	-0.03347223
1	0x3d52c10b	0.05145363
2	0xbcc5879c	-0.024112515
3	0xc19fedc6	-19.9911
