custom_grid/data/ppo-0.0001/ppo_iter_1350.pth (torch, 21533 bytes, 6 tensors)

fc1.weight f4 [64, 2]
000000 03 e5 ef bd bd b4 d7 be 81 fe a0 3d 4a a7 e6 3e
       -0.117136024 -0.4213008 0.07861043 0.45049506
000010 97 55 34 3e 54 6d 9d 3e 2d bc b7 be a0 cb c1 3e
       0.17610775 0.30747473 -0.35885754 0.37850666
000020 ca e7 13 3f 5d c9 07 bf 06 72 dc 3e fe b4 6b 3d
       0.5777556 -0.5304163 0.43055743 0.057545654
000030 96 d0 70 bb ac 8b 20 bd 56 00 15 3f f7 eb bc be
       -0.003674542 -0.0391957 0.5820364 -0.36898777
000040 d0 17 e9 3e e5 7e 96 3d 10 c9 87 be 61 f7 5a 3e
       0.4552598 0.07348422 -0.26520586 0.2138343
000050 b8 ca b7 bb d8 94 b1 be 1e 58 35 3c 7b 62 24 3d
       -0.0056088828 -0.3468387 0.011068372 0.04013298
000060 d4 1f 8c be 5d d6 07 bf 20 59 5f be 8a b7 90 bd
       -0.27368033 -0.5306147 -0.21811342 -0.07066257
000070 4d bf 3f 3e 4a bd 2d c0 67 5c 6b 3f 57 4f c8 bf
       0.18725319 -2.7146783 0.9193787 -1.5649213
000080 0c f9 a5 39 44 52 e4 bd e1 32 6f bd ca bb f9 3e
       0.00031656807 -0.111485034 -0.05839813 0.48776084
000090 27 1e 2d 3b 38 3d 7a be cc 3b ba 3c 1f 82 09 bf
       0.0026415677 -0.24437416 0.022733591 -0.53714174
0000a0 03 75 a6 3e 76 f5 3d be 1e 0c 1d 3d 89 f3 ee 3e
       0.32511148 -0.18550667 0.038341634 0.46670178
0000b0 37 3b 16 3f 13 5f e6 be 05 2f d1 3c b6 66 31 bd
       0.58684105 -0.4499441 0.025535116 -0.043310843
0000c0 3f 8e 40 3f b4 b7 83 bf 68 ee 82 be 4b eb 23 3e
       0.7521705 -1.0290437 -0.25572515 0.16007726
0000d0 c8 b1 96 b8 fe 09 f8 bc 52 e9 a9 3d 2c df 05 3f
       -7.185672e-05 -0.030278202 0.082964554 0.5229366
0000e0 38 4e 8a 3e 03 5f 20 be 92 9f 5e 3d ef 6e 49 bf
       0.270128 -0.15661244 0.054351397 -0.78684896
0000f0 33 54 d2 3d fc 1f dc bf f6 7a 11 3f 30 91 05 bf
       0.10269966 -1.7197261 0.5682825 -0.52174664
000100 34 26 db 3e 9e 95 48 bd db 91 5e 3e b1 7d 84 be
       0.42802584 -0.04897081 0.21735327 -0.25877145
000110 b7 33 5b be 73 d7 29 c0 66 7d 07 3f 5d 78 27 3e
       -0.21406446 -2.653775 0.5292572 0.16354509
000120 8f e4 0f 3f d1 1f 5e bf 03 5e dd be da f4 4f bf
       0.5620813 -0.867673 -0.43235788 -0.8123299
000130 6f 37 86 be 0c f9 e7 3d 94 93 34 37 d8 30 a9 bc
       -0.26214167 0.11326799 1.0763197e-05 -0.020653173
000140 67 ac d6 be b4 e4 5c bf f9 61 0e 3f b3 a5 0a bf
       -0.41928408 -0.86286473 0.55618244 -0.54159087
000150 e2 a4 16 3f b9 82 c9 3d d6 cd 3b 3f 62 58 82 bf
       0.5884534 0.098393865 0.73360956 -1.0183222
000160 4c fe 05 3c 9d 20 82 be a4 d0 08 3f bb 51 e6 be
       0.008178305 -0.25415507 0.5344336 -0.4498423
000170 5c 76 5a 3e b5 4b ae 3e 94 22 be be ee da ca bd
       0.21334213 0.34042135 -0.37135756 -0.09905039
000180 25 3f 1d 3f f4 c1 07 bb c5 b1 85 3c 51 02 7d bf
       0.61424476 -0.002071497 0.016320119 -0.9883166
000190 12 4a 05 3c e5 e7 22 bf a3 e5 98 be e3 dc 8d bf
       0.0081353355 -0.6363509 -0.298627 -1.1083034
0001a0 40 22 ce 3d e0 78 dc bf 10 a8 c7 be 92 15 a5 be
       0.100651264 -1.7224388 -0.3899541 -0.3224302
0001b0 3d c2 0c 3d 4b b7 10 bf b5 95 03 3b a1 a8 74 bd
       0.034364928 -0.5652968 0.0020078246 -0.05973113
0001c0 22 ee 3e 3f c7 af 09 c0 e9 73 66 3e e5 6e 83 bf
       0.7458211 -2.1513536 0.22505154 -1.0268217
0001d0 31 2c 12 3f 9f f7 c6 bf 21 1f 0c bf 7c d6 4b bf
       0.5709868 -1.5544318 -0.54735 -0.7962415
0001e0 39 6c 00 3b 3b b7 86 be 19 29 c7 3d bb fd e8 bf
       0.0019595756 -0.2631167 0.09724636 -1.8202432
0001f0 9b 97 54 be 5b 87 4e be 87 61 04 bd 67 9e 38 bf
       -0.20760958 -0.20168822 -0.03231957 -0.721167

fc1.bias f4 [64]
000000 79 f8 19 3c 89 b8 34 c0 d2 58 4c 40 2b 4c b5 bf
       0.009397619 -2.8237631 3.1929212 -1.416387
000010 46 a5 ca bf 21 32 c8 3f 41 2a 73 bd f0 7d 63 c0
       -1.5831687 1.5640298 -0.05936647 -3.5545616
000020 ab ef 71 bf 93 e9 24 c0 1f d7 e1 3e 63 db cf bf
       -0.9450633 -2.5767562 0.44109437 -1.6238827
000030 d9 ef b6 3f 67 b2 6b c0 cf ef f1 bd 61 5c a3 bf
       1.4291946 -3.6827638 -0.11813318 -1.2762567
000040 78 d6 11 bb 59 9c 52 c0 68 4c 4a bc 30 04 1b 40
       -0.0022253077 -3.2907927 -0.012347318 2.4221306
000050 f8 7b 2a 40 33 62 8a c0 04 fd 6f 3f 3d 70 da be
       2.6638165 -4.324487 0.93745446 -0.42663756
000060 e6 96 10 c0 c9 83 51 c0 0c ea d8 bb 73 8e 74 c0
       -2.25921 -3.2736685 -0.0066196974 -3.8211944
000070 42 a5 0d 40 fc 80 ca 3e 65 e3 0b be 2f 16 34 c0
       2.2132115 0.39551532 -0.13660963 -2.813854
000080 a1 c8 25 40 8f 9f f5 bf 52 d0 6c be 19 c5 30 c0
       2.5903704 -1.9189318 -0.23126343 -2.76203
000090 ea a4 93 3f ad ff 2a bf d8 aa 34 bf 57 65 fc ba
       1.1534703 -0.6679638 -0.70573187 -0.0019256276
0000a0 bb 8f 7c be 43 15 27 c0 2f c4 59 c0 ae fb 0c c0
       -0.24664204 -2.6106727 -3.402599 -2.2028613
0000b0 45 3c 21 bc 52 f4 46 c0 1d 88 67 c0 f9 1a 99 c0
       -0.0098410295 -3.1086621 -3.6176827 -4.7845426
0000c0 5e 70 58 c0 ae cd 01 bd ba bc 0d bc 66 09 86 be
       -3.3818583 -0.031690292 -0.008650953 -0.26179045
0000d0 ab 92 f5 bd 52 36 ab 3f 35 87 ea 3f 00 80 c8 be
       -0.11990865 1.3375952 1.8322512 -0.39160156
0000e0 83 dc 9f 3f 17 47 67 bd d5 f0 fa 3e 94 e7 cf bf
       1.248917 -0.05646428 0.49011865 -1.6242547
0000f0 91 bc 3f be 02 b2 e3 bd 78 9f 05 c0 05 42 cc be
       -0.18724276 -0.11117937 -2.0878582 -0.3989412

fc2.weight f4 [64, 64]
000000 a9 a1 47 3e 6c 48 6e 3f 26 44 a0 3e e8 ef a1 bd
       0.19495262 0.93079257 0.31301993 -0.079070866
000010 3c ff 35 3f ba 74 08 3f 9a 29 8d bf ec 6d 28 3d
       0.7109258 0.5330311 -1.1028321 0.041120455
000020 6c b6 07 c1 18 55 29 3e cf fc 7b be 73 38 cd 3e
       -8.482037 0.16536367 -0.24608158 0.4008213
000030 e0 7c 69 bd 21 8f d7 bf 1a 67 84 40 a2 16 58 bf
       -0.057003856 -1.6840554 4.1375856 -0.84409535
000040 00 a0 3d c0 8c b4 d0 3e 36 19 0c 3e 30 80 44 3e
       -2.9628906 0.40762746 0.13681492 0.19189525
000050 ba 5e 43 3e 93 2d 10 c1 e7 c7 8b be e8 56 5d be
       0.19079104 -9.0111265 -0.2730095 -0.21615183
000060 d8 bc 94 bd a8 7e 07 c0 83 4b ce 3d 88 31 24 c0
       -0.072625816 -2.1171055 0.100729965 -2.5655231
000070 2f 91 34 3e 55 fe 26 3d 14 6b 53 3e fd 1a b8 bf
       0.17633508 0.040769894 0.20646316 -1.4383236
000080 3a 01 42 3f 9e 11 1c 3f 9e a9 8e 3e eb f5 6e c0
       0.7578312 0.6096438 0.27863783 -3.7337596
000090 6f 65 bb be ee 4d 5e bd 7f ac 65 be ca 09 f7 3d
       -0.36600825 -0.05427354 -0.22429083 0.12062414
0000a0 c5 a3 24 3e b7 8a a1 bf 7c 06 00 3e 0e 46 97 3e
       0.16078098 -1.2620457 0.12502474 0.29545635
0000b0 43 5d c6 3d f9 bc 0f be 7d 60 90 be bb cc 9e bf
       0.09685757 -0.14036931 -0.28198615 -1.2406229
0000c0 87 1c 9b 3e 47 3b 2a 3d 4d 10 20 3d 10 7a 1d be
       0.30295202 0.041560438 0.039078046 -0.15378594
0000d0 cb d1 c1 3f 0a 90 ea be 5f 0b 89 be db b7 e1 bf
       1.5142149 -0.45813018 -0.26766488 -1.7634233
0000e0 9d 4f 36 bf a7 df 9a be ac 99 a8 bf 78 3c 92 3e
       -0.7121523 -0.30248758 -1.3171897 0.2856176
0000f0 68 ac b4 bc 99 06 8b 3e 52 8e 3c 3e 7c fd fb bd
       -0.022054866 0.2715347 0.18413666 -0.12304208
000100 f2 f8 07 3f d2 c1 16 c0 c9 50 48 3e c5 27 6c 3e
       0.53114235 -2.3555799 0.19562067 0.23062046
000110 07 72 73 c0 42 5b 36 bf 0c 56 73 bf e9 c4 8c bd
       -3.8038347 -0.71233 -0.9505317 -0.06873495
000120 81 bb b8 be 31 39 bd be cd 6a f2 be 78 bf 61 3f
       -0.36080554 -0.36957696 -0.47347108 0.88182783
000130 ec f2 31 bf c4 29 5f bd 3d 8a 07 c1 1e e6 e1 c0
       -0.69511294 -0.05448319 -8.47125 -7.0593405
000140 f5 fb b4 bf 6e 35 c4 3f f9 c8 ab 3d 6b 5b 20 3f
       -1.4139391 1.5328805 0.08387942 0.6263949
000150 18 ef 98 be 94 5c 2b c0 a5 9f 50 3e 68 06 04 c0
       -0.29869914 -2.6775255 0.203734 -2.062891
000160 47 c7 6a c0 20 18 01 c0 24 9f 3a 3b 3b 54 47 c0
       -3.668413 -2.0170975 0.0028476203 -3.114516
000170 ae d5 0e be 80 08 df 3d fa 4f 8a c0 c8 0c d2 3d
       -0.139487 0.10890293 -4.322263 0.10256344
000180 c0 bf 26 bc 59 bb 65 bf 2d dc 69 3e 45 d3 bd bd
       -0.010177553 -0.89738995 0.22837897 -0.09268812
000190 bc 09 97 be 7a 5b 48 be 38 a9 f2 3c 4c b6 c6 bc
       -0.29499614 -0.19566146 0.029621705 -0.024256848
0001a0 c7 72 b8 3e a6 e4 75 bb 27 f2 19 bd 80 8c c6 c0
       0.36025068 -0.0037520318 -0.03758445 -6.204651
0001b0 df 86 70 bc 00 34 d9 bc b7 58 47 be 02 33 06 3e
       -0.014680593 -0.026514053 -0.19467436 0.13105395
0001c0 6c d3 b1 be 19 69 f9 3e 1a c3 21 be c6 30 25 3f
       -0.34731615 0.48712996 -0.15797082 0.6452755
0001d0 bb a0 5f c0 62 49 f0 bf 93 f1 ee be 1b 48 ed be
       -3.4941852 -1.8772395 -0.46668682 -0.46344075
0001e0 fc 55 b3 3d 43 53 0b bf d0 7c 13 3f 41 29 92 3e
       0.087566346 -0.5442392 0.57612324 0.285471
0001f0 f4 a0 ab 3d de 6d 71 be bb 2b a1 bf f0 a9 fc 3b
       0.08380309 -0.23577067 -1.259147 0.007710688
000200 1c ba b5 bd b6 e3 9f bd 7f d7 a8 bb 1e b3 a6 bb
       -0.08873388 -0.07807104 -0.0051526423 -0.0050872704
000210 76 fe a1 bd 21 e6 cb 3e a5 bc 11 c0 04 a4 fc bd
       -0.07909863 0.39824012 -2.277139 -0.12335971
000220 11 45 86 c0 1f 55 ac bd 9d ec 90 3d 8c 94 87 bc
       -4.195931 -0.08414673 0.070763804 -0.016550325
000230 2c 0a fb bd bb 07 b7 be 42 7c fa 3c 62 6c be bd
       -0.122577995 -0.35748085 0.030576829 -0.09298016
000240 e0 09 36 c0 7d b5 e4 3c 26 3b 1e 3e 57 d9 8b be
       -2.8443527 0.027918572 0.15452251 -0.27314255
000250 03 4c a8 bf e4 3e 10 bc 15 27 b3 bd 82 70 43 3e
       -1.3148197 -0.008804057 -0.08747689 0.19085887
000260 7c f0 ce bd f2 cc 68 bc 22 0c 3a 3d 4d dd ab 3c
       -0.101044625 -0.014209019 0.045421727 0.020979548
000270 8b ec bc bf 9b 90 ac 3b a2 36 1c 3b d0 43 8c 3d
       -1.4759687 0.0052662618 0.0023836275 0.06848872
000280 26 23 e1 bf 98 8f 38 3d 3c 5d 39 be a3 0d a8 3e
       -1.7588851 0.045058817 -0.18101972 0.32822904
000290 64 38 51 3d fa c7 c3 bb 49 12 0d be 12 24 46 3e
       0.05107917 -0.005974767 -0.13776506 0.19349697
0002a0 7f 6e 0f bf 90 c0 91 bd 50 cc e6 bd 20 f6 b6 3b
       -0.5602798 -0.071168065 -0.11269438 0.0055835396
0002b0 60 7a 14 bd f0 ac e2 3c 90 de 20 3b 55 a5 7e 3e
       -0.03624952 0.027670354 0.002454672 0.24867757
0002c0 3c 13 ef bd 6b 04 21 be fd c2 4a bd 54 e5 a3 3d
       -0.116735905 -0.15724342 -0.04950236 0.08002725
0002d0 d1 21 d5 bd 5d 7f 2d 3d cd cb f0 bd 5b 3d 12 c0
       -0.104068406 0.04235779 -0.11757622 -2.2849948
0002e0 65 d3 d0 bb 2a 4d a5 3d fa a4 95 3d c9 3d a7 bf
       -0.0063728564 0.080713585 0.073068574 -1.306573
0002f0 5e 2a ab 3d 9e 3e fa bd 41 9b dc 3d 09 d5 8c 3d
       0.0835769 -0.122189745 0.107718 0.06876571
000300 c8 3f fe ba f3 e0 eb 3d 0d 8c 12 be df 2f ac bd
       -0.001939767 0.11517515 -0.14311238 -0.08407568
000310 10 50 95 3d c4 27 00 bd 53 64 c2 bc 15 2a 5b bd
       0.07290661 -0.031287923 -0.023729479 -0.05350693
000320 17 b7 b3 3d c2 26 f2 3c 73 3f 16 3b 1b 67 8d bd
       0.08775156 0.029559497 0.0022926002 -0.069044314
000330 fc 92 0e be da 6a 95 bc cd 31 fe 3c 80 65 6c bd
       -0.13923258 -0.018239427 0.031029606 -0.057713985
000340 81 7f 07 bd fc f0 a5 3d d2 c6 d1 3b 2d 54 02 bd
       -0.03308058 0.08102605 0.006401875 -0.031818558
000350 db 46 06 bd 5f bc e4 bd e5 00 fd bd 6f be 6d bd
       -0.032782417 -0.111687414 -0.12353686 -0.05804294
000360 5a 21 82 bd b2 84 eb 3b 91 39 2a bd 5a ac 42 bd
       -0.063540176 0.0071874494 -0.041558806 -0.04752765
000370 b1 06 eb 3d c1 be 19 3d 7c 34 aa 3d a0 dd 77 bd
       0.11475886 0.037535433 0.08310792 -0.060514092
000380 9b 98 55 bd 02 96 23 3d a8 e8 f7 bd 63 04 a4 bd
       -0.05214749 0.03993798 -0.121049225 -0.08008649
000390 e8 4d 45 bc ea ad 9e bd 0b d8 06 be 89 9c 8f 3d
       -0.0120425 -0.07748015 -0.13168351 0.070122786
0003a0 c6 86 80 3d e0 1d a6 3c 78 e9 b5 bc 3a 20 ed bd
       0.06275706 0.020277917 -0.022206053 -0.11578412
0003b0 c7 af aa bd 0c 59 02 3d 2c 0d 78 3d 1f cf 42 bd
       -0.08334308 0.031823203 0.060559437 -0.047560807
0003c0 f2 e4 4e bd 60 9b 02 3d 82 04 d6 bd 06 82 41 3d
       -0.050511308 0.03188646 -0.104500785 0.04724314
0003d0 54 3a 5f bd 0c dc 12 bd c9 cb 7f bd 24 6c 8b 3c
       -0.054498985 -0.035854384 -0.062450204 0.017019339
0003e0 8b 52 33 bd 8c 9b 59 3d b7 a0 17 bc ff c9 86 3d
       -0.04377989 0.053126857 -0.009254626 0.065814964
0003f0 96 23 f6 3d 2f 04 89 bd 90 cc fb bd aa 63 cd 3d
       0.12018506 -0.06690251 -0.122948766 0.10028775

fc2.bias f4 [64]
000000 c7 bd 1f 3f b3 21 e4 3e 2f a3 77 be 8c f2 3d 3d
       0.6239895 0.4455696 -0.24183343 0.04637389
000010 f4 02 29 3e 1d 17 14 be 0e 09 fe bc 56 ab e0 3d
       0.16505033 -0.14461942 -0.031010177 0.1097018
000020 a3 ae 96 3b 24 c5 08 c0 06 ff 6f c0 66 04 de bd
       0.004598455 -2.1370325 -3.7499404 -0.10840683
000030 7b e7 00 bd ff 4b 21 3f 22 c0 83 3e a7 68 85 be
       -0.031470757 0.63006586 0.25732523 -0.26056406
000040 ce 60 52 3f 41 92 3c be 7b 14 89 bd 6f d4 ea 3e
       0.8217896 -0.18415166 -0.066933595 0.458652
000050 b6 71 84 bf 33 8f 19 be 7c 20 d1 bf c9 d6 8a be
       -1.0347202 -0.14996032 -1.6338038 -0.27116993
000060 46 9a 91 bd ca 3d 95 be c1 5a 24 be 64 2b 00 3e
       -0.071095034 -0.29148704 -0.16050245 0.12516552
000070 01 11 b6 bd 91 c5 c1 3e e2 36 8e bd 79 c9 ed bd
       -0.08889962 0.37846044 -0.06944062 -0.116106935
000080 14 dd ab 3c 71 ff 31 bf ce cd c0 3c b1 ea 8c bf
       0.020979442 -0.695304 0.023535635 -1.1009122
000090 7e 29 3f be 3e e8 6f 3f c6 f5 6d bd 18 e5 4b bf
       -0.18668172 0.9371375 -0.058095716 -0.79646444
0000a0 e7 a8 fc bf 2d ed 9b bd f4 34 3f bf 24 4c be be
       -1.9739045 -0.07613597 -0.74690175 -0.37167466
0000b0 dd 45 47 bd a7 63 ed be 00 4a d6 bd d1 5a 29 be
       -0.04865061 -0.4636509 -0.10463333 -0.1653855
0000c0 a8 9e 26 be 6c d1 ca 3e 0a d7 fd bd 8c 39 e6 3e
       -0.1627146 0.396129 -0.12394531 0.4496578
0000d0 55 ef 94 3c 29 19 91 3e 6c b8 76 3f 04 a9 65 be
       0.018180529 0.28339508 0.96375155 -0.22427756
0000e0 98 6c ca 3e 46 98 88 3f f5 b4 6c be ef 50 7b 3d
       0.39535975 1.067147 -0.23115905 0.06135648
0000f0 c0 4c 08 3f 06 e7 69 bd c5 5b 3f 3f 51 3d 90 bf
       0.5324211 -0.057105087 0.74749404 -1.1268712

fc3.weight f4 [4, 64]
000000 e8 85 16 bf b9 99 d5 3e c2 6b a8 3c 2a 44 77 bd
       -0.58798075 0.41718844 0.020559195 -0.06036774
000010 c6 93 ee be c7 20 9c 3e a4 18 1c be 84 b6 1c 3d
       -0.46597117 0.30493757 -0.15243775 0.038259998
000020 8c 70 1c 3f c9 79 45 40 f4 83 0c c1 93 c6 03 bd
       0.6110923 3.0855582 -8.782215 -0.032171797
000030 e4 a8 6f 3d c3 37 ee bc 1a b3 03 bf 54 3d bf 3d
       0.058510676 -0.029079324 -0.5144516 0.09337869
000040 7f 55 a4 3e 2b 64 eb 3d e8 6b b4 bd 28 b2 24 3f
       0.32096478 0.11493715 -0.08809644 0.64334345
000050 88 63 80 bf 08 1b 48 3c 10 7a 12 c1 d0 65 44 3d
       -1.0030375 0.012213476 -9.1548 0.04794866
000060 3c 60 d4 3e e1 db c3 3d a1 e8 80 bd bd 5e 73 c1
       0.4147967 0.09563423 -0.062943704 -15.210629
000070 ff a2 4c 3d ec 77 b9 bf 95 e6 f3 3e 48 a3 9c 3a
       0.049960133 -1.4489722 0.47636858 0.0011950517
000080 88 d8 33 3d ae f7 ad bd f8 9e 9b bd 04 0a 3a 3f
       0.043907672 -0.08494507 -0.0759868 0.7267153
000090 2c d4 df bd 9f 8e e9 be 65 bd 71 bc 25 ac 41 bf
       -0.109291404 -0.45616624 -0.014754628 -0.75653297
0000a0 f3 f9 6b 3e 43 c3 40 bc 18 6e 73 bd ca 32 27 bc
       0.23044567 -0.011765304 -0.059431165 -0.01020498
0000b0 2f 07 2a bc c9 43 97 3d 3b 1a 1a bc 50 5b 4e 3d
       -0.010377689 0.07385976 -0.009405668 0.05038005
0000c0 da d5 e0 bd 56 08 65 be 06 da 9e bd 1a 6a a3 be
       -0.10978289 -0.22366461 -0.077564284 -0.31916887
0000d0 c2 e5 4d bd 00 e7 10 3f b8 3e d6 bd ee 97 8e 3f
       -0.050267942 0.5660248 -0.104611814 1.1140115
0000e0 2d f5 4a bf 06 5c 02 3f f9 06 6b 3c bf 9f 94 c1
       -0.7928036 0.50921667 0.014344924 -18.578001
0000f0 c6 b8 51 3f 69 25 8a 3d 50 b6 14 3e 01 0a 9b c1
       0.81922567 0.06745417 0.14522672 -19.379885
000100 c5 4d 08 3f 74 97 3d bf 89 cc 27 bc 0b e4 25 bd
       0.53243667 -0.74059224 -0.010241636 -0.04050068
000110 2d 5a 47 be 49 db c3 be de 04 61 bd ad 46 03 3e
       -0.19467993 -0.3825324 -0.054936282 0.1281993
000120 f7 ce 08 c2 1b 35 15 c0 95 81 c9 3e db 92 89 bd
       -34.202114 -2.3313663 0.39356676 -0.067174636
000130 aa 06 58 3e c6 df 7f 3e 9f 25 d5 3e 3a 7d a8 3b
       0.21096292 0.24987707 0.41630265 0.0051418813
000140 4a 17 25 be 41 0e 0b 3e 00 ba 83 bd 74 26 ae 3e
       -0.16122165 0.13579656 -0.06431961 0.34013712
000150 1f 12 32 bb 05 df 3f bd 80 32 92 3e d1 0c 8e 3d
       -0.0027171446 -0.046843547 0.28554153 0.06936038
000160 36 3a dc bf ed 9e 9e 3b c2 d7 16 bc 05 6d 27 3e
       -1.7205265 0.004840723 -0.009206714 0.16350181
000170 67 9d 4d bc 15 0d 3d 3f 5d c9 a0 be d6 98 c9 3d
       -0.012549735 0.73848087 -0.31403628 0.09843604
000180 24 55 95 bd 6a 85 b9 bd 83 29 7f bd db 14 86 c0
       -0.0729163 -0.0905865 -0.062295448 -4.190046
000190 09 f3 88 bd e1 93 8b be 5e ec b8 bd 00 92 e9 bf
       -0.0668698 -0.2726126 -0.090294585 -1.8247681
0001a0 f1 ce 8a 3e 61 51 2f 3c b2 6e 13 3e 9f 88 f6 3d
       0.2711101 0.010700555 0.14397696 0.12037777
0001b0 d6 e2 31 3d 3e 60 ba 3d e7 02 07 bd 9a 63 5d 3d
       0.04342922 0.09100388 -0.032961752 0.054050066
0001c0 fc 3a dc bc c9 95 a8 bd 74 b4 2d bd 66 98 ca bd
       -0.026883595 -0.08231694 -0.04240842 -0.09892349
0001d0 56 b6 a9 3d a2 05 77 bf 6c 7d 0f be 4b ee 01 3e
       0.08286731 -0.9649297 -0.14012688 0.12688558
0001e0 38 f2 ba 3e dd 28 01 3f 66 cc 34 3e 21 2d 02 3f
       0.36512923 0.5045298 0.17656097 0.5085011
0001f0 1e 24 a7 be d3 89 a2 3c 35 2e 9c 3e 20 34 3d 3e
       -0.32644743 0.01984111 0.30504003 0.18476915
000200 35 d1 83 3e a3 e4 0b 3f 67 d7 e9 3c a4 56 b6 3d
       0.2574555 0.54645747 0.028545095 0.08903244
000210 7c b1 7f 3f 59 43 24 3d ab 83 57 3c 99 45 8a be
       0.99880195 0.04010329 0.013153951 -0.27006224
000220 eb 59 30 be 8c 0d 76 40 1f 39 cb 3e 77 e3 1d 3d
       -0.17221801 3.8445768 0.39692017 0.038547006
000230 3d 0f f6 c1 1a 68 b2 be f2 3c ef 3d 0d c2 33 bd
       -30.75744 -0.34845048 0.11681546 -0.043886233
000240 25 45 ae be f5 ba 2e c1 b9 c6 84 bd e0 d4 9a bf
       -0.34037128 -10.920644 -0.06483216 -1.2096214
000250 16 fe d0 3e 21 37 c2 bc 86 f0 6d 3e 52 d6 f2 be
       0.40818852 -0.023707928 0.23236284 -0.47429138
000260 85 56 5c 3f 25 9b 04 bc fa 2a 35 bd d2 02 52 3d
       0.8606952 -0.00809363 -0.04423044 0.05127222
000270 d5 8d 8c bd 8b ed 48 3f 0e 61 2e bd 75 85 37 3d
       -0.0686299 0.7848746 -0.042573027 0.04480501
000280 6b 82 12 bc 37 96 f4 bd 29 5d 6c bd 36 a8 4a 3f
       -0.008942227 -0.11942714 -0.057706032 0.7916292
000290 3c 29 77 bd c7 1a 70 3f ea 9a 4f bd ee 24 2d 40
       -0.06034206 0.9379086 -0.050684847 2.705379
0002a0 8f d1 bb c0 5c 54 32 bd 7b bd fe be 9d 06 f5 be
       -5.869331 -0.043537483 -0.49753937 -0.47856608
0002b0 a7 69 0c 3d d3 ce 71 be 65 23 93 3a 05 8e ad 3c
       0.034280445 -0.23614053 0.0011225758 0.021185884
0002c0 ac 3f ac bd 5d f6 5e 3e 40 2d bb 3c 25 9b 0e 3f
       -0.08410582 0.21773668 0.022848725 0.5570548
0002d0 a0 1d d1 bb cc 5d 26 3f 91 11 68 3f 29 d5 26 c0
       -0.0063817054 0.6498687 0.90651804 -2.6067603
0002e0 91 d8 77 3e 34 69 df bf c3 4a b8 c1 89 ed 13 3e
       0.24203707 -1.745398 -23.036505 0.14446081
0002f0 02 e3 78 be 83 b3 ca bc b7 de 74 bf 74 44 43 3e
       -0.24305347 -0.024743801 -0.95652336 0.19069082
000300 ef fc 0f be 58 21 16 be 8a 1f 95 bf 2e ce 9f bd
       -0.1406133 -0.14661157 -1.165025 -0.078029975
000310 07 4c d1 bd df 87 0b be ab 84 88 3d 49 fb 84 c0
       -0.10219579 -0.1362605 0.066659294 -4.1556745
000320 8e e7 44 be 66 2c e7 be c9 54 aa bd ff 6d a1 3d
       -0.19228956 -0.4515106 -0.08316953 0.07882308
000330 7d 9f 7e bf 4b 03 a7 be 52 5a 61 be 14 9c 7d be
       -0.9946211 -0.326197 -0.2200711 -0.2476657
000340 bf 73 c7 be 02 7c 5c be 92 b5 ce 3c 68 d6 e9 be
       -0.38955495 -0.2153168 0.025233064 -0.4567139
000350 63 23 37 be d4 3b b7 3c 27 f5 0f c0 03 ad ab be
       -0.17884593 0.022367395 -2.249338 -0.33530435
000360 2d 51 a6 3c 02 6f 9d c0 02 dd a9 3d fc fe de be
       0.02030238 -4.9198008 0.08294107 -0.43553913
000370 69 19 3e 3d 1b f8 9a be c6 6a 89 bd 61 b4 6e bf
       0.04641095 -0.30267414 -0.067098185 -0.93243986
000380 fb c1 c7 bc 3f a9 29 c1 45 7f b0 bd a5 86 0d c0
       -0.02438449 -10.60382 -0.08618025 -2.211343
000390 56 9d 50 bd 67 28 af bd d8 b5 b5 3d 4c 7e 3e be
       -0.050931297 -0.08552628 0.088725746 -0.18602866
0003a0 22 42 db c0 b5 d4 e5 be d1 2e 8b c0 0c d7 93 be
       -6.851823 -0.44888845 -4.349465 -0.28875005
0003b0 88 57 e7 bd fd 89 c4 bf b1 60 9f 3d 55 56 a0 3c
       -0.11295992 -1.5354611 0.07782114 0.019572416
0003c0 86 36 d6 bd 30 7c 87 c0 4b e7 f9 bc 99 d1 47 c0
       -0.10459618 -4.2339096 -0.030505797 -3.1221678
0003d0 ec 4d 1e 3d cc 40 00 be 64 7c 17 be 81 2b 8f be
       0.03864853 -0.12524718 -0.14793545 -0.27962878
0003e0 fe 44 02 c1 5a b9 95 bf a4 2c b2 bd 10 94 9e be
       -8.141844 -1.169719 -0.08699921 -0.30972338
0003f0 23 10 4d be 82 a9 2a 3c 48 23 f0 be 19 37 ac bf
       -0.20025687 0.01041639 -0.46901917 -1.3454314

fc3.bias f4 [4]
000000 0a a3 11 bd b4 21 bc 3d 69 03 99 bd c6 ed 9f c1
       -0.035555877 0.09186116 -0.074713536 -19.9911
