custom_grid/data/ppo-0.0001/ppo_iter_550.pth (torch, 21521 bytes, 6 tensors)

fc1.weight f4 [64, 2]
00000000: 4708 f6bd b536 d6be 9453 ba3d 62a3 df3e
00000010: d926 303e 4762 9c3e 7fed b9be 8e06 bc3e
00000020: 1f19 143f 77b7 07bf 1506 d63e d53d 743d
00000030: 96d0 70bb ac8b 20bd 6da5 173f 68bc b5be
00000040: 3341 e33e 28c4 863d f5b6 85be 6733 523e
00000050: 8141 1cbc 74bf b5be 1e58 353c 7b62 243d
00000060: 2ef2 8dbe 1159 06bf 2059 5fbe 8ab7 90bd
00000070: 7aac 523e c923 2cc0 401d 6a3f c885 c8bf
00000080: 0cf9 a539 4452 e4bd 02b6 5cbd feb0 fc3e
00000090: 271e 2d3b 383d 7abe 3ff1 c33c 4a4d 06bf
000000a0: 9471 a23e 8297 40be f882 3f3d 4219 f13e
000000b0: 390d 173f 7571 e5be 052f d13c b666 31bd
000000c0: 1e4a 413f 38c7 83bf eca1 80be b3c2 1e3e
000000d0: c8b1 96b8 fe09 f8bc bcaf b93d c426 043f
000000e0: 6750 853e 690d 25be 4d55 8b3d de6e 47bf
000000f0: 3354 d23d fc1f dcbf 8a31 123f d3b2 04bf
00000100: 225a d53e 2ebf 53bd 4437 5e3e 961f 87be
00000110: 79d4 65be 65b1 29c0 2b60 073f b9f9 263e
00000120: 74d2 113f ded9 5bbf 74bf ccbe 8944 59bf
00000130: a323 86be 54dd de3d 9493 3437 d830 a9bc
00000140: c8ad dfbe b21f 57bf 1912 0f3f 76e1 09bf
00000150: 3ffd 173f 4c0a d23d bcc6 3c3f 0348 82bf
00000160: 4cfe 053c 9d20 82be e275 093f b6c0 e4be
00000170: 657c 543e fc82 ab3e 9f89 bdbe fea9 bfbd
00000180: 8e3f 1b3f 853a 43bc c5b1 853c 5102 7dbf
00000190: 124a 053c e5e7 22bf 8185 95be 9079 8ebf
000001a0: 4022 ce3d e078 dcbf b9f8 c8be 5132 a4be
000001b0: e3b7 583d 65b0 10bf b595 033b a1a8 74bd
000001c0: 6399 413f 370c 09c0 f171 6d3e 905a 83bf
000001d0: 4a63 143f 10e7 c5bf 7732 0abf 9513 4dbf
000001e0: 396c 003b 3bb7 86be 1929 c73d bbfd e8bf
000001f0: ca4f 36be 733b 6cbe 81a1 fcbc 679e 38bf
-0.120132975 -0.41838613 0.090979725 0.4367934 0.17202319 0.3054373 -0.36314008 0.3672375
0.5785083 -0.5301432 0.41801515 0.05962928 -0.003674542 -0.0391957 0.59236795 -0.35495305
0.4438568 0.065803826 -0.26116148 0.20527421 -0.009537102 -0.3549763 0.011068372 0.04013298
-0.2772383 -0.52479655 -0.21811342 -0.07066257 0.20573607 -2.6896842 0.9145088 -1.5665827
0.00031656807 -0.111485034 -0.053884514 0.49353784 0.0026415677 -0.24437416 0.023918746 -0.52461684
0.31727278 -0.18807796 0.04675576 0.47089583 0.5900455 -0.44813123 0.025535116 -0.043310843
0.7550372 -1.0295172 -0.25123537 0.1550396 -7.185672e-05 -0.030278202 0.09066722 0.5162165
0.26037905 -0.16118397 0.06803379 -0.77903545 0.10269966 -1.7197261 0.5710684 -0.51835364
0.41670328 -0.051695995 0.2170077 -0.26391286 -0.22444333 -2.6514523 0.52881116 0.16306199
0.5696175 -0.85879314 -0.39989817 -0.848702 -0.26199064 0.10882059 1.0763197e-05 -0.020653173
-0.43687272 -0.8403274 0.5588699 -0.5385965 0.593708 0.1025587 0.73740745 -1.0178226
0.008178305 -0.25415507 0.536955 -0.44678277 0.20750578 0.3349837 -0.3701906 -0.09358595
0.6064385 -0.011915808 0.016320119 -0.9883166 0.0081353355 -0.6363509 -0.29203418 -1.1130848
0.100651264 -1.7224388 -0.3925226 -0.32069638 0.052909743 -0.56519157 0.0020078246 -0.05973113
0.75624675 -2.1413705 0.23187996 -1.0262012 0.57964003 -1.546114 -0.53983253 -0.80108005
0.0019595756 -0.2631167 0.09724636 -1.8202432 -0.17803875 -0.23069553 -0.03083873 -0.721167

fc1.bias f4 [64]
00000000: c7f8 3b3c 6e88 35c0 0788 4c40 4934 b7bf
00000010: 61b3 cabf 1ba1 c73f 412a 73bd eef3 62c0
00000020: 924f 74bf 7f3f 25c0 414f db3e 63db cfbf
00000030: 994e b73f 67b2 6bc0 d821 cdbd ba6c a4bf
00000040: 78d6 11bb 8c75 52c0 684c 4abc 4ec3 1b40
00000050: 2ed0 2940 8233 8ac0 0a5b 713f 3d70 dabe
00000060: 7b22 10c0 f2d7 51c0 0cea d8bb 35e2 74c0
00000070: b6e1 0c40 232b d23e 65e3 0bbe 4602 34c0
00000080: be28 2540 aad6 f5bf c5f1 5dbe 05d4 30c0
00000090: fed1 943f bc11 33bf cdbd 34bf 5765 fcba
000000a0: a450 6bbe 30fe 26c0 3da8 59c0 6179 0cc0
000000b0: 453c 21bc 0ee2 46c0 cee0 67c0 3f27 99c0
000000c0: 25e4 58c0 aecd 01bd babc 0dbc b702 8abe
000000d0: ab92 f5bd c21a ab3f 5344 ea3f 0080 c8be
000000e0: 6bf1 a03f 1ad6 3abd 8047 fe3e b7cf d0bf
000000f0: 91bc 3fbe 02b2 e3bd 1682 07c0 6348 cdbe
0.011472887 -2.836452 3.1958025 -1.4312831 -1.5835992 1.559604 -0.05936647 -3.5461383
-0.95433915 -2.5820005 0.42833903 -1.6238827 1.4320861 -3.6827638 -0.10016221 -1.2845681
-0.0022253077 -3.2884245 -0.012347318 2.4337955 2.6533313 -4.3187876 0.9427954 -0.42663756
-2.2521045 -3.2788053 -0.0066196974 -3.8263066 2.2012763 0.41048536 -0.13660963 -2.8126388
2.5806117 -1.9206135 -0.21674259 -2.7629406 1.1626585 -0.69948936 -0.70602113 -0.0019256276
-0.2297998 -2.6092644 -3.4008934 -2.1949084 -0.0098410295 -3.1075473 -3.623096 -4.786041
-3.3889248 -0.031690292 -0.008650953 -0.26955196 -0.11990865 1.3367541 1.8302101 -0.39160156
1.2573675 -0.04561434 0.49663925 -1.631339 -0.18724276 -0.11117937 -2.1173148 -0.4009429

fc2.weight f4 [64, 64]
00000000: fced 523e 18ff 6d3f d7fe 963e e644 c3bd
00000010: 3cff 353f db67 053f 9a29 8dbf ec6d 283d
00000020: 05c7 07c1 1ddd 293e b110 6fbe 7338 cd3e
00000030: 719d 4fbd 218f d7bf c1f3 8440 a216 58bf
00000040: 00a0 3dc0 f4e0 cf3e 3619 0c3e 3119 493e
00000050: aaa2 3c3e 86ef 0fc1 173d 87be e856 5dbe
00000060: d8bc 94bd 7d73 07c0 834b ce3d 7bd6 23c0
00000070: 3b0c 2e3e a904 573d 146b 533e fd1a b8bf
00000080: 9039 3f3f 9e11 1c3f 4c1f 953e ebf5 6ec0
00000090: 8e5b b5be ce09 2ebd 7458 70be ca09 f73d
000000a0: 531a 303e b78a a1bf 7c06 003e 0e46 973e
000000b0: 435d c63d f9bc 0fbe 7d60 90be bbcc 9ebf
000000c0: 871c 9b3e 473b 2a3d 4d10 203d a8bd 10be
000000d0: cbd1 c13f b435 ebbe d0b5 83be dbb7 e1bf
000000e0: 4eca 32bf acba 91be af76 a6bf aebb 983e
000000f0: 68ac b4bc 9906 8b3e 528e 3c3e 7cfd fbbd
00000100: f2f8 073f bb2b 15c0 7b0f 5f3e 27d9 803e
00000110: 0772 73c0 6389 2fbf 0c56 73bf e9c4 8cbd
00000120: 81bb b8be bab8 b5be cd6a f2be 78bf 613f
00000130: ecf2 31bf c429 5fbd 3d8a 07c1 1ee6 e1c0
00000140: f5fb b4bf 7309 c73f f9c8 ab3d 6b5b 203f
00000150: 9412 89be 945c 2bc0 a59f 503e 6806 04c0
00000160: 47c7 6ac0 2018 01c0 249f 3a3b 94e9 44c0
00000170: 1b97 ddbd 8008 df3d fa4f 8ac0 c80c d23d
00000180: 013c 7e3c 59bb 65bf 2ddc 693e 45d3 bdbd
00000190: bc09 97be 7a5b 48be 8a3c 4b3d 4cb6 c6bc
000001a0: c772 b83e a6e4 75bb 27f2 19bd 808c c6c0
000001b0: df86 70bc 0034 d9bc b758 47be 0233 063e
000001c0: 6cd3 b1be 1969 f93e 1ac3 21be c630 253f
000001d0: bba0 5fc0 b70f efbf 93f1 eebe 1b48 edbe
000001e0: fc55 b33d 4353 0bbf d07c 133f 4129 923e
000001f0: f4a0 ab3d de6d 71be bb2b a1bf f0a9 fc3b
00000200: 1cba b5bd b6e3 9fbd 7fd7 a8bb 1eb3 a6bb
00000210: 76fe a1bd 21e6 cb3e a5bc 11c0 04a4 fcbd
00000220: 1145 86c0 1f55 acbd 9dec 903d 8c94 87bc
00000230: 2c0a fbbd bb07 b7be 427c fa3c 626c bebd
00000240: e009 36c0 7db5 e43c 263b 1e3e 57d9 8bbe
00000250: 034c a8bf e43e 10bc 1527 b3bd 8270 433e
00000260: 7cf0 cebd f2cc 68bc 220c 3a3d 4ddd ab3c
00000270: 8bec bcbf 9b90 ac3b a236 1c3b d043 8c3d
00000280: 2623 e1bf 988f 383d 3c5d 39be a30d a83e
00000290: 6438 513d fac7 c3bb 4912 0dbe 1224 463e
000002a0: 7f6e 0fbf 90c0 91bd 50cc e6bd 20f6 b63b
000002b0: 607a 14bd f0ac e23c 90de 203b 55a5 7e3e
000002c0: 3c13 efbd 6b04 21be fdc2 4abd 54e5 a33d
000002d0: d121 d5bd 5d7f 2d3d cdcb f0bd 5b3d 12c0
000002e0: 65d3 d0bb 2a4d a53d faa4 953d c93d a7bf
000002f0: 5e2a ab3d 9e3e fabd 419b dc3d 09d5 8c3d
00000300: c83f feba f3e0 eb3d 0d8c 12be df2f acbd
00000310: 1050 953d c427 00bd 5364 c2bc 152a 5bbd
00000320: 17b7 b33d c226 f23c 733f 163b 1b67 8dbd
00000330: fc92 0ebe da6a 95bc cd31 fe3c 8065 6cbd
00000340: 817f 07bd fcf0 a53d d2c6 d13b 2d54 02bd
00000350: db46 06bd 5fbc e4bd e500 fdbd 6fbe 6dbd
00000360: 5a21 82bd b284 eb3b 9139 2abd 5aac 42bd
00000370: b106 eb3d c1be 193d 7c34 aa3d a0dd 77bd
00000380: 9b98 55bd 0296 233d a8e8 f7bd 6304 a4bd
00000390: e84d 45bc eaad 9ebd 0bd8 06be 899c 8f3d
000003a0: c686 803d e01d a63c 78e9 b5bc 3a20 edbd
000003b0: c7af aabd 0c59 023d 2c0d 783d 1fcf 42bd
000003c0: f2e4 4ebd 609b 023d 8204 d6bd 0682 413d
000003d0: 543a 5fbd 0cdc 12bd c9cb 7fbd 246c 8b3c
000003e0: 8b52 33bd 8c9b 593d b7a0 17bc ffc9 863d
000003f0: 9623 f63d 2f04 89bd 90cc fbbd aa63 cd3d
0.20598596 0.9296737 0.29491302 -0.09534626 0.7109258 0.52111596 -1.1028321 0.041120455
-8.486089 0.16588254 -0.23346211 0.4008213 -0.050687257 -1.6840554 4.154755 -0.84409535
-2.9628906 0.40601313 0.13681492 0.19638516 0.18421426 -8.995977 -0.26413795 -0.21615183
-0.072625816 -2.1164238 0.100729965 -2.5599658 0.16996853 0.05249468 0.20646316 -1.4383236
0.7469721 0.6096438 0.2912544 -3.7337596 -0.35421413 -0.04248982 -0.23471242 0.12062414
0.17197542 -1.2620457 0.12502474 0.29545635 0.09685757 -0.14036931 -0.28198615 -1.2406229
0.30295202 0.041560438 0.039078046 -0.14134848 1.5142149 -0.4593941 -0.2572465 -1.7634233
-0.6983994 -0.28462732 -1.3004969 0.29830688 -0.022054866 0.2715347 0.18413666 -0.12304208
0.53114235 -2.330794 0.21783249 0.25165674 -3.8038347 -0.6856901 -0.9505317 -0.06873495
-0.36080554 -0.35492498 -0.47347108 0.88182783 -0.69511294 -0.05448319 -8.47125 -7.0593405
-1.4139391 1.5549759 0.08387942 0.6263949 -0.26771986 -2.6775255 0.203734 -2.062891
-3.668413 -2.0170975 0.0028476203 -3.0767565 -0.10819837 0.10890293 -4.322263 0.10256344
0.015517236 -0.89738995 0.22837897 -0.09268812 -0.29499614 -0.19566146 0.04961828 -0.024256848
0.36025068 -0.0037520318 -0.03758445 -6.204651 -0.014680593 -0.026514053 -0.19467436 0.13105395
-0.34731615 0.48712996 -0.15797082 0.6452755 -3.4941852 -1.8676671 -0.46668682 -0.46344075
0.087566346 -0.5442392 0.57612324 0.285471 0.08380309 -0.23577067 -1.259147 0.007710688
-0.08873388 -0.07807104 -0.0051526423 -0.0050872704 -0.07909863 0.39824012 -2.277139 -0.12335971
-4.195931 -0.08414673 0.070763804 -0.016550325 -0.122577995 -0.35748085 0.030576829 -0.09298016
-2.8443527 0.027918572 0.15452251 -0.27314255 -1.3148197 -0.008804057 -0.08747689 0.19085887
-0.101044625 -0.014209019 0.045421727 0.020979548 -1.4759687 0.0052662618 0.0023836275 0.06848872
-1.7588851 0.045058817 -0.18101972 0.32822904 0.05107917 -0.005974767 -0.13776506 0.19349697
-0.5602798 -0.071168065 -0.11269438 0.0055835396 -0.03624952 0.027670354 0.002454672 0.24867757
-0.116735905 -0.15724342 -0.04950236 0.08002725 -0.104068406 0.04235779 -0.11757622 -2.2849948
-0.0063728564 0.080713585 0.073068574 -1.306573 0.0835769 -0.122189745 0.107718 0.06876571
-0.001939767 0.11517515 -0.14311238 -0.08407568 0.07290661 -0.031287923 -0.023729479 -0.05350693
0.08775156 0.029559497 0.0022926002 -0.069044314 -0.13923258 -0.018239427 0.031029606 -0.057713985
-0.03308058 0.08102605 0.006401875 -0.031818558 -0.032782417 -0.111687414 -0.12353686 -0.05804294
-0.063540176 0.0071874494 -0.041558806 -0.04752765 0.11475886 0.037535433 0.08310792 -0.060514092
-0.05214749 0.03993798 -0.121049225 -0.08008649 -0.0120425 -0.07748015 -0.13168351 0.070122786
0.06275706 0.020277917 -0.022206053 -0.11578412 -0.08334308 0.031823203 0.060559437 -0.047560807
-0.050511308 0.03188646 -0.104500785 0.04724314 -0.054498985 -0.035854384 -0.062450204 0.017019339
-0.04377989 0.053126857 -0.009254626 0.065814964 0.12018506 -0.06690251 -0.122948766 0.10028775

fc2.bias f4 [64]
00000000: 754b 1c3f 2a58 ef3e 2fa3 77be 8cf2 3d3d
00000010: d075 2b3e 2019 0bbe 0e09 febc fdb1 bb3d
00000020: a19d 053c bf32 09c0 2096 6fc0 6604 debd
00000030: b3f8 02bd 1c0c 1f3f cac3 753e 5b55 86be
00000040: c591 523f 4192 3cbe 7b14 89bd 97b5 e93e
00000050: 6c7b 83bf 338f 19be 7c20 d1bf c9d6 8abe
00000060: 9b21 afbd ca3d 95be c15a 24be 82ff fe3d
00000070: 0111 b6bd 2780 ba3e b8b9 51bd 79c9 edbd
00000080: 14dd ab3c 71ff 31bf cecd c03c 63e1 8dbf
00000090: 7e29 3fbe e3dd 773f c6f5 6dbd 18e5 4bbf
000000a0: eac2 fabf 2ded 9bbd 2cd8 45bf 244c bebe
000000b0: dd45 47bd a763 edbe 004a d6bd d15a 29be
000000c0: a89e 26be 71e4 c93e 0ad7 fdbd fe56 e23e
000000d0: 55ef 943c 34a7 953e 2725 7c3f 5429 66be
000000e0: 6f5a b83e 280c 833f 4ea8 63be ddd7 8e3d
000000f0: 8f48 103f 06e7 69bd 388f 3c3f b59f 90bf
0.6105264 0.4674695 -0.24183343 0.04637389 0.1674416 -0.13583803 -0.031010177 0.09164808
0.008155257 -2.1437223 -3.743538 -0.10840683 -0.03197546 0.6212785 0.24000469 -0.26236996
0.82253677 -0.18415166 -0.066933595 0.45646355 -1.027204 -0.14996032 -1.6338038 -0.27116993
-0.085513316 -0.29148704 -0.16050245 0.12451078 -0.08889962 0.36425897 -0.051202506 -0.116106935
0.020979442 -0.695304 0.023535635 -1.1084408 -0.18668172 0.9682295 -0.058095716 -0.79646444
-1.9590733 -0.07613597 -0.7728298 -0.37167466 -0.04865061 -0.4636509 -0.10463333 -0.1653855
-0.1627146 0.394321 -0.12394531 0.44206995 0.018180529 0.29229128 0.9849419 -0.22476703
0.36006495 1.0238085 -0.22232172 0.069747664 0.56360716 -0.057105087 0.73656034 -1.1298739

fc3.weight f4 [4, 64]
00000000: f83d 13bf 892d da3e c26b a83c 2a44 77bd
00000010: 67b9 eabe 9ed9 9d3e a418 1cbe a380 833d
00000020: e21e aa3e ad3f 3e40 db8e 0cc1 93c6 03bd
00000030: e641 603d de06 4dbc eb2e fdbe cf15 b83d
00000040: 8b23 b03e 2b64 eb3d e86b b4bd ab31 2a3f
00000050: c201 7cbf 081b 483c 107a 12c1 d065 443d
00000060: cf70 da3e e1db c33d a1e8 80bd a6b0 74c1
00000070: ffa2 4c3d 4df2 b8bf caea fe3e 48a3 9c3a
00000080: 88d8 333d aef7 adbd f89e 9bbd 5372 303f
00000090: 2cd4 dfbd 3798 dbbe 65bd 71bc 25ac 41bf
000000a0: 1a0a 763e 43c3 40bc ec25 33bd ca32 27bc
000000b0: 2f07 2abc c943 973d 3b1a 1abc 505b 4e3d
000000c0: dad5 e0bd d84e 5ebe 06da 9ebd 0f59 96be
000000d0: c2e5 4dbd 501b 153f 3770 c6bd 838a 903f
000000e0: c344 46bf 340e 033f da60 073c c69f 94c1
000000f0: 2d8e 563f 6925 8a3d 5464 293e 4dd0 9ac1
00000100: 9cf0 fc3e 7737 41bf 89cc 27bc 0be4 25bd
00000110: 7c95 4ebe 5b29 c1be de04 61bd c823 d83d
00000120: cf93 08c2 a398 10c0 a77e cd3e db92 89bd
00000130: 4fe0 5b3e a5c0 753e 2035 d63e 9080 0d3c
00000140: 652e 3cbe 410e 0b3e 00ba 83bd d517 a13e
00000150: 8f23 08bc 05df 3fbd 8032 923e d10c 8e3d
00000160: 65b7 d9bf ed9e 9e3b c2d7 16bc 4cdf 0d3e
00000170: 679d 4dbc 99ff 3a3f 445f 9fbe d698 c93d
00000180: 2455 95bd 6a85 b9bd 8329 7fbd d608 85c0
00000190: 09f3 88bd 94bc abbe 5eec b8bd 0092 e9bf
000001a0: 83c9 853e 6151 2f3c 2061 003e 9f88 f63d
000001b0: d6e2 313d 3e60 ba3d e702 07bd 9a63 5d3d
000001c0: fc3a dcbc 0500 c6bd 74b4 2dbd d2c4 d0bd
000001d0: 56b6 a93d 6048 74bf 08ef 17be b716 e33d
000001e0: d72a 9c3e 9f12 003f 6a06 3b3e e4ac ed3e
000001f0: c820 b0be d389 a23c f664 913e 51bc 313e
00000200: 429f 963e bf7d 253f 67d7 e93c a456 b63d
00000210: 3ac0 7e3f 11ae 013d ab83 573c 1d38 87be
00000220: 1180 833e c77d 7b40 6680 c33e 77e3 1d3d
00000230: 4f1e f6c1 d5c0 b6be 7594 d23d 0dc2 33bd
00000240: bbec aabe f5ba 2ec1 b9c6 84bd 34ab 99bf
00000250: a8a2 d33e 2137 c2bc 86f0 6d3e 52d6 f2be
00000260: b9c6 543f 259b 04bc fa2a 35bd 031d 9c3d
00000270: d58d 8cbd ecae 483f 43da 6cbd 7585 373d
00000280: 6b82 12bc 3796 f4bd 295d 6cbd 6860 523f
00000290: 3c29 77bd e6d3 ac3f ea9a 4fbd ee24 2d40
000002a0: 0358 bcc0 5c54 32bd b24b f8be 9d06 f5be
000002b0: a769 0c3d d3ce 71be 6523 933a 058e ad3c
000002c0: ac3f acbd 4888 663e 402d bb3c 3ec6 0b3f
000002d0: a01d d1bb 237c 213f 83d5 7d3f 63c6 25c0
000002e0: c8ea 953e c4d6 d8bf f54f b8c1 cbf2 543e
000002f0: 3e45 75be 83b3 cabc a9c5 73bf 9fcf 4a3e
00000300: effc 0fbe 5821 16be 8a1f 95bf 2ece 9fbd
00000310: 074c d1bd 458b 0bbe ab84 883d 49fb 84c0
00000320: 8ee7 44be 662c e7be c954 aabd ff6d a13d
00000330: 7d9f 7ebf 4b03 a7be 525a 61be 149c 7dbe
00000340: bf73 c7be 027c 5cbe 92b5 ce3c 68d6 e9be
00000350: 6323 37be d43b b73c 27f5 0fc0 03ad abbe
00000360: 2d51 a63c 026f 9dc0 02dd a93d fcfe debe
00000370: 6919 3e3d 1bf8 9abe c66a 89bd 61b4 6ebf
00000380: fbc1 c7bc 3fa9 29c1 457f b0bd a586 0dc0
00000390: 569d 50bd 6728 afbd d8b5 b53d 4c7e 3ebe
000003a0: 2242 dbc0 b5d4 e5be d12e 8bc0 0cd7 93be
000003b0: 8857 e7bd fd89 c4bf b160 9f3d 5556 a03c
000003c0: 8636 d6bd 307c 87c0 4be7 f9bc 99d1 47c0
000003d0: ec4d 1e3d cc40 00be 647c 17be 812b 8fbe
000003e0: fe44 02c1 5ab9 95bf a42c b2bd 1094 9ebe
000003f0: 2310 4dbe 82a9 2a3c 4823 f0be 1937 acbf
-0.5751643 0.42612866 0.020559195 -0.06036774 -0.45844576 0.3083009 -0.15243775 0.0642102
0.33226687 2.9726365 -8.784877 -0.032171797 0.054750346 -0.012513844 -0.49449858 0.08988535
0.34402117 0.11493715 -0.08809644 0.6648204 -0.9844018 0.012213476 -9.1548 0.04794866
0.4266419 0.09563423 -0.062943704 -15.293127 0.049960133 -1.4448944 0.49788505 0.0011950517
0.043907672 -0.08494507 -0.0759868 0.68924445 -0.109291404 -0.42889568 -0.014754628 -0.75653297
0.24027291 -0.011765304 -0.043737337 -0.01020498 -0.010377689 0.07385976 -0.009405668 0.05038005
-0.10978289 -0.21709764 -0.077564284 -0.2936482 -0.050267942 0.582448 -0.09689372 1.129227
-0.7744867 0.5119355 0.008262837 -18.578014 0.83810693 0.06745417 0.16542178 -19.35171
0.4940232 -0.7547526 -0.010241636 -0.04050068 -0.20174211 -0.37726864 -0.054936282 0.105537
-34.144344 -2.2593162 0.4013569 -0.067174636 0.21472286 0.2399927 0.41837406 0.008636609
-0.18377073 0.13579656 -0.06431961 0.31463495 -0.008309259 -0.046843547 0.28554153 0.06936038
-1.7009093 0.004840723 -0.009206714 0.13854712 -0.012549735 0.7304626 -0.3112737 0.09843604
-0.0729163 -0.0905865 -0.062295448 -4.1573286 -0.0668698 -0.3354231 -0.090294585 -1.8247681
0.26130304 0.010700555 0.1253705 0.12037777 0.04342922 0.09100388 -0.032961752 0.054050066
-0.026883595 -0.096679725 -0.04240842 -0.101937905 0.08286731 -0.95422935 -0.14837277 0.11088317
0.30501434 0.50028414 0.18264166 0.46420968 -0.3440001 0.01984111 0.2839734 0.17356993
0.2941838 0.64645 0.028545095 0.08903244 0.99512064 0.031660143 0.013153951 -0.2641
0.25683644 3.9295518 0.38183898 0.038547006 -30.7648 -0.35693994 0.10282222 -0.043886233
-0.33383736 -10.920644 -0.06483216 -1.2005372 0.41335034 -0.023707928 0.23236284 -0.47429138
0.83115727 -0.00809363 -0.04423044 0.07622721 -0.0686299 0.7839191 -0.057825338 0.04480501
-0.008942227 -0.11942714 -0.057706032 0.82178354 -0.06034206 1.3502166 -0.050684847 2.705379
-5.8857436 -0.043537483 -0.4849525 -0.47856608 0.034280445 -0.23614053 0.0011225758 0.021185884
-0.08410582 0.22512925 0.022848725 0.5459937 -0.0063817054 0.6308004 0.9915392 -2.5902336
0.29280686 -1.6940541 -23.039042 0.20795743 -0.23952195 -0.024743801 -0.9522348 0.19805764
-0.1406133 -0.14661157 -1.165025 -0.078029975 -0.10219579 -0.13627346 0.066659294 -4.1556745
-0.19228956 -0.4515106 -0.08316953 0.07882308 -0.9946211 -0.326197 -0.2200711 -0.2476657
-0.38955495 -0.2153168 0.025233064 -0.4567139 -0.17884593 0.022367395 -2.249338 -0.33530435
0.02030238 -4.9198008 0.08294107 -0.43553913 0.04641095 -0.30267414 -0.067098185 -0.93243986
-0.02438449 -10.60382 -0.08618025 -2.211343 -0.050931297 -0.08552628 0.088725746 -0.18602866
-6.851823 -0.44888845 -4.349465 -0.28875005 -0.11295992 -1.5354611 0.07782114 0.019572416
-0.10459618 -4.2339096 -0.030505797 -3.1221678 0.03864853 -0.12524718 -0.14793545 -0.27962878
-8.141844 -1.169719 -0.08699921 -0.30972338 -0.20025687 0.01041639 -0.46901917 -1.3454314

fc3.bias f4 [4]
00000000: 2fa9 81bc 147c 133d 5e62 b2bc c6ed 9fc1
-0.015827743 0.036007002 -0.02177542 -19.9911
