custom_grid/data/zzppo-0.9/ppo_iter_350.pth (torch, 21521 bytes, 6 tensors)

fc1.weight f4 [64, 2]
-0.10576344 -0.4170125 0.10236441 0.4346102 0.17443429 0.31518888 -0.35155672 0.36782613
0.59369314 -0.52453285 0.39722806 0.050588448 -0.0068961494 -0.037174363 0.6033195 -0.35436624
0.3705457 0.025715725 -0.2604464 0.19458422 -0.004150498 -0.36318046 0.011068372 0.04013298
-0.28577977 -0.5165843 -0.21811342 -0.07066257 0.19517837 -2.6264012 0.8673889 -1.6061198
-5.2490424e-05 -0.111485034 -0.036073707 0.48407748 0.003889527 -0.24437416 0.028978182 -0.52041507
0.31799874 -0.17661868 0.040445726 0.47657812 0.6069302 -0.43340445 0.024961174 -0.043310843
0.8325026 -0.95743984 -0.24803433 0.15932678 -0.0005465364 -0.030278202 0.094935276 0.5212432
0.27098995 -0.13686903 0.07407428 -0.8291208 0.077905945 -1.7197261 0.6085936 -0.49593195
0.37833542 -0.049280465 0.20861834 -0.2680293 -0.24554607 -2.644683 0.5191854 0.18825097
0.55628544 -0.8721301 -0.38040304 -0.8612977 -0.2589624 0.10617134 1.0763197e-05 -0.020653173
-0.45336592 -0.8237017 0.6217809 -0.48658243 0.59194845 0.09427936 0.8215839 -0.9379806
0.013700005 -0.25415507 0.5715096 -0.42636034 0.23314893 0.3416446 -0.37613115 -0.085280634
0.6754719 0.035624612 0.014602872 -0.9883166 0.015701309 -0.6363509 -0.27106243 -1.1132189
0.07173782 -1.7224388 -0.37595904 -0.34589314 0.09792637 -0.53569853 0.0020078246 -0.05973113
0.80630994 -2.0989654 0.19027953 -1.0606577 0.56923884 -1.5551519 -0.5187042 -0.8233373
0.0019595756 -0.2631167 0.06753052 -1.8202432 -0.15881272 -0.25591317 -0.0458713 -0.721167
00000000: 819a d8bd aa82 d5be 6fa4 d13d 3a85 de3e
00000010: e79e 323e 7060 a13e 3eff b3be b553 bc3e
00000020: 46fc 173f c947 06bf 7a61 cb3e d535 4f3d
00000030: 18f9 e1bb 2544 18bd 2673 1a3f 7e6f b5be
00000040: 2ab8 bd3e c9a9 d23c 3b59 85be 1641 473e
00000050: e700 88bb caf2 b9be 1e58 353c 7b62 243d
00000060: ba51 92be de3e 04bf 2059 5fbe 8ab7 90bd
00000070: d7dc 473e f516 28c0 330d 5e3f 5595 cdbf
00000080: 2a29 5cb8 4452 e4bd 06c2 13bd 01d9 f73e
00000090: 6fe7 7e3b 383d 7abe a763 ed3c ec39 05bf
000000a0: bbd0 a23e 87db 34be 6baa 253d 0c02 f43e
000000b0: c75f 1b3f 30e7 ddbe 607b cc3c b666 31bd
000000c0: e41e 553f c71a 75bf b6fc 7dbe 8f26 233e
000000d0: 7045 0fba fe09 f8bc 6d6d c23d 3270 053f
000000e0: 32bf 8a3e 6527 0cbe 42b4 973d 4341 54bf
000000f0: 278d 9f3d fc1f dcbf cacc 1b3f cbea fdbe
00000100: 2eb5 c13e 50da 49bd 0ca0 553e 233b 89be
00000110: 6e70 7bbe 7c42 29c0 56e9 043f ddc4 403e
00000120: b968 0e3f eb43 5fbf 30c4 c2be 027e 5cbf
00000130: b896 84be 5c70 d93d 9493 3437 d830 a9bc
00000140: 941f e8be 1dde 52bf 082d 1f3f 5521 f9be
00000150: ef89 173f 8915 c13d 5353 523f 7f1f 70bf
00000160: fc75 603c 9d20 82be 744e 123f e74b dabe
00000170: 98be 6e3e 0aec ae3e 4394 c0be 9da7 aebd
00000180: baeb 2c3f 1deb 113d e240 6f3c 5102 7dbf
00000190: 08a0 803c e5e7 22bf b2c8 8abe f57d 8ebf
000001a0: 47eb 923d e078 dcbf b47d c0be e818 b1be
000001b0: 9f8d c83d 8a23 09bf b595 033b a1a8 74bd
000001c0: 546a 4e3f 7355 06c0 a3d8 423e a2c3 87bf
000001d0: a3b9 113f 380f c7bf ccc9 04bf 3cc6 52bf
000001e0: 396c 003b 3bb7 86be 714d 8a3d bbfd e8bf
000001f0: cd9f 22be 0d07 83be 8be3 3bbd 679e 38bf

fc1.bias f4 [64]
0.002377725 -2.8331685 3.199201 -1.4463251 -1.5658187 1.5413115 -0.057143535 -3.5338373
-0.96919364 -2.5889773 0.41010427 -1.6238827 1.4378774 -3.6827638 -0.106033295 -1.3353016
-0.0025455132 -3.2936654 -0.0111764055 2.433568 2.6309478 -4.3097095 0.95524275 -0.4272108
-2.1652825 -3.2784429 -0.0061416877 -3.814904 2.1840715 0.4058086 -0.1595157 -2.7742903
2.5574117 -1.9308895 -0.19841082 -2.6957922 1.1766889 -0.72265375 -0.70764726 -0.0019256276
-0.22090138 -2.5469737 -3.401822 -2.1028574 -0.006854879 -3.0691423 -3.5920088 -4.7800803
-3.3345325 -0.03306797 -0.0019427876 -0.28181434 -0.14671555 1.3089725 1.8581476 -0.39160156
1.2857528 -0.092611745 0.49179968 -1.6530585 -0.18724276 -0.13880593 -2.135785 -0.38681427
00000000: 9bd3 1b3b a252 35c0 b6bf 4c40 2e21 b9bf
00000010: bf6c c8bf b249 c53f 570f 6abd 642a 62c0
00000020: 131d 78bf ceb1 25c0 30f9 d13e 63db cfbf
00000030: 5e0c b83f 67b2 6bc0 fc27 d9bd 2aeb aabf
00000040: a0d2 26bb 6acb 52c0 3e1d 37bc 94bf 1b40
00000050: 7361 2840 24e9 89c0 ca8a 743f 60bb dabe
00000060: fd93 0ac0 02d2 51c0 3640 c9bb 6327 74c0
00000070: d4c7 0b40 25c6 cf3e 1558 23be f98d 31c0
00000080: a2ac 2340 6327 f7bf 352c 4bbe dc87 2cc0
00000090: be9d 963f d6ff 38bf 5f28 35bf 5765 fcba
000000a0: f933 62be 9e01 23c0 74b7 59c0 3795 06c0
000000b0: e59e e0bb d46c 44c0 79e3 65c0 6bf6 98c0
000000c0: fb68 55c0 4872 07bd 22a5 feba f849 90be
000000d0: 9a3c 16be 698c a73f c8d7 ed3f 0080 c8be
000000e0: 8c93 a43f 3aab bdbd 2bcd fb3e 6c97 d3bf
000000f0: 91bc 3fbe 2423 0ebe b4b0 08c0 850c c6be

fc2.weight f4 [64, 64]
0.18506633 0.8586255 0.242123 -0.13982247 0.7109258 0.4624562 -1.1005983 0.041120455
-8.4932575 0.19093682 -0.25992385 0.4008213 -0.066826604 -1.6840554 4.1147795 -0.86518794
-2.9628906 0.34783718 0.13681492 0.18541613 0.15275483 -8.953426 -0.29491377 -0.21615183
-0.072625816 -2.1140304 0.100729965 -2.6046278 0.13882251 0.02765502 0.20474178 -1.4383236
0.70022196 0.6096438 0.27829108 -3.722191 -0.38547963 -0.054617163 -0.2607792 0.12062414
0.15276994 -1.2620457 0.12502474 0.29545635 0.09114668 -0.14036931 -0.28198615 -1.2406229
0.30295202 0.041560438 0.03524552 -0.15417176 1.5064702 -0.47228143 -0.27351147 -1.7634233
-0.72144806 -0.32177192 -1.3218547 0.28642398 -0.022054866 0.2669171 0.18413666 -0.12304208
0.53114235 -2.308019 0.2410343 0.27058893 -3.8038347 -0.65195477 -0.9505317 -0.06873495
-0.35790175 -0.36116028 -0.47347108 0.88182783 -0.69511294 -0.05448319 -8.47125 -7.0593405
-1.4139391 1.5712848 0.08387942 0.62157 -0.23578988 -2.6983445 0.20214784 -2.062891
-3.668413 -2.0238886 0.0028476203 -3.0569963 -0.07749068 0.10890293 -4.322263 0.10256344
0.048525088 -0.89738995 0.22837897 -0.09268812 -0.29499614 -0.19566146 0.06556019 -0.024256848
0.36025068 -0.0037520318 -0.03758445 -6.204651 -0.014680593 -0.026514053 -0.19467436 0.13105395
-0.34731615 0.48712996 -0.15797082 0.6452755 -3.4941852 -1.8538214 -0.47091654 -0.46344075
0.087566346 -0.5442392 0.57612324 0.285471 0.08380309 -0.23577067 -1.259147 0.007710688
-0.08873388 -0.07807104 -0.0051526423 -0.0050872704 -0.07909863 0.39824012 -2.277139 -0.12335971
-4.195931 -0.08414673 0.070763804 -0.016550325 -0.122577995 -0.35748085 0.030576829 -0.09298016
-2.8443527 0.027918572 0.15452251 -0.27314255 -1.3148197 -0.008804057 -0.08747689 0.19085887
-0.101044625 -0.014209019 0.045421727 0.020979548 -1.4759687 0.0052662618 0.0023836275 0.06848872
-1.7588851 0.045058817 -0.18101972 0.32822904 0.05107917 -0.005974767 -0.13776506 0.19349697
-0.5602798 -0.071168065 -0.11269438 0.0055835396 -0.03624952 0.027670354 0.002454672 0.24867757
-0.116735905 -0.15724342 -0.04950236 0.08002725 -0.104068406 0.04235779 -0.11757622 -2.2849948
-0.0063728564 0.080713585 0.073068574 -1.306573 0.0835769 -0.122189745 0.107718 0.06876571
-0.001939767 0.11517515 -0.14311238 -0.08407568 0.07290661 -0.031287923 -0.023729479 -0.05350693
0.08775156 0.029559497 0.0022926002 -0.069044314 -0.13923258 -0.018239427 0.031029606 -0.057713985
-0.03308058 0.08102605 0.006401875 -0.031818558 -0.032782417 -0.111687414 -0.12353686 -0.05804294
-0.063540176 0.0071874494 -0.041558806 -0.04752765 0.11475886 0.037535433 0.08310792 -0.060514092
-0.05214749 0.03993798 -0.121049225 -0.08008649 -0.0120425 -0.07748015 -0.13168351 0.070122786
0.06275706 0.020277917 -0.022206053 -0.11578412 -0.08334308 0.031823203 0.060559437 -0.047560807
-0.050511308 0.03188646 -0.104500785 0.04724314 -0.054498985 -0.035854384 -0.062450204 0.017019339
-0.04377989 0.053126857 -0.009254626 0.065814964 0.12018506 -0.06690251 -0.122948766 0.10028775
00000000: 0782 3d3e e1ce 5b3f 17ef 773e 9f2d 0fbe
00000010: 3cff 353f 0fc7 ec3e 68e0 8cbf ec6d 283d
00000020: 62e4 07c1 f184 433e bd14 85be 7338 cd3e
00000030: 63dc 88bd 218f d7bf 46ac 8340 f57c 5dbf
00000040: 00a0 3dc0 b717 b23e 3619 0c3e badd 3d3e
00000050: c36b 1c3e 3c41 0fc1 f0fe 96be e856 5dbe
00000060: d8bc 94bd 464c 07c0 834b ce3d 39b2 26c0
00000070: 7d27 0e3e c88c e23c d4a7 513e fd1a b8bf
00000080: bf41 333f 9e11 1c3f 2b7c 8e3e 6138 6ec0
00000090: 965d c5be 3fb6 5fbd da84 85be ca09 f73d
000000a0: b96f 1c3e b78a a1bf 7c06 003e 0e46 973e
000000b0: 1cab ba3d f9bc 0fbe 7d60 90be bbcc 9ebf
000000c0: 871c 9b3e 473b 2a3d 9b5d 103d 34df 1dbe
000000d0: 04d4 c03f dfce f1be b209 8cbe dbb7 e1bf
000000e0: d2b0 38bf 4abf a4be 8932 a9bf 2aa6 923e
000000f0: 68ac b4bc 5ca9 883e 528e 3c3e 7cfd fbbd
00000100: f2f8 073f 95b6 13c0 b2d1 763e a28a 8a3e
00000110: 0772 73c0 82e6 26bf 0c56 73bf e9c4 8cbd
00000120: e63e b7be 00ea b8be cd6a f2be 78bf 613f
00000130: ecf2 31bf c429 5fbd 3d8a 07c1 1ee6 e1c0
00000140: f5fb b4bf dc1f c93f f9c8 ab3d 361f 1f3f
00000150: e772 71be adb1 2cc0 d8ff 4e3e 6806 04c0
00000160: 47c7 6ac0 6487 01c0 249f 3a3b d4a5 43c0
00000170: 6fb3 9ebd 8008 df3d fa4f 8ac0 c80c d23d
00000180: 3ec2 463d 59bb 65bf 2ddc 693e 45d3 bdbd
00000190: bc09 97be 7a5b 48be 6c44 863d 4cb6 c6bc
000001a0: c772 b83e a6e4 75bb 27f2 19bd 808c c6c0
000001b0: df86 70bc 0034 d9bc b758 47be 0233 063e
000001c0: 6cd3 b1be 1969 f93e 1ac3 21be c630 253f
000001d0: bba0 5fc0 054a edbf f91b f1be 1b48 edbe
000001e0: fc55 b33d 4353 0bbf d07c 133f 4129 923e
000001f0: f4a0 ab3d de6d 71be bb2b a1bf f0a9 fc3b
00000200: 1cba b5bd b6e3 9fbd 7fd7 a8bb 1eb3 a6bb
00000210: 76fe a1bd 21e6 cb3e a5bc 11c0 04a4 fcbd
00000220: 1145 86c0 1f55 acbd 9dec 903d 8c94 87bc
00000230: 2c0a fbbd bb07 b7be 427c fa3c 626c bebd
00000240: e009 36c0 7db5 e43c 263b 1e3e 57d9 8bbe
00000250: 034c a8bf e43e 10bc 1527 b3bd 8270 433e
00000260: 7cf0 cebd f2cc 68bc 220c 3a3d 4ddd ab3c
00000270: 8bec bcbf 9b90 ac3b a236 1c3b d043 8c3d
00000280: 2623 e1bf 988f 383d 3c5d 39be a30d a83e
00000290: 6438 513d fac7 c3bb 4912 0dbe 1224 463e
000002a0: 7f6e 0fbf 90c0 91bd 50cc e6bd 20f6 b63b
000002b0: 607a 14bd f0ac e23c 90de 203b 55a5 7e3e
000002c0: 3c13 efbd 6b04 21be fdc2 4abd 54e5 a33d
000002d0: d121 d5bd 5d7f 2d3d cdcb f0bd 5b3d 12c0
000002e0: 65d3 d0bb 2a4d a53d faa4 953d c93d a7bf
000002f0: 5e2a ab3d 9e3e fabd 419b dc3d 09d5 8c3d
00000300: c83f feba f3e0 eb3d 0d8c 12be df2f acbd
00000310: 1050 953d c427 00bd 5364 c2bc 152a 5bbd
00000320: 17b7 b33d c226 f23c 733f 163b 1b67 8dbd
00000330: fc92 0ebe da6a 95bc cd31 fe3c 8065 6cbd
00000340: 817f 07bd fcf0 a53d d2c6 d13b 2d54 02bd
00000350: db46 06bd 5fbc e4bd e500 fdbd 6fbe 6dbd
00000360: 5a21 82bd b284 eb3b 9139 2abd 5aac 42bd
00000370: b106 eb3d c1be 193d 7c34 aa3d a0dd 77bd
00000380: 9b98 55bd 0296 233d a8e8 f7bd 6304 a4bd
00000390: e84d 45bc eaad 9ebd 0bd8 06be 899c 8f3d
000003a0: c686 803d e01d a63c 78e9 b5bc 3a20 edbd
000003b0: c7af aabd 0c59 023d 2c0d 783d 1fcf 42bd
000003c0: f2e4 4ebd 609b 023d 8204 d6bd 0682 413d
000003d0: 543a 5fbd 0cdc 12bd c9cb 7fbd 246c 8b3c
000003e0: 8b52 33bd 8c9b 593d b7a0 17bc ffc9 863d
000003f0: 9623 f63d 2f04 89bd 90cc fbbd aa63 cd3d

fc2.bias f4 [64]
0.56929374 0.490453 -0.24183343 0.04637389 0.19722745 -0.14126822 -0.031010177 0.053538047
-0.00434303 -2.1383922 -3.7641459 -0.10840683 -0.08952816 0.57061243 0.19375558 -0.27059868
0.82588387 -0.18523468 -0.066933595 0.42221588 -1.0347103 -0.14996032 -1.6338038 -0.27116993
-0.12503384 -0.29148704 -0.16050245 0.12638249 -0.08889962 0.31055388 -0.041220956 -0.116106935
0.020979442 -0.695304 0.023535635 -1.1382211 -0.18668172 1.0145683 -0.058095716 -0.79646444
-2.0243566 -0.07613597 -0.79255587 -0.37167466 -0.04865061 -0.4636509 -0.10463333 -0.1653855
-0.1627146 0.42216688 -0.12394531 0.43659142 0.018180529 0.2654437 1.0248244 -0.23462997
0.29538172 0.9687467 -0.23108718 -0.008589377 0.55555457 -0.057105087 0.69096667 -1.1598675
00000000: 3cbd 113f a81c fb3e 2fa3 77be 8cf2 3d3d
00000010: fef5 493e 9ea8 10be 0e09 febc b64a 5b3d
00000020: fa4f 8ebb 6bdb 08c0 c4e7 70c0 6604 debd
00000030: 8a5a b7bd a813 123f dd67 463e e98b 8abe
00000040: 206d 533f 29ae 3dbe 7b14 89bd ae2c d83e
00000050: 6371 84bf 338f 19be 7c20 d1bf c9d6 8abe
00000060: df08 00be ca3d 95be c15a 24be 696a 013e
00000070: 0111 b6bd eb00 9f3e 4ed7 28bd 79c9 edbd
00000080: 14dd ab3c 71ff 31bf cecd c03c 3bb1 91bf
00000090: 7e29 3fbe 60dd 813f c6f5 6dbd 18e5 4bbf
000000a0: 0f8f 01c0 2ded 9bbd f1e4 4abf 244c bebe
000000b0: dd45 47bd a763 edbe 004a d6bd d15a 29be
000000c0: a89e 26be 4226 d83e 0ad7 fdbd e988 df3e
000000d0: 55ef 943c 3de8 873e 722d 833f d742 70be
000000e0: 463c 973e c9ff 773f 1ea2 6cbe 75ba 0cbc
000000f0: d338 0e3f 06e7 69bd 31e3 303f 8a76 94bf

fc3.weight f4 [4, 64]
-0.5176612 0.43543506 0.020559195 -0.06036774 -0.47952104 0.33262792 -0.15243775 0.12384246
0.2592834 2.9389157 -8.7525625 -0.032171797 0.077410944 0.040785592 -0.40968302 0.075685695
0.31894913 0.11613737 -0.08809644 0.6621087 -0.89498025 0.012213476 -9.1548 0.04794866
0.37850222 0.09563423 -0.062943704 -15.379429 0.049960133 -1.4349922 0.4709965 0.0011950517
0.043907672 -0.08494507 -0.0759868 0.653795 -0.109291404 -0.43323264 -0.014754628 -0.75653297
0.2435132 -0.011765304 -0.038234007 -0.01020498 -0.010377689 0.07385976 -0.009405668 0.05038005
-0.10978289 -0.1843847 -0.077564284 -0.23216487 -0.050267942 0.54484904 -0.07123823 1.1725607
-0.7537761 0.5110706 0.01500151 -18.467348 0.807682 0.06745417 0.18469322 -19.282797
0.4312693 -0.76615405 -0.010241636 -0.04050068 -0.19650587 -0.40271002 -0.054936282 0.031076532
-34.104095 -2.219268 0.36357263 -0.067174636 0.19180915 0.19024654 0.35514465 0.022836814
-0.18732989 0.13462439 -0.06431961 0.2772096 -0.005849779 -0.046843547 0.28554153 0.06936038
-1.6749834 0.004840723 -0.009206714 0.14031819 -0.012549735 0.72093326 -0.24923605 0.09843604
-0.0729163 -0.0905865 -0.062295448 -4.05705 -0.0668698 -0.36246493 -0.090294585 -1.8247681
0.24972776 0.010700555 0.07658498 0.12037777 0.04342922 0.09100388 -0.032961752 0.054050066
-0.026883595 -0.116419695 -0.04240842 -0.11712292 0.08286731 -0.9073019 -0.17996004 0.057681102
0.28032312 0.49464044 0.17590186 0.35907114 -0.3478083 0.01984111 0.2577339 0.18453957
0.31628278 0.67852277 0.028545095 0.08903244 1.0057958 0.032953914 0.013153951 -0.2378451
0.3293431 3.948279 0.4106476 0.038547006 -30.642458 -0.35762927 0.0868682 -0.043886233
-0.30297756 -10.920644 -0.06483216 -1.1546291 0.3920796 -0.023707928 0.23236284 -0.47429138
0.88262135 -0.00809363 -0.04423044 0.07319998 -0.0686299 0.78341544 -0.088629946 0.04480501
-0.008942227 -0.11942714 -0.057706032 0.8431289 -0.06034206 1.4057978 -0.050684847 2.705379
-5.8142443 -0.043537483 -0.42724252 -0.47856608 0.034280445 -0.23614053 0.0011225758 0.021185884
-0.08410582 0.22062124 0.022848725 0.5053103 -0.0063817054 0.62049896 1.0579311 -2.5179756
0.30461285 -1.6275699 -23.032919 0.32619852 -0.20817557 -0.024743801 -0.9243808 0.18679498
-0.13957901 -0.14661157 -1.165025 -0.078029975 -0.102168195 -0.13032311 0.066659294 -4.1556745
-0.19228956 -0.4515106 -0.08316953 0.07882308 -0.9945205 -0.3230046 -0.2187393 -0.2476657
-0.38671106 -0.2153168 0.025233064 -0.4567139 -0.178786 0.022367395 -2.249338 -0.33530435
0.02030238 -4.9198008 0.08294107 -0.43553606 0.04641095 -0.30267414 -0.067098185 -0.93243986
-0.02438449 -10.60382 -0.08618025 -2.211343 -0.050931297 -0.08552628 0.088725746 -0.18602866
-6.851823 -0.44888845 -4.349465 -0.28875005 -0.11295992 -1.5354611 0.07782114 0.019572416
-0.10459618 -4.2339096 -0.030505797 -3.1221678 0.03864853 -0.12524718 -0.14754795 -0.27962878
-8.141844 -1.1689104 -0.08693937 -0.30972338 -0.20019946 0.01041639 -0.4683109 -1.3451259
00000000: 7285 04bf 58f1 de3e c26b a83c 2a44 77bd
00000010: c883 f5be 354e aa3e a418 1cbe 1ea1 fd3d
00000020: cbc0 843e 3217 3c40 7f0a 0cc1 93c6 03bd
00000030: a189 9e3d cb0e 273d f9c1 d1be 1a01 9b3d
00000040: 4d4d a33e 6ed9 ed3d e86b b4bd f57f 293f
00000050: 6d1d 65bf 081b 483c 107a 12c1 d065 443d
00000060: 0bcb c13e e1db c33d a1e8 80bd 2412 76c1
00000070: ffa2 4c3d d3ad b7bf 7426 f13e 48a3 9c3a
00000080: 88d8 333d aef7 adbd f89e 9bbd 1c5f 273f
00000090: 2cd4 dfbd abd0 ddbe 65bd 71bc 25ac 41bf
000000a0: 865b 793e 43c3 40bc 439b 1cbd ca32 27bc
000000b0: 2f07 2abc c943 973d 3b1a 1abc 505b 4e3d
000000c0: dad5 e0bd 58cf 3cbe 06da 9ebd a1bc 6dbe
000000d0: c2e5 4dbd 3a7b 0b3f 59e5 91bd 7816 963f
000000e0: 78f7 40bf 86d5 023f e5c8 753c 21bd 93c1
000000f0: 3fc4 4e3f 6925 8a3d 3820 3d3e 2b43 9ac1
00000100: 54cf dc3e ac22 44bf 89cc 27bc 0be4 25bd
00000110: d638 49be 0230 cebe de04 61bd 3694 fe3c
00000120: 986a 08c2 7d08 0ec0 3126 ba3e db92 89bd
00000130: 9e69 443e fdcf 423e 85d5 b53e 4514 bb3c
00000140: 68d3 3fbe fada 093e 00ba 83bd 6bee 8d3e
00000150: 81af bfbb 05df 3fbd 8032 923e d10c 8e3d
00000160: db65 d6bf ed9e 9e3b c2d7 16bc 92af 0f3e
00000170: 679d 4dbc 158f 383f bc37 7fbe d698 c93d
00000180: 2455 95bd 6a85 b9bd 8329 7fbd 5bd3 81c0
00000190: 09f3 88bd 0195 b9be 5eec b8bd 0092 e9bf
000001a0: a2b8 7f3e 6151 2f3c 96d8 9c3d 9f88 f63d
000001b0: d6e2 313d 3e60 ba3d e702 07bd 9a63 5d3d
000001c0: fc3a dcbc 736d eebd 74b4 2dbd 24de efbd
000001d0: 56b6 a93d f044 68bf 7247 38be 0543 6c3d
000001e0: 8386 8f3e 8341 fd3e 9e1f 343e 2cd8 b73e
000001f0: ee13 b2be d389 a23c b3f5 833e f1f7 3c3e
00000200: d1ef a13e abb3 2d3f 67d7 e93c a456 b63d
00000210: ebbd 803f affa 063d ab83 573c aa8d 73be
00000220: a99f a83e 9ab0 7c40 6740 d23e 77e3 1d3d
00000230: c123 f5c1 2f1b b7be f4e7 b13d 0dc2 33bd
00000240: e01f 9bbe f5ba 2ec1 b9c6 84bd e3ca 93bf
00000250: a8be c83e 2137 c2bc 86f0 6d3e 52d6 f2be
00000260: 79f3 613f 259b 04bc fa2a 35bd dfe9 953d
00000270: d58d 8cbd ea8d 483f 9e83 b5bd 7585 373d
00000280: 6b82 12bc 3796 f4bd 295d 6cbd 4cd7 573f
00000290: 3c29 77bd 2ff1 b33f ea9a 4fbd ee24 2d40
000002a0: 4a0e bac0 5c54 32bd 88bf dabe 9d06 f5be
000002b0: a769 0c3d d3ce 71be 6523 933a 058e ad3c
000002c0: ac3f acbd 89ea 613e 402d bb3c 045c 013f
000002d0: a01d d1bb 05d9 1e3f 496a 873f 8326 21c0
000002e0: 37f6 9b3e 3654 d0bf 6b43 b8c1 7e03 a73e
000002f0: fa2b 55be 83b3 cabc 38a4 6cbf 2f47 3f3e
00000300: cded 0ebe 5821 16be 8a1f 95bf 2ece 9fbd
00000310: 8f3d d1bd 6c73 05be ab84 883d 49fb 84c0
00000320: 8ee7 44be 662c e7be c954 aabd ff6d a13d
00000330: e598 7ebf dc60 a5be 32fd 5fbe 149c 7dbe
00000340: fefe c5be 027c 5cbe 92b5 ce3c 68d6 e9be
00000350: ad13 37be d43b b73c 27f5 0fc0 03ad abbe
00000360: 2d51 a63c 026f 9dc0 02dd a93d 95fe debe
00000370: 6919 3e3d 1bf8 9abe c66a 89bd 61b4 6ebf
00000380: fbc1 c7bc 3fa9 29c1 457f b0bd a586 0dc0
00000390: 569d 50bd 6728 afbd d8b5 b53d 4c7e 3ebe
000003a0: 2242 dbc0 b5d4 e5be d12e 8bc0 0cd7 93be
000003b0: 8857 e7bd fd89 c4bf b160 9f3d 5556 a03c
000003c0: 8636 d6bd 307c 87c0 4be7 f9bc 99d1 47c0
000003d0: ec4d 1e3d cc40 00be cf16 17be 812b 8fbe
000003e0: fe44 02c1 db9e 95bf 450d b2bd 1094 9ebe
000003f0: 1601 4dbe 82a9 2a3c 72c6 efbe 162d acbf

fc3.bias f4 [4]
0.014393925 -0.0024192345 -0.0011318224 -19.786072
00000000: 7fd4 6b3c 058c 1ebb a859 94ba e049 9ec1
