custom_grid/data/zzppo-0.9/ppo_iter_1400.pth (torch, 21533 bytes, 6 tensors)

fc1.weight f4 [64, 2]
00000000: fc6a cfbd 7e88 d5be 8a58 dc3d eda5 df3e
00000010: 7dba 333e 93ff 9f3e c82e b7be 3ce5 bb3e
00000020: aab1 163f 2fa9 09bf 70d0 c93e 2759 483d
00000030: 18f9 e1bb 2544 18bd 7246 1b3f e162 babe
00000040: 9f33 bf3e 1468 583c 4d0d 87be 7e3d 413e
00000050: bf9b e33b 31f1 b8be 1e58 353c 7b62 243d
00000060: 9ce5 91be 5c82 03bf 2059 5fbe 8ab7 90bd
00000070: 08d8 f33d f516 28c0 bb8f 553f 5237 d0bf
00000080: 2a29 5cb8 4452 e4bd 39d5 0bbd c605 f43e
00000090: 7da0 7b3d 654d 6abe c507 df3c eef0 07bf
000000a0: 6148 a03e 4b00 38be 18c4 2c3d 350e f43e
000000b0: b003 1a3f 428e e0be 6e46 c13c b666 31bd
000000c0: 4286 543f 9014 7cbf cd62 7fbe 17f4 253e
000000d0: 7045 0fba fe09 f8bc 80b7 c63d be17 073f
000000e0: ce95 9a3e 362e e9bd 7447 933d 0698 5bbf
000000f0: c78b 223d fc1f dcbf 6ac0 1c3f 3f3d 01bf
00000100: fbd7 bb3e a259 4fbd c094 3f3e 233b 89be
00000110: 0694 83be 7c42 29c0 4fe0 0a3f c330 3d3e
00000120: a873 103f f2de 5ebf 4e5d c0be efca 5dbf
00000130: 4c41 8abe 91b5 c73d 9493 3437 d830 a9bc
00000140: f5ba f5be 3fd7 4bbf 9b6d 1b3f 819e 01bf
00000150: 030d 183f ab3e c33d bf40 513f adb4 77bf
00000160: a391 8d3d 2604 85be 0a2d 123f 2cd9 e0be
00000170: d619 6e3e d351 af3e 4167 bfbe 9926 b8bd
00000180: 3dd3 2a3f e11f f43c 0d2a 173b 5102 7dbf
00000190: ede0 ea3d f94d 21bf bda5 8cbe 2d3c 8cbf
000001a0: 0b6e ff3c e078 dcbf 0151 c0be 20d7 b3be
000001b0: 2f28 d03d 2c11 08bf b595 033b a1a8 74bd
000001c0: 07c1 523f 6c9f 06c0 13c9 173e 1ad6 8abf
000001d0: b2e4 0d3f e683 c9bf 5788 03bf d146 53bf
000001e0: 396c 003b 3bb7 86be 7d3b 033d bbfd e8bf
000001f0: cd9f 22be 0d07 83be 8be3 3bbd 679e 38bf
-0.101278275 -0.41705698 0.10759075 0.4368128 0.17551608 0.31249675 -0.3577788 0.3669833
0.58864844 -0.5377378 0.39416838 0.048913147 -0.0068961494 -0.037174363 0.60654366 -0.36403564
0.3734407 0.013208408 -0.26377335 0.18871114 0.0069460566 -0.36121514 0.011068372 0.04013298
-0.2849549 -0.5137079 -0.21811342 -0.07066257 0.11906439 -2.6264012 0.8342244 -1.6266882
-5.2490424e-05 -0.111485034 -0.03413889 0.47660655 0.06143235 -0.22881086 0.027225384 -0.53102005
0.3130522 -0.17968862 0.042179197 0.4766709 0.60161877 -0.43858534 0.023593154 -0.043310843
0.8301736 -0.98468876 -0.24940033 0.16206394 -0.0005465364 -0.030278202 0.097029686 0.527706
0.30192417 -0.11385767 0.07191363 -0.85778844 0.039684083 -1.7197261 0.612311 -0.5048408
0.36688218 -0.05062259 0.18709087 -0.2680293 -0.2569887 -2.644683 0.5424852 0.18475632
0.5642648 -0.8705894 -0.37571186 -0.8663778 -0.27002943 0.09751428 1.0763197e-05 -0.020653173
-0.479942 -0.79625314 0.6071412 -0.5063248 0.59394854 0.09533437 0.8173942 -0.96760064
0.069125436 -0.25979728 0.57099974 -0.4391569 0.23252043 0.34242114 -0.37383464 -0.08991737
0.66728574 0.029800357 0.0023065836 -0.9883166 0.114686824 -0.630096 -0.27470198 -1.0955864
0.031180402 -1.7224388 -0.375618 -0.35125065 0.101639144 -0.531512 0.0020078246 -0.05973113
0.82325786 -2.1034803 0.14822797 -1.0846589 0.55427086 -1.5743377 -0.51379913 -0.8252993
0.0019595756 -0.2631167 0.032039154 -1.8202432 -0.15881272 -0.25591317 -0.0458713 -0.721167

fc1.bias f4 [64]
00000000: 7e50 56bb aa05 35c0 015f 4c40 71e7 b8bf
00000010: 6de2 c7bf 7eee c43f 570f 6abd a0de 61c0
00000020: 64f6 79bf 6acc 25c0 7546 d03e 63db cfbf
00000030: 35b6 b93f 67b2 6bc0 375c 40be eaf4 b1bf
00000040: a0d2 26bb 45c8 52c0 a27f 603d 56eb 1a40
00000050: 7bf8 2640 83e7 89c0 ca38 733f 056d dbbe
00000060: 3c60 09c0 738b 51c0 3640 c9bb c28c 73c0
00000070: d46a 0b40 fd35 c73e 643e 4cbe b01b 31c0
00000080: d3fd 2140 9de2 f9bf 2027 40be 08f8 2ac0
00000090: 5d10 953f 9e7b 39bf 34e2 38bf 5765 fcba
000000a0: 1ff3 4dbe ab6a 24c0 f8c3 5ac0 702d 05c0
000000b0: 6f08 693d 405b 44c0 f25e 65c0 7a09 99c0
000000c0: bdd8 55c0 82a3 39bd f63a d23d 9748 8fbe
000000d0: 855d 42be 70d7 a63f 7e18 f03f 0080 c8be
000000e0: be7f a53f 7359 1fbe 6159 f83e aa5a d4bf
000000f0: 91bc 3fbe 4c6c 35be b4b0 08c0 850c c6be
-0.0032701786 -2.8284707 3.1932986 -1.444563 -1.5615975 1.5385282 -0.057143535 -3.529213
-0.9764159 -2.5906014 0.40678754 -1.6238827 1.450873 -3.6827638 -0.18785177 -1.3902867
-0.0025455132 -3.2934735 0.05480922 2.4206138 2.608916 -4.3095107 0.9500853 -0.42856613
-2.1464987 -3.2741363 -0.0061416877 -3.8054662 2.1783953 0.38908377 -0.19945675 -2.767315
2.5311172 -1.9522282 -0.18764925 -2.6713886 1.1645619 -0.7245425 -0.7222016 -0.0019256276
-0.20112275 -2.5690105 -3.418211 -2.0808983 0.05689281 -3.0680695 -3.58392 -4.782407
-3.3413537 -0.04532195 0.10265152 -0.2798507 -0.18980987 1.3034496 1.8757474 -0.39160156
1.2929609 -0.15561466 0.4850569 -1.6590168 -0.18724276 -0.17717093 -2.135785 -0.38681427

fc2.weight f4 [64, 64]
00000000: 172a 2a3e 0852 4b3f 1483 5d3e ea41 30be
00000010: 3cff 353f 0ae4 de3e 68e0 8cbf ec6d 283d
00000020: 48b8 07c1 3cbd fb3d 5e1f 8dbe 7338 cd3e
00000030: f651 76bd 218f d7bf 7479 8340 61c5 60bf
00000040: 00a0 3dc0 00b4 8b3e 095e 063e e632 383e
00000050: b9e3 0e3e ba81 0fc1 a087 aabe e856 5dbe
00000060: d8bc 94bd 464c 07c0 834b ce3d 8016 2ac0
00000070: e77e fd3d 7f80 663c d4a7 513e fd1a b8bf
00000080: f93a 2e3f 9e11 1c3f 8fcc 823e e3e4 6dc0
00000090: a521 d6be 1096 6abd 9af8 8ebe ca09 f73d
000000a0: b860 0e3e b78a a1bf 7c06 003e 0e46 973e
000000b0: dfef a73d f9bc 0fbe 7d60 90be bbcc 9ebf
000000c0: 871c 9b3e 473b 2a3d 8827 d83c d2b3 2fbe
000000d0: 04d4 c03f 0a92 ebbe c9dd 94be dbb7 e1bf
000000e0: 07cc 3cbf 8916 aabe f9d7 a8bf b664 943e
000000f0: 68ac b4bc 5ca9 883e 528e 3c3e 7cfd fbbd
00000100: f2f8 073f 9bb0 13c0 2512 6f3e d741 883e
00000110: 0772 73c0 6cd5 2abf 0c56 73bf e9c4 8cbd
00000120: e63e b7be 024b bbbe cd6a f2be 78bf 613f
00000130: ecf2 31bf c429 5fbd 3d8a 07c1 1ee6 e1c0
00000140: f5fb b4bf fdce c83f f9c8 ab3d 2d94 1f3f
00000150: 7cb9 86be cc82 2ec0 e9cd 503e 6806 04c0
00000160: 47c7 6ac0 12ff 01c0 249f 3a3b 24d7 43c0
00000170: 02ee d7bd 8008 df3d fa4f 8ac0 c80c d23d
00000180: c179 163d 59bb 65bf 2ddc 693e 45d3 bdbd
00000190: bc09 97be 7a5b 48be bc4b 823d 4cb6 c6bc
000001a0: c772 b83e a6e4 75bb 27f2 19bd 808c c6c0
000001b0: df86 70bc 0034 d9bc b758 47be 0233 063e
000001c0: 6cd3 b1be 1969 f93e 1ac3 21be c630 253f
000001d0: bba0 5fc0 94d9 e8bf 2034 f0be 1b48 edbe
000001e0: fc55 b33d 4353 0bbf d07c 133f 4129 923e
000001f0: f4a0 ab3d de6d 71be bb2b a1bf f0a9 fc3b
00000200: 1cba b5bd b6e3 9fbd 7fd7 a8bb 1eb3 a6bb
00000210: 76fe a1bd 21e6 cb3e a5bc 11c0 04a4 fcbd
00000220: 1145 86c0 1f55 acbd 9dec 903d 8c94 87bc
00000230: 2c0a fbbd bb07 b7be 427c fa3c 626c bebd
00000240: e009 36c0 7db5 e43c 263b 1e3e 57d9 8bbe
00000250: 034c a8bf e43e 10bc 1527 b3bd 8270 433e
00000260: 7cf0 cebd f2cc 68bc 220c 3a3d 4ddd ab3c
00000270: 8bec bcbf 9b90 ac3b a236 1c3b d043 8c3d
00000280: 2623 e1bf 988f 383d 3c5d 39be a30d a83e
00000290: 6438 513d fac7 c3bb 4912 0dbe 1224 463e
000002a0: 7f6e 0fbf 90c0 91bd 50cc e6bd 20f6 b63b
000002b0: 607a 14bd f0ac e23c 90de 203b 55a5 7e3e
000002c0: 3c13 efbd 6b04 21be fdc2 4abd 54e5 a33d
000002d0: d121 d5bd 5d7f 2d3d cdcb f0bd 5b3d 12c0
000002e0: 65d3 d0bb 2a4d a53d faa4 953d c93d a7bf
000002f0: 5e2a ab3d 9e3e fabd 419b dc3d 09d5 8c3d
00000300: c83f feba f3e0 eb3d 0d8c 12be df2f acbd
00000310: 1050 953d c427 00bd 5364 c2bc 152a 5bbd
00000320: 17b7 b33d c226 f23c 733f 163b 1b67 8dbd
00000330: fc92 0ebe da6a 95bc cd31 fe3c 8065 6cbd
00000340: 817f 07bd fcf0 a53d d2c6 d13b 2d54 02bd
00000350: db46 06bd 5fbc e4bd e500 fdbd 6fbe 6dbd
00000360: 5a21 82bd b284 eb3b 9139 2abd 5aac 42bd
00000370: b106 eb3d c1be 193d 7c34 aa3d a0dd 77bd
00000380: 9b98 55bd 0296 233d a8e8 f7bd 6304 a4bd
00000390: e84d 45bc eaad 9ebd 0bd8 06be 899c 8f3d
000003a0: c686 803d e01d a63c 78e9 b5bc 3a20 edbd
000003b0: c7af aabd 0c59 023d 2c0d 783d 1fcf 42bd
000003c0: f2e4 4ebd 609b 023d 8204 d6bd 0682 413d
000003d0: 543a 5fbd 0cdc 12bd c9cb 7fbd 246c 8b3c
000003e0: 8b52 33bd 8c9b 593d b7a0 17bc ffc9 863d
000003f0: 9623 f63d 2f04 89bd 90cc fbbd aa63 cd3d
0.16617619 0.79422045 0.21632034 -0.17212644 0.7109258 0.43533355 -1.1005983 0.041120455
-8.482491 0.12291953 -0.27562994 0.4008213 -0.060136758 -1.6840554 4.108576 -0.87801176
-2.9628906 0.27285767 0.13121809 0.17988166 0.13954057 -8.969172 -0.333066 -0.21615183
-0.072625816 -2.1140304 0.100729965 -2.6576233 0.1237772 0.014068722 0.20474178 -1.4383236
0.68058735 0.6096438 0.2554669 -3.7170951 -0.41822544 -0.057272017 -0.27924043 0.12062414
0.13904083 -1.2620457 0.12502474 0.29545635 0.08200049 -0.14036931 -0.28198615 -1.2406229
0.30295202 0.041560438 0.026386037 -0.1715844 1.5064702 -0.46009856 -0.2907546 -1.7634233
-0.7374882 -0.33220318 -1.319091 0.28983086 -0.022054866 0.2669171 0.18413666 -0.12304208
0.53114235 -2.3076541 0.23346765 0.26612732 -3.8038347 -0.66731906 -0.9505317 -0.06873495
-0.35790175 -0.36580664 -0.47347108 0.88182783 -0.69511294 -0.05448319 -8.47125 -7.0593405
-1.4139391 1.5688168 0.08387942 0.62335473 -0.26313388 -2.7267332 0.20391048 -2.062891
-3.668413 -2.0311933 0.0028476203 -3.0600061 -0.10543443 0.10890293 -4.322263 0.10256344
0.036737207 -0.89738995 0.22837897 -0.09268812 -0.29499614 -0.19566146 0.063621014 -0.024256848
0.36025068 -0.0037520318 -0.03758445 -6.204651 -0.014680593 -0.026514053 -0.19467436 0.13105395
-0.34731615 0.48712996 -0.15797082 0.6452755 -3.4941852 -1.81914 -0.46914768 -0.46344075
0.087566346 -0.5442392 0.57612324 0.285471 0.08380309 -0.23577067 -1.259147 0.007710688
-0.08873388 -0.07807104 -0.0051526423 -0.0050872704 -0.07909863 0.39824012 -2.277139 -0.12335971
-4.195931 -0.08414673 0.070763804 -0.016550325 -0.122577995 -0.35748085 0.030576829 -0.09298016
-2.8443527 0.027918572 0.15452251 -0.27314255 -1.3148197 -0.008804057 -0.08747689 0.19085887
-0.101044625 -0.014209019 0.045421727 0.020979548 -1.4759687 0.0052662618 0.0023836275 0.06848872
-1.7588851 0.045058817 -0.18101972 0.32822904 0.05107917 -0.005974767 -0.13776506 0.19349697
-0.5602798 -0.071168065 -0.11269438 0.0055835396 -0.03624952 0.027670354 0.002454672 0.24867757
-0.116735905 -0.15724342 -0.04950236 0.08002725 -0.104068406 0.04235779 -0.11757622 -2.2849948
-0.0063728564 0.080713585 0.073068574 -1.306573 0.0835769 -0.122189745 0.107718 0.06876571
-0.001939767 0.11517515 -0.14311238 -0.08407568 0.07290661 -0.031287923 -0.023729479 -0.05350693
0.08775156 0.029559497 0.0022926002 -0.069044314 -0.13923258 -0.018239427 0.031029606 -0.057713985
-0.03308058 0.08102605 0.006401875 -0.031818558 -0.032782417 -0.111687414 -0.12353686 -0.05804294
-0.063540176 0.0071874494 -0.041558806 -0.04752765 0.11475886 0.037535433 0.08310792 -0.060514092
-0.05214749 0.03993798 -0.121049225 -0.08008649 -0.0120425 -0.07748015 -0.13168351 0.070122786
0.06275706 0.020277917 -0.022206053 -0.11578412 -0.08334308 0.031823203 0.060559437 -0.047560807
-0.050511308 0.03188646 -0.104500785 0.04724314 -0.054498985 -0.035854384 -0.062450204 0.017019339
-0.04377989 0.053126857 -0.009254626 0.065814964 0.12018506 -0.06690251 -0.122948766 0.10028775

fc2.bias f4 [64]
00000000: ea5c 0d3f 3d65 f73e 2fa3 77be 8cf2 3d3d
00000010: 22d2 303e 09cc 23be 0e09 febc f06c 403d
00000020: fbee 00ba 6c03 08c0 0661 71c0 6604 debd
00000030: 81c8 ddbd 82b3 0c3f 41f2 3d3e e98b 8abe
00000040: 28a8 4a3f 0b00 3bbe 7b14 89bd 7bbc c13e
00000050: c6a6 8abf 338f 19be 7c20 d1bf c9d6 8abe
00000060: 73a0 d2bd ca3d 95be c15a 24be 9aa0 e23d
00000070: 0111 b6bd cecc 933e e8d2 b7bd 79c9 edbd
00000080: 14dd ab3c 71ff 31bf cecd c03c 8cf3 8fbf
00000090: 7e29 3fbe b8d1 803f c6f5 6dbd 18e5 4bbf
000000a0: d63f 02c0 2ded 9bbd 9f5b 4bbf 244c bebe
000000b0: dd45 47bd a763 edbe 004a d6bd d15a 29be
000000c0: a89e 26be 9d2a c53e 0ad7 fdbd cf2e e23e
000000d0: 55ef 943c 4888 823e 542f 843f 9db1 80be
000000e0: c92b 9f3e f339 773f 09af 73be 56cf 003c
000000f0: dc86 083f 06e7 69bd d1f3 2f3f 0790 93bf
0.552199 0.48319426 -0.24183343 0.04637389 0.1726766 -0.15995802 -0.031010177 0.04697889
-0.00049184234 -2.1252089 -3.7715468 -0.10840683 -0.10829259 0.5496141 0.18549444 -0.27059868
0.79162836 -0.18261735 -0.066933595 0.37839112 -1.0832145 -0.14996032 -1.6338038 -0.27116993
-0.102845095 -0.29148704 -0.16050245 0.110657886 -0.08889962 0.2886719 -0.08975774 -0.116106935
0.020979442 -0.695304 0.023535635 -1.12462 -0.18668172 1.0064001 -0.058095716 -0.79646444
-2.0351462 -0.07613597 -0.7943668 -0.37167466 -0.04865061 -0.4636509 -0.10463333 -0.1653855
-0.1627146 0.38509074 -0.12394531 0.44176337 0.018180529 0.254946 1.0326943 -0.25135508
0.31088093 0.965728 -0.2379724 0.007861933 0.5333078 -0.057105087 0.6873141 -1.1528329

fc3.weight f4 [4, 64]
00000000: a745 fdbe 5ca1 e13e c26b a83c 2a44 77bd
00000010: 206f f1be 3ef6 bc3e a418 1cbe 30f3 f63d
00000020: 25ef 633e bb71 3f40 06f0 0bc1 93c6 03bd
00000030: 8385 d93d 944a 8e3d f92c c0be 1a01 9b3d
00000040: 56be 8e3e b512 0a3e e86b b4bd d0b2 233f
00000050: 4680 47bf 081b 483c 107a 12c1 d065 443d
00000060: 4a9a c33e e1db c33d a1e8 80bd a572 75c1
00000070: ffa2 4c3d 67c0 b2bf 0ddd ba3e 48a3 9c3a
00000080: 88d8 333d aef7 adbd f89e 9bbd 9032 1d3f
00000090: 2cd4 dfbd 7b7a cfbe 65bd 71bc 25ac 41bf
000000a0: cd2f 783e 43c3 40bc 68e5 83bd ca32 27bc
000000b0: 2f07 2abc c943 973d 3b1a 1abc 505b 4e3d
000000c0: dad5 e0bd 4c93 4dbe 06da 9ebd 7bc1 58be
000000d0: c2e5 4dbd 4dc1 073f 025f 9abd dc97 933f
000000e0: 2bf7 43bf e85e fb3e e21e df3c baab 93c1
000000f0: 1906 4e3f 6925 8a3d ca56 2e3e 1325 9ac1
00000100: 3e59 c33e 428f 43bf 89cc 27bc 0be4 25bd
00000110: 38fe 3dbe 780d e2be de04 61bd 5177 f83c
00000120: e76f 08c2 2f72 11c0 d173 aa3e db92 89bd
00000130: d9dd 263e 130e 2e3e 3a50 aa3e 4514 bb3c
00000140: c8a7 2abe ab47 ec3d 00ba 83bd 5774 8a3e
00000150: e63b dabc 05df 3fbd 8032 923e d10c 8e3d
00000160: 218f dbbf ed9e 9e3b c2d7 16bc 89fd 1f3e
00000170: 679d 4dbc af47 363f f187 22be d698 c93d
00000180: 2455 95bd 6a85 b9bd 8329 7fbd 240c 81c0
00000190: 09f3 88bd 33dd bcbe 5eec b8bd 0092 e9bf
000001a0: df05 7f3e 6151 2f3c a133 3c3d 9f88 f63d
000001b0: d6e2 313d 3e60 ba3d e702 07bd 9a63 5d3d
000001c0: fc3a dcbc c9c8 80bd 74b4 2dbd 9978 cbbd
000001d0: 56b6 a93d 5760 64bf 8faa 36be 57b7 a13d
000001e0: 7024 933e 7695 033f 0399 273e f81b b73e
000001f0: 90a3 aebe d389 a23c 7e41 883e 25e6 323e
00000200: ec16 b83e d93d 2b3f 67d7 e93c a456 b63d
00000210: d5f4 7c3f 15f5 1b3d ab83 573c 8f48 6fbe
00000220: a7e6 bb3e 98ae 7b40 37be f53e 77e3 1d3d
00000230: 4be3 f4c1 c217 bbbe e3ae 9d3d 0dc2 33bd
00000240: da18 91be db68 2ec1 b9c6 84bd c205 8fbf
00000250: 8c9d c43e 2137 c2bc 86f0 6d3e 52d6 f2be
00000260: caf8 763f 259b 04bc fa2a 35bd 5387 523d
00000270: d58d 8cbd e883 423f 974c 91bd 7585 373d
00000280: 6b82 12bc 3796 f4bd 295d 6cbd 6b5d 613f
00000290: 3c29 77bd 970c b23f ea9a 4fbd ee24 2d40
000002a0: 10d0 b9c0 5c54 32bd 2965 c8be 9d06 f5be
000002b0: a769 0c3d d3ce 71be 6523 933a 058e ad3c
000002c0: ac3f acbd f73a 2b3e 402d bb3c c9f7 ec3e
000002d0: a01d d1bb f555 1e3f 77f4 873f d59c 22c0
000002e0: 6d07 9f3e 2d60 d0bf 7f3d b8c1 8f40 a73e
000002f0: 59a8 57be 83b3 cabc 524f 67bf 062a 493e
00000300: c2a4 0ebe 5821 16be 8a1f 95bf 2ece 9fbd
00000310: c93b d1bd 19b8 c6bd ab84 883d 49fb 84c0
00000320: 8ee7 44be 662c e7be c954 aabd ff6d a13d
00000330: 588f 7ebf 8ed3 9cbe a4c6 42be 149c 7dbe
00000340: b9f0 c0be efd5 5bbe 92b5 ce3c 68d6 e9be
00000350: ad13 37be d43b b73c 27f5 0fc0 03ad abbe
00000360: 2d51 a63c 026f 9dc0 02dd a93d 91fe debe
00000370: 6919 3e3d 1bf8 9abe 7bc2 87bd 61b4 6ebf
00000380: fbc1 c7bc 3fa9 29c1 457f b0bd a586 0dc0
00000390: 569d 50bd 6728 afbd d8b5 b53d 4c7e 3ebe
000003a0: 2242 dbc0 b5d4 e5be d12e 8bc0 0cd7 93be
000003b0: 8857 e7bd fd89 c4bf b160 9f3d 5556 a03c
000003c0: 8636 d6bd 307c 87c0 4be7 f9bc 99d1 47c0
000003d0: ec4d 1e3d cc40 00be 9ef0 16be 812b 8fbe
000003e0: fe44 02c1 5536 95bf c005 b2bd 1094 9ebe
000003f0: 10f1 4cbe 82a9 2a3c dd26 efbe 15f3 abbf
-0.49467203 0.4406842 0.020559195 -0.06036774 -0.47155094 0.36906618 -0.15243775 0.12058103
0.22259195 2.9913166 -8.746099 -0.032171797 0.106211685 0.069478184 -0.3753431 0.075685695
0.2787959 0.13483699 -0.08809644 0.6394472 -0.77930105 0.012213476 -9.1548 0.04794866
0.3820365 0.09563423 -0.062943704 -15.340489 0.049960133 -1.3964967 0.36496773 0.0011950517
0.043907672 -0.08494507 -0.0759868 0.6140528 -0.109291404 -0.40523133 -0.014754628 -0.75653297
0.24236985 -0.011765304 -0.0644024 -0.01020498 -0.010377689 0.07385976 -0.009405668 0.05038005
-0.10978289 -0.2007572 -0.077564284 -0.21167557 -0.050267942 0.5302933 -0.075376526 1.1530719
-0.76549023 0.49095845 0.027236406 -18.45885 0.80478054 0.06745417 0.17025295 -19.268103
0.38154024 -0.7639047 -0.010241636 -0.04050068 -0.18554008 -0.441509 -0.054936282 0.030330332
-34.10928 -2.2725942 0.33291486 -0.067174636 0.16295566 0.16997556 0.33264333 0.022836814
-0.16665566 0.11537107 -0.06431961 0.27041885 -0.02663989 -0.046843547 0.28554153 0.06936038
-1.7153054 0.004840723 -0.009206714 0.1562406 -0.012549735 0.7120313 -0.1587217 0.09843604
-0.0729163 -0.0905865 -0.062295448 -4.032732 -0.0668698 -0.36887512 -0.090294585 -1.8247681
0.24904583 0.010700555 0.045947675 0.12037777 0.04342922 0.09100388 -0.032961752 0.054050066
-0.026883595 -0.06288297 -0.04240842 -0.099351116 0.08286731 -0.892095 -0.178385 0.078962974
0.28738737 0.51399934 0.16366963 0.35763526 -0.34109163 0.01984111 0.26612467 0.17470606
0.35954988 0.6689125 0.028545095 0.08903244 0.98811084 0.038075525 0.013153951 -0.23367523
0.3669941 3.9325314 0.47996685 0.038547006 -30.610983 -0.36541563 0.076993726 -0.043886233
-0.28339273 -10.9005995 -0.06483216 -1.1173632 0.3840145 -0.023707928 0.23236284 -0.47429138
0.9647337 -0.00809363 -0.04423044 0.051398586 -0.0686299 0.7598252 -0.070946865 0.04480501
-0.008942227 -0.11942714 -0.057706032 0.8803317 -0.06034206 1.3910092 -0.050684847 2.705379
-5.8066483 -0.043537483 -0.3913968 -0.47856608 0.034280445 -0.23614053 0.0011225758 0.021185884
-0.08410582 0.16721712 0.022848725 0.46282795 -0.0063817054 0.6184991 1.062148 -2.5408223
0.31060353 -1.627935 -23.030027 0.32666442 -0.21060313 -0.024743801 -0.9035541 0.19644937
-0.13930038 -0.14661157 -1.165025 -0.078029975 -0.10216481 -0.097030826 0.066659294 -4.1556745
-0.19228956 -0.4515106 -0.08316953 0.07882308 -0.99437475 -0.30630153 -0.19021088 -0.2476657
-0.37683657 -0.21468328 0.025233064 -0.4567139 -0.178786 0.022367395 -2.249338 -0.33530435
0.02030238 -4.9198008 0.08294107 -0.43553594 0.04641095 -0.30267414 -0.06628891 -0.93243986
-0.02438449 -10.60382 -0.08618025 -2.211343 -0.050931297 -0.08552628 0.088725746 -0.18602866
-6.851823 -0.44888845 -4.349465 -0.28875005 -0.11295992 -1.5354611 0.07782114 0.019572416
-0.10459618 -4.2339096 -0.030505797 -3.1221678 0.03864853 -0.12524718 -0.14740226 -0.27962878
-8.141844 -1.1657206 -0.08692503 -0.30972338 -0.20013833 0.01041639 -0.46709338 -1.3433558

fc3.bias f4 [4]
00000000: 713c de3c a99a 47bc 01e8 faba 035b 97c1
0.02712843 -0.01218287 -0.0019142629 -18.91944
