custom_grid/data/zzppo-0.0001/ppo_iter_250.pth (torch, 21521 bytes, 6 tensors)

fc1.weight f4 [64, 2]
0	0xbdf749bf	-0.12074613
1	0xbed60799	-0.41802672
2	0x3dc6f5a9	0.09714825
3	0x3ededa54	0.43525946
4	0x3e2f71fd	0.17133327
5	0x3e9bbd9e	0.30418104
6	0xbebc624d	-0.36793748
7	0x3eb7fd1d	0.35935298
8	0x3f13fd31	0.57808214
9	0xbf07f9cb	-0.5311553
10	0x3ed6f65f	0.4198484
11	0x3d80f9ef	0.06297671
12	0xbbbb7778	-0.005721029
13	0xbd1deb52	-0.038554497
14	0x3f1916b0	0.59800243
15	0xbeb1a77f	-0.34698102
16	0x3ee54a4e	0.44783252
17	0x3d7bcc4e	0.061474137
18	0xbe8392df	-0.2569799
19	0x3e4e7dfa	0.20165244
20	0xbbd63511	-0.0065370877
21	0xbeb6f7bb	-0.35735878
22	0x3c35581e	0.011068372
23	0x3d24627b	0.04013298
24	0xbe916ebf	-0.28404805
25	0xbf04c459	-0.518621
26	0xbe5f5920	-0.21811342
27	0xbd90b78a	-0.07066257
28	0x3e597528	0.21236098
29	0xc029e8f7	-2.654844
30	0x3f6c47d1	0.92297083
31	0xbfc77c1c	-1.558475
32	0x39a5f90c	0.00031656807
33	0xbde45244	-0.111485034
34	0xbd5e159b	-0.054219823
35	0x3efda577	0.49540302
36	0x3b2d1e27	0.0026415677
37	0xbe7a3d38	-0.24437416
38	0x3cd55579	0.026041733
39	0xbf04dcd8	-0.5189948
40	0x3ea25ccb	0.3171142
41	0xbe3e3bdc	-0.18577522
42	0x3d3116cd	0.043234635
43	0x3ef26ab0	0.4734702
44	0x3f13b99a	0.5770508
45	0xbeeb4c83	-0.4595681
46	0x3cd12f05	0.025535116
47	0xbd3166b6	-0.043310843
48	0x3f411647	0.7542462
49	0xbf83d2c6	-1.0298698
50	0xbe7fd9d7	-0.24985443
51	0x3e1f4152	0.15552261
52	0xb896b1c8	-7.185672e-05
53	0xbcf809fe	-0.030278202
54	0x3dc136c7	0.09434276
55	0x3f044be8	0.51678324
56	0x3e86ac17	0.2630317
57	0xbe2137af	-0.15743898
58	0x3d9f32aa	0.07773335
59	0xbf45d76d	-0.7728184
60	0x3dd25433	0.10269966
61	0xbfdc1ffc	-1.7197261
62	0x3f135533	0.5755188
63	0xbf0328f6	-0.51234376
64	0x3ed5849f	0.41702744
65	0xbd49089b	-0.049080472
66	0x3e719083	0.23590283
67	0xbe7dc17e	-0.24780843
68	0xbe6b6bdc	-0.22990364
69	0xc0296694	-2.6468859
70	0x3f08f0ef	0.53492635
71	0x3e287dca	0.16454235
72	0x3f12ee8d	0.5739525
73	0xbf5ad7a4	-0.8548529
74	0xbec632f6	-0.38710755
75	0xbf5c984b	-0.8616988
76	0xbe846188	-0.2585566
77	0x3dd5ce2b	0.10439714
78	0x37349394	1.0763197e-05
79	0xbca930d8	-0.020653173
80	0xbee068bf	-0.43829915
81	0xbf56bcf4	-0.8388207
82	0x3f101381	0.5627976
83	0xbf088921	-0.5333424
84	0x3f18f919	0.5975509
85	0x3dd5708e	0.10421859
86	0x3f3c930d	0.7366188
87	0xbf825268	-1.0181398
88	0x3c05fe4c	0.008178305
89	0xbe82209d	-0.25415507
90	0x3f0ab136	0.5417665
91	0xbee175b7	-0.44035122
92	0x3e569849	0.2095653
93	0x3eab8239	0.3349779
94	0xbebd1429	-0.36929443
95	0xbdbd82b5	-0.09253446
96	0x3f17d012	0.59301865
97	0xbce20643	-0.027590876
98	0x3c85b1c5	0.016320119
99	0xbf7d0251	-0.9883166
100	0x3c054a12	0.0081353355
101	0xbf22e7e5	-0.6363509
102	0xbe94f7ce	-0.2909531
103	0xbf8e9343	-1.1138691
104	0x3dce2240	0.100651264
105	0xbfdc78e0	-1.7224388
106	0xbec9a7fc	-0.39385974
107	0xbea2d5b7	-0.31803676
108	0x3d541150	0.051774323
109	0xbf1191ea	-0.5686327
110	0x3b0395b5	0.0020078246
111	0xbd74a8a1	-0.05973113
112	0x3f4273a1	0.75957686
113	0xc008d2a9	-2.1378577
114	0x3e80707a	0.25085813
115	0xbf80adaf	-1.0053004
116	0x3f1478d2	0.5799686
117	0xbfc5e8db	-1.5461687
118	0xbf089c89	-0.53363854
119	0xbf4f354e	-0.8094071
120	0x3b006c39	0.0019595756
121	0xbe86b73b	-0.2631167
122	0x3dc72919	0.09724636
123	0xbfe8fdbb	-1.8202432
124	0xbe273a51	-0.1633084
125	0xbe7ecd31	-0.24882962
126	0xbd1ad803	-0.03780366
127	0xbf389e67	-0.721167

fc1.bias f4 [64]
0	0x3c46730b	0.012112389
1	0xc035863f	-2.8363187
2	0x404c9471	3.1965601
3	0xbfb82589	-1.4386455
4	0xbfcaeeb7	-1.58541
5	0x3fc781c8	1.5586481
6	0xbd6c6cf1	-0.057721082
7	0xc062a679	-3.5414107
8	0xbf759539	-0.9593082
9	0xc0258c88	-2.5867023
10	0x3eda1c6e	0.42599815
11	0xbfcfdb63	-1.6238827
12	0x3fb83239	1.4390327
13	0xc06bb267	-3.6827638
14	0xbdbde001	-0.09271241
15	0xbfa35c7d	-1.27626
16	0xbb11d678	-0.0022253077
17	0xc0526a32	-3.2877316
18	0xbc4a4c68	-0.012347318
19	0x401c07b9	2.4379714
20	0x4029edae	2.6551318
21	0xc08a1499	-4.3150144
22	0x3f6f3228	0.9343591
23	0xbeda703d	-0.42663756
24	0xc01019bb	-2.2515705
25	0xc051f2b9	-3.2804396
26	0xbbd8ea0c	-0.0066196974
27	0xc074b25f	-3.823387
28	0x400d156e	2.204433
29	0x3ed63272	0.41835362
30	0xbe0be365	-0.13660963
31	0xc033c690	-2.8089943
32	0x402547cb	2.582507
33	0xbff36743	-1.9015888
34	0xbe5b7b37	-0.21433721
35	0xc0306665	-2.7562497
36	0x3f958113	1.1680015
37	0xbf366796	-0.7125181
38	0xbf35a29d	-0.70951253
39	0xbafc6557	-0.0019256276
40	0xbe69ac83	-0.22819714
41	0xc026c7ec	-2.6059523
42	0xc0596dd9	-3.3973296
43	0xc00c7266	-2.1944823
44	0xbc213c45	-0.0098410295
45	0xc0469f4e	-3.1034732
46	0xc067e312	-3.6232343
47	0xc0992f28	-4.7870064
48	0xc059b4d2	-3.4016614
49	0xbd01cdae	-0.031690292
50	0xbc0dbcba	-0.008650953
51	0xbe898193	-0.2685667
52	0xbdf592ab	-0.11990865
53	0x3fab306c	1.3374152
54	0x3fe9a63e	1.8253858
55	0xbec88000	-0.39160156
56	0x3fa15b10	1.2605915
57	0xbd1a8d83	-0.037732612
58	0x3eff536c	0.49868333
59	0xbfd18b17	-1.6370572
60	0xbe3fbc91	-0.18724276
61	0xbde3b202	-0.11117937
62	0xc0086931	-2.1314204
63	0xbec9ff7a	-0.39452726

fc2.weight f4 [64, 64]
0	0x3e5099a8	0.20371115
1	0x3f6ea3de	0.9321879
2	0x3e9501ed	0.29103032
3	0xbdd3de38	-0.10345119
4	0x3f35ff3c	0.7109258
5	0x3f051c53	0.51996344
6	0xbf8d299a	-1.1028321
7	0x3d286dec	0.041120455
8	0xc107bbc6	-8.483343
9	0x3e3969dd	0.1810679
10	0xbe6f3da8	-0.23363364
11	0x3ecd3873	0.4008213
12	0xbd53e54b	-0.051732343
13	0xbfd78f21	-1.6840554
14	0x408530f6	4.1622267
15	0xbf5816a2	-0.84409535
16	0xc03da000	-2.9628906
17	0x3ed1075b	0.40825924
18	0x3e0c1936	0.13681492
19	0x3e48fb64	0.19627148
20	0x3e3c20a1	0.18371822
21	0xc10fc672	-8.985949
22	0xbe86c0ae	-0.26318878
23	0xbe5d56e8	-0.21615183
24	0xbd94bcd8	-0.072625816
25	0xc0074c46	-2.1140304
26	0x3dce4b83	0.100729965
27	0xc023763f	-2.5540922
28	0x3e2d951b	0.1695141
29	0x3d5a9cff	0.05337238
30	0x3e536b14	0.20646316
31	0xbfb81afd	-1.4383236
32	0x3f3efc5b	0.74603814
33	0x3f1c119e	0.6096438
34	0x3e9406d6	0.28911465
35	0xc06ef5eb	-3.7337596
36	0xbeb4ffa4	-0.35351288
37	0xbd3d1a52	-0.04616768
38	0xbe77e78f	-0.24209426
39	0x3df709ca	0.12062414
40	0x3e2df4db	0.16987936
41	0xbfa18ab7	-1.2620457
42	0x3e00067c	0.12502474
43	0x3e97460e	0.29545635
44	0x3dc65d43	0.09685757
45	0xbe0fbcf9	-0.14036931
46	0xbe90607d	-0.28198615
47	0xbf9eccbb	-1.2406229
48	0x3e9b1c87	0.30295202
49	0x3d2a3b47	0.041560438
50	0x3d20104d	0.039078046
51	0xbe12f556	-0.143514
52	0x3fc1d1cb	1.5142149
53	0xbeec7331	-0.46181634
54	0xbe835ce3	-0.25656804
55	0xbfe1b7db	-1.7634233
56	0xbf32720c	-0.6970527
57	0xbe8ddda7	-0.2770817
58	0xbfa60ee9	-1.29733
59	0x3e96e5b0	0.29472113
60	0xbcb4ac68	-0.022054866
61	0x3e8b0699	0.2715347
62	0x3e3c8e52	0.18413666
63	0xbdfbfd7c	-0.12304208
64	0x3f07f8f2	0.53114235
65	0xc013bf1a	-2.308539
66	0x3e73a596	0.23793635
67	0x3e8a5798	0.27019954
68	0xc0737207	-3.8038347
69	0xbf296e93	-0.6618435
70	0xbf73560c	-0.9505317
71	0xbd8cc4e9	-0.06873495
72	0xbeb8bb81	-0.36080554
73	0xbeb06f05	-0.344597
74	0xbef26acd	-0.47347108
75	0x3f61bf78	0.88182783
76	0xbf31f2ec	-0.69511294
77	0xbd5f29c4	-0.05448319
78	0xc1078a3d	-8.47125
79	0xc0e1e61e	-7.0593405
80	0xbfb4fbf5	-1.4139391
81	0x3fc9809f	1.5742377
82	0x3dabc8f9	0.08387942
83	0x3f205b6b	0.6263949
84	0xbe7750d5	-0.24151929
85	0xc02b5c94	-2.6775255
86	0x3e509fa5	0.203734
87	0xc0040668	-2.062891
88	0xc06ac747	-3.668413
89	0xc0011820	-2.0170975
90	0x3b3a9f24	0.0028476203
91	0xc0438048	-3.0547047
92	0xbda8cc3e	-0.08242081
93	0x3ddf0880	0.10890293
94	0xc08a4ffa	-4.322263
95	0x3dd20cc8	0.10256344
96	0x3d1eafce	0.03874188
97	0xbf65bb59	-0.89738995
98	0x3e69dc2d	0.22837897
99	0xbdbdd345	-0.09268812
100	0xbe9709bc	-0.29499614
101	0xbe485b7a	-0.19566146
102	0x3d88b09f	0.06674313
103	0xbcc6b64c	-0.024256848
104	0x3eb872c7	0.36025068
105	0xbb75e4a6	-0.0037520318
106	0xbd19f227	-0.03758445
107	0xc0c68c80	-6.204651
108	0xbc7086df	-0.014680593
109	0xbcd93400	-0.026514053
110	0xbe4758b7	-0.19467436
111	0x3e063302	0.13105395
112	0xbeb1d36c	-0.34731615
113	0x3ef96919	0.48712996
114	0xbe21c31a	-0.15797082
115	0x3f2530c6	0.6452755
116	0xc05fa0bb	-3.4941852
117	0xbfee55e4	-1.8619962
118	0xbeeef193	-0.46668682
119	0xbeed481b	-0.46344075
120	0x3db355fc	0.087566346
121	0xbf0b5343	-0.5442392
122	0x3f137cd0	0.57612324
123	0x3e922941	0.285471
124	0x3daba0f4	0.08380309
125	0xbe716dde	-0.23577067
126	0xbfa12bbb	-1.259147
127	0x3bfca9f0	0.007710688
128	0xbdb5ba1c	-0.08873388
129	0xbd9fe3b6	-0.07807104
130	0xbba8d77f	-0.0051526423
131	0xbba6b31e	-0.0050872704
132	0xbda1fe76	-0.07909863
133	0x3ecbe621	0.39824012
134	0xc011bca5	-2.277139
135	0xbdfca404	-0.12335971
136	0xc0864511	-4.195931
137	0xbdac551f	-0.08414673
138	0x3d90ec9d	0.070763804
139	0xbc87948c	-0.016550325
140	0xbdfb0a2c	-0.122577995
141	0xbeb707bb	-0.35748085
142	0x3cfa7c42	0.030576829
143	0xbdbe6c62	-0.09298016
144	0xc03609e0	-2.8443527
145	0x3ce4b57d	0.027918572
146	0x3e1e3b26	0.15452251
147	0xbe8bd957	-0.27314255
148	0xbfa84c03	-1.3148197
149	0xbc103ee4	-0.008804057
150	0xbdb32715	-0.08747689
151	0x3e437082	0.19085887
152	0xbdcef07c	-0.101044625
153	0xbc68ccf2	-0.014209019
154	0x3d3a0c22	0.045421727
155	0x3cabdd4d	0.020979548
156	0xbfbcec8b	-1.4759687
157	0x3bac909b	0.0052662618
158	0x3b1c36a2	0.0023836275
159	0x3d8c43d0	0.06848872
160	0xbfe12326	-1.7588851
161	0x3d388f98	0.045058817
162	0xbe395d3c	-0.18101972
163	0x3ea80da3	0.32822904
164	0x3d513864	0.05107917
165	0xbbc3c7fa	-0.005974767
166	0xbe0d1249	-0.13776506
167	0x3e462412	0.19349697
168	0xbf0f6e7f	-0.5602798
169	0xbd91c090	-0.071168065
170	0xbde6cc50	-0.11269438
171	0x3bb6f620	0.0055835396
172	0xbd147a60	-0.03624952
173	0x3ce2acf0	0.027670354
174	0x3b20de90	0.002454672
175	0x3e7ea555	0.24867757
176	0xbdef133c	-0.116735905
177	0xbe21046b	-0.15724342
178	0xbd4ac2fd	-0.04950236
179	0x3da3e554	0.08002725
180	0xbdd521d1	-0.104068406
181	0x3d2d7f5d	0.04235779
182	0xbdf0cbcd	-0.11757622
183	0xc0123d5b	-2.2849948
184	0xbbd0d365	-0.0063728564
185	0x3da54d2a	0.080713585
186	0x3d95a4fa	0.073068574
187	0xbfa73dc9	-1.306573
188	0x3dab2a5e	0.0835769
189	0xbdfa3e9e	-0.122189745
190	0x3ddc9b41	0.107718
191	0x3d8cd509	0.06876571
192	0xbafe3fc8	-0.001939767
193	0x3debe0f3	0.11517515
194	0xbe128c0d	-0.14311238
195	0xbdac2fdf	-0.08407568
196	0x3d955010	0.07290661
197	0xbd0027c4	-0.031287923
198	0xbcc26453	-0.023729479
199	0xbd5b2a15	-0.05350693
200	0x3db3b717	0.08775156
201	0x3cf226c2	0.029559497
202	0x3b163f73	0.0022926002
203	0xbd8d671b	-0.069044314
204	0xbe0e92fc	-0.13923258
205	0xbc956ada	-0.018239427
206	0x3cfe31cd	0.031029606
207	0xbd6c6580	-0.057713985
208	0xbd077f81	-0.03308058
209	0x3da5f0fc	0.08102605
210	0x3bd1c6d2	0.006401875
211	0xbd02542d	-0.031818558
212	0xbd0646db	-0.032782417
213	0xbde4bc5f	-0.111687414
214	0xbdfd00e5	-0.12353686
215	0xbd6dbe6f	-0.05804294
216	0xbd82215a	-0.063540176
217	0x3beb84b2	0.0071874494
218	0xbd2a3991	-0.041558806
219	0xbd42ac5a	-0.04752765
220	0x3deb06b1	0.11475886
221	0x3d19bec1	0.037535433
222	0x3daa347c	0.08310792
223	0xbd77dda0	-0.060514092
224	0xbd55989b	-0.05214749
225	0x3d239602	0.03993798
226	0xbdf7e8a8	-0.121049225
227	0xbda40463	-0.08008649
228	0xbc454de8	-0.0120425
229	0xbd9eadea	-0.07748015
230	0xbe06d80b	-0.13168351
231	0x3d8f9c89	0.070122786
232	0x3d8086c6	0.06275706
233	0x3ca61de0	0.020277917
234	0xbcb5e978	-0.022206053
235	0xbded203a	-0.11578412
236	0xbdaaafc7	-0.08334308
237	0x3d02590c	0.031823203
238	0x3d780d2c	0.060559437
239	0xbd42cf1f	-0.047560807
240	0xbd4ee4f2	-0.050511308
241	0x3d029b60	0.03188646
242	0xbdd60482	-0.104500785
243	0x3d418206	0.04724314
244	0xbd5f3a54	-0.054498985
245	0xbd12dc0c	-0.035854384
246	0xbd7fcbc9	-0.062450204
247	0x3c8b6c24	0.017019339
248	0xbd33528b	-0.04377989
249	0x3d599b8c	0.053126857
250	0xbc17a0b7	-0.009254626
251	0x3d86c9ff	0.065814964
252	0x3df62396	0.12018506
253	0xbd89042f	-0.06690251
254	0xbdfbcc90	-0.122948766
255	0x3dcd63aa	0.10028775

fc2.bias f4 [64]
0	0x3f1b75c8	0.60726595
1	0x3ef97aa1	0.4872637
2	0xbe77a32f	-0.24183343
3	0x3d3df28c	0.04637389
4	0x3e397750	0.1811192
5	0xbe0ef695	-0.13961251
6	0xbcfe090e	-0.031010177
7	0x3da55671	0.08073128
8	0x3b3d6baa	0.0028903284
9	0xc0093acf	-2.1442144
10	0xc06fc759	-3.7465422
11	0xbdde0466	-0.10840683
12	0xbd0b5aa8	-0.034022003
13	0x3f1cfa65	0.6131957
14	0x3e6dd928	0.2322737
15	0xbe89b624	-0.26896775
16	0x3f52f0dc	0.8239877
17	0xbe3c9241	-0.18415166
18	0xbd89147b	-0.066933595
19	0x3ee70f14	0.4512869
20	0xbf8313de	-1.0240438
21	0xbe198f33	-0.14996032
22	0xbfd1207c	-1.6338038
23	0xbe8ad6c9	-0.27116993
24	0xbdcc994d	-0.09990177
25	0xbe953dca	-0.29148704
26	0xbe245ac1	-0.16050245
27	0x3e12062b	0.14260165
28	0xbdb61101	-0.08889962
29	0x3eb869e1	0.3601828
30	0xbd37b63c	-0.044851527
31	0xbdedc979	-0.116106935
32	0x3cabdd14	0.020979442
33	0xbf31ff71	-0.695304
34	0x3cc0cdce	0.023535635
35	0xbf8e0961	-1.1096612
36	0xbe3f297e	-0.18668172
37	0x3f7c34ed	0.9851826
38	0xbd6df5c6	-0.058095716
39	0xbf4be518	-0.79646444
40	0xbff88012	-1.9414084
41	0xbd9bed2d	-0.07613597
42	0xbf471267	-0.77762455
43	0xbebe4c24	-0.37167466
44	0xbd4745dd	-0.04865061
45	0xbeed63a7	-0.4636509
46	0xbdd64a00	-0.10463333
47	0xbe295ad1	-0.1653855
48	0xbe269ea8	-0.1627146
49	0x3eceea16	0.40412968
50	0xbdfdd70a	-0.12394531
51	0x3ee46dd4	0.44615042
52	0x3c94ef55	0.018180529
53	0x3e968268	0.29396367
54	0x3f7ef380	0.995903
55	0xbe6b2381	-0.22962762
56	0x3eb60731	0.35552362
57	0x3f7f5432	0.99737847
58	0xbe6499bb	-0.22324269
59	0x3cc2e13c	0.02378904
60	0x3f12d3fc	0.5735471
61	0xbd69e706	-0.057105087
62	0x3f385d15	0.7201703
63	0xbf919287	-1.1372842

fc3.weight f4 [4, 64]
0	0xbf12e3ae	-0.5737866
1	0x3ed969e4	0.424636
2	0x3ca86bc2	0.020559195
3	0xbd77442a	-0.06036774
4	0xbeeac9f7	-0.45857212
5	0x3e9b9d21	0.30393317
6	0xbe1c18a4	-0.15243775
7	0x3da0bc3e	0.07848404
8	0x3e9ba02e	0.30395645
9	0x403ce67f	2.9515684
10	0xc10c7bfc	-8.78027
11	0xbd03c693	-0.032171797
12	0x3d5e982a	0.054344334
13	0xbc3108cf	-0.010805323
14	0xbef8449c	-0.48489845
15	0x3da0eb30	0.078573585
16	0x3eb2ff7b	0.3496054
17	0x3deb642b	0.11493715
18	0xbdb46be8	-0.08809644
19	0x3f2c97e0	0.6741924
20	0xbf77fd3c	-0.9687078
21	0x3c481b08	0.012213476
22	0xc1127a10	-9.1548
23	0x3d4465d0	0.04794866
24	0x3edc9759	0.4308422
25	0x3dc3dbe1	0.09563423
26	0xbd80e8a1	-0.062943704
27	0xc1763696	-15.388327
28	0x3d4ca2ff	0.049960133
29	0xbfb8b4d9	-1.443019
30	0x3f0118d0	0.50428486
31	0x3a9ca348	0.0011950517
32	0x3d33d888	0.043907672
33	0xbdadf7ae	-0.08494507
34	0xbd9b9ef8	-0.0759868
35	0x3f2be1fd	0.67141706
36	0xbddfd42c	-0.109291404
37	0xbedd52b5	-0.43227163
38	0xbc71bd65	-0.014754628
39	0xbf41ac25	-0.75653297
40	0x3e7db0d0	0.2477448
41	0xbc40c343	-0.011765304
42	0xbd19e52e	-0.03757208
43	0xbc2732ca	-0.01020498
44	0xbc2a072f	-0.010377689
45	0x3d9743c9	0.07385976
46	0xbc1a1a3b	-0.009405668
47	0x3d4e5b50	0.05038005
48	0xbde0d5da	-0.10978289
49	0xbe60bc54	-0.21946841
50	0xbd9eda06	-0.077564284
51	0xbe90a4e1	-0.28250793
52	0xbd4de5c2	-0.050267942
53	0x3f1604c3	0.58601016
54	0xbdbfde49	-0.093685694
55	0x3f929280	1.1450958
56	0xbf45143a	-0.7698399
57	0x3f020634	0.50790715
58	0x3c2a2cb1	0.010386632
59	0xc1945bb9	-18.544786
60	0x3f57d49f	0.8430881
61	0x3d8a2569	0.06745417
62	0x3e2cb1d9	0.16864718
63	0xc19ab1a6	-19.336742
64	0x3ef78c19	0.48349074
65	0xbf44991b	-0.7679612
66	0xbc27cc89	-0.010241636
67	0xbd25e40b	-0.04050068
68	0xbe54d352	-0.20783737
69	0xbebfe872	-0.3748203
70	0xbd6104de	-0.054936282
71	0x3dbc4756	0.09193294
72	0xc2086d2f	-34.106625
73	0xc00fd44c	-2.2473326
74	0x3eca3d77	0.3950002
75	0xbd8992db	-0.067174636
76	0x3e5c49c6	0.21512517
77	0x3e71d800	0.23617554
78	0x3ed3739b	0.41299137
79	0x3ca36c0c	0.019948982
80	0xbe482169	-0.19543995
81	0x3e0b0e41	0.13579656
82	0xbd83ba00	-0.06431961
83	0x3e9b64db	0.30350384
84	0xbc54f1ba	-0.012997085
85	0xbd3fdf05	-0.046843547
86	0x3e923280	0.28554153
87	0x3d8e0cd1	0.06936038
88	0xbfd821d5	-1.6885325
89	0x3b9e9eed	0.004840723
90	0xbc16d7c2	-0.009206714
91	0x3e04460a	0.12917343
92	0xbc4d9d67	-0.012549735
93	0x3f3a2b7f	0.7272262
94	0xbe9f89a7	-0.31159708
95	0x3dc998d6	0.09843604
96	0xbd955524	-0.0729163
97	0xbdb9856a	-0.0905865
98	0xbd7f2983	-0.062295448
99	0xc084abab	-4.1459556
100	0xbd88f309	-0.0668698
101	0xbeaf0f90	-0.3419156
102	0xbdb8ec5e	-0.090294585
103	0xbfe99200	-1.8247681
104	0x3e81fdfa	0.2538908
105	0x3c2f5161	0.010700555
106	0x3df07e2e	0.11742817
107	0x3df6889f	0.12037777
108	0x3d31e2d6	0.04342922
109	0x3dba603e	0.09100388
110	0xbd0702e7	-0.032961752
111	0x3d5d639a	0.054050066
112	0xbcdc3afc	-0.026883595
113	0xbdd4747c	-0.1037378
114	0xbd2db474	-0.04240842
115	0xbddee818	-0.10884112
116	0x3da9b656	0.08286731
117	0xbf753352	-0.95781434
118	0xbe1c2f1a	-0.15252343
119	0x3dc3627f	0.09540271
120	0x3e975d42	0.29563338
121	0x3f009aa1	0.50235945
122	0x3e38d90e	0.1805155
123	0x3ec14917	0.37751076
124	0xbeb61433	-0.35562286
125	0x3ca289d3	0.01984111
126	0x3e8dfcac	0.27731836
127	0x3e2e1592	0.17000416
128	0x3e9fa581	0.31180957
129	0x3f2fbd16	0.686479
130	0x3ce9d767	0.028545095
131	0x3db656a4	0.08903244
132	0x3f7fbec9	0.9990049
133	0x3d052bf9	0.03251264
134	0x3c5783ab	0.013153951
135	0xbe8548d5	-0.2603213
136	0x3e91da67	0.2848694
137	0x407ca199	3.9473631
138	0x3ec55609	0.38542202
139	0x3d1de377	0.038547006
140	0xc1f59048	-30.69545
141	0xbeb36b05	-0.35042587
142	0x3dcff6dc	0.101545066
143	0xbd33c20d	-0.043886233
144	0xbea7f69d	-0.32805339
145	0xc12ebaf5	-10.920644
146	0xbd84c6b9	-0.06483216
147	0xbf99474a	-1.1974881
148	0x3ed5fd06	0.41794604
149	0xbcc23721	-0.023707928
150	0x3e6df086	0.23236284
151	0xbef2d652	-0.47429138
152	0x3f50c6d1	0.8155337
153	0xbc049b25	-0.00809363
154	0xbd352afa	-0.04423044
155	0x3daf4fc8	0.08560139
156	0xbd8c8dd5	-0.0686299
157	0x3f48c2a5	0.78422004
158	0xbd7f79ca	-0.062372006
159	0x3d378575	0.04480501
160	0xbc12826b	-0.008942227
161	0xbdf49637	-0.11942714
162	0xbd6c5d29	-0.057706032
163	0x3f56b791	0.8387385
164	0xbd77293c	-0.06034206
165	0x3fb04fbc	1.3774333
166	0xbd4f9aea	-0.050684847
167	0x402d24ee	2.705379
168	0xc0bd4f44	-5.915926
169	0xbd32545c	-0.043537483
170	0xbef5a7a3	-0.4797946
171	0xbef5069d	-0.47856608
172	0x3d0c69a7	0.034280445
173	0xbe71ced3	-0.23614053
174	0x3a932365	0.0011225758
175	0x3cad8e05	0.021185884
176	0xbdac3fac	-0.08410582
177	0x3e73469b	0.23757403
178	0x3cbb2d40	0.022848725
179	0x3f0bbdb8	0.5458636
180	0xbbd11da0	-0.0063817054
181	0x3f215ec0	0.630352
182	0x3f83bc8b	1.0291914
183	0xc024d5b1	-2.5755427
184	0x3e9992e0	0.2999487
185	0xbfd54cea	-1.6664097
186	0xc1b84ff5	-23.039042
187	0x3e9e7adb	0.30953106
188	0xbe6f534e	-0.23371622
189	0xbccab383	-0.024743801
190	0xbf70a3f8	-0.94000196
191	0x3e4e805c	0.20166153
192	0xbe0ffcef	-0.1406133
193	0xbe162158	-0.14661157
194	0xbf951f8a	-1.165025
195	0xbd9fce2e	-0.078029975
196	0xbdd14c07	-0.10219579
197	0xbe0b8bc2	-0.13627532
198	0x3d8884ab	0.066659294
199	0xc084fb49	-4.1556745
200	0xbe44e78e	-0.19228956
201	0xbee72c66	-0.4515106
202	0xbdaa54c9	-0.08316953
203	0x3da16dff	0.07882308
204	0xbf7e9f7d	-0.9946211
205	0xbea7034b	-0.326197
206	0xbe615a52	-0.2200711
207	0xbe7d9c14	-0.2476657
208	0xbec773bf	-0.38955495
209	0xbe5c7c02	-0.2153168
210	0x3cceb592	0.025233064
211	0xbee9d668	-0.4567139
212	0xbe372363	-0.17884593
213	0x3cb73bd4	0.022367395
214	0xc00ff527	-2.249338
215	0xbeabad03	-0.33530435
216	0x3ca6512d	0.02030238
217	0xc09d6f02	-4.9198008
218	0x3da9dd02	0.08294107
219	0xbedefefc	-0.43553913
220	0x3d3e1969	0.04641095
221	0xbe9af81b	-0.30267414
222	0xbd896ac6	-0.067098185
223	0xbf6eb461	-0.93243986
224	0xbcc7c1fb	-0.02438449
225	0xc129a93f	-10.60382
226	0xbdb07f45	-0.08618025
227	0xc00d86a5	-2.211343
228	0xbd509d56	-0.050931297
229	0xbdaf2867	-0.08552628
230	0x3db5b5d8	0.088725746
231	0xbe3e7e4c	-0.18602866
232	0xc0db4222	-6.851823
233	0xbee5d4b5	-0.44888845
234	0xc08b2ed1	-4.349465
235	0xbe93d70c	-0.28875005
236	0xbde75788	-0.11295992
237	0xbfc489fd	-1.5354611
238	0x3d9f60b1	0.07782114
239	0x3ca05655	0.019572416
240	0xbdd63686	-0.10459618
241	0xc0877c30	-4.2339096
242	0xbcf9e74b	-0.030505797
243	0xc047d199	-3.1221678
244	0x3d1e4dec	0.03864853
245	0xbe0040cc	-0.12524718
246	0xbe177c64	-0.14793545
247	0xbe8f2b81	-0.27962878
248	0xc10244fe	-8.141844
249	0xbf95b95a	-1.169719
250	0xbdb22ca4	-0.08699921
251	0xbe9e9410	-0.30972338
252	0xbe4d1023	-0.20025687
253	0x3c2aa982	0.01041639
254	0xbef02348	-0.46901917
255	0xbfac3719	-1.3454314

fc3.bias f4 [4]
0	0xbc46a2a4	-0.0121237375
1	0x3ce9c97a	0.028538454
2	0xbc81e39b	-0.015855601
3	0xc19fedc6	-19.9911
