custom_grid/data/zppo-0.9/ppo_iter_1300.pth (torch, 21533 bytes, 6 tensors)

fc1.weight f4 [64, 2]
0	0xbdce73b9	-0.10080666
1	0xbed59042	-0.41711622
2	0x3ddd3031	0.108002074
3	0x3edecf02	0.4351731
4	0x3e334490	0.17506623
5	0x3ea060b8	0.3132379
6	0xbeb745f8	-0.3579557
7	0x3ebbaad6	0.36653775
8	0x3f173612	0.5906688
9	0xbf08fe00	-0.53512573
10	0x3ec97739	0.39348772
11	0x3d4b034b	0.049563687
12	0xbbe1f918	-0.0068961494
13	0xbd184425	-0.037174363
14	0x3f1b9bf3	0.60784835
15	0xbeb948b6	-0.36188287
16	0x3ebeb437	0.37246868
17	0x3c73a3e0	0.014870614
18	0xbe863129	-0.2620938
19	0x3e41b5a2	0.18916944
20	0x3bc9481b	0.006142629
21	0xbeb96b23	-0.3621455
22	0x3c35581e	0.011068372
23	0x3d24627b	0.04013298
24	0xbe9185c8	-0.2842238
25	0xbf039496	-0.513986
26	0xbe5f5920	-0.21811342
27	0xbd90b78a	-0.07066257
28	0x3df3f234	0.11911431
29	0xc02816f5	-2.6264012
30	0x3f559ca0	0.83442116
31	0xbfd038eb	-1.626737
32	0xb85c292a	-5.2490424e-05
33	0xbde45244	-0.111485034
34	0xbd09a72e	-0.0336067
35	0x3ef41c7d	0.47677985
36	0x3d77f74f	0.060538586
37	0xbe6a87fe	-0.2290344
38	0x3ce1de3c	0.02757179
39	0xbf080c6d	-0.5314396
40	0x3e9fb23e	0.31190675
41	0xbe33df89	-0.1756574
42	0x3d2da886	0.042397045
43	0x3ef3ffa0	0.47655964
44	0x3f19f6eb	0.6014239
45	0xbee10792	-0.43951088
46	0x3cc1466e	0.023593154
47	0xbd3166b6	-0.043310843
48	0x3f544065	0.8291076
49	0xbf7c1e65	-0.9848388
50	0xbe7fa285	-0.2496434
51	0x3e259760	0.16171026
52	0xba0f4570	-0.0005465364
53	0xbcf809fe	-0.030278202
54	0x3dc7ab06	0.09749417
55	0x3f06ba4b	0.5262801
56	0x3e99f5d8	0.30070376
57	0xbdf05851	-0.11735595
58	0x3d936782	0.07197477
59	0xbf5b9806	-0.85778844
60	0x3d228bc7	0.039684083
61	0xbfdc1ffc	-1.7197261
62	0x3f1cf5c7	0.61312526
63	0xbf00d073	-0.5031807
64	0x3ebc1d85	0.36741272
65	0xbd50b1b3	-0.050950717
66	0x3e3f94c0	0.18709087
67	0xbe893b23	-0.2680293
68	0xbe837cd1	-0.25681165
69	0xc029427c	-2.644683
70	0x3f0ad64e	0.54233253
71	0x3e3d8f61	0.18511726
72	0x3f102c2a	0.5631739
73	0xbf5f4f34	-0.8723023
74	0xbec13c67	-0.37741396
75	0xbf5d2741	-0.8638802
76	0xbe896d31	-0.2684112
77	0x3dcd3a06	0.10020833
78	0x37349394	1.0763197e-05
79	0xbca930d8	-0.020653173
80	0xbef4c501	-0.47806552
81	0xbf4c3aa3	-0.7977697
82	0x3f1bb080	0.6081619
83	0xbf011d29	-0.5043512
84	0x3f18028c	0.59378886
85	0x3dc2edbc	0.095180005
86	0x3f50f075	0.8161691
87	0xbf77bf18	-0.9677596
88	0x3d8e03e1	0.069343336
89	0xbe84a0ac	-0.25903833
90	0x3f123aa0	0.57120705
91	0xbee06f35	-0.43834844
92	0x3e6cbfa2	0.23119977
93	0x3eaf61c4	0.34254277
94	0xbebf5bf7	-0.3737485
95	0xbdb876c9	-0.090070315
96	0x3f2b3c2c	0.6688869
97	0x3cf95628	0.03043659
98	0x3b172a0d	0.0023065836
99	0xbf7d0251	-0.9883166
100	0x3ddd02ee	0.107915744
101	0xbf22e7e5	-0.6363509
102	0xbe8c2d16	-0.27378148
103	0xbf8c4d95	-1.0961176
104	0x3cff6e0b	0.031180402
105	0xbfdc78e0	-1.7224388
106	0xbec0b5ec	-0.37638795
107	0xbeb3332d	-0.34999982
108	0x3dd0c2ff	0.101934426
109	0xbf07d842	-0.5306436
110	0x3b0395b5	0.0020078246
111	0xbd74a8a1	-0.05973113
112	0x3f530a6c	0.8243778
113	0xc00681b8	-2.1016674
114	0x3e178389	0.1479627
115	0xbf8ad61a	-1.0846589
116	0x3f0d8c15	0.55291873
117	0xbfc9b58b	-1.5758528
118	0xbf041e11	-0.5160838
119	0xbf52b5a2	-0.823084
120	0x3b006c39	0.0019595756
121	0xbe86b73b	-0.2631167
122	0x3d033b7d	0.032039154
123	0xbfe8fdbb	-1.8202432
124	0xbe229fcd	-0.15881272
125	0xbe83070d	-0.25591317
126	0xbd3be38b	-0.0458713
127	0xbf389e67	-0.721167

fc1.bias f4 [64]
0	0xbb78e345	-0.003797726
1	0xc0352961	-2.8306506
2	0x404c6d97	3.1941888
3	0xbfb90d81	-1.4457246
4	0xbfc7bc2b	-1.5604299
5	0x3fc50e20	1.5394936
6	0xbd6a0f57	-0.057143535
7	0xc061c9df	-3.5279462
8	0xbf79d4f7	-0.97590584
9	0xc025cedc	-2.5907507
10	0x3ecfcc57	0.40585586
11	0xbfcfdb63	-1.6238827
12	0x3fb99053	1.4497169
13	0xc06bb267	-3.6827638
14	0xbe4048bb	-0.18777744
15	0xbfb1e66b	-1.3898443
16	0xbb26d2a0	-0.0025455132
17	0xc052da50	-3.2945747
18	0x3d5cbe65	0.053892512
19	0x401af125	2.4209683
20	0x40273fc5	2.6132672
21	0xc089e821	-4.309586
22	0x3f73352a	0.95002997
23	0xbedb6d05	-0.42856613
24	0xc00987df	-2.148918
25	0xc0518b5a	-3.2741303
26	0xbbc94036	-0.0061416877
27	0xc073aac0	-3.8072968
28	0x400b57a9	2.1772254
29	0x3ec65e75	0.3874394
30	0xbe4c3e64	-0.19945675
31	0xc03111ac	-2.7667036
32	0x40221fb8	2.533186
33	0xbff9e29d	-1.9522282
34	0xbe3ff413	-0.1874545
35	0xc02b029f	-2.672035
36	0x3f953072	1.1655409
37	0xbf392099	-0.72315365
38	0xbf37a2e8	-0.7173295
39	0xbafc6557	-0.0019256276
40	0xbe4f403d	-0.20239349
41	0xc0246049	-2.5683768
42	0xc05ac27b	-3.4181201
43	0xc0055a54	-2.0836382
44	0x3d697532	0.05699653
45	0xc0445870	-3.0678978
46	0xc0656687	-3.5843828
47	0xc099097a	-4.782407
48	0xc055c87c	-3.3403616
49	0xbd39a382	-0.04532195
50	0x3dc55400	0.09635162
51	0xbe8fea7a	-0.2810858
52	0xbe425d85	-0.18980987
53	0x3fa70312	1.3047812
54	0x3ff001fa	1.8750603
55	0xbec88000	-0.39160156
56	0x3fa5d025	1.2954146
57	0xbe1fb465	-0.15596159
58	0x3ef7f93b	0.48432335
59	0xbfd40aab	-1.6565756
60	0xbe3fbc91	-0.18724276
61	0xbe356c4c	-0.17717093
62	0xc008b0b4	-2.135785
63	0xbec60c85	-0.38681427

fc2.weight f4 [64, 64]
0	0x3e2ab3ff	0.16670226
1	0x3f4c77d5	0.7987035
2	0x3e5ea6eb	0.21743362
3	0xbe2e5448	-0.17024338
4	0x3f35ff3c	0.7109258
5	0x3edfafc9	0.436888
6	0xbf8ce068	-1.1005983
7	0x3d286dec	0.041120455
8	0xc107b615	-8.481954
9	0x3e037680	0.12838173
10	0xbe8c7b1d	-0.27437678
11	0x3ecd3873	0.4008213
12	0xbd7deef8	-0.061995476
13	0xbfd78f21	-1.6840554
14	0x40837974	4.108576
15	0xbf60c561	-0.87801176
16	0xc03da000	-2.9628906
17	0x3e8ec522	0.27884775
18	0x3e0707f3	0.13186626
19	0x3e381317	0.17976032
20	0x3e0f515f	0.13995884
21	0xc10f6c20	-8.963898
22	0xbea92453	-0.33035526
23	0xbe5d56e8	-0.21615183
24	0xbd94bcd8	-0.072625816
25	0xc0074c46	-2.1140304
26	0x3dce4b83	0.100729965
27	0xc029d3f2	-2.653561
28	0x3dfef052	0.12448181
29	0x3c73869c	0.014863636
30	0x3e51a7d4	0.20474178
31	0xbfb81afd	-1.4383236
32	0x3f2e76c8	0.68149996
33	0x3f1c119e	0.6096438
34	0x3e832ce9	0.256202
35	0xc06de908	-3.717348
36	0xbed58e3d	-0.41710082
37	0xbd68a3a7	-0.056796696
38	0xbe8e7a74	-0.278278
39	0x3df709ca	0.12062414
40	0x3e1073c6	0.14106664
41	0xbfa18ab7	-1.2620457
42	0x3e00067c	0.12502474
43	0x3e97460e	0.29545635
44	0x3da8ba9d	0.08238719
45	0xbe0fbcf9	-0.14036931
46	0xbe90607d	-0.28198615
47	0xbf9eccbb	-1.2406229
48	0x3e9b1c87	0.30295202
49	0x3d2a3b47	0.041560438
50	0x3cdddfb3	0.027084207
51	0xbe2ecbab	-0.1706988
52	0x3fc0d404	1.5064702
53	0xbeecf02c	-0.46276987
54	0xbe94395f	-0.2895002
55	0xbfe1b7db	-1.7634233
56	0xbf3caddb	-0.7370278
57	0xbeaa1689	-0.33220318
58	0xbfa8db83	-1.319199
59	0x3e9464b6	0.28983086
60	0xbcb4ac68	-0.022054866
61	0x3e88a95c	0.2669171
62	0x3e3c8e52	0.18413666
63	0xbdfbfd7c	-0.12304208
64	0x3f07f8f2	0.53114235
65	0xc013c970	-2.3091698
66	0x3e6e76e1	0.23287536
67	0x3e874078	0.26416373
68	0xc0737207	-3.8038347
69	0xbf2a25d9	-0.66464
70	0xbf73560c	-0.9505317
71	0xbd8cc4e9	-0.06873495
72	0xbeb73ee6	-0.35790175
73	0xbebd055e	-0.36918157
74	0xbef26acd	-0.47347108
75	0x3f61bf78	0.88182783
76	0xbf31f2ec	-0.69511294
77	0xbd5f29c4	-0.05448319
78	0xc1078a3d	-8.47125
79	0xc0e1e61e	-7.0593405
80	0xbfb4fbf5	-1.4139391
81	0x3fc88a1d	1.5667149
82	0x3dabc8f9	0.08387942
83	0x3f1f942d	0.62335473
84	0xbe84f81f	-0.2597055
85	0xc02e8155	-2.7266438
86	0x3e50cde9	0.20391048
87	0xc0040668	-2.062891
88	0xc06ac747	-3.668413
89	0xc001f314	-2.0304613
90	0x3b3a9f24	0.0028476203
91	0xc043fef6	-3.0624366
92	0xbdd07134	-0.10177842
93	0x3ddf0880	0.10890293
94	0xc08a4ffa	-4.322263
95	0x3dd20cc8	0.10256344
96	0x3d1dc952	0.038522072
97	0xbf65bb59	-0.89738995
98	0x3e69dc2d	0.22837897
99	0xbdbdd345	-0.09268812
100	0xbe9709bc	-0.29499614
101	0xbe485b7a	-0.19566146
102	0x3d789e9d	0.06069814
103	0xbcc6b64c	-0.024256848
104	0x3eb872c7	0.36025068
105	0xbb75e4a6	-0.0037520318
106	0xbd19f227	-0.03758445
107	0xc0c68c80	-6.204651
108	0xbc7086df	-0.014680593
109	0xbcd93400	-0.026514053
110	0xbe4758b7	-0.19467436
111	0x3e063302	0.13105395
112	0xbeb1d36c	-0.34731615
113	0x3ef96919	0.48712996
114	0xbe21c31a	-0.15797082
115	0x3f2530c6	0.6452755
116	0xc05fa0bb	-3.4941852
117	0xbfe9b600	-1.8258667
118	0xbef03420	-0.46914768
119	0xbeed481b	-0.46344075
120	0x3db355fc	0.087566346
121	0xbf0b5343	-0.5442392
122	0x3f137cd0	0.57612324
123	0x3e922941	0.285471
124	0x3daba0f4	0.08380309
125	0xbe716dde	-0.23577067
126	0xbfa12bbb	-1.259147
127	0x3bfca9f0	0.007710688
128	0xbdb5ba1c	-0.08873388
129	0xbd9fe3b6	-0.07807104
130	0xbba8d77f	-0.0051526423
131	0xbba6b31e	-0.0050872704
132	0xbda1fe76	-0.07909863
133	0x3ecbe621	0.39824012
134	0xc011bca5	-2.277139
135	0xbdfca404	-0.12335971
136	0xc0864511	-4.195931
137	0xbdac551f	-0.08414673
138	0x3d90ec9d	0.070763804
139	0xbc87948c	-0.016550325
140	0xbdfb0a2c	-0.122577995
141	0xbeb707bb	-0.35748085
142	0x3cfa7c42	0.030576829
143	0xbdbe6c62	-0.09298016
144	0xc03609e0	-2.8443527
145	0x3ce4b57d	0.027918572
146	0x3e1e3b26	0.15452251
147	0xbe8bd957	-0.27314255
148	0xbfa84c03	-1.3148197
149	0xbc103ee4	-0.008804057
150	0xbdb32715	-0.08747689
151	0x3e437082	0.19085887
152	0xbdcef07c	-0.101044625
153	0xbc68ccf2	-0.014209019
154	0x3d3a0c22	0.045421727
155	0x3cabdd4d	0.020979548
156	0xbfbcec8b	-1.4759687
157	0x3bac909b	0.0052662618
158	0x3b1c36a2	0.0023836275
159	0x3d8c43d0	0.06848872
160	0xbfe12326	-1.7588851
161	0x3d388f98	0.045058817
162	0xbe395d3c	-0.18101972
163	0x3ea80da3	0.32822904
164	0x3d513864	0.05107917
165	0xbbc3c7fa	-0.005974767
166	0xbe0d1249	-0.13776506
167	0x3e462412	0.19349697
168	0xbf0f6e7f	-0.5602798
169	0xbd91c090	-0.071168065
170	0xbde6cc50	-0.11269438
171	0x3bb6f620	0.0055835396
172	0xbd147a60	-0.03624952
173	0x3ce2acf0	0.027670354
174	0x3b20de90	0.002454672
175	0x3e7ea555	0.24867757
176	0xbdef133c	-0.116735905
177	0xbe21046b	-0.15724342
178	0xbd4ac2fd	-0.04950236
179	0x3da3e554	0.08002725
180	0xbdd521d1	-0.104068406
181	0x3d2d7f5d	0.04235779
182	0xbdf0cbcd	-0.11757622
183	0xc0123d5b	-2.2849948
184	0xbbd0d365	-0.0063728564
185	0x3da54d2a	0.080713585
186	0x3d95a4fa	0.073068574
187	0xbfa73dc9	-1.306573
188	0x3dab2a5e	0.0835769
189	0xbdfa3e9e	-0.122189745
190	0x3ddc9b41	0.107718
191	0x3d8cd509	0.06876571
192	0xbafe3fc8	-0.001939767
193	0x3debe0f3	0.11517515
194	0xbe128c0d	-0.14311238
195	0xbdac2fdf	-0.08407568
196	0x3d955010	0.07290661
197	0xbd0027c4	-0.031287923
198	0xbcc26453	-0.023729479
199	0xbd5b2a15	-0.05350693
200	0x3db3b717	0.08775156
201	0x3cf226c2	0.029559497
202	0x3b163f73	0.0022926002
203	0xbd8d671b	-0.069044314
204	0xbe0e92fc	-0.13923258
205	0xbc956ada	-0.018239427
206	0x3cfe31cd	0.031029606
207	0xbd6c6580	-0.057713985
208	0xbd077f81	-0.03308058
209	0x3da5f0fc	0.08102605
210	0x3bd1c6d2	0.006401875
211	0xbd02542d	-0.031818558
212	0xbd0646db	-0.032782417
213	0xbde4bc5f	-0.111687414
214	0xbdfd00e5	-0.12353686
215	0xbd6dbe6f	-0.05804294
216	0xbd82215a	-0.063540176
217	0x3beb84b2	0.0071874494
218	0xbd2a3991	-0.041558806
219	0xbd42ac5a	-0.04752765
220	0x3deb06b1	0.11475886
221	0x3d19bec1	0.037535433
222	0x3daa347c	0.08310792
223	0xbd77dda0	-0.060514092
224	0xbd55989b	-0.05214749
225	0x3d239602	0.03993798
226	0xbdf7e8a8	-0.121049225
227	0xbda40463	-0.08008649
228	0xbc454de8	-0.0120425
229	0xbd9eadea	-0.07748015
230	0xbe06d80b	-0.13168351
231	0x3d8f9c89	0.070122786
232	0x3d8086c6	0.06275706
233	0x3ca61de0	0.020277917
234	0xbcb5e978	-0.022206053
235	0xbded203a	-0.11578412
236	0xbdaaafc7	-0.08334308
237	0x3d02590c	0.031823203
238	0x3d780d2c	0.060559437
239	0xbd42cf1f	-0.047560807
240	0xbd4ee4f2	-0.050511308
241	0x3d029b60	0.03188646
242	0xbdd60482	-0.104500785
243	0x3d418206	0.04724314
244	0xbd5f3a54	-0.054498985
245	0xbd12dc0c	-0.035854384
246	0xbd7fcbc9	-0.062450204
247	0x3c8b6c24	0.017019339
248	0xbd33528b	-0.04377989
249	0x3d599b8c	0.053126857
250	0xbc17a0b7	-0.009254626
251	0x3d86c9ff	0.065814964
252	0x3df62396	0.12018506
253	0xbd89042f	-0.06690251
254	0xbdfbcc90	-0.122948766
255	0x3dcd63aa	0.10028775

fc2.bias f4 [64]
0	0x3f0d710a	0.5525061
1	0x3ef7009c	0.48242652
2	0xbe77a32f	-0.24183343
3	0x3d3df28c	0.04637389
4	0x3e345a5d	0.17612596
5	0xbe2376b5	-0.15963252
6	0xbcfe090e	-0.031010177
7	0x3d4b1c79	0.0495877
8	0x3ab51dcc	0.0013818084
9	0xc0080ee6	-2.1259093
10	0xc0717bea	-3.773188
11	0xbdde0466	-0.10840683
12	0xbdd0930e	-0.101842985
13	0x3f0d1148	0.55104494
14	0x3e3d2f3f	0.18475054
15	0xbe8a8be9	-0.27059868
16	0x3f4af2f5	0.79276973
17	0xbe3b000b	-0.18261735
18	0xbd89147b	-0.066933595
19	0x3ec6df93	0.3884245
20	0xbf89fb5f	-1.0779837
21	0xbe198f33	-0.14996032
22	0xbfd1207c	-1.6338038
23	0xbe8ad6c9	-0.27116993
24	0xbdd8c68d	-0.105847456
25	0xbe953dca	-0.29148704
26	0xbe245ac1	-0.16050245
27	0x3de4094f	0.11134588
28	0xbdb61101	-0.08889962
29	0x3e95f3e2	0.2928763
30	0xbdb3e149	-0.08783204
31	0xbdedc979	-0.116106935
32	0x3cabdd14	0.020979442
33	0xbf31ff71	-0.695304
34	0x3cc0cdce	0.023535635
35	0xbf900498	-1.1251402
36	0xbe3f297e	-0.18668172
37	0x3f80c3fd	1.0059811
38	0xbd6df5c6	-0.058095716
39	0xbf4be518	-0.79646444
40	0xc0023aa2	-2.0348287
41	0xbd9bed2d	-0.07613597
42	0xbf4b1b39	-0.79338413
43	0xbebe4c24	-0.37167466
44	0xbd4745dd	-0.04865061
45	0xbeed63a7	-0.4636509
46	0xbdd64a00	-0.10463333
47	0xbe295ad1	-0.1653855
48	0xbe269ea8	-0.1627146
49	0x3ec6d10f	0.38831374
50	0xbdfdd70a	-0.12394531
51	0x3ee232fa	0.44179517
52	0x3c94ef55	0.018180529
53	0x3e83fbe1	0.25778106
54	0x3f83e0ed	1.0303017
55	0xbe7f341b	-0.2492222
56	0x3e9e9aff	0.30977628
57	0x3f775209	0.9660955
58	0xbe739a9e	-0.2378945
59	0x3bb8f7e8	0.005644787
60	0x3f08bf8a	0.53417265
61	0xbd69e706	-0.057105087
62	0x3f304f7e	0.68871295
63	0xbf93d8a8	-1.1550493

fc3.weight f4 [4, 64]
0	0xbefd5169	-0.49476174
1	0x3ee0ddaf	0.4391913
2	0x3ca86bc2	0.020559195
3	0xbd77442a	-0.06036774
4	0xbef2dea1	-0.47435477
5	0x3ebca55b	0.36844906
6	0xbe1c18a4	-0.15243775
7	0x3dfa561d	0.12223456
8	0x3e68bd38	0.22728431
9	0x403f504e	2.9892764
10	0xc10be6ee	-8.743879
11	0xbd03c693	-0.032171797
12	0x3ddb6c9f	0.10714077
13	0x3d8a7c6b	0.06762012
14	0xbebf7c9f	-0.37399766
15	0x3d9b011a	0.075685695
16	0x3e8fced4	0.28087485
17	0x3e0a12b5	0.13483699
18	0xbdb46be8	-0.08809644
19	0x3f244b63	0.6417753
20	0xbf4afd18	-0.7929244
21	0x3c481b08	0.012213476
22	0xc1127a10	-9.1548
23	0x3d4465d0	0.04794866
24	0x3ec314ce	0.3810181
25	0x3dc3dbe1	0.09563423
26	0xbd80e8a1	-0.062943704
27	0xc1756676	-15.337515
28	0x3d4ca2ff	0.049960133
29	0xbfb3524e	-1.4009492
30	0x3ebd448c	0.3696636
31	0x3a9ca348	0.0011950517
32	0x3d33d888	0.043907672
33	0xbdadf7ae	-0.08494507
34	0xbd9b9ef8	-0.0759868
35	0x3f1e1f42	0.61766446
36	0xbddfd42c	-0.109291404
37	0xbed002ec	-0.4062723
38	0xbc71bd65	-0.014754628
39	0xbf41ac25	-0.75653297
40	0x3e7881f9	0.2426833
41	0xbc40c343	-0.011765304
42	0xbd8191bd	-0.063266255
43	0xbc2732ca	-0.01020498
44	0xbc2a072f	-0.010377689
45	0x3d9743c9	0.07385976
46	0xbc1a1a3b	-0.009405668
47	0x3d4e5b50	0.05038005
48	0xbde0d5da	-0.10978289
49	0xbe4a091a	-0.19730034
50	0xbd9eda06	-0.077564284
51	0xbe5a69c3	-0.21329407
52	0xbd4de5c2	-0.050267942
53	0x3f081f6e	0.5317296
54	0xbd96a1a4	-0.07355049
55	0x3f93ad94	1.1537347
56	0xbf43dba9	-0.7650705
57	0x3efa765e	0.48918432
58	0x3ce16902	0.027515892
59	0xc193ada6	-18.45979
60	0x3f4e17d1	0.8050509
61	0x3d8a2569	0.06745417
62	0x3e2c83d9	0.16847171
63	0xc19a23c0	-19.267456
64	0x3ec56bc7	0.3855879
65	0xbf43635f	-0.76323503
66	0xbc27cc89	-0.010241636
67	0xbd25e40b	-0.04050068
68	0xbe3f33e7	-0.18672143
69	0xbee23769	-0.441829
70	0xbd6104de	-0.054936282
71	0x3d039151	0.032121006
72	0xc208719d	-34.11095
73	0xc0114a68	-2.2701664
74	0x3eab72a3	0.33485898
75	0xbd8992db	-0.067174636
76	0x3e25eb83	0.16203122
77	0x3e303a8c	0.17209834
78	0x3ea920a8	0.33032727
79	0x3cbb1445	0.022836814
80	0xbe2c1b3c	-0.16807264
81	0x3dec47ab	0.11537107
82	0xbd83ba00	-0.06431961
83	0x3e8afe22	0.27147013
84	0xbcb09cb4	-0.021559097
85	0xbd3fdf05	-0.046843547
86	0x3e923280	0.28554153
87	0x3d8e0cd1	0.06936038
88	0xbfdad817	-1.7097195
89	0x3b9e9eed	0.004840723
90	0xbc16d7c2	-0.009206714
91	0x3e1d5637	0.1536492
92	0xbc4d9d67	-0.012549735
93	0x3f364180	0.71193695
94	0xbe265ac0	-0.16245556
95	0x3dc998d6	0.09843604
96	0xbd955524	-0.0729163
97	0xbdb9856a	-0.0905865
98	0xbd7f2983	-0.062295448
99	0xc0811020	-4.0332184
100	0xbd88f309	-0.0668698
101	0xbebc7544	-0.36808217
102	0xbdb8ec5e	-0.090294585
103	0xbfe99200	-1.8247681
104	0x3e7eb56c	0.24873894
105	0x3c2f5161	0.010700555
106	0x3d43e6a1	0.047827367
107	0x3df6889f	0.12037777
108	0x3d31e2d6	0.04342922
109	0x3dba603e	0.09100388
110	0xbd0702e7	-0.032961752
111	0x3d5d639a	0.054050066
112	0xbcdc3afc	-0.026883595
113	0xbd886b96	-0.066611454
114	0xbd2db474	-0.04240842
115	0xbdca514b	-0.09878787
116	0x3da9b656	0.08286731
117	0xbf655928	-0.89589167
118	0xbe37bf53	-0.17944078
119	0x3da008b0	0.07814157
120	0x3e931bcb	0.28732142
121	0x3f042cc2	0.51630795
122	0x3e274fd6	0.16339049
123	0x3eb6a4a6	0.35672492
124	0xbeaf0f1f	-0.34191224
125	0x3ca289d3	0.01984111
126	0x3e897c56	0.26852673
127	0x3e331449	0.17488207
128	0x3eb51bf8	0.353729
129	0x3f2b62d8	0.669477
130	0x3ce9d767	0.028545095
131	0x3db656a4	0.08903244
132	0x3f7de368	0.9917512
133	0x3d1fc808	0.039009124
134	0x3c5783ab	0.013153951
135	0xbe73712e	-0.23773643
136	0x3eb9541a	0.36196977
137	0x407bc050	3.9336128
138	0x3ef2ee4d	0.47447434
139	0x3d1de377	0.038547006
140	0xc1f4f0ff	-30.617674
141	0xbebb5f7f	-0.36596295
142	0x3d9feb22	0.0780852
143	0xbd33c20d	-0.043886233
144	0xbe919a19	-0.2843788
145	0xc12e68db	-10.9005995
146	0xbd84c6b9	-0.06483216
147	0xbf8f9178	-1.1216269
148	0x3ec3e747	0.38262388
149	0xbcc23721	-0.023707928
150	0x3e6df086	0.23236284
151	0xbef2d652	-0.47429138
152	0x3f74b3d6	0.9558691
153	0xbc049b25	-0.00809363
154	0xbd352afa	-0.04423044
155	0x3d585fde	0.0528258
156	0xbd8c8dd5	-0.0686299
157	0x3f43998a	0.76406157
158	0xbd93a53d	-0.07209251
159	0x3d378575	0.04480501
160	0xbc12826b	-0.008942227
161	0xbdf49637	-0.11942714
162	0xbd6c5d29	-0.057706032
163	0x3f5fac69	0.8737245
164	0xbd77293c	-0.06034206
165	0x3fb20677	1.3908223
166	0xbd4f9aea	-0.050684847
167	0x402d24ee	2.705379
168	0xc0b9d292	-5.8069544
169	0xbd32545c	-0.043537483
170	0xbec9822b	-0.39357123
171	0xbef5069d	-0.47856608
172	0x3d0c69a7	0.034280445
173	0xbe71ced3	-0.23614053
174	0x3a932365	0.0011225758
175	0x3cad8e05	0.021185884
176	0xbdac3fac	-0.08410582
177	0x3e2c6fd7	0.16839539
178	0x3cbb2d40	0.022848725
179	0x3eed81d8	0.46388125
180	0xbbd11da0	-0.0063817054
181	0x3f1ef83c	0.62097526
182	0x3f87c32d	1.0606438
183	0xc0228a98	-2.539709
184	0x3e9eaa57	0.30989334
185	0xbfd0a6f8	-1.6300955
186	0xc1b83e1a	-23.030323
187	0x3ea7b762	0.32757097
188	0xbe574465	-0.21022184
189	0xbccab383	-0.024743801
190	0xbf67ed09	-0.9059606
191	0x3e48f9f3	0.19626598
192	0xbe0ea697	-0.13930736
193	0xbe162158	-0.14661157
194	0xbf951f8a	-1.165025
195	0xbd9fce2e	-0.078029975
196	0xbdd13bec	-0.10216507
197	0xbdd2d9dd	-0.102954604
198	0x3d8884ab	0.066659294
199	0xc084fb49	-4.1556745
200	0xbe44e78e	-0.19228956
201	0xbee72c66	-0.4515106
202	0xbdaa54c9	-0.08316953
203	0x3da16dff	0.07882308
204	0xbf7e8f58	-0.99437475
205	0xbe9e527a	-0.309223
206	0xbe49dfda	-0.19714299
207	0xbe7d9c14	-0.2476657
208	0xbec1ae96	-0.3782851
209	0xbe5bd5ef	-0.21468328
210	0x3cceb592	0.025233064
211	0xbee9d668	-0.4567139
212	0xbe3713ad	-0.178786
213	0x3cb73bd4	0.022367395
214	0xc00ff527	-2.249338
215	0xbeabad03	-0.33530435
216	0x3ca6512d	0.02030238
217	0xc09d6f02	-4.9198008
218	0x3da9dd02	0.08294107
219	0xbedefe91	-0.43553594
220	0x3d3e1969	0.04641095
221	0xbe9af81b	-0.30267414
222	0xbd886174	-0.06659213
223	0xbf6eb461	-0.93243986
224	0xbcc7c1fb	-0.02438449
225	0xc129a93f	-10.60382
226	0xbdb07f45	-0.08618025
227	0xc00d86a5	-2.211343
228	0xbd509d56	-0.050931297
229	0xbdaf2867	-0.08552628
230	0x3db5b5d8	0.088725746
231	0xbe3e7e4c	-0.18602866
232	0xc0db4222	-6.851823
233	0xbee5d4b5	-0.44888845
234	0xc08b2ed1	-4.349465
235	0xbe93d70c	-0.28875005
236	0xbde75788	-0.11295992
237	0xbfc489fd	-1.5354611
238	0x3d9f60b1	0.07782114
239	0x3ca05655	0.019572416
240	0xbdd63686	-0.10459618
241	0xc0877c30	-4.2339096
242	0xbcf9e74b	-0.030505797
243	0xc047d199	-3.1221678
244	0x3d1e4dec	0.03864853
245	0xbe0040cc	-0.12524718
246	0xbe16f3b5	-0.14741404
247	0xbe8f2b81	-0.27962878
248	0xc10244fe	-8.141844
249	0xbf9544ed	-1.166166
250	0xbdb205c3	-0.08692505
251	0xbe9e9410	-0.30972338
252	0xbe4cf110	-0.20013833
253	0x3c2aa982	0.01041639
254	0xbeef47eb	-0.46734557
255	0xbfabfd4d	-1.3436676

fc3.bias f4 [4]
0	0x3cb1b715	0.021693746
1	0xbc189a19	-0.0093140835
2	0xb9eab49b	-0.0004476652
3	0xc1982288	-19.016861
