custom_grid/data/ppo-0.001/ppo_final.pth (torch, 21084 bytes, 6 tensors)

fc1.weight f4 [64, 2]
-0.10524384 -0.4375038 0.089675464 0.44307572 0.17619903 0.30823836 -0.35960358 0.3873814
0.57830125 -0.5270372 0.42776227 0.06464484 -0.0035318406 -0.03246174 0.5821508 -0.3681225
0.45617464 0.07037663 -0.26223114 0.21285109 -0.003419745 -0.3635698 0.011068372 0.04013298
-0.27457702 -0.5301271 -0.22068891 -0.07066257 0.20803268 -2.6465824 0.92533916 -1.5595834
0.00031656807 -0.111485034 -0.061317325 0.48479596 0.0026415677 -0.24437416 0.026935596 -0.5398731
0.3335058 -0.18020307 0.029473485 0.46155882 0.5766168 -0.46458125 0.025535116 -0.043310843
0.73882496 -1.0428088 -0.2570979 0.16017963 -0.00022295042 -0.030278202 0.0799752 0.5254255
0.28242835 -0.14895637 0.06364456 -0.7735272 0.10269966 -1.7197261 0.5708952 -0.51836336
0.42990392 -0.05044935 0.22341783 -0.25245786 -0.2130788 -2.6660388 0.52596027 0.15988861
0.56387424 -0.8697852 -0.4093556 -0.8364611 -0.26989043 0.11687787 1.0763197e-05 -0.020653173
-0.44984344 -0.82571924 0.56011194 -0.5366087 0.58165306 0.0894627 0.72221494 -1.0294038
0.008178305 -0.25415507 0.5374755 -0.44612262 0.21907336 0.34059116 -0.37227428 -0.09657509
0.602331 -0.016886376 0.016320119 -0.9883166 0.0081353355 -0.6363509 -0.30500293 -1.0980531
0.100651264 -1.7224388 -0.4018453 -0.31760675 0.026595928 -0.5753655 0.0020078246 -0.05973113
0.74718726 -2.1484847 0.21662381 -1.0266259 0.5457226 -1.5765667 -0.5341805 -0.8043156
0.0019595756 -0.2631167 0.09724636 -1.8202432 -0.1943615 -0.20530866 -0.04228699 -0.721167
00000000: 158a d7bd 8000 e0be c5a7 b73d d2da e23e
00000010: 856d 343e 6bd1 9d3e f61d b8be db56 c63e
00000020: 8d0b 143f e9eb 06bf a803 db3e 8464 843d
00000030: 7476 67bb 9af6 04bd d607 153f 8d7a bcbe
00000040: b98f e93e 9f21 903d 2943 86be a3f5 593e
00000050: cd1d 60bb d225 babe 1e58 353c 7b62 243d
00000060: 5c95 8cbe 69b6 07bf 46fc 61be 8ab7 90bd
00000070: 8506 553e 9b61 29c0 07e3 6c3f 6ea0 c7bf
00000080: 0cf9 a539 4452 e4bd e027 7bbd 2d37 f83e
00000090: 271e 2d3b 383d 7abe 0aa8 dc3c 2035 0abf
000000a0: 46c1 aa3e 2787 38be 6172 f13c 7051 ec3e
000000b0: 299d 133f 98dd edbe 052f d13c b666 31bd
000000c0: a223 3d3f c27a 85bf 56a2 83be 2106 243e
000000d0: ccc7 69b9 fe09 f8bc 0aca a33d 4982 063f
000000e0: 739a 903e 0588 18be 1458 823d e105 46bf
000000f0: 3354 d23d fc1f dcbf 3026 123f 76b3 04bf
00000100: 5e1c dc3e faa3 4ebd a5c7 643e 2842 81be
00000110: 5431 5abe 61a0 2ac0 55a5 063f d7b9 233e
00000120: 105a 103f 3eaa 5ebf 0f97 d1be 5122 56bf
00000130: 142f 8abe aa5d ef3d 9493 3437 d830 a9bc
00000140: e151 e6be 5662 53bf 7f63 0f3f 305f 09bf
00000150: 37e7 143f 3838 b73d 14e3 383f 81c3 83bf
00000160: 4cfe 053c 9d20 82be ff97 093f 2f6a e4be
00000170: c454 603e f761 ae3e bc9a bebe 29c9 c5bd
00000180: 5d32 1a3f 4c55 8abc c5b1 853c 5102 7dbf
00000190: 124a 053c e5e7 22bf 5829 9cbe 018d 8cbf
000001a0: 4022 ce3d e078 dcbf abbe cdbe 5a9d a2be
000001b0: b4df d93c 274b 13bf b595 033b a1a8 74bd
000001c0: aa47 3f3f c680 09c0 a2d2 5d3e 7a68 83bf
000001d0: 7ab4 0b3f f0cc c9bf 0ec0 08bf a1e7 4dbf
000001e0: 396c 003b 3bb7 86be 1929 c73d bbfd e8bf
000001f0: b306 47be 6f3c 52be 1f35 2dbd 679e 38bf

fc1.bias f4 [64]
-0.0024681948 -2.8328526 3.1939394 -1.4008126 -1.5854075 1.5722895 -0.060275957 -3.5546181
-0.95338607 -2.5811317 0.42230144 -1.6238827 1.428828 -3.680356 -0.0856734 -1.2689017
-0.0022253077 -3.2936985 -0.012347318 2.4165628 2.6676717 -4.327223 0.9298235 -0.42663756
-2.2711835 -3.2717953 -0.0065113297 -3.8204982 2.2151127 0.40896448 -0.13660963 -2.8119354
2.5971298 -1.9132422 -0.21380664 -2.7645247 1.1474907 -0.6904429 -0.70245683 -0.0019256276
-0.21816838 -2.6075003 -3.4104517 -2.2138374 -0.0098410295 -3.1060338 -3.6146955 -4.7838836
-3.3922224 -0.031690292 -0.008650953 -0.2606762 -0.11990865 1.3462727 1.8127228 -0.39160156
1.244615 -0.06602951 0.45949185 -1.6399498 -0.18724276 -0.11117937 -2.1007776 -0.38912463
00000000: 70c1 21bb 754d 35c0 8169 4c40 d44d b3bf
00000010: a2ee cabf c840 c93f ece3 76bd dd7e 63c0
00000020: 1c11 74bf 4331 25c0 e537 d83e 63db cfbf
00000030: d6e3 b63f f48a 6bc0 8975 afbd 5f6b a2bf
00000040: 78d6 11bb f5cb 52c0 684c 4abc f7a8 1a40
00000050: 22bb 2a40 9c78 8ac0 ea08 6e3f 3d70 dabe
00000060: 125b 11c0 1865 51c0 fe5c d5bb 0b83 74c0
00000070: 68c4 0d40 cb63 d13e 65e3 0bbe c0f6 33c0
00000080: 6037 2640 1fe5 f4bf 21f0 5abe f9ed 30c0
00000090: fae0 923f dec0 30bf 36d4 33bf 5765 fcba
000000a0: 8867 5fbe 49e1 26c0 d744 5ac0 83af 0dc0
000000b0: 453c 21bc 42c9 46c0 2c57 67c0 9315 99c0
000000c0: 2c1a 59c0 aecd 01bd babc 0dbc 5a77 85be
000000d0: ab92 f5bd aa52 ac3f 4d07 e83f 0080 c8be
000000e0: 8b4f 9f3f 7b3a 87bd 8442 eb3e e0e9 d1bf
000000f0: 91bc 3fbe 02b2 e3bd 2473 06c0 583b c7be

fc2.weight f4 [64, 64]
0.21115614 0.9288974 0.32844174 -0.06832305 0.7109258 0.5469309 -1.100955 0.041120455
-8.479059 0.15507369 -0.23169395 0.4008213 -0.0402422 -1.6840554 4.171041 -0.84409535
-2.9628906 0.40728712 0.13681492 0.2086164 0.2087759 -9.020657 -0.2609113 -0.21615183
-0.072625816 -2.1158364 0.100729965 -2.5615718 0.1943458 0.049933292 0.20646316 -1.4383236
0.77370065 0.6096438 0.2950066 -3.7337596 -0.3629182 -0.03777691 -0.21168065 0.12062414
0.17886773 -1.2620457 0.12502474 0.29545635 0.09685757 -0.14036931 -0.28198615 -1.2423987
0.30295202 0.041560438 0.039078046 -0.13607074 1.5142149 -0.44239983 -0.25072527 -1.7634233
-0.7090345 -0.2709749 -1.3073177 0.29652995 -0.022054866 0.2715347 0.181324 -0.12987451
0.53114235 -2.3633173 0.18835369 0.22350936 -3.8038347 -0.72068965 -0.9505317 -0.06873495
-0.36080554 -0.3781163 -0.47347108 0.88182783 -0.69511294 -0.05448319 -8.47125 -7.0593405
-1.4139391 1.5247858 0.08387942 0.6186586 -0.28749532 -2.6765037 0.19582613 -2.062891
-3.668413 -2.0170975 0.0028476203 -3.1169758 -0.12614326 0.10890293 -4.322263 0.10256344
-0.018864455 -0.89738995 0.22837897 -0.09268812 -0.29499614 -0.19566146 0.021030927 -0.024256848
0.36025068 -0.0037520318 -0.03758445 -6.204651 -0.014680593 -0.026514053 -0.19467436 0.13105395
-0.34731615 0.48712996 -0.15797082 0.6452755 -3.4941852 -1.8845245 -0.47445494 -0.46344075
0.087566346 -0.5442392 0.57612324 0.285471 0.08380309 -0.23577067 -1.259147 0.007710688
-0.08873388 -0.07807104 -0.0051526423 -0.0050872704 -0.07909863 0.39824012 -2.277139 -0.12335971
-4.195931 -0.08414673 0.070763804 -0.016550325 -0.122577995 -0.35748085 0.030576829 -0.09298016
-2.8443527 0.027918572 0.15452251 -0.27314255 -1.3148197 -0.008804057 -0.08747689 0.19085887
-0.101044625 -0.014209019 0.045421727 0.020979548 -1.4759687 0.0052662618 0.0023836275 0.06848872
-1.7588851 0.045058817 -0.18101972 0.32822904 0.05107917 -0.005974767 -0.13776506 0.19349697
-0.5602798 -0.071168065 -0.11269438 0.0055835396 -0.03624952 0.027670354 0.002454672 0.24867757
-0.116735905 -0.15724342 -0.04950236 0.08002725 -0.104068406 0.04235779 -0.11757622 -2.2849948
-0.0063728564 0.080713585 0.073068574 -1.306573 0.0835769 -0.122189745 0.107718 0.06876571
-0.001939767 0.11517515 -0.14311238 -0.08407568 0.07290661 -0.031287923 -0.023729479 -0.05350693
0.08775156 0.029559497 0.0022926002 -0.069044314 -0.13923258 -0.018239427 0.031029606 -0.057713985
-0.03308058 0.08102605 0.006401875 -0.031818558 -0.032782417 -0.111687414 -0.12353686 -0.05804294
-0.063540176 0.0071874494 -0.041558806 -0.04752765 0.11475886 0.037535433 0.08310792 -0.060514092
-0.05214749 0.03993798 -0.121049225 -0.08008649 -0.0120425 -0.07748015 -0.13168351 0.070122786
0.06275706 0.020277917 -0.022206053 -0.11578412 -0.08334308 0.031823203 0.060559437 -0.047560807
-0.050511308 0.03188646 -0.104500785 0.04724314 -0.054498985 -0.035854384 -0.062450204 0.017019339
-0.04377989 0.053126857 -0.009254626 0.065814964 0.12018506 -0.06690251 -0.122948766 0.10028775
00000000: 5139 583e 38cc 6d3f 8429 a83e f5ec 8bbd
00000010: 3cff 353f aa03 0c3f 18ec 8cbf ec6d 283d
00000020: 3aaa 07c1 a3cb 1e3e 2e41 6dbe 7338 cd3e
00000030: 01d5 24bd 218f d7bf 2b79 8540 a216 58bf
00000040: 00a0 3dc0 f087 d03e 3619 0c3e 8a9f 553e
00000050: 59c9 553e 9c54 10c1 2a96 85be e856 5dbe
00000060: d8bc 94bd dd69 07c0 834b ce3d cbf0 23c0
00000070: 9602 473e da86 4c3d 146b 533e fd1a b8bf
00000080: 3f11 463f 9e11 1c3f 1b0b 973e ebf5 6ec0
00000090: 6ad0 b9be f6bb 1abd d0c2 58be ca09 f73d
000000a0: 1a29 373e b78a a1bf 7c06 003e 0e46 973e
000000b0: 435d c63d f9bc 0fbe 7d60 90be ec06 9fbf
000000c0: 871c 9b3e 473b 2a3d 4d10 203d 2156 0bbe
000000d0: cbd1 c13f 3b82 e2be 105f 80be dbb7 e1bf
000000e0: 4983 35bf 39bd 8abe 3056 a7bf c6d2 973e
000000f0: 68ac b4bc 9906 8b3e 00ad 393e d3fd 04be
00000100: f2f8 073f 9740 17c0 cadf 403e a3df 643e
00000110: 0772 73c0 1e7f 38bf 0c56 73bf e9c4 8cbd
00000120: 81bb b8be 7698 c1be cd6a f2be 78bf 613f
00000130: ecf2 31bf c429 5fbd 3d8a 07c1 1ee6 e1c0
00000140: f5fb b4bf 2e2c c33f f9c8 ab3d 6960 1e3f
00000150: 9632 93be d64b 2bc0 a586 483e 6806 04c0
00000160: 47c7 6ac0 2018 01c0 249f 3a3b 887c 47c0
00000170: b32b 01be 8008 df3d fa4f 8ac0 c80c d23d
00000180: a189 9abc 59bb 65bf 2ddc 693e 45d3 bdbd
00000190: bc09 97be 7a5b 48be 0d49 ac3c 4cb6 c6bc
000001a0: c772 b83e a6e4 75bb 27f2 19bd 808c c6c0
000001b0: df86 70bc 0034 d9bc b758 47be 0233 063e
000001c0: 6cd3 b1be 1969 f93e 1ac3 21be c630 253f
000001d0: bba0 5fc0 1938 f1bf c2eb f2be 1b48 edbe
000001e0: fc55 b33d 4353 0bbf d07c 133f 4129 923e
000001f0: f4a0 ab3d de6d 71be bb2b a1bf f0a9 fc3b
00000200: 1cba b5bd b6e3 9fbd 7fd7 a8bb 1eb3 a6bb
00000210: 76fe a1bd 21e6 cb3e a5bc 11c0 04a4 fcbd
00000220: 1145 86c0 1f55 acbd 9dec 903d 8c94 87bc
00000230: 2c0a fbbd bb07 b7be 427c fa3c 626c bebd
00000240: e009 36c0 7db5 e43c 263b 1e3e 57d9 8bbe
00000250: 034c a8bf e43e 10bc 1527 b3bd 8270 433e
00000260: 7cf0 cebd f2cc 68bc 220c 3a3d 4ddd ab3c
00000270: 8bec bcbf 9b90 ac3b a236 1c3b d043 8c3d
00000280: 2623 e1bf 988f 383d 3c5d 39be a30d a83e
00000290: 6438 513d fac7 c3bb 4912 0dbe 1224 463e
000002a0: 7f6e 0fbf 90c0 91bd 50cc e6bd 20f6 b63b
000002b0: 607a 14bd f0ac e23c 90de 203b 55a5 7e3e
000002c0: 3c13 efbd 6b04 21be fdc2 4abd 54e5 a33d
000002d0: d121 d5bd 5d7f 2d3d cdcb f0bd 5b3d 12c0
000002e0: 65d3 d0bb 2a4d a53d faa4 953d c93d a7bf
000002f0: 5e2a ab3d 9e3e fabd 419b dc3d 09d5 8c3d
00000300: c83f feba f3e0 eb3d 0d8c 12be df2f acbd
00000310: 1050 953d c427 00bd 5364 c2bc 152a 5bbd
00000320: 17b7 b33d c226 f23c 733f 163b 1b67 8dbd
00000330: fc92 0ebe da6a 95bc cd31 fe3c 8065 6cbd
00000340: 817f 07bd fcf0 a53d d2c6 d13b 2d54 02bd
00000350: db46 06bd 5fbc e4bd e500 fdbd 6fbe 6dbd
00000360: 5a21 82bd b284 eb3b 9139 2abd 5aac 42bd
00000370: b106 eb3d c1be 193d 7c34 aa3d a0dd 77bd
00000380: 9b98 55bd 0296 233d a8e8 f7bd 6304 a4bd
00000390: e84d 45bc eaad 9ebd 0bd8 06be 899c 8f3d
000003a0: c686 803d e01d a63c 78e9 b5bc 3a20 edbd
000003b0: c7af aabd 0c59 023d 2c0d 783d 1fcf 42bd
000003c0: f2e4 4ebd 609b 023d 8204 d6bd 0682 413d
000003d0: 543a 5fbd 0cdc 12bd c9cb 7fbd 246c 8b3c
000003e0: 8b52 33bd 8c9b 593d b7a0 17bc ffc9 863d
000003f0: 9623 f63d 2f04 89bd 90cc fbbd aa63 cd3d

fc2.bias f4 [64]
0.64122415 0.43788663 -0.24183343 0.04637389 0.15660752 -0.14768602 -0.031010177 0.113001116
0.008157403 -2.138477 -3.7531164 -0.10840683 -0.04560383 0.6334651 0.26796705 -0.25793645
0.82949394 -0.18415166 -0.066933595 0.456719 -1.0699316 -0.14996032 -1.6338038 -0.27116993
-0.07279591 -0.29148704 -0.16050245 0.17074713 -0.08889962 0.37181613 -0.07425854 -0.116106935
0.020979442 -0.695304 0.023535635 -1.1054311 -0.18668172 0.9118538 -0.058095716 -0.79646444
-1.9641197 -0.07613597 -0.73573697 -0.37167466 -0.04865061 -0.4636509 -0.10463333 -0.1653855
-0.1627146 0.40825132 -0.12394531 0.4508446 0.018180529 0.27992368 0.9689141 -0.23075779
0.38797906 1.1183746 -0.22055769 0.10509878 0.55219823 -0.057105087 0.7424326 -1.120881
00000000: 4427 243f ad32 e03e 2fa3 77be 8cf2 3d3d
00000010: b95d 203e 013b 17be 0e09 febc 216d e73d
00000020: a1a6 053c cfdc 08c0 0f33 70c0 6604 debd
00000030: 15cb 3abd c52a 223f fa32 893e 3f10 84be
00000040: b759 543f 4192 3cbe 7b14 89bd 13d7 e93e
00000050: 85f3 88bf 338f 19be 7c20 d1bf c9d6 8abe
00000060: 0616 95bd ca3d 95be c15a 24be 56d8 2e3e
00000070: 0111 b6bd af5e be3e dd14 98bd 79c9 edbd
00000080: 14dd ab3c 71ff 31bf cecd c03c c47e 8dbf
00000090: 7e29 3fbe 406f 693f c6f5 6dbd 18e5 4bbf
000000a0: 4668 fbbf 2ded 9bbd 4259 3cbf 244c bebe
000000b0: dd45 47bd a763 edbe 004a d6bd d15a 29be
000000c0: a89e 26be 5106 d13e 0ad7 fdbd 1ad5 e63e
000000d0: 55ef 943c 2852 8f3e c10a 783f c54b 6cbe
000000e0: 31a5 c63e e626 8f3f e0d9 61be 073e d73d
000000f0: dd5c 0d3f 06e7 69bd 1010 3e3f 0779 8fbf

fc3.weight f4 [4, 64]
-0.5973242 0.41561416 0.020559195 -0.06036774 -0.45574164 0.2943873 -0.15243775 0.043991547
0.44449607 3.013034 -8.772238 -0.032171797 0.055482082 -0.032112338 -0.5065168 0.10178502
0.33443812 0.11493715 -0.08809644 0.6536883 -0.99960816 0.012213476 -9.1548 0.04794866
0.41376278 0.09563423 -0.062943704 -15.258178 0.049960133 -1.4451487 0.48220336 0.0011950517
0.043907672 -0.08494507 -0.0759868 0.72527385 -0.109291404 -0.4304162 -0.014754628 -0.75653297
0.23432408 -0.011765304 -0.048029304 -0.01020498 -0.010377689 0.07385976 -0.009405668 0.05038005
-0.10978289 -0.23497288 -0.077564284 -0.3114862 -0.050267942 0.5815601 -0.10336777 1.1331825
-0.7786964 0.50340885 0.008685627 -18.692743 0.83420485 0.06745417 0.14900103 -19.399162
0.54971796 -0.7261323 -0.010241636 -0.04050068 -0.1890589 -0.38491073 -0.054936282 0.12723702
-34.27193 -2.2563121 0.38250285 -0.067174636 0.21399385 0.25171593 0.41920072 -0.0032635583
-0.15736017 0.13579656 -0.06431961 0.3420933 0.012683202 -0.046843547 0.28554153 0.06936038
-1.7149998 0.004840723 -0.009206714 0.18698172 -0.012549735 0.7491444 -0.30668193 0.09843604
-0.0729163 -0.0905865 -0.062295448 -4.1690807 -0.0668698 -0.3203478 -0.090294585 -1.8247681
0.26821083 0.010700555 0.15582356 0.12037777 0.04342922 0.09100388 -0.032961752 0.054050066
-0.026883595 -0.093353294 -0.04240842 -0.100867 0.08286731 -0.9681716 -0.14111905 0.10725537
0.36391184 0.51010185 0.18221466 0.5117533 -0.3232609 0.01984111 0.30719438 0.22238638
0.24776047 0.57897604 0.028545095 0.08903244 0.98903495 0.05014958 0.013153951 -0.27271128
0.044929724 3.71789 0.4057651 0.038547006 -30.698053 -0.34833178 0.11210803 -0.043886233
-0.34751704 -10.920644 -0.06483216 -1.2165414 0.39233145 -0.023707928 0.23236284 -0.47429138
0.85898453 -0.00809363 -0.04423044 0.027784647 -0.0686299 0.7741368 -0.049546853 0.04480501
-0.008942227 -0.11942714 -0.057706032 0.7847318 -0.06034206 1.1280642 -0.050684847 2.705379
-5.8773713 -0.043537483 -0.6296434 -0.47856608 0.034280445 -0.23614053 0.0011225758 0.021185884
-0.08410582 0.33462802 0.022848725 0.55577105 -0.0063817054 0.64215153 0.9266904 -2.5844898
0.24288113 -1.8605895 -23.039042 0.12230556 -0.25036046 -0.024743801 -0.9683403 0.1328431
-0.1406133 -0.14661157 -1.165025 -0.078029975 -0.10219579 -0.13627559 0.066659294 -4.1556745
-0.19228956 -0.4515106 -0.08316953 0.07882308 -0.9946211 -0.326197 -0.2200711 -0.2476657
-0.38955495 -0.2153168 0.025233064 -0.4567139 -0.17884593 0.022367395 -2.249338 -0.33530435
0.02030238 -4.9198008 0.08294107 -0.43553913 0.04641095 -0.30267414 -0.067098185 -0.93243986
-0.02438449 -10.60382 -0.08618025 -2.211343 -0.050931297 -0.08552628 0.088725746 -0.18602866
-6.851823 -0.44888845 -4.349465 -0.28875005 -0.11295992 -1.5354611 0.07782114 0.019572416
-0.10459618 -4.2339096 -0.030505797 -3.1221678 0.03864853 -0.12524718 -0.14793545 -0.27962878
-8.141844 -1.169719 -0.08699921 -0.30972338 -0.20025687 0.01041639 -0.46900275 -1.3454314
00000000: 3dea 18bf 61cb d43e c26b a83c 2a44 77bd
00000010: f856 e9be efb9 963e a418 1cbe 7b30 343d
00000020: fd94 e33e 8dd5 4040 165b 0cc1 93c6 03bd
00000030: 2e41 633d 3a88 03bd 16ab 01bf aa74 d03d
00000040: 793b ab3e 2b64 eb3d e86b b4bd 1e58 273f
00000050: 52e6 7fbf 081b 483c 107a 12c1 d065 443d
00000060: b7d8 d33e e1db c33d a1e8 80bd 7f21 74c1
00000070: ffa2 4c3d a2fa b8bf 5ce3 f63e 48a3 9c3a
00000080: 88d8 333d aef7 adbd f89e 9bbd 8cab 393f
00000090: 2cd4 dfbd 835f dcbe 65bd 71bc 25ac 41bf
000000a0: a7f2 6f3e 43c3 40bc 60ba 44bd ca32 27bc
000000b0: 2f07 2abc c943 973d 3b1a 1abc 505b 4e3d
000000c0: dad5 e0bd bb9c 70be 06da 9ebd 1f7b 9fbe
000000d0: c2e5 4dbd 1fe1 143f 7bb2 d3bd 200c 913f
000000e0: a658 47bf 67df 003f 294e 0e3c bd8a 95c1
000000f0: 738e 553f 6925 8a3d ba93 183e 7c31 9bc1
00000100: 51ba 0c3f cee3 39bf 89cc 27bc 0be4 25bd
00000110: a898 41be 0513 c5be de04 61bd 6c4a 023e
00000120: 7516 09c2 6b67 10c0 6ad7 c33e db92 89bd
00000130: 3421 5b3e e9e0 803e 7aa1 d63e 6ce1 55bb
00000140: 0623 21be 410e 0b3e 00ba 83bd da26 af3e
00000150: 34cd 4f3c 05df 3fbd 8032 923e d10c 8e3d
00000160: 1d85 dbbf ed9e 9e3b c2d7 16bc 2378 3f3e
00000170: 679d 4dbc edc7 3f3f 6a05 9dbe d698 c93d
00000180: 2455 95bd 6a85 b9bd 8329 7fbd 1c69 85c0
00000190: 09f3 88bd a004 a4be 5eec b8bd 0092 e9bf
000001a0: ee52 893e 6151 2f3c 3690 1f3e 9f88 f63d
000001b0: d6e2 313d 3e60 ba3d e702 07bd 9a63 5d3d
000001c0: fc3a dcbc 0330 bfbd 74b4 2dbd 5c93 cebd
000001d0: 56b6 a93d 18da 77bf 8381 10be b4a8 db3d
000001e0: a752 ba3e 0996 023f 7b96 3a3e 4402 033f
000001f0: 7482 a5be d389 a23c 9548 9d3e 41b9 633e
00000200: ecb4 7d3e c637 143f 67d7 e93c a456 b63d
00000210: 6531 7d3f a569 4d3d ab83 573c d0a0 8bbe
00000220: 3b08 383d e9f1 6d40 71c0 cf3e 77e3 1d3d
00000230: 9d95 f5c1 8b58 b2be e598 e53d 0dc2 33bd
00000240: c1ed b1be f5ba 2ec1 b9c6 84bd a1b7 9bbf
00000250: abdf c83e 2137 c2bc 86f0 6d3e 52d6 f2be
00000260: 69e6 5b3f 259b 04bc fa2a 35bd a19c e33c
00000270: d58d 8cbd d42d 463f a4f1 4abd 7585 373d
00000280: 6b82 12bc 3796 f4bd 295d 6cbd 2fe4 483f
00000290: 3c29 77bd 6864 903f ea9a 4fbd ee24 2d40
000002a0: 6d13 bcc0 5c54 32bd 4f30 21bf 9d06 f5be
000002b0: a769 0c3d d3ce 71be 6523 933a 058e ad3c
000002c0: ac3f acbd 5d54 ab3e 402d bb3c 0347 0e3f
000002d0: a01d d1bb 0b64 243f 953b 6d3f 4868 25c0
000002e0: d5b5 783e cc27 eebf f54f b8c1 567b fa3d
000002f0: 3f2f 80be 83b3 cabc 26e5 77bf 0608 083e
00000300: effc 0fbe 5821 16be 8a1f 95bf 2ece 9fbd
00000310: 074c d1bd d48b 0bbe ab84 883d 49fb 84c0
00000320: 8ee7 44be 662c e7be c954 aabd ff6d a13d
00000330: 7d9f 7ebf 4b03 a7be 525a 61be 149c 7dbe
00000340: bf73 c7be 027c 5cbe 92b5 ce3c 68d6 e9be
00000350: 6323 37be d43b b73c 27f5 0fc0 03ad abbe
00000360: 2d51 a63c 026f 9dc0 02dd a93d fcfe debe
00000370: 6919 3e3d 1bf8 9abe c66a 89bd 61b4 6ebf
00000380: fbc1 c7bc 3fa9 29c1 457f b0bd a586 0dc0
00000390: 569d 50bd 6728 afbd d8b5 b53d 4c7e 3ebe
000003a0: 2242 dbc0 b5d4 e5be d12e 8bc0 0cd7 93be
000003b0: 8857 e7bd fd89 c4bf b160 9f3d 5556 a03c
000003c0: 8636 d6bd 307c 87c0 4be7 f9bc 99d1 47c0
000003d0: ec4d 1e3d cc40 00be 647c 17be 812b 8fbe
000003e0: fe44 02c1 5ab9 95bf a42c b2bd 1094 9ebe
000003f0: 2310 4dbe 82a9 2a3c 2121 f0be 1937 acbf

fc3.bias f4 [4]
-0.037822716 0.09872744 -0.07908319 -19.9911
00000000: feeb 1abd 9d31 ca3d 5ef6 a1bd c6ed 9fc1
